project/artifacts/0/0d12832942614b9e916beb7ce83db6a2/artifacts/model/data/model.pth (torch, 362823 bytes, 6 tensors)

weight f4 [100, 784]
0	0xb98c3000	-0.00026738644
1	0x3c9cf2b6	0.019158702
2	0xbcf0ccac	-0.02939447
3	0xbcd75093	-0.026283538
4	0xbc615ece	-0.013755513
5	0x3c1ce910	0.009577051
6	0xba397f40	-0.00070761517
7	0x3ce7fa12	0.028317485
8	0xbb4fb630	-0.0031694286
9	0x3c1ad610	0.009450451
10	0xbc30d67c	-0.010793325
11	0xbbe609a4	-0.007020192
12	0xbd0c9dde	-0.03433024
13	0xbcc554d5	-0.024088303
14	0xbc70bccc	-0.01469345
15	0x3aad9046	0.0013241849
16	0x3c6753dc	0.014119115
17	0x3caf8cae	0.021429386
18	0xbcc658a0	-0.024212182
19	0xbc7eced8	-0.015552245
20	0x3c5488b0	0.012972042
21	0x3cf2f2a2	0.029656712
22	0xbbf0d854	-0.007350007
23	0x3cdaef46	0.026725423
24	0xbbbca170	-0.0057565495
25	0x3b77aa60	0.003779076
26	0x3d04754f	0.032338437
27	0xbd07b476	-0.033131085
28	0xbcb82f50	-0.022483498
29	0xbc14234a	-0.009041617
30	0xbc6416b2	-0.013921427
31	0x3cfcc82e	0.030857172
32	0xbcbda4e5	-0.023149917
33	0xbc86bcc2	-0.016447429
34	0xbcd60320	-0.026124537
35	0xbd145aa3	-0.03621925
36	0xbcbea083	-0.023269897
37	0x3cf1e061	0.029525938
38	0x3c6bdf57	0.01439651
39	0x3c65b408	0.014019974
40	0xbb565580	-0.003270477
41	0xbcafe981	-0.021473648
42	0x3bb0d694	0.0053966735
43	0xbd0928d4	-0.033486202
44	0xbccc5b3f	-0.024945853
45	0xbc9b1312	-0.018929992
46	0x3cab6f1c	0.020927005
47	0x3c9c6dbb	0.019095292
48	0xbc8af91b	-0.016964486
49	0xbaeaf8c5	-0.0017926922
50	0x3cb98ffa	0.022651661
51	0x3d115f97	0.035491552
52	0x3c683b98	0.0141743645
53	0x3b9e18e8	0.0048247464
54	0x3cc42a48	0.023945943
55	0xbcac444a	-0.021028657
56	0x3bda1368	0.0066551454
57	0xbce2d50e	-0.027689483
58	0xbccac777	-0.024753315
59	0xbc972b19	-0.018453168
60	0x3c83f57b	0.016108265
61	0x3c6a5bc5	0.014304106
62	0xbcba6651	-0.022753866
63	0x3bb9b68c	0.0056675132
64	0x3c500f81	0.012699009
65	0xbc1d7baf	-0.009612008
66	0xbbc68cf3	-0.006059283
67	0xba441973	-0.0007480599
68	0x3c0acb58	0.0084713325
69	0x3c943ea0	0.018096268
70	0xbd2961c7	-0.041353013
71	0xbcd5a160	-0.026077926
72	0x3b31726e	0.0027076262
73	0x3c92cd45	0.017920146
74	0x3c94d3da	0.018167425
75	0x3ca7dbae	0.020490494
76	0x39c48714	0.00037484674
77	0xbd14b993	-0.03630979
78	0x3a171c0d	0.0005764373
79	0xbcc0110d	-0.02344563
80	0xbd09bd47	-0.033627775
81	0x3d01e6c4	0.031714216
82	0x3cde75a6	0.027155709
83	0xbd11ec92	-0.035626
84	0x3bdb0b78	0.006684717
85	0xbbc52578	-0.0060164295
86	0xbbc07af6	-0.005874033
87	0xbc8649e8	-0.016392663
88	0x3c5ef2a6	0.013607657
89	0xbca24417	-0.019807858
90	0x3c3f07ca	0.011659572
91	0x3c81cbe3	0.015844291
92	0x3cc22579	0.023699509
93	0x3c534627	0.012895144
94	0xbd02cd79	-0.031934235
95	0xbc584121	-0.013199122
96	0x3cfdfd9c	0.03100472
97	0x3c62da95	0.013846059
98	0xbcad131d	-0.021127278
99	0xbc9820ac	-0.018570267
100	0x3cf1c362	0.029512111
101	0x3c62a7dd	0.013833967
102	0xbceefbd2	-0.029172812
103	0xbcc3f6cd	-0.023921395
104	0xbd405f91	-0.04696614
105	0xbc80cdaf	-0.015723078
106	0xbd1f26b5	-0.038855273
107	0xbd0b1607	-0.033956554
108	0xbb9f7e71	-0.004867368
109	0x3ba0903b	0.004900006
110	0xbc723cb7	-0.014784983
111	0x3cad9af8	0.021192059
112	0xbcb20a8a	-0.021733541
113	0x3d04be1b	0.03240786
114	0x3cc8d2ca	0.024514575
115	0xbcf379ac	-0.029721104
116	0xbbef046f	-0.0072942297
117	0x3c0ddf1b	0.0086591495
118	0x3c9183ee	0.017763104
119	0x3cc5a1f3	0.024125075
120	0x3d1205cd	0.035650063
121	0x3cfdbf43	0.03097499
122	0x3c73f1f9	0.014889234
123	0x3d4e3f33	0.05035324
124	0xbc11a0ad	-0.008888406
125	0xbbfc4ba7	-0.007699448
126	0xbc038934	-0.008028317
127	0xbcc6deb3	-0.024276113
128	0xbcff8531	-0.03119144
129	0xbd43f25f	-0.047838565
130	0xbc886cc2	-0.016653422
131	0xbc73639b	-0.014855291
132	0xbd5e1c52	-0.054226227
133	0xbd08efbd	-0.033431757
134	0xbae3e9bf	-0.0017388387
135	0xbcb5f604	-0.022212036
136	0xbb056e5b	-0.0020359966
137	0xbb5674af	-0.0032723357
138	0x3bee4f4e	0.0072726374
139	0x3cb9e46b	0.022691926
140	0x3d0a918f	0.03383022
141	0x3cb9cc9a	0.02268057
142	0x3d0b2f5d	0.033980716
143	0x39ea687a	0.000447098
144	0xbcba6f4a	-0.022758145
145	0x3bdb6857	0.006695788
146	0x3d62aac8	0.05533865
147	0x3cf7cfb4	0.030250408
148	0x3c34429a	0.011002207
149	0x3b4a3391	0.003085349
150	0xbb592acb	-0.003313708
151	0x3c5eae4a	0.013591358
152	0x3cbc0874	0.02295325
153	0x3d0f5baf	0.034999546
154	0x3c50d37a	0.012745732
155	0xbd01390b	-0.03154854
156	0x3caac192	0.020844255
157	0xbd50d322	-0.050982602
158	0xbd0c2817	-0.03421792
159	0xbd5b1afd	-0.053492535
160	0xbd4c5564	-0.049886122
161	0xbd40d665	-0.047079463
162	0xbd86ef0a	-0.06588562
163	0xbd674a8e	-0.056467585
164	0xbc71629c	-0.014732983
165	0xb9f77296	-0.00047196884
166	0xbc831bd3	-0.016004479
167	0x3c5c1980	0.013433814
168	0xbd03aa6b	-0.032144945
169	0xbb1d7db6	-0.0024031228
170	0x3d022e5d	0.031782497
171	0xbc0244d1	-0.007950977
172	0x3d42b8ef	0.047539648
173	0x3d1c156e	0.038106374
174	0x39d3c6a2	0.0004039305
175	0x3d390b61	0.045176867
176	0x3ca1d778	0.019756064
177	0x3cd1ffaa	0.025634605
178	0x3da4df92	0.08050455
179	0x3ccab49e	0.024744328
180	0x3d53930e	0.051653914
181	0x3d5c6ad5	0.05381282
182	0x3db7563a	0.08951993
183	0x3d87dd9c	0.066340655
184	0x3d99e2aa	0.07513936
185	0x3d4349cb	0.047677796
186	0x3c51d6ca	0.012807557
187	0xbce42b42	-0.027852658
188	0xbd4ff5ff	-0.05077171
189	0xbbe2c2f2	-0.006920212
190	0xbc19ecc7	-0.009394831
191	0xbc176be6	-0.009242034
192	0xbd219866	-0.03945198
193	0xbaaf8e92	-0.001339393
194	0xbccd839c	-0.02508717
195	0xbca09abb	-0.019605031
196	0xbcaa7e8f	-0.020812301
197	0x3c4bca58	0.012438379
198	0xbcab8ea7	-0.020942045
199	0x3bdd741e	0.006758227
200	0x3cb35d14	0.021894969
201	0x3d3e884c	0.0465167
202	0xbbe816a4	-0.007082777
203	0xbcba4728	-0.022739008
204	0xbc1b6b94	-0.009486098
205	0x3d68c09d	0.056824315
206	0x3cce55cf	0.025187401
207	0x3d88dc21	0.06682611
208	0x3d939427	0.07205992
209	0x3da1be31	0.07897604
210	0x3db87788	0.09007174
211	0x3da34c4a	0.07973535
212	0x3da0d5ca	0.07853277
213	0x3d1cdf1e	0.03829872
214	0x3c709183	0.01468313
215	0x3b86a31d	0.0041088
216	0xbcf85f2f	-0.030318825
217	0xbd19bd34	-0.037533954
218	0x3b6f8626	0.0036548465
219	0xbd81b521	-0.06333376
220	0xbcc72259	-0.02430837
221	0x3cfc0ab1	0.030766817
222	0x3c4d84b4	0.012543846
223	0x3a7ef30b	0.0009725547
224	0xbcfef286	-0.031121504
225	0x3c8db278	0.017297015
226	0xbcd1e4ad	-0.025621736
227	0xbbaecd88	-0.00533456
228	0x3be45b00	0.006968856
229	0x3c39c1f8	0.01133775
230	0x3c1fb3cb	0.009747456
231	0x3d015324	0.03157343
232	0x3cb21d3b	0.021742454
233	0x3d572f9e	0.052535646
234	0x3d1bab99	0.038005445
235	0xbcb7d8ea	-0.0224423
236	0x3cc176ca	0.023616213
237	0x3bcf9e99	0.006336045
238	0x3d4635d5	0.048391182
239	0x3da91515	0.08255974
240	0x3d9c7cbb	0.07640978
241	0x3d7f7af4	0.062373117
242	0x3c4e25d9	0.012582266
243	0x3b8bd99d	0.004267885
244	0x3cb5c80e	0.02219012
245	0xbcfd7096	-0.030937474
246	0x3ccae2be	0.024766322
247	0xbd6cc111	-0.05780131
248	0xbcbe786e	-0.023250785
249	0xbc43efc7	-0.011959023
250	0xbca0c381	-0.019624474
251	0x3b9739e0	0.0046150535
252	0x3cf1be71	0.029509755
253	0xbc325ced	-0.010886413
254	0xbcb00a1f	-0.021489201
255	0xbbecd4f3	-0.007227534

bias f4 [100]
0	0xbcdf6682	-0.02727056
1	0x3d6ee2be	0.058321707
2	0xbbc7b528	-0.0060945936
3	0xbdbac6ca	-0.09119947
4	0xbd48e9a0	-0.049050927
5	0x3b97f91d	0.004637851
6	0xbcd0f97b	-0.025509587
7	0x3dc772a2	0.09738661
8	0x3d44323b	0.047899466
9	0x3cb1c794	0.021701612
10	0xbd41dae2	-0.047327884
11	0x3d5ec6a9	0.054388676
12	0xbc06dd5f	-0.00823149
13	0xbccfb0d8	-0.02535288
14	0xbda711b9	-0.08157677
15	0x3bb4c793	0.005516955
16	0x3d6e016d	0.05810683
17	0xbbe2e4da	-0.006924254
18	0x3d035e51	0.03207237
19	0xbd89eef5	-0.067350306
20	0x3e014b80	0.12626457
21	0xbcf58376	-0.029969912
22	0x3e249ccd	0.1607544
23	0xbde15951	-0.11003364
24	0x3d261c81	0.040554527
25	0x3cb513b3	0.02210412
26	0xbd96b4ac	-0.07358679
27	0x3cbd7b79	0.023130165
28	0x3b5606b5	0.0032657806
29	0x3ce625ce	0.028094199
30	0x3da9c985	0.0829039
31	0x3cec0f6b	0.028815946
32	0x3d06e4b0	0.032932937
33	0xbc4dce5f	-0.01256141
34	0x3d73ab14	0.059489325
35	0xbcf4e45f	-0.029894052
36	0x3db8b69b	0.09019204
37	0xbbb86fac	-0.0056285467
38	0x3dbea610	0.09309018
39	0x3c744185	0.014908199
40	0x3cfc0b63	0.030767148
41	0xbd258ef8	-0.04041955
42	0xbb66b32d	-0.0035202012
43	0xbc4ebb0a	-0.012617836
44	0x3d442a9a	0.04789219
45	0x3c85b407	0.016321195
46	0x3d2975c8	0.04137209
47	0xbc8dc427	-0.017305447
48	0x3c409f40	0.011756718
49	0x3de07154	0.109591156
50	0x3c39f578	0.011350028
51	0x3a56e39d	0.0008197369
52	0x3d7de370	0.06198448
53	0x3d237a89	0.03991178
54	0x3d2b556a	0.041829504
55	0xbd8446d6	-0.064588234
56	0x3d8459fb	0.06462475
57	0x3d49d786	0.049277805
58	0x3c915c5a	0.017744232
59	0xbc22b53e	-0.009930907
60	0x3d11dced	0.035611082
61	0xbd02deec	-0.031950876
62	0x3c98e45c	0.018663578
63	0x3d1f16fa	0.03884027
64	0x3dc3c31d	0.09558699
65	0x3d1cce07	0.03828242
66	0xbc9f8f83	-0.019477611
67	0x3c957c6f	0.018247811
68	0xbcd15899	-0.025554942
69	0x3d334551	0.043767277
70	0xbd0c8fdc	-0.034316882
71	0x3bfc2682	0.00769502
72	0x3dae8114	0.085207134
73	0xbd590fca	-0.052993573
74	0xbd85322b	-0.065037094
75	0x3e102f20	0.14080477
76	0xbc2f0ebf	-0.010684668
77	0x3d890e70	0.06692207
78	0xbd6d863b	-0.05798934
79	0x3d1c7dd1	0.038205925
80	0x3ca19ccc	0.019728087
81	0x3d3e586c	0.046471044
82	0x3d26c0aa	0.040711083
83	0xbc220c43	-0.009890619
84	0x3d9c2b84	0.076254874
85	0xbc2ecefc	-0.010669466
86	0xbbcfe122	-0.0063439766
87	0xbdb6267c	-0.08894059
88	0xbc507ddb	-0.012725319
89	0xbcae8296	-0.021302503
90	0xba3e5221	-0.0007260163
91	0xbd6e41a1	-0.058168057
92	0xba881b45	-0.0010384104
93	0x3c7de0c2	0.015495481
94	0x3ce27019	0.027641343
95	0x3c554d5a	0.01301893
96	0x3c1b3e8b	0.009475361
97	0x3daaec8f	0.08345901
98	0x3cf3dfc2	0.029769782
99	0xbcc00321	-0.023438992

weight f4 [100, 100]
0	0xbdadb85c	-0.084824294
1	0x3c801302	0.015634064
2	0xbd639c14	-0.05556877
3	0xbe2484cc	-0.16066283
4	0x3c9417b2	0.018077705
5	0xbc8497ed	-0.016185725
6	0x3bb067b9	0.0053834585
7	0x3c0a610e	0.008445991
8	0x3d3ce0d6	0.046112858
9	0xbd256d83	-0.04038764
10	0xbd4a781b	-0.049430948
11	0xbd65b7e5	-0.05608358
12	0x3caa96c3	0.020823842
13	0xbd79b611	-0.060964648
14	0xbcb5eca3	-0.022207564
15	0x3d9969a6	0.07490854
16	0x3d274845	0.040840406
17	0x3da7e844	0.08198598
18	0x3dd08309	0.10181243
19	0xbe0e3f70	-0.13891387
20	0xbde2ca02	-0.11073686
21	0x3df82e8f	0.12118255
22	0x3df79322	0.1208861
23	0xbe36d79e	-0.17855689
24	0x3d5e8eb4	0.05433531
25	0x3d56eff3	0.052474927
26	0xbc0aa7b8	-0.008462839
27	0x3d08b000	0.03337097
28	0x3d556637	0.052099433
29	0xbd9ec557	-0.07752483
30	0x3dd9abaf	0.10628449
31	0x3d1af287	0.03782895
32	0xbdfa09bc	-0.12208888
33	0xbddb17d7	-0.106979065
34	0x3d92a8b1	0.071610816
35	0x3d23143a	0.03981421
36	0x3e416bae	0.18888733
37	0x3d695b63	0.05697192
38	0x399c0b0f	0.00029762878
39	0x3c13bb6a	0.009016851
40	0xbd6c1051	-0.057632748
41	0xbe27d8e1	-0.16391326
42	0xbdc4367e	-0.09580706
43	0xbe0545e4	-0.13014942
44	0x3d88f44b	0.0668722
45	0xbd57fb7f	-0.05273008
46	0xbdad235e	-0.084540114
47	0xbddacf46	-0.106840655
48	0xbd945b93	-0.07244029
49	0x3df8840c	0.12134561
50	0x3c70815c	0.014679279
51	0x3c7b5752	0.015340643
52	0xbcfa5bf2	-0.030561421
53	0xbd59269a	-0.05301533
54	0xbcbcafd5	-0.023033062
55	0xbd8df9ea	-0.06932433
56	0x3e092f1a	0.13396874
57	0xbe089f2e	-0.13341972
58	0x3d157770	0.036490858
59	0xbd8ddd03	-0.0692692
60	0xbd5a6ec7	-0.0533283
61	0xbdb1117b	-0.08645912
62	0x3c40b98f	0.011762991
63	0x3db04c22	0.08608271
64	0x3ca03185	0.019554863
65	0x3c91d32a	0.017800886
66	0x3d2b87f7	0.041877713
67	0xbd4a0f2b	-0.04933087
68	0xbe1d5894	-0.15365821
69	0x3e09dc2b	0.13462894
70	0x3d17c830	0.037056148
71	0x3d571830	0.0525133
72	0x3d0e6222	0.034761555
73	0x3d832bdb	0.06404849
74	0xbc5ad81e	-0.01335719
75	0x3dec7096	0.115449116
76	0xbd716178	-0.058930844
77	0xbd716dcc	-0.0589426
78	0xbe01cc1e	-0.12675521
79	0x3b89cd7d	0.0042054043
80	0xbc37164d	-0.0111747505
81	0xbd82e605	-0.06391529
82	0xbda33c95	-0.079705395
83	0xbd83f96f	-0.0644406
84	0xbd5b87ba	-0.053596236
85	0xb92d18ad	-0.00016507758
86	0xbc10025d	-0.008789626
87	0xbcaa2956	-0.020771664
88	0x3d184be9	0.03718177
89	0xbbbbded6	-0.005733351
90	0xbdcdd1b8	-0.10049766
91	0xbd37f040	-0.044906855
92	0x3d93e6aa	0.0722173
93	0xbe13e16e	-0.14441463
94	0x3c279be8	0.010230042
95	0x3dac1867	0.08403092
96	0x3d8b2652	0.067944184
97	0x3dcf9d5a	0.10137434
98	0xbd543e62	-0.051817305
99	0xbdc73186	-0.09726243
100	0x3db166e8	0.08662206
101	0xbe41884d	-0.18899651
102	0x3e10c564	0.14137799
103	0x3ce0501e	0.027381953
104	0xbb233906	-0.0024905815
105	0xbd071c6a	-0.032986082
106	0x3d6c345c	0.05766712
107	0x3b9fb8c2	0.00487432
108	0xbc682921	-0.014169962
109	0x3d7b150b	0.061299365
110	0x3ddb4ff3	0.107086085
111	0x3e45de95	0.1932319
112	0x3d23863e	0.039922945
113	0xbdc35882	-0.09538366
114	0x3da70ebb	0.081571065
115	0x3c885495	0.016641894
116	0xbd17f39d	-0.037097562
117	0xbd107184	-0.035264507
118	0xbdb0578e	-0.0861045
119	0xbd52cbd2	-0.05146391
120	0x3d776b26	0.06040492
121	0xbe14b44c	-0.14521903
122	0x3ca11977	0.019665463
123	0xbd40b630	-0.047048748
124	0xbd04927c	-0.03236626
125	0xbddf8aae	-0.10915123
126	0xbd1b2630	-0.037878215
127	0x3dbd02f4	0.09229079
128	0x3cd95304	0.026528843
129	0x3de8f702	0.11375238
130	0x3da16524	0.07880619
131	0x3e359a68	0.17734683
132	0xbc8e3e5f	-0.017363725
133	0x3de1b0fc	0.11020085
134	0x3e17e9b2	0.14835241
135	0x3dcc1c1b	0.09966298
136	0x3cb1884e	0.02167144
137	0x3c9754e8	0.018473104
138	0x3c710fc8	0.014713235
139	0x3de029e6	0.109454915
140	0xbca46fa8	-0.020072773
141	0x3d35e7ce	0.04441052
142	0xbd59db0e	-0.053187422
143	0xbcf38d5c	-0.029730491
144	0xbdc0f165	-0.09421042
145	0xbc226824	-0.009912524
146	0x3dbdf243	0.092747234
147	0xbcd086c2	-0.025454883
148	0x3be125f5	0.00687098
149	0xba035586	-0.00050099974
150	0xbdd27ee5	-0.102781095
151	0xbd86a74b	-0.06574877
152	0x3d0bf683	0.03417064
153	0x3e0520ea	0.13000837
154	0xbe247376	-0.1605967
155	0xbcee8bf9	-0.029119479
156	0xbc455f92	-0.0120467115
157	0x3d8a58f2	0.06755246
158	0x3de886fb	0.113538705
159	0x39a55437	0.00031533997
160	0xbd38d6d5	-0.045126755
161	0xbcdec35a	-0.02719276
162	0xbcfb3820	-0.03066641
163	0xbdc56016	-0.096374676
164	0x3d8ebbd2	0.06969418
165	0x3d9342dc	0.07190487
166	0xba456f0b	-0.00075315003
167	0x3d4a8819	0.0494462
168	0xbd2d8b80	-0.042369366
169	0x3a45ec28	0.00075501436
170	0x3cbadeca	0.022811312
171	0x3c5090eb	0.012729864
172	0xbc615ee4	-0.013755534
173	0x3b0520af	0.002031367
174	0x3e27ef68	0.1639992
175	0xbd45bba6	-0.04827466
176	0xbca58721	-0.020206036
177	0xbd6f12e1	-0.058367614
178	0xbdb7a80c	-0.08967599
179	0xbde1b2df	-0.11020445
180	0x3d5cdfa6	0.053924225
181	0xbd8ba63c	-0.06818816
182	0x3d4a126d	0.04933398
183	0xbd6a8117	-0.057252016
184	0xbd2d94eb	-0.042378347
185	0x3b9dc52c	0.0048147645
186	0x3db55ac8	0.08855206
187	0x3e428d77	0.18999277
188	0x3db2e6b2	0.08735408
189	0xbc5635af	-0.013074323
190	0x3d95bf4b	0.07311877
191	0xbe018770	-0.12649322
192	0xbc04266a	-0.008065799
193	0x3d952136	0.07281725
194	0x3ba0df46	0.004909429
195	0x3cfdc747	0.030978812
196	0x3d97b664	0.07407835
197	0x3dfd015e	0.123537764
198	0x3d36bf47	0.04461601
199	0xbd3318c2	-0.043724783
200	0xbda0fa40	-0.078602314
201	0xbb92a41f	-0.004475131
202	0x3d84ad91	0.06478418
203	0x3d32cd9c	0.043653116
204	0xbd872387	-0.06598573
205	0x3db40034	0.08789101
206	0x3d4d43f9	0.050113652
207	0xbda3f7f6	-0.08006279
208	0x3b887e37	0.0041654366
209	0xbd6120a4	-0.05496277
210	0xbda5e453	-0.0810019
211	0xba81f0b1	-0.000991365
212	0xbd0d5aed	-0.03451054
213	0x3dc5777d	0.09641931
214	0xbd97fdfe	-0.07421492
215	0x3d2f5674	0.042807057
216	0xbcc9e92c	-0.024647318
217	0xbd843423	-0.06455257
218	0xbc9af3b9	-0.018915044
219	0x3cd9d023	0.026588505
220	0x3d6446bf	0.05573153
221	0xbc94586d	-0.018108571
222	0xbd29f3c3	-0.041492235
223	0xbd00714c	-0.03135805
224	0x3d019eb0	0.031645477
225	0xbd2677dc	-0.04064165
226	0x3d6af191	0.057359282
227	0x3db1c54a	0.08680208
228	0xbd79da41	-0.06099916
229	0x3d91f5d8	0.07126969
230	0xbda73443	-0.08164265
231	0x3a4b6231	0.0007758467
232	0x3d402613	0.04691131
233	0x3deb1dd4	0.11480299
234	0x3c4ea11d	0.012611655
235	0xbce5fed7	-0.028075619
236	0x3b6fa7fd	0.0036568635
237	0x3cc66619	0.024218606
238	0xbd4086e4	-0.04700364
239	0x3b7820ed	0.0037861422
240	0xbd634a1b	-0.055490594
241	0x3ab9c507	0.0014173099
242	0xb925834f	-0.00015784542
243	0x3da3bdac	0.079951614
244	0xbd85befe	-0.065305695
245	0x3d92152c	0.071329445
246	0x3d0951f9	0.03352544
247	0xbd146973	-0.036233377
248	0xbd60281f	-0.054725762
249	0xbd051422	-0.032489903
250	0xbd24146c	-0.04005854
251	0x3d71038b	0.05884127
252	0xbc22837a	-0.009919042
253	0x3c93ba2c	0.01803311
254	0xbd9f440c	-0.07776651
255	0x3cc16031	0.023605438

bias f4 [100]
0	0xbc200d07	-0.009768731
1	0x3e4132ec	0.18867081
2	0x39231178	0.00015551399
3	0xbd9e1b9d	-0.077201106
4	0x3d88c62f	0.066784255
5	0x3e282dd5	0.16423734
6	0x3c282156	0.010261854
7	0xbde357d5	-0.11100737
8	0xbd1f9e2f	-0.038969215
9	0xbd6abb88	-0.05730775
10	0xbd84b0f4	-0.06479064
11	0x3e0620ba	0.13098422
12	0x3dbdee30	0.09273946
13	0xbd5fa868	-0.054603964
14	0x3d26e3c2	0.04074455
15	0x3e398958	0.18118799
16	0x3d96dfb3	0.07366886
17	0x3e078536	0.1323441
18	0x3e06c4c8	0.13161004
19	0x3de63a95	0.112416424
20	0xbb7307df	-0.003708355
21	0x3c4522fc	0.012032267
22	0x3d2b28e6	0.04178705
23	0x3d23ce5c	0.03999172
24	0x3e2f8bfa	0.1714324
25	0x3d7aa63d	0.061193693
26	0x3de91bb7	0.11382239
27	0x3d99fd95	0.0751907
28	0x3da7557b	0.08170601
29	0x3d440bca	0.047862805
30	0x3dc20eb8	0.09475464
31	0x3dd3ef6f	0.10348403
32	0xbd6310ad	-0.055435825
33	0x3d4fb3aa	0.05070845
34	0xbd7ee427	-0.0622293
35	0xbd16755c	-0.036733016
36	0xbcd0e2fe	-0.025498863
37	0xbd2adea7	-0.041716244
38	0x3cd1dd68	0.02561827
39	0x3cf23141	0.029564502
40	0x3e21e420	0.15809679
41	0x3d91e477	0.07123654
42	0x3e2a4901	0.16629411
43	0x3c48eb6e	0.012263162
44	0xbdf4a136	-0.11944811
45	0xbd0b4db0	-0.034009635
46	0xbd8b1cf6	-0.06792633
47	0xbbc34bd2	-0.005959966
48	0x3d8ac0a6	0.06775026
49	0xbbe99e77	-0.007129486
50	0x3d55b68b	0.05217604
51	0xbe08083c	-0.13284391
52	0xbd034682	-0.032049663
53	0xbc82872e	-0.0159336
54	0x3c88afa6	0.016685318
55	0x3dfd692d	0.12373576
56	0x3d6049db	0.054757934
57	0x3ca41604	0.02003003
58	0x3df739ef	0.12071597
59	0x3d9d554f	0.07682287
60	0xbd593083	-0.05302478
61	0x3d345140	0.0440228
62	0x3d98fed7	0.07470482
63	0xbd709cfd	-0.058743466
64	0x3a8a4bee	0.0010551193
65	0x3d9de568	0.077097714
66	0x3e36bf27	0.17846356
67	0xbdac478e	-0.084120855
68	0x3dee864a	0.11646707
69	0x3e3ff410	0.18745446
70	0x3c073a1b	0.0082535995
71	0xbdc79036	-0.09744303
72	0xbd80b1ad	-0.06283889
73	0x3d0c8d4c	0.03431444
74	0x3d63e116	0.05563458
75	0xbcb61b6d	-0.022229875
76	0xbd21c690	-0.039496005
77	0x3d26bbb4	0.04070635
78	0xbd989c6e	-0.074517116
79	0xbcdf97fc	-0.027294151
80	0x3cd7e8ce	0.026356127
81	0xbd73ff88	-0.059569865
82	0xbcfec2cf	-0.031098751
83	0xbd105832	-0.03524036
84	0x3dca78dd	0.09886334
85	0xbc8ee202	-0.017441753
86	0x3daecd08	0.085352
87	0xbc71adaf	-0.014750882
88	0xbd8012da	-0.06253596
89	0xbdcd957f	-0.1003828
90	0x3d7148fa	0.058907486
91	0xbcd6678d	-0.026172424
92	0x3d424ebe	0.047438376
93	0xbd3bb8b3	-0.04583044
94	0xbcba59b1	-0.022747846
95	0x3c5ddece	0.01354189
96	0x3e0655bb	0.13118641
97	0xbdcd29d8	-0.10017747
98	0xbbf8516e	-0.0075780666
99	0x3db49f84	0.08819488

weight f4 [10, 100]
0	0xbd3cdf7f	-0.04611158
1	0xbe872737	-0.26397106
2	0x3d006817	0.031349268
3	0x3d4e6483	0.050388824
4	0x3ec64a1a	0.3872841
5	0x3d399b61	0.045314196
6	0x3e805628	0.25065732
7	0x3e1cad81	0.15300561
8	0xbddda575	-0.10822574
9	0x3e98cc4a	0.2984336
10	0x3cee7d8d	0.029112602
11	0xbe5b9beb	-0.21446197
12	0xbe25d005	-0.16192634
13	0xbd435358	-0.047686905
14	0xbcaf0271	-0.021363469
15	0xbae42f91	-0.0017409195
16	0x3ed425e1	0.4143515
17	0x3c5ffb35	0.013670732
18	0x3eb10930	0.34577322
19	0xbd0049d5	-0.03132041
20	0x3ef99364	0.48745263
21	0x3c227ae8	0.009916998
22	0xbba16be6	-0.0049261926
23	0x3e446f8e	0.1918318
24	0xbe0eaba9	-0.1393267
25	0xbdab7a04	-0.08372882
26	0xbdcc26cf	-0.0996834
27	0xbe7619e0	-0.24033308
28	0xbd835063	-0.06411817
29	0xbdb78bfd	-0.089622475
30	0xbe74c440	-0.23902988
31	0xbea03017	-0.3128669
32	0x3e176c95	0.14787515
33	0x3df8cbcb	0.121482454
34	0x3cedc57b	0.02902483
35	0xbea5ed1f	-0.32407472
36	0xbe010baa	-0.12602106
37	0x3e112d7c	0.14177507
38	0xbd9c32d8	-0.07626885
39	0x3e5b5fc5	0.21423252
40	0x3d4a13fb	0.04933546
41	0xbe9c0b6f	-0.30477473
42	0xbe2f22f5	-0.17103179
43	0xbd07a3dc	-0.033115253
44	0x3e41b4be	0.18916604
45	0x3d25d55a	0.04048667
46	0xbd5782c0	-0.052614927
47	0x3d46d76d	0.04854529
48	0xbcdaeb8f	-0.026723651
49	0xbd44d1ca	-0.048051633
50	0x3e135381	0.14387323
51	0x3e939ad2	0.28829056
52	0x3d857cba	0.0651793
53	0xbda34754	-0.07972589
54	0xbe0f8b7d	-0.14018054
55	0x3e831722	0.25603586
56	0xbe103341	-0.14082052
57	0x3d9cfefa	0.076658204
58	0xbdea9543	-0.11454251
59	0x3d35d590	0.044393122
60	0x3d675d28	0.056485325
61	0xbbd29374	-0.006426269
62	0xbea4687a	-0.3211096
63	0xbdb3dfe3	-0.087829374
64	0xbe22332b	-0.15839832
65	0xbdbd9fa8	-0.09258968
66	0xbdd6b3c9	-0.1048351
67	0xbd403d49	-0.046933446
68	0x3de2903b	0.11062666
69	0xbe9712b9	-0.29506472
70	0xbd7d614c	-0.061860368
71	0x3d4e3efa	0.050353028
72	0x3e7d68b8	0.24746978
73	0x3b716dc7	0.0036839114
74	0xbd25b0a1	-0.04045165
75	0xbe034ec4	-0.12823015
76	0xbd6195ea	-0.05507461
77	0xbcf22266	-0.029557418
78	0xbdbd9988	-0.092577994
79	0x3d41a7a6	0.047279023
80	0xbd368473	-0.044559907
81	0x3dbe5e76	0.09295361
82	0xbe57efed	-0.21087618
83	0xbcef417f	-0.029206036
84	0xbdd7e5bb	-0.105418645
85	0xbe0a1d1d	-0.13487668
86	0xbcfc5cb1	-0.030805917
87	0xbc04c1c4	-0.008102838
88	0x3d1087f3	0.0352859
89	0x3d87b12a	0.06625588
90	0xbe07cd64	-0.13261944
91	0x3ed89a3f	0.4230518
92	0xbd520767	-0.05127659
93	0x3d162a0a	0.036661185
94	0xbe88fe3f	-0.26756474
95	0x3cc88add	0.024480278
96	0xbca27822	-0.019832674
97	0x3dc4b0c3	0.09604027
98	0x3e211fe2	0.15734819
99	0x3d8412b9	0.064488836
100	0x3dbd4cf0	0.0924319
101	0x3e64c260	0.22339773
102	0xbb4078f8	-0.0029368978
103	0x3d037dad	0.032102276
104	0xbda7692c	-0.08174357
105	0x3e120ac0	0.14261913
106	0x3d7478d2	0.059685536
107	0xbe054aa6	-0.13016757
108	0xbc01a3cf	-0.00791259
109	0x3c00bfd6	0.007858237
110	0xbd0a0224	-0.033693448
111	0xbe3519ee	-0.17685673
112	0x3e5c831b	0.21534388
113	0xbd65d894	-0.056114748
114	0x3cbb395c	0.0228545
115	0x3db6597c	0.089037865
116	0xbeae765e	-0.34074682
117	0xbd804875	-0.0626382
118	0x3e1e65b4	0.15468484
119	0xbe20f968	-0.15720141
120	0xbe8db47f	-0.2767677
121	0x3daa8c35	0.083275236
122	0x3d2c586c	0.042076513
123	0xbea817c8	-0.32830644
124	0x3eca479c	0.3950776
125	0x3ca6ffe1	0.020385684
126	0x3ec85cef	0.39133403
127	0x3da53b7e	0.08067988
128	0xbd67671c	-0.056494817
129	0xbde699bb	-0.112597905
130	0x3e9bcce9	0.30429772
131	0xbd97b8c5	-0.07408289
132	0xbd34052b	-0.04395024
133	0xbe1cc729	-0.15310349
134	0xbb8781d1	-0.0041353484
135	0xbe66e12f	-0.22546838
136	0xbd33f8e0	-0.043938518
137	0xbe10290b	-0.14078157
138	0x3e6dfef9	0.23241796
139	0xbe943cd1	-0.2895265
140	0xbe0ebcde	-0.13939235
141	0x3ea4fdcd	0.32224885
142	0x3e8e7b05	0.2782823
143	0x3cc083fd	0.023500437
144	0xbcde8d35	-0.027166942
145	0xbe158d26	-0.14604625
146	0x3db81e12	0.089901105
147	0xbe13c3cb	-0.14430158
148	0xbe4d7c68	-0.20066988
149	0xbdad85aa	-0.0847276
150	0xbea8595b	-0.32880673
151	0xbe85098b	-0.25983843
152	0x3a50cb08	0.00079648243
153	0x3cd6c90f	0.02621892
154	0xbda8aa08	-0.08235556
155	0x3d0efb37	0.034907546
156	0xbdf3b76f	-0.119002216
157	0x3ce2a060	0.027664363
158	0x3ec22f52	0.37926728
159	0x3e9389e0	0.28816128
160	0xbd14a8c2	-0.036293752
161	0x3e62361b	0.22090952
162	0x3eda500c	0.42639196
163	0xbd7c1455	-0.061542828
164	0x3dcd7af3	0.10033216
165	0xbe16bed7	-0.14721237
166	0xbdfc20bb	-0.1231093
167	0xbcb4d5c9	-0.022074597
168	0xbdd3274c	-0.1031023
169	0xbe1c6685	-0.15273483
170	0xbb2bb5ba	-0.0026200847
171	0xbd64570d	-0.05574708
172	0xbe4c19d1	-0.19931723
173	0x3e51bed8	0.20482957
174	0x3b9e6a7a	0.0048344703
175	0x3e2a7dfe	0.16649625
176	0x3cff79a9	0.031185942
177	0x3d4774cf	0.04869538
178	0xbe63d04f	-0.22247432
179	0xbd66b8d1	-0.0563286
180	0x3d9d7598	0.07688445
181	0x3e476efe	0.19475934
182	0xbb91dd68	-0.0044514425
183	0x3d017993	0.031610083
184	0xbdf509cf	-0.119647615
185	0x3da82ff8	0.08212274
186	0xbe8fb428	-0.28067136
187	0x3e373e8a	0.1789495
188	0xbd7046f5	-0.05866142
189	0xbd120b6c	-0.035655424
190	0x3e1c8957	0.15286766
191	0x3d7f9f43	0.062407743
192	0xbdd428dc	-0.10359356
193	0x3c8ff18c	0.017571233
194	0x3ddb6cf5	0.10714141
195	0x3d888c18	0.06667346
196	0x3a06f967	0.0005148858
197	0xbd0c04ae	-0.03418415
198	0xbe6bbae0	-0.23020506
199	0x3d160bce	0.03663235
200	0x3e10b51a	0.14131585
201	0xbe0eee11	-0.13958003
202	0x3e0bc5ff	0.13649748
203	0xbbf7d42f	-0.007563136
204	0xbe43cee0	-0.19121885
205	0xbdd97bc0	-0.106193066
206	0x3e0f983f	0.14022921
207	0xbe6e8134	-0.23291475
208	0xbd210123	-0.039307725
209	0xbe2de644	-0.1698237
210	0xbd409d60	-0.047025084
211	0xbeb13a38	-0.3461473
212	0x3eac0eb7	0.33604977
213	0x3df59e3d	0.11993072
214	0xbdc59b58	-0.0964877
215	0xbd50f13a	-0.0510113
216	0x3e0802bb	0.13282292
217	0x3d74cd93	0.059766363
218	0xbe42047b	-0.18947022
219	0xbd34caf5	-0.044138867
220	0x3e8fa819	0.28057936
221	0xbc9f273f	-0.019427894
222	0x3d896732	0.06709136
223	0xbe84a7fa	-0.25909406
224	0x3ea5ed32	0.32407528
225	0xbdfbfdee	-0.123042926
226	0x3dd3098d	0.10304556
227	0xbeabcda8	-0.3355534
228	0x3c65ee01	0.014033795
229	0x3e9b201f	0.30297944
230	0xbe7159b5	-0.23569377
231	0xbd6a75cd	-0.05724125
232	0xbec5f75e	-0.3866529
233	0x3edb038c	0.42776144
234	0xbd4e4142	-0.050355203
235	0xbbdf135b	-0.0068077273
236	0x3eb0c26e	0.34523338
237	0x3ed4971e	0.41521543
238	0x3e44b026	0.1920782
239	0x3e8e48e2	0.2778998
240	0xbea37c05	-0.31930557
241	0x3e2143c6	0.1574851
242	0x3a4c4ad4	0.00077931327
243	0x3dbda73e	0.092604145
244	0x3a566a17	0.0008179261
245	0x3dceb955	0.10093943
246	0x3cfe6128	0.031052187
247	0x3d330850	0.0437091
248	0x3d95180a	0.07279976
249	0xbd4c1e27	-0.049833443
250	0x3e040e63	0.12896113
251	0x3ef5734b	0.47939524
252	0xbcac68af	-0.02104601
253	0xbaf5ac3d	-0.0018743348
254	0x3dca2656	0.09870593
255	0x3ebd457e	0.3696708

bias f4 [10]
0	0xbe540810	-0.207062
1	0x3e99fe90	0.30077028
2	0x3dda29a7	0.10652476
3	0xbe18b7c3	-0.1491385
4	0x3e01295b	0.12613432
5	0x3e9bedc8	0.3045485
6	0x3ce8e316	0.028428596
7	0x3bd48593	0.00648565
8	0xbe86d33d	-0.26333037
9	0x3c1f483f	0.009721815
