artifacts/1/2e159b7de12d4912a9c98df4bbdd67a2/artifacts/model/data/model.pth (torch, 362823 bytes, 6 tensors)

weight f4 [100, 784]
0	0xbce6a293	-0.028153693
1	0xbbc6baa5	-0.00606473
2	0xbcccd9b1	-0.025006147
3	0x3cec7a01	0.02886677
4	0x3cde96ca	0.027171511
5	0xbcf5d6a5	-0.030009577
6	0x3d100407	0.03516009
7	0x3ca864be	0.02055585
8	0x3d10a3d0	0.035312474
9	0x3c55334e	0.01301272
10	0x3c040dea	0.008059958
11	0xbce70c8c	-0.028204225
12	0xbca95fb9	-0.020675527
13	0xb9e2a8c3	-0.00043231816
14	0x3c8de965	0.017323205
15	0xbc7f8adb	-0.015597071
16	0xbcae4d77	-0.021277172
17	0x3cb8956e	0.022532191
18	0x3b5cc225	0.0033685055
19	0x3cb64e21	0.022254052
20	0x3d07a9f3	0.03312106
21	0xbcd45cb1	-0.025923105
22	0xbc7a4c81	-0.015277029
23	0x3c5fe073	0.013664353
24	0xbcc7d29c	-0.024392419
25	0x3c85cd97	0.016333384
26	0x3cc3c505	0.023897657
27	0xba38b2dc	-0.0007045695
28	0x3cf5426e	0.029938903
29	0x3ba3755c	0.0049883556
30	0x3cdbdd13	0.026838815
31	0xbcf720a1	-0.030166926
32	0xbb2d9f28	-0.002649257
33	0x3d0eb62e	0.03484171
34	0x3c312ae8	0.010813452
35	0x3cc8dcdc	0.024519376
36	0x3cec4c76	0.028845053
37	0x3cc7fb39	0.024411784
38	0xbd06bcad	-0.03289478
39	0xbc885cc0	-0.01664579
40	0x3b51e703	0.0032028563
41	0x3c31f1c9	0.010860869
42	0xbd0bec00	-0.034160614
43	0x3c9c7a78	0.019101366
44	0x3cc0838f	0.023500232
45	0x3c97ceab	0.018531164
46	0x3c8e184d	0.017345572
47	0x3c1d8e4c	0.009616446
48	0xbcfe309d	-0.03102904
49	0x3cff15ef	0.031138388
50	0xbc844d84	-0.016150244
51	0x3c8ff17a	0.0175712
52	0x3cb24f3e	0.021766301
53	0xbcd1a2aa	-0.02559026
54	0xbbf7b69c	-0.0075596105
55	0xbc1ff097	-0.009761951
56	0xbcdb8721	-0.026797833
57	0xbc9f2ce3	-0.019430583
58	0xbce9b4ab	-0.028528532
59	0x3bed1246	0.0072348444
60	0xbce2c263	-0.027680581
61	0xbc47a157	-0.0121844625
62	0xbcd87151	-0.026421221
63	0xbc36e81d	-0.011163739
64	0xbd0eb603	-0.03484155
65	0xbd033e9e	-0.03204214
66	0xbd1134ac	-0.035450622
67	0x3d001bc4	0.03127648
68	0xbc8e1c08	-0.01734735
69	0xbcd41c23	-0.025892323
70	0xbc2495fe	-0.010045527
71	0x3cb5410a	0.02212574
72	0x3b45c1de	0.0030175368
73	0xbc1a07cc	-0.009401273
74	0xbd0fd3fe	-0.03511428
75	0xbd28f321	-0.04124749
76	0xbc09dab4	-0.008413959
77	0xbd044f1f	-0.03230202
78	0xbb58ca56	-0.0033079586
79	0xbc736da8	-0.014857687
80	0x3c80b671	0.015711995
81	0xbc17796a	-0.009245256
82	0x3cf1d80a	0.02952196
83	0x3cb468f3	0.0220227
84	0xbd0de955	-0.03464635
85	0xbb87bcc0	-0.004142374
86	0xbc82868f	-0.015933303
87	0x3b28ee12	0.0025776667
88	0x3ca1535e	0.019693073
89	0x3cf52366	0.029924106
90	0x3c0e872b	0.008699219
91	0xbc61d084	-0.013782624
92	0xbc8e79fe	-0.017392155
93	0xbc8a36a6	-0.016871762
94	0xbb661a70	-0.0035110973
95	0x3c46ef7b	0.0121420575
96	0xbc5dfe04	-0.013549332
97	0xbc588331	-0.013214872
98	0x3bffc572	0.0078055197
99	0xbcf89cb3	-0.030348158
100	0xb8ef3b75	-0.00011407483
101	0x3b793963	0.003802859
102	0xbb07b6e0	-0.0020708367
103	0xbcd16d02	-0.025564674
104	0xbb256376	-0.0025236285
105	0xbb20dc56	-0.0024545393
106	0x3c9998fd	0.018749708
107	0xbc943165	-0.01808996
108	0xba1e319f	-0.0006034616
109	0x3d090b26	0.033457898
110	0x3d0646a5	0.032782216
111	0xbc2d23b7	-0.010567597
112	0x3d0f138f	0.034930762
113	0x3ceef06e	0.02916738
114	0xbc8422e5	-0.01612992
115	0x3c483cc4	0.012221519
116	0xbd066144	-0.032807603
117	0x3bc48270	0.0059969947
118	0xbd01756b	-0.03160612
119	0xbcd2eb1e	-0.025746878
120	0x3d110416	0.035404287
121	0x3be774a8	0.007063467
122	0x3ce6edf9	0.028189646
123	0x3d13c27b	0.036074143
124	0xbcadbc40	-0.021207929
125	0x3c96e715	0.018420735
126	0xbcd28d7d	-0.025702232
127	0xbcc984b6	-0.024599414
128	0x3cd643ea	0.02615543
129	0xbcf15213	-0.029458081
130	0x3b53ba67	0.003230715
131	0xbd4be456	-0.049778305
132	0xbc85abeb	-0.016317328
133	0xbd8e9132	-0.069612876
134	0xbc9b3952	-0.01894823
135	0xbd278555	-0.04089864
136	0xbb63a313	-0.003473465
137	0xbb27b932	-0.0025592563
138	0x3ad43ce9	0.0016192469
139	0xbc9375ad	-0.018000448
140	0x3c956263	0.018235391
141	0xbd0bc8ae	-0.03412693
142	0xbc981550	-0.01856485
143	0x3c9f8c17	0.01947598
144	0xbd0c5b4d	-0.03426676
145	0x3c646742	0.013940634
146	0xbc05589a	-0.0081388
147	0x3cced816	0.025249522
148	0x3d05226a	0.032503523
149	0xbba697c6	-0.005084011
150	0x3c8f7ff6	0.017517071
151	0x3cadb33f	0.021203635
152	0x3cfd7c3c	0.030943029
153	0x3cc57b7d	0.024106735
154	0x3ca4d18b	0.02011945
155	0x3c0d4dfd	0.008624551
156	0x3d9408ff	0.07228278
157	0x3d58df39	0.052947257
158	0xbb95b61f	-0.0045688297
159	0x3cef92e0	0.02924484
160	0xbb57389c	-0.0032840138
161	0x3c6740c0	0.014114559
162	0xbcc3cd61	-0.023901643
163	0xbd547e23	-0.051878106
164	0xbb5b2bbb	-0.0033442813
165	0xbb344a97	-0.002751028
166	0x3cff09d4	0.031132616
167	0x3d040d31	0.032239143
168	0x3b924013	0.0044632046
169	0x3b8336b4	0.004004324
170	0x3cf4dba5	0.02988989
171	0xbc91f170	-0.017815322
172	0xbb2dcbf3	-0.0026519268
173	0x3c69e27f	0.014275192
174	0x3c8b7900	0.01702547
175	0xbce6aecc	-0.028159522
176	0xbd014eee	-0.031569414
177	0xbcbed07f	-0.023292778
178	0x3c68b448	0.014203139
179	0x3bb6e59f	0.005581572
180	0x3c1b2160	0.009468406
181	0xbbe0e40a	-0.006863122
182	0x3c61c2d0	0.013779357
183	0x3dab5116	0.08365075
184	0x3d066e39	0.03281996
185	0x3d11d4ca	0.035603322
186	0x3cad0e96	0.02112512
187	0xbb58d8f3	-0.0033088296
188	0x3c887476	0.016657095
189	0x3cc09108	0.023506656
190	0xbc47b3ef	-0.012188896
191	0xbc9a1fc3	-0.018813973
192	0xbd8105f1	-0.06299961
193	0xbc603155	-0.013683637
194	0x3bde0623	0.006775634
195	0x3cad0327	0.021119667
196	0xbc9357d4	-0.017986216
197	0xb965f98a	-0.00021932102
198	0x3d0ddee2	0.034636386
199	0x3d1e145c	0.038593635
200	0xbbd52d0d	-0.0065056146
201	0x3c7b80d3	0.015350538
202	0x3c19abab	0.009379308
203	0x3b9e6caf	0.0048347334
204	0x3c3928bb	0.011301215
205	0x3cd98667	0.026553346
206	0xbc94eef4	-0.018180348
207	0xbbae3020	-0.0053157955
208	0x3cee0946	0.029057156
209	0x3d409197	0.047013845
210	0x3cdebcc5	0.027189622
211	0x3d888e6c	0.0666779
212	0x3cbcab69	0.023030953
213	0x3d111fed	0.035430837
214	0xba9e77c0	-0.0012090132
215	0x3c81ed93	0.015860355
216	0x3cdce3b5	0.026964048
217	0x3d7eebb2	0.062236495
218	0x3c9db908	0.019253269
219	0xbd2c9506	-0.042134307
220	0xbd1c69df	-0.038186904
221	0x3bde0355	0.0067752996
222	0xbcfa9c14	-0.030592002
223	0xbcb7d8e4	-0.022442289
224	0xbb379848	-0.002801435
225	0xbcd7e284	-0.026353128
226	0x3b913801	0.004431725
227	0xba9d4af8	-0.0012000492
228	0xbbb6a42c	-0.00557377
229	0xbd0395ae	-0.032125168
230	0x3bd31ab2	0.0064423913
231	0x3c3e319e	0.011608509
232	0xbb3b6bfd	-0.0028598302
233	0xbc1b2a57	-0.009470544
234	0x3cf24f2c	0.029578768
235	0x3cd29875	0.025707463
236	0x3d296c28	0.04136291
237	0x3d3c3e43	0.045957815
238	0x3d25dff7	0.040496793
239	0xbbde3457	-0.0067811417
240	0xbbb25938	-0.0054427646
241	0x3ae884cc	0.0017739772
242	0xba9fda3b	-0.0012195775
243	0x3cbf9b0e	0.023389366
244	0xbbdcf31b	-0.0067428476
245	0x3d3da02b	0.046295326
246	0x3c5f02ec	0.0136115365
247	0x3d213df6	0.03936573
248	0xbd1461c0	-0.036226034
249	0xbd15e2c4	-0.036593214
250	0x3cb10e41	0.021613242
251	0xbb20db0e	-0.002454463
252	0x3d0dc47b	0.034611207
253	0x3c3230a7	0.010875857
254	0xbb3f0e65	-0.0029152867
255	0x3cec5b64	0.028852172

bias f4 [100]
0	0xbd39d950	-0.04537326
1	0x3d8ae3e1	0.06781746
2	0xbd53fe16	-0.051755987
3	0x3b8e4037	0.004341151
4	0x3cd45845	0.025920996
5	0x3c6d3282	0.014477374
6	0x3d03409f	0.03204405
7	0xbc72e5c0	-0.0148252845
8	0x3c9425e5	0.018084476
9	0xbcce0c07	-0.02515222
10	0x3c9fdd84	0.019514807
11	0x3d655738	0.05599138
12	0xbd75d8ff	-0.060021397
13	0x3d3aaa23	0.04557241
14	0x3ab5cda2	0.0013870487
15	0x3b31914a	0.0027094656
16	0x3cbf55c3	0.023356324
17	0x3db80876	0.08985989
18	0x3c191025	0.009342228
19	0xbc1e14ee	-0.009648545
20	0x3d5d5b8f	0.054042395
21	0xbcc52611	-0.024066003
22	0xbd3a28c2	-0.045449026
23	0xbd8fd5da	-0.07023211
24	0x3b2d931a	0.0026485384
25	0xbc944f76	-0.018104296
26	0xbb52be6e	-0.0032156962
27	0xb911dcdf	-0.00013910558
28	0x3dbbf6a1	0.091779
29	0x3d9aa4e6	0.07550983
30	0x3bb8a296	0.005634616
31	0x3e0626ef	0.1310079
32	0xbc16c57d	-0.009202358
33	0x3e182d67	0.1486107
34	0xbcf46af7	-0.029836161
35	0x3d6ca718	0.05777654
36	0x3d9d868f	0.07691681
37	0xbc1f1232	-0.009708928
38	0x3c7461e3	0.014915916
39	0x3e135aeb	0.14390151
40	0x3b67b1bd	0.0035353743
41	0xbd4636d8	-0.048392147
42	0x3d6f7ad5	0.05846675
43	0x3cd0f739	0.02550851
44	0x3d635a61	0.055506114
45	0xbdc86a79	-0.09785933
46	0x3c8a1027	0.016853405
47	0xbc8ec175	-0.017426232
48	0xbd00f53c	-0.031483874
49	0x3bb8ec80	0.0056434274
50	0x3cec2d64	0.028830238
51	0x3dc8fdda	0.09814043
52	0x3d3adfa4	0.045623437
53	0xbbf99c69	-0.0076175225
54	0x3d0866af	0.03330105
55	0xbd02d833	-0.031944465
56	0x3e5e9a8a	0.2173864
57	0x3c8ed3a0	0.017434895
58	0x3dc2e576	0.095164225
59	0x3d1f9e1e	0.03896915
60	0xbc5a0b49	-0.013308355
61	0x3c2ec015	0.010665913
62	0x3de3e697	0.11127966
63	0xbcf33052	-0.029686127
64	0x3be31505	0.006929996
65	0x3d92ff8b	0.07177647
66	0xbd07c083	-0.033142578
67	0x3be12384	0.006870689
68	0xbcb9986d	-0.02265569
69	0x3d1b5369	0.037921343
70	0x3bd62391	0.0065350016
71	0x3d651e27	0.05593696
72	0x3c60301f	0.013683348
73	0x3c615fda	0.013755763
74	0x3de93f9d	0.113890864
75	0x3dd98cd2	0.106225625
76	0x3c06e2e7	0.008232809
77	0x3af62a59	0.0018780931
78	0x3d670d80	0.05640936
79	0xbca750c7	-0.02042426
80	0xbd09326d	-0.033495355
81	0xbcd72eee	-0.026267495
82	0x3c4e2f31	0.0125844935
83	0x3d823fc0	0.063598156
84	0x3b16b67f	0.002299696
85	0x3dbe0e47	0.09280067
86	0x3ddb803e	0.1071782
87	0x3b889403	0.004168035
88	0xbcf71341	-0.030160548
89	0x3d0232cc	0.031786725
90	0x3da7c53e	0.08191918
91	0x3dd5cf3a	0.10439916
92	0xbd435e0b	-0.04769711
93	0xb931c81f	-0.00016954586
94	0xbbaecb6f	-0.00533431
95	0xbae0bd4d	-0.001714626
96	0x3d6441a1	0.05572665
97	0x3d21d253	0.03950722
98	0x3b944c8f	0.004525728
99	0x3ae941ea	0.0017796133

weight f4 [100, 100]
0	0xbd87c9a9	-0.066302605
1	0xbd3d791c	-0.046258077
2	0x3d2933c7	0.041309144
3	0x3dd929fb	0.1060371
4	0x3e069d9f	0.13146065
5	0x3c10759b	0.008817102
6	0xbcbddaa1	-0.02317554
7	0xbe08c27b	-0.13355438
8	0xbd46612b	-0.04843251
9	0xbdad26fd	-0.08454702
10	0xbd59f1e4	-0.0532092
11	0x3da8e35e	0.08246492
12	0xbda82dc2	-0.082118526
13	0xbd562510	-0.05228144
14	0x3defab15	0.11702553
15	0xbc4ed27b	-0.012623425
16	0x3d613487	0.054981735
17	0x394d0988	0.00019553874
18	0xbd540846	-0.051765703
19	0x3d9b30f8	0.075776994
20	0x3df964d2	0.12177433
21	0xbcd0f23a	-0.025506128
22	0xbd9028a3	-0.07039001
23	0xbc6d07e8	-0.014467217
24	0x3c69d88b	0.014272819
25	0xbcfeb5d5	-0.031092564
26	0x3c028ab6	0.007967642
27	0xbc508070	-0.012725934
28	0x3d9594e9	0.07303793
29	0xbd219787	-0.03945115
30	0x3d61e76f	0.055152353
31	0x3d60c74e	0.05487757
32	0xbd662189	-0.056184325
33	0xbd89fdd1	-0.06737865
34	0xbe231b90	-0.15928483
35	0xbd2e5ba5	-0.042567868
36	0xbdc2a26f	-0.09503638
37	0x3aabf0c1	0.0013118015
38	0xbcc0bb35	-0.023526767
39	0x3df06747	0.117384486
40	0xbd82e91e	-0.0639212
41	0xbe0a2d07	-0.13493739
42	0x3d9f1af5	0.077688135
43	0xbcbba1e3	-0.022904342
44	0xbcfee1e5	-0.031113574
45	0xbde2c4c2	-0.11072685
46	0xbd22a759	-0.039710376
47	0x3cd3d163	0.02585668
48	0xbdb22c8b	-0.08699902
49	0x3dd2273d	0.1026139
50	0xbd24ec9d	-0.040264715
51	0xbd92a362	-0.07160069
52	0x3dfd95c7	0.123820834
53	0x3d215008	0.039382964
54	0x3da38cf8	0.07985872
55	0x3df2fca1	0.118645914
56	0x3dc13f9e	0.09435962
57	0xbd909a92	-0.07060732
58	0xbcce2a48	-0.025166646
59	0xbd8bd2dd	-0.06827328
60	0xbd11b46c	-0.035572454
61	0x3d223c3a	0.039608218
62	0x3e0dc741	0.1384554
63	0x3db581d4	0.088626534
64	0xbd7e0a9f	-0.062021848
65	0xbd8060ee	-0.06268488
66	0x3ce79d0f	0.028273134
67	0x3dcbe4d2	0.099557534
68	0xbb297d53	-0.0025862053
69	0xbd87bdbe	-0.06627987
70	0x3da37574	0.07981387
71	0x3e1f7930	0.15573573
72	0x3be13678	0.0068729483
73	0x3db4430d	0.088018514
74	0x3cfcb537	0.030848129
75	0x3d351310	0.044207633
76	0x3d21d0a6	0.039505623
77	0x3d6aaf93	0.057296347
78	0xbd126b8e	-0.035747103
79	0xbcb7fa60	-0.022458255
80	0xbe0f5672	-0.1399782
81	0xbd056080	-0.032562733
82	0x3dc86acf	0.09785997
83	0xbd23c02f	-0.039978202
84	0xbdc3ac20	-0.095543146
85	0xbe1732f4	-0.14765531
86	0xbd633166	-0.055467032
87	0x3cadb4d4	0.02120439
88	0x3d2270b1	0.039658252
89	0x3e3886db	0.18020193
90	0xbd43b88d	-0.047783423
91	0x3d6c59a1	0.057702664
92	0xbc2c752d	-0.010525984
93	0x3c27e8e4	0.010248397
94	0x3daa9943	0.083300136
95	0xbda2e268	-0.0795334
96	0x3dab2d99	0.083583064
97	0xbd5c7c0a	-0.05382923
98	0xbd388718	-0.04505071
99	0xbcd0ffbb	-0.025512567
100	0xbc21eee3	-0.009883615
101	0x3dc373dd	0.095435835
102	0xbe7a1ff1	-0.24426247
103	0x3dbebdc3	0.09313538
104	0x3e09692b	0.13419025
105	0xbc09c8e0	-0.008409709
106	0x3d070236	0.032961093
107	0x3dad4f8f	0.0846244
108	0x3e0da10e	0.13830969
109	0xbd8ab071	-0.06771935
110	0xbddb04e1	-0.1069429
111	0x3d97500f	0.07388317
112	0x3dce7b41	0.100821026
113	0x3d8a2ef6	0.06747238
114	0xbe80ab80	-0.25130844
115	0x3de8d5fe	0.11368941
116	0x3dcebe8f	0.1009494
117	0x3c6245c1	0.013810576
118	0x3db6691d	0.089067675
119	0xbdceea76	-0.101033136
120	0x3d15042f	0.036380943
121	0x3e56ec20	0.20988512
122	0x3e02ce88	0.12774098
123	0xbdea6522	-0.11445071
124	0xbdb8a17e	-0.09015177
125	0xbda7264c	-0.081616014
126	0xbe22d5af	-0.15901826
127	0x3c8fc65f	0.017550645
128	0x3d97a4dd	0.07404492
129	0xbd19742c	-0.037464306
130	0xbd11c15a	-0.035584785
131	0x3d768934	0.06018944
132	0xbdd2b42f	-0.102882735
133	0xbdfad711	-0.12248052
134	0xbcd438a7	-0.02590592
135	0x3dffc16e	0.12488066
136	0x3db4f9e0	0.088367224
137	0x3e111a43	0.14170174
138	0x3de1feb1	0.11034907
139	0xbd5ff66c	-0.054678366
140	0xbd581422	-0.052753575
141	0x3e6348b6	0.22195706
142	0xbd2c45cb	-0.042058747
143	0xbd9e2d10	-0.07723439
144	0x3e12cd72	0.14336184
145	0xbdef82d8	-0.11694878
146	0x3c35bce4	0.011092398
147	0xbe24976e	-0.16073391
148	0xbde6a689	-0.11262233
149	0x3dbe65b1	0.0929674
150	0x3dbe62a4	0.09296158
151	0xbdd66152	-0.10467781
152	0x3d9d0a98	0.07668036
153	0x3e149b46	0.14512357
154	0xbdda1718	-0.10648936
155	0x3dbdcef1	0.092679866
156	0x3d4e906e	0.050430708
157	0x3bed1196	0.0072347624
158	0x3dcc8ae9	0.099874325
159	0xbd1abf7d	-0.037780274
160	0x3c9742af	0.018464414
161	0xbd17e7b3	-0.0370862
162	0xbd0eebaf	-0.034892734
163	0x3dadad4d	0.0848032
164	0x3d617d5e	0.0550512
165	0xbb6ba8e8	-0.003595883
166	0x3d5c3021	0.053756837
167	0xbdfaa512	-0.12238516
168	0xbe7955fb	-0.24349205
169	0xbd1eabc4	-0.038738027
170	0x3e00f05d	0.12591691
171	0x3cfebb33	0.031095123
172	0x3da15c21	0.078789
173	0xbd5266b2	-0.05136747
174	0x3de9aac3	0.11409523
175	0xbd923d4b	-0.07140597
176	0x3dbac5bc	0.09119746
177	0x3da2f8e2	0.07957627
178	0x3caa61bb	0.020798555
179	0xbd377dd2	-0.044797726
180	0x3d8ecaae	0.06972252
181	0x3da56bca	0.080772
182	0xbd672efa	-0.056441285
183	0xbccbbf6e	-0.024871554
184	0xbd53eb54	-0.0517381
185	0xbdebd722	-0.11515643
186	0xbdc1797c	-0.094469994
187	0x3c4b9d3c	0.012427624
188	0x3d7a9da0	0.06118548
189	0x3c499005	0.012302403
190	0x3e095250	0.13410306
191	0x3b12c0ba	0.0022392706
192	0xbcfa9244	-0.030587323
193	0x3de0d874	0.10978785
194	0x3da1530e	0.078771695
195	0xbd75420b	-0.059877437
196	0xbdd53b0d	-0.10411654
197	0x3e099b3a	0.1343812
198	0x3d40c5c6	0.04706361
199	0x3d80d80c	0.06291208
200	0x3ce2cf76	0.027686816
201	0xbb680c06	-0.0035407557
202	0xbb49c587	-0.0030787901
203	0xbdaee374	-0.08539477
204	0x3df5332d	0.11972652
205	0xbce49e3c	-0.027907483
206	0xbe08742f	-0.1332557
207	0x3d2ec027	0.04266372
208	0x3db69df8	0.08916849
209	0x3dca6538	0.09882587
210	0xbabb338d	-0.0014282331
211	0xbc3a38a5	-0.011366044
212	0x3d565446	0.052326463
213	0xbc81fc67	-0.015867425
214	0xbcb797fd	-0.02241134
215	0xbd8d5998	-0.06901854
216	0x3db03f75	0.086058535
217	0xbc0f3113	-0.008739728
218	0x3d9e8caf	0.07741677
219	0x3dbfe70f	0.09370243
220	0x3cdf17ca	0.027233023
221	0xbd44ae05	-0.04801752
222	0x3dd964a0	0.10614896
223	0x3d42d6b1	0.047568027
224	0x3d52ed53	0.05149586
225	0xbda586e2	-0.080823675
226	0xbda5f6ac	-0.081036896
227	0x3dc54139	0.09631581
228	0xbd15439a	-0.036441423
229	0xbdba25ca	-0.09089239
230	0x3db5ea80	0.08882618
231	0xbd041191	-0.032243315
232	0xbd0b5b87	-0.034022834
233	0x3d6d17df	0.057884093
234	0xbd9a9c9a	-0.07549401
235	0xbd5e17bf	-0.054221865
236	0x3db67af0	0.08910167
237	0xbd69131b	-0.056902986
238	0x3d7ce6b9	0.06174347
239	0x3e1e600c	0.15466326
240	0x3bd0bc6b	0.0063701174
241	0xbd06a6d2	-0.032873936
242	0x3de76fb3	0.11300602
243	0xbd917383	-0.0710211
244	0xbde8b58a	-0.11362751
245	0xbda7255c	-0.081614226
246	0xbd6c9fec	-0.0577697
247	0x3ce4398e	0.027859475
248	0xbddf1196	-0.10892026
249	0xbd59c902	-0.05317021
250	0xbdc6c35d	-0.09705231
251	0xbd422cd8	-0.047406048
252	0x3e16d18a	0.1472837
253	0x3d7b6d14	0.061383322
254	0x3d75c291	0.060000006
255	0x3e027db3	0.12743263

bias f4 [100]
0	0x3c752689	0.014962801
1	0xbd8d7ab8	-0.06908172
2	0xbd9a1887	-0.075242095
3	0x3e2cee2d	0.16887732
4	0x3d17b3fe	0.03703689
5	0x3de615c4	0.1123462
6	0x3ddf34b8	0.10898727
7	0x3d921943	0.071337245
8	0xbd9464bc	-0.07245776
9	0x3d116da4	0.035504952
10	0x3cc4c193	0.024018085
11	0xbd9718e1	-0.07377792
12	0x3cbf1c28	0.023328856
13	0x3daec81d	0.08534262
14	0x3c6c5f57	0.014427028
15	0xbcfcd65a	-0.03086393
16	0xbd323e00	-0.04351616
17	0x3df6f6fc	0.12058827
18	0x3dde27dc	0.10847446
19	0xbd6540cd	-0.055970002
20	0x3e3fb719	0.1872219
21	0xbd071e4a	-0.03298787
22	0xbdd34c0d	-0.1031724
23	0x3d860d85	0.065455474
24	0x3dd80c8d	0.10549269
25	0x3da12942	0.078691974
26	0x3e1a58e1	0.15072967
27	0xbd2f1dc0	-0.04275298
28	0x3d240330	0.040042102
29	0xbdba5393	-0.09097972
30	0x3d681629	0.05666176
31	0xbd84167c	-0.06449601
32	0x3e2f1aaa	0.17100015
33	0x3e1d0d67	0.15337144
34	0x3e09124c	0.13385886
35	0xbda2c400	-0.0794754
36	0x3da91898	0.08256644
37	0x3de579b5	0.112048544
38	0x3e1a9c48	0.15098679
39	0xbd3b5f3b	-0.045745116
40	0x3e3120ea	0.17297712
41	0x3d01b5fd	0.0316677
42	0x3e733c56	0.23753485
43	0x3de6c5a4	0.11268166
44	0xbd48b2cf	-0.04899865
45	0x3dcba5ac	0.09943709
46	0xbd3899bf	-0.0450685
47	0xbc960deb	-0.018317183
48	0x3bb3bf0f	0.0054854224
49	0x3c82242b	0.015886387
50	0x3c9172f9	0.017755019
51	0x3d9bee96	0.07613866
52	0xbdbd3a18	-0.09239596
53	0x3e407bf1	0.1879728
54	0x3e313045	0.1730357
55	0xbd40957c	-0.04701756
56	0xbd724ff4	-0.05915828
57	0x3e624a4e	0.22098657
58	0x3d528fd1	0.051406685
59	0xbd1788e5	-0.036995787
60	0x3de5ed65	0.1122692
61	0xbb94946b	-0.0045342944
62	0xbc824e12	-0.015906367
63	0x3dcf0d79	0.101099916
64	0x3b95b71a	0.0045689465
65	0xbd979b5b	-0.074026786
66	0xbd408469	-0.047001276
67	0xbd8a985c	-0.067673415
68	0x3c81ae77	0.015830262
69	0x3d67b72f	0.056571182
70	0xbd73f232	-0.059557147
71	0x3c1c44e8	0.009537913
72	0xbd67b632	-0.05657024
73	0xbe102a46	-0.14078626
74	0x3d820afb	0.063497506
75	0xbd807f8e	-0.06274329
76	0xbc9aa178	-0.018875822
77	0x3cdff470	0.027338237
78	0xbce2810f	-0.02764943
79	0x3d2c810a	0.04211525
80	0xba9ba668	-0.0011875154
81	0x3e694812	0.22781399
82	0xbc99b28b	-0.018761894
83	0x3ddc0670	0.10743415
84	0xbcccd0cf	-0.025001911
85	0x3c50b099	0.012737417
86	0xbd1b2a8d	-0.037882376
87	0x3d6089af	0.054818805
88	0x3c67bf0a	0.014144668
89	0x3d31bfe7	0.043395903
90	0xbde9747d	-0.113991715
91	0xbc944984	-0.018101461
92	0x3dcf5e46	0.10125403
93	0xbcac6d0b	-0.02104809
94	0xbc93d46e	-0.01804563
95	0xbdc95ab0	-0.098317504
96	0xbbc05aff	-0.0058702226
97	0x3daf9d30	0.08574903
98	0xbd473ef0	-0.048644006
99	0xbc670a6f	-0.014101609

weight f4 [10, 100]
0	0xbe023e47	-0.1271907
1	0x3e9234ba	0.28555852
2	0x3d27db07	0.040980365
3	0xbe1334d4	-0.14375621
4	0xbe796c89	-0.24357809
5	0xbd8f5219	-0.06998081
6	0xbd934377	-0.07190602
7	0xbe2c8623	-0.16848044
8	0xbe090172	-0.13379458
9	0x3d581f93	0.052764487
10	0x3eadb410	0.3392644
11	0x3d53a16f	0.051667627
12	0xbe3e64d5	-0.18593152
13	0x3da1f035	0.07907144
14	0xbdfb5428	-0.12271911
15	0x3e5808bb	0.2109708
16	0xbd362fd7	-0.044479217
17	0xbe35bb89	-0.1774732
18	0x3e96f47d	0.29483405
19	0xbdcea585	-0.10090164
20	0xbddfa064	-0.10919264
21	0x3d348ab4	0.04407759
22	0x3cbc3de8	0.022978738
23	0x3eb4d6f7	0.35320255
24	0xbe420695	-0.18947823
25	0xbe928ff4	-0.28625453
26	0xbd38203d	-0.04495262
27	0x3d1e536f	0.038653787
28	0x3b9cedaf	0.0047890763
29	0x3d59a9f2	0.053140588
30	0x3e148f4f	0.14507793
31	0x3da13f45	0.07873396
32	0x3e14b760	0.14523077
33	0xbe536816	-0.20645174
34	0xbea63046	-0.32458705
35	0x3e2cbae2	0.16868165
36	0xbea9b3bf	-0.33144948
37	0xbdf44415	-0.11927048
38	0xbd48c373	-0.04901452
39	0xbe08e067	-0.13366853
40	0xbe16e519	-0.14735831
41	0x3df56cbd	0.11983631
42	0xbf0705fb	-0.527435
43	0x3db7ee87	0.08981042
44	0xbd90cbd7	-0.07070129
45	0xbe2bd58d	-0.16780682
46	0xbb95f463	-0.0045762523
47	0xbe44d366	-0.19221267
48	0xbe3dd9c3	-0.18540101
49	0xbe99d982	-0.30048758
50	0xbe01aa27	-0.12662564
51	0xbdeac064	-0.11462477
52	0xbd14d18d	-0.036332656
53	0x3eb14c3e	0.3462848
54	0xbef0c1e6	-0.47022933
55	0xbe2a7dbb	-0.16649525
56	0x3e9e2952	0.308909
57	0x3dc3f7f8	0.09568781
58	0x3ccdca1c	0.025120787
59	0x3e0b9525	0.13631113
60	0x3da48e19	0.080349155
61	0x3dd19f82	0.10235502
62	0x3d08ba56	0.03338083
63	0xbe6c6799	-0.23086394
64	0x3cc90a7a	0.024541128
65	0xbddcd0e8	-0.10782033
66	0xbc5cc963	-0.013475749
67	0xbd53b6f2	-0.051688142
68	0xbd546be9	-0.051860724
69	0xbe6a81d7	-0.22901092
70	0x3d9e82b6	0.07739775
71	0x3e0eb591	0.1393645
72	0x3e1723da	0.1475977
73	0x3e06e4ba	0.1317319
74	0x3e56b315	0.20966752
75	0x3dc8bc3c	0.09801528
76	0x3ee8aeea	0.4544595
77	0x3eb29ee4	0.3488685
78	0xbe5d6301	-0.21619798
79	0xbe7ded65	-0.2479759
80	0xbe4fa804	-0.20278937
81	0xbe2820c0	-0.16418743
82	0xbcb2f132	-0.021843527
83	0xbdc38d11	-0.09548391
84	0xbd9fa737	-0.077955656
85	0xbecd4ca8	-0.40097547
86	0x3ece7544	0.40323842
87	0x3bb54341	0.005531699
88	0x3e827385	0.2547876
89	0x3d3ad7ae	0.045615844
90	0x3e80e8c6	0.25177592
91	0x3d23ed52	0.04002125
92	0xbda52ac5	-0.08064798
93	0x3de1b5df	0.11021017
94	0x3f0fde43	0.5619852
95	0xbe10851f	-0.14113282
96	0x3d506b64	0.050883666
97	0xbebb30a0	-0.36560535
98	0xbda434dc	-0.080178946
99	0xbe044692	-0.12917545
100	0xbdea567b	-0.11442276
101	0xbec6625a	-0.3874691
102	0xbe173f90	-0.14770341
103	0xbe318fec	-0.17340058
104	0xbd574e83	-0.05256511
105	0x3e13068d	0.14357968
106	0xbec8a9ac	-0.3919195
107	0x3e7c0ec4	0.24615008
108	0xbd911152	-0.07083382
109	0xbe26e502	-0.16298297
110	0xbeaba783	-0.3352624
111	0xbdc50bfb	-0.09621426
112	0xbebc38fd	-0.3676223
113	0x3e754fd2	0.2395623
114	0x3d67792e	0.05651205
115	0xbe084227	-0.13306485
116	0xbd6ee61a	-0.05832491
117	0x3e9425a2	0.28934962
118	0xbdeaafa8	-0.11459285
119	0x3ba71634	0.0050990824
120	0xbe7d22d3	-0.24720316
121	0xbd1669da	-0.03672204
122	0xbd35fbec	-0.044429705
123	0x3e0b0adb	0.1357836
124	0x3e571d63	0.21007304
125	0x3ec8da49	0.39229038
126	0x3ecaca4c	0.39607465
127	0xbdbe2961	-0.09285236
128	0xbd64f048	-0.055893213
129	0xbcbea508	-0.023272052
130	0x3e277670	0.16353774
131	0xbd5d279f	-0.053992864
132	0x3e3d6f63	0.18499522
133	0x3def178c	0.11674413
134	0x3ea0fa4c	0.3144096
135	0x3df073fb	0.117408715
136	0x3e3f4064	0.18676907
137	0x3dabd97a	0.0839109
138	0xbeb36fd8	-0.35046268
139	0x3cd157ef	0.025554625
140	0xbe068fdf	-0.1314082
141	0x3d852ab7	0.06502288
142	0x3efd3635	0.4945542
143	0xbe49e2f2	-0.19715479
144	0x3e658dd5	0.22417386
145	0x3c495091	0.012287275
146	0xbd217f2e	-0.03942793
147	0x3ed77b02	0.42086035
148	0xbcee22e2	-0.029069368
149	0xbd6cf815	-0.057853777
150	0x3d9e2656	0.07722156
151	0x3e8ab06b	0.2708772
152	0x3d868853	0.065689705
153	0x3d47c298	0.048769563
154	0x3eb4a0a6	0.35278815
155	0xbe9521fc	-0.2912749
156	0x3e23d2f4	0.15998441
157	0x3b07d6e7	0.0020727457
158	0xbacd62c8	-0.0015669698
159	0xbe739e40	-0.23790836
160	0xbc9c29d4	-0.019062914
161	0x3daa4ba8	0.083152115
162	0xbd7d6a85	-0.061869163
163	0x3dfb3feb	0.12268051
164	0xbdc15b7b	-0.09441277
165	0xbcf3f088	-0.02977778
166	0x3cfdb502	0.0309701
167	0x3dead457	0.11466282
168	0x3e89988a	0.2687419
169	0xbec932b5	-0.392965
170	0x3d1142f1	0.03546423
171	0x3e1d8e0b	0.15386216
172	0xbd8ccfa9	-0.068755455
173	0xbe1b0a22	-0.15140584
174	0xbe50b02c	-0.20379704
175	0xbd28933d	-0.041156042
176	0xbf056689	-0.5210958
177	0xbded4c31	-0.11586798
178	0xbdc37d97	-0.09545439
179	0xbd7df4f2	-0.062001176
180	0xbd3de334	-0.046359256
181	0xbe0467e8	-0.12930262
182	0x3c883e4f	0.016631274
183	0x3e5557c9	0.20834269
184	0xbdac898c	-0.084246725
185	0x3e8da66d	0.27666035
186	0xbe552514	-0.20814925
187	0x3e6f3215	0.23358949
188	0xbe6f543e	-0.2337198
189	0xbd517413	-0.051136088
190	0xbd9e148c	-0.07718763
191	0xbd90d24d	-0.07071362
192	0xbe3fc2a8	-0.18726599
193	0x3d7f4751	0.062323872
194	0xbeb7c87c	-0.35895145
195	0xbdd96d0f	-0.106165044
196	0xbc6c0a4b	-0.014406751
197	0xbe7f6845	-0.2494212
198	0x3c7325ee	0.014840586
199	0x3d0fbb20	0.035090566
200	0xbce69010	-0.028144866
201	0xbdff88e8	-0.12477285
202	0xbd8a7992	-0.06761469
203	0x3c131a13	0.008978385
204	0xbe250df6	-0.16118607
205	0x3e88f9d5	0.26753107
206	0xbb9e9bb8	-0.0048403405
207	0xbdf52a09	-0.11970908
208	0xbc83f7eb	-0.016109427
209	0xbec5375a	-0.38518792
210	0x3f0e4beb	0.5558459
211	0xbd532780	-0.051551342
212	0x3d1ad83c	0.037803873
213	0xbe53eee3	-0.20696597
214	0xbc7999fa	-0.015234465
215	0x3ec624c1	0.38699916
216	0xbd0ad197	-0.033891287
217	0x3e6a0b38	0.22855842
218	0xbefe289e	-0.49640363
219	0x3e90b2be	0.2826137
220	0x3c761533	0.015019703
221	0x3caeaf04	0.021323688
222	0xbd0c4cde	-0.034252994
223	0x3ce69cbd	0.02815091
224	0xbe787b5d	-0.2426581
225	0xbe8ecb7d	-0.27889624
226	0x3e7ccda9	0.24687828
227	0x3e87c972	0.26520878
228	0xbb9ccf7d	-0.0047854767
229	0xbd937255	-0.071995415
230	0x3e3907a7	0.18069325
231	0x3ccb4cd0	0.0248169
232	0xbd158312	-0.03650195
233	0xbd6d3840	-0.057914972
234	0xbe03f596	-0.12886652
235	0x3ed8ab1a	0.4231804
236	0xbeb82ea6	-0.3597309
237	0xbeeb34e6	-0.45938796
238	0x3e9e4c4b	0.30917582
239	0x3e8316c0	0.25603294
240	0xbe3f8161	-0.18701698
241	0xbc079701	-0.008275748
242	0xbe08d21f	-0.13361405
243	0x3ebf7b89	0.37398937
244	0xbe31a80d	-0.17349263
245	0x3e2a0665	0.16604002
246	0xbce4c37f	-0.027925251
247	0xbdc6690a	-0.09688003
248	0xbe5ab551	-0.21358229
249	0x3dc5ec7e	0.09664248
250	0x3ebf7adb	0.3739842
251	0xbe4938cc	-0.19650573
252	0x3dbb0332	0.09131469
253	0xbdb40d3c	-0.08791587
254	0x3edbc354	0.4292246
255	0x3e34771a	0.17623559

bias f4 [10]
0	0xbe73d49c	-0.23811573
1	0x3e662597	0.22475277
2	0x3d9621f0	0.07330692
3	0x3c94eea4	0.018180199
4	0xbd8e42ac	-0.069463104
5	0x3e843fd5	0.2582995
6	0xbdd1087f	-0.102066986
7	0x3e5913ad	0.21198912
8	0xbe50313c	-0.20331281
9	0xbd2c360b	-0.042043727
