artifacts/1/5c73b1338ccb432f88ed8dd6710188de/artifacts/model/data/model.pth (torch, 362823 bytes, 6 tensors)

weight f4 [100, 784]
0	0xbbcdde86	-0.0062826304
1	0xbc7c87cc	-0.015413236
2	0xbcd950a8	-0.026527718
3	0x3cca85d1	0.024722012
4	0xbca97b8c	-0.020688795
5	0x3b4592fb	0.0030147422
6	0x3ccef50c	0.025263332
7	0xbd07a645	-0.03311755
8	0xbcd34e48	-0.025794163
9	0x3c7e5b3f	0.015524684
10	0x3c0ab00b	0.0084648235
11	0x3cad8fec	0.021186791
12	0x3b9141ca	0.0044328915
13	0x3bb70811	0.0055856784
14	0x3cc40be9	0.02393146
15	0xbac3344c	-0.0014892905
16	0x3c0bf0e3	0.008541319
17	0xbc86085e	-0.016361412
18	0xbb4eb147	-0.003153877
19	0xbbf42210	-0.0074503496
20	0x3b430a99	0.0029760955
21	0x3ccb4307	0.024812235
22	0x3cbe3599	0.023218917
23	0x3c9dbae7	0.019254161
24	0xbcd9f85d	-0.026607687
25	0xbc3cd127	-0.011524475
26	0x3c92246e	0.017839637
27	0xbcae06a1	-0.021243395
28	0x3cc76d1d	0.024344021
29	0xbca34bdc	-0.019933634
30	0xbd020cc4	-0.031750455
31	0x3ce880a6	0.028381657
32	0x3c2d85d0	0.010590985
33	0xbc7a7b58	-0.0152881965
34	0x3b51d29c	0.0032016402
35	0xbca8566f	-0.020549027
36	0xbc69e770	-0.01427637
37	0xbc0cee19	-0.008601689
38	0x3c892a0d	0.016743684
39	0x3ca02ba4	0.01955206
40	0xbcdf89c5	-0.027287373
41	0x3c9d9f94	0.019241132
42	0x3c3c263a	0.011483723
43	0x3d19f5f1	0.037588064
44	0x3c0a1d08	0.008429773
45	0x3cdaedf1	0.026724787
46	0x3c9ccb07	0.01913978
47	0xbb8e927c	-0.0043509584
48	0xbc1e585d	-0.009664622
49	0xbcfd08d6	-0.030888002
50	0xbc83d384	-0.01609207
51	0xbd112f20	-0.035445333
52	0xbc70cba1	-0.014696986
53	0xbcf7888e	-0.030216482
54	0x3cc8a25f	0.024491487
55	0x3acebb0f	0.00157723
56	0xbc7d8420	-0.015473396
57	0x3cc27a38	0.023739919
58	0x3b2a64b3	0.0025999963
59	0xbcef08ce	-0.029179003
60	0xbdb90783	-0.09034636
61	0xbcc03f12	-0.023467574
62	0xbd4e5c2d	-0.050380874
63	0xbd059b82	-0.032619007
64	0xbd0ed80d	-0.03487401
65	0xbcc5e263	-0.024155801
66	0xbddb05c8	-0.10694462
67	0xbe03a2cb	-0.1285507
68	0x3daa3144	0.08310178
69	0x3e2917b1	0.16512944
70	0xbaabfd28	-0.0013121711
71	0xbd9be953	-0.076128624
72	0xbd71193a	-0.05886195
73	0xbd755710	-0.059897482
74	0xbca02e57	-0.019553347
75	0x3cddaf76	0.027061205
76	0x3d5b28c2	0.053505667
77	0x3d23ef07	0.040022876
78	0x3d3d47df	0.04621112
79	0x3d88285f	0.06648325
80	0x3d76f966	0.06029644
81	0x3c778799	0.015108013
82	0x3ce1fec1	0.027587296
83	0x3caec522	0.021334235
84	0x3cbaf4ba	0.022821773
85	0x3c0dd317	0.008656285
86	0x3e07b099	0.1325096
87	0x3d8d34e2	0.06894852
88	0xbbbb80b6	-0.0057221306
89	0xbdc47bca	-0.095939234
90	0xbe2b9bfa	-0.16758719
91	0xbe4a6eb0	-0.19768786
92	0xbdf261c4	-0.118350536
93	0xbd0502b7	-0.032473292
94	0x3d037363	0.032092463
95	0x3b1b72d0	0.0023719557
96	0x3e72c44a	0.23707691
97	0x3dc9af37	0.09847873
98	0xbd49b4a0	-0.049244523
99	0xbd75026d	-0.059816767
100	0xbca79a46	-0.020459305
101	0xbbb94406	-0.005653861
102	0xbda1c7f6	-0.07899468
103	0xbcd12fdf	-0.025535522
104	0xbc749428	-0.014927901
105	0xbe1e8a62	-0.15482476
106	0xbde38dc5	-0.11111025
107	0xbdc42667	-0.09577637
108	0x3c8f9eb2	0.017531727
109	0x3d992868	0.0747841
110	0x3d8e6248	0.069523394
111	0x3aeabc25	0.0017908855
112	0xbc4767fa	-0.012170786
113	0x3c0663b3	0.008202481
114	0x3e08db89	0.13364996
115	0x3d9720ad	0.07379279
116	0x3bf59ad0	0.0074952617
117	0xbe00c81c	-0.12576336
118	0xbe4a46d7	-0.19753586
119	0xbe31e130	-0.17371058
120	0xbd5ae454	-0.053440407
121	0x3e5b1773	0.21395664
122	0x3e54c0c3	0.20776658
123	0x3d89d50b	0.06730088
124	0x3d7db826	0.061943196
125	0xbc8af77e	-0.016963717
126	0xbdd2a590	-0.10285485
127	0xbdad1629	-0.08451492
128	0x3d15da1b	0.036584955
129	0xbbd778b7	-0.0065756696
130	0xbc20bf79	-0.009811276
131	0xbdb5b29a	-0.08871956
132	0xbe0ffa4d	-0.14060326
133	0xbd397109	-0.045273814
134	0xbd93d962	-0.07219197
135	0xbd674fdd	-0.056472648
136	0x3cc383df	0.023866592
137	0x3e06ee8c	0.13176936
138	0x3e39072f	0.18069147
139	0xbd36c5ec	-0.044622347
140	0x3d004fac	0.03132598
141	0x3c1d6612	0.009606855
142	0x3d31986d	0.043358255
143	0x3d606d05	0.05479147
144	0x3e512a8d	0.20426388
145	0xbdcdada2	-0.100428835
146	0xbd50543c	-0.050861582
147	0x3df50fe1	0.11965919
148	0xbc3285b9	-0.01089614
149	0x3d5be4df	0.053685065
150	0x3e0c0e14	0.13677245
151	0x3da52825	0.080642976
152	0x3d1430e4	0.03617944
153	0x3d51e185	0.051240463
154	0x3d7968b4	0.06089087
155	0x3d7064bb	0.058689814
156	0x3d2d4322	0.04230035
157	0xbd35462e	-0.04425638
158	0xbdce250b	-0.10065659
159	0xbe1ca599	-0.15297545
160	0xbdd9a7d9	-0.106277175
161	0x3c038377	0.008026949
162	0x3d37cefa	0.044875123
163	0x3cf16de5	0.029471347
164	0x3df54ee3	0.11977937
165	0x3e8a8675	0.27055708
166	0x3e604138	0.21899879
167	0xbc37335a	-0.011181677
168	0x3d025632	0.031820484
169	0x3d67a39a	0.056552507
170	0x3c1d6fb5	0.009609153
171	0x3d2a41c5	0.04156663
172	0xbc4bbeed	-0.012435657
173	0x3dab4bda	0.08364077
174	0x3df26ed6	0.118375465
175	0x3d9a2819	0.07527179
176	0x3d30748a	0.04307989
177	0x3d22f299	0.03978214
178	0x3e09c70b	0.13454835
179	0x3d9cf323	0.07663562
180	0x3c0448a4	0.0080739595
181	0x3d0c5423	0.034259927
182	0x3daeb385	0.085303344
183	0x3d5cf4b8	0.05394432
184	0xbbab0a03	-0.0052196993
185	0x3c31e562	0.010857912
186	0x3d4772d8	0.048693508
187	0xbca37fef	-0.019958464
188	0xbdab22bf	-0.08356237
189	0xbd90d58c	-0.07071981
190	0xbcd37805	-0.025814066
191	0x3d9a3587	0.07529741
192	0x3e144aa2	0.14481595
193	0x3e13a9c1	0.14420225
194	0x3db11a34	0.08647576
195	0x3d5a14ac	0.05324237
196	0xbd145ea0	-0.036223054
197	0x3d19ff2b	0.037596863
198	0xbdba45e0	-0.09095359
199	0x3d230404	0.03979875
200	0x3ca46fd8	0.020072863
201	0x3db865f9	0.09003825
202	0x3d6e9686	0.05824902
203	0x3e2f1ce1	0.1710086
204	0x3dd6b2ac	0.10483298
205	0x3d4f869b	0.05066548
206	0x3dbe1f3c	0.09283301
207	0x3bb04b42	0.005380065
208	0xbc744bdb	-0.0149106635
209	0x3bfd251d	0.0077253715
210	0x3d6496a6	0.055807732
211	0xbd3909c1	-0.045175318
212	0x3d4596e8	0.04823962
213	0x399640d8	0.00028658542
214	0x3d90b100	0.0706501
215	0x3cd1d8be	0.025616046
216	0xbd8d293a	-0.06892629
217	0xbb1a397b	-0.0023532796
218	0x3d074418	0.033023924
219	0xbd2b4d57	-0.041821804
220	0xbc6b8e44	-0.0143771805
221	0xbcefa234	-0.02925215
222	0x3cb6ca68	0.022313312
223	0x3d1c7602	0.03819848
224	0xbd3d7c66	-0.046261214
225	0xbba30d78	-0.004975971
226	0xbccdb9e1	-0.025113048
227	0x3dbc1cb5	0.09185163
228	0x3c980c90	0.018560678
229	0xbd4b8205	-0.049684543
230	0xbd5c4bdc	-0.053783283
231	0x3d3aa196	0.045564257
232	0xbb04e4a4	-0.0020277882
233	0x3cfce219	0.03086953
234	0xbcd57d3b	-0.026060691
235	0x3c17507d	0.0092354985
236	0x3dba38ea	0.09092887
237	0x3d8aa930	0.06770551
238	0x3d00872b	0.031378906
239	0x3cfe4f53	0.031043684
240	0x3d63c713	0.055609774
241	0x3d178009	0.03698734
242	0x3c672a80	0.014109254
243	0x3c2c840a	0.010529527
244	0xbd94791e	-0.07249664
245	0xbd161795	-0.036643583
246	0x3c8cc649	0.017184393
247	0xbb62bff2	-0.0034599272
248	0xbd7692ce	-0.060198598
249	0xbd78d135	-0.06074639
250	0x3bade09e	0.0053063175
251	0x3e2dcf51	0.16973616
252	0x3cdef8eb	0.027218303
253	0xbda4ae3f	-0.08041047
254	0x3d7e1997	0.062036123
255	0x3cc706db	0.024295261

bias f4 [100]
0	0x3c620902	0.013796093
1	0x3c1f5596	0.009724995
2	0x3dd83e7f	0.10558795
3	0xbc43b852	-0.011945801
4	0x3e01d069	0.12677158
5	0x3d0599bf	0.032617327
6	0x3cf71742	0.030162457
7	0xbd76904b	-0.060196202
8	0x3ddfcc06	0.10927586
9	0xbd92cee9	-0.07168371
10	0x3ad2e9b3	0.0016091376
11	0xbbfaabd5	-0.0076498785
12	0xbde90f19	-0.11379833
13	0xbcf6f99d	-0.030148322
14	0xbd458175	-0.048219163
15	0x3d15c820	0.036567807
16	0xba4b67ac	-0.0007759284
17	0xbc7f870e	-0.015596164
18	0x3dae9f0b	0.08526429
19	0x3d6fac9f	0.058514234
20	0x3cf2b37b	0.029626599
21	0x3c3c79e9	0.011503675
22	0x3cde027e	0.027100798
23	0xbd1929ee	-0.037393503
24	0x3d851849	0.06498773
25	0x3de2503c	0.1105046
26	0x3e09edcc	0.13469619
27	0xbd100595	-0.035161573
28	0x3e442425	0.19154413
29	0xbd2d9683	-0.042379867
30	0x3dc9bcb5	0.09850446
31	0x3db01663	0.0859802
32	0x3d28aa0e	0.0411778
33	0x3d7e68b9	0.06211159
34	0x3e073d5a	0.13206998
35	0xbd1d9f7d	-0.038482178
36	0x3e141d87	0.14464389
37	0x3dfe474b	0.12415942
38	0xbd44738e	-0.047961764
39	0xbe161301	-0.14655687
40	0x3e1a705d	0.15081926
41	0x3dc68fe1	0.096954115
42	0x3e0710ef	0.13190053
43	0xbe08819c	-0.13330692
44	0x3d6b9547	0.05751541
45	0x3d186678	0.037207097
46	0xba96a394	-0.0011492842
47	0x3de318ce	0.110887155
48	0xbd24c934	-0.040230945
49	0x3e3655b3	0.17806129
50	0x3d8d77f3	0.06907644
51	0x3dc5652d	0.096384384
52	0x3e51d364	0.20490795
53	0xbcac7d4a	-0.021055836
54	0xbda1e591	-0.079051144
55	0xbbd6ff66	-0.0065612076
56	0x3df7a133	0.12091293
57	0x3d75c7d6	0.06000503
58	0x3e14bc22	0.14524892
59	0x3dad3dc6	0.08459048
60	0x3dce017a	0.100588754
61	0xbc870fdb	-0.016487053
62	0x3e385b65	0.18003614
63	0x3db94f14	0.09048286
64	0x3c9864a5	0.018602679
65	0x3daed463	0.08536603
66	0x3d9a771e	0.07542251
67	0xbc72a59a	-0.01480999
68	0xbc8afedb	-0.016967228
69	0xbd9be007	-0.07611089
70	0x3ce72fa9	0.028220968
71	0xbcffa9b8	-0.031208858
72	0xbdbac19a	-0.09118958
73	0x3daeb0ba	0.08529802
74	0x3d9467c0	0.07246351
75	0x3d8a1f88	0.06744295
76	0x3e3003ff	0.17189024
77	0x3e826107	0.2546465
78	0x3e135bb9	0.14390458
79	0x3d6aea95	0.05735262
80	0xbc34ebea	-0.011042574
81	0x3dafba6e	0.085804805
82	0xbbf042de	-0.00733219
83	0x3e03bc55	0.12864812
84	0x3db88102	0.09008981
85	0x3d9d714b	0.076876245
86	0x3de91380	0.113806725
87	0xbce0a68a	-0.027423162
88	0x3bb479b9	0.0055076745
89	0x3d5ac043	0.05340601
90	0xbe3e7209	-0.18598188
91	0x3d9ca3f3	0.07648458
92	0x3d4adf49	0.049529348
93	0x3ccbf3e2	0.024896566
94	0xbd48346d	-0.048878122
95	0xbdc1c2c9	-0.094609804
96	0xbc23f235	-0.010006477
97	0xbd6b14a6	-0.05739274
98	0x3d89fd33	0.06737747
99	0xbdd7d9c5	-0.10539583

weight f4 [100, 100]
0	0x3d517643	0.051138174
1	0xbbc4fb55	-0.0060114064
2	0xbe946be5	-0.28988567
3	0x3d4efde3	0.050535094
4	0xbdea1d40	-0.1143136
5	0x3d13901a	0.036026098
6	0x3e53640f	0.20643638
7	0xbe4ade02	-0.19811252
8	0xbcd66768	-0.026172355
9	0x3c3d0914	0.011537809
10	0x3e5e4f0c	0.21709841
11	0xbd2b1b87	-0.0417743
12	0x3e1337f1	0.14376809
13	0x3d6e9c87	0.058254745
14	0x3e0ff861	0.14059593
15	0xbda8dea2	-0.08245589
16	0x3d9499dc	0.07255909
17	0x3c908d4c	0.0176455
18	0xbd856700	-0.06513786
19	0xbe9beac6	-0.30452555
20	0xbe397d8a	-0.18114296
21	0x3d83a819	0.064285465
22	0xbe07a914	-0.13248092
23	0x3e145266	0.14484558
24	0x3c6c4fc1	0.014423312
25	0x3cbc03df	0.022951065
26	0x3e0b2aae	0.135905
27	0x3e27fd7a	0.16405287
28	0x3dfc4021	0.12316919
29	0x3d023511	0.03178889
30	0xbd932b91	-0.07186044
31	0x3e7b04d4	0.2451356
32	0x3e266ca8	0.16252387
33	0x3d9b262c	0.0757564
34	0x3d56acc5	0.05241086
35	0x3dce73fd	0.10080717
36	0xbe100f41	-0.14068319
37	0xbd8b440b	-0.068000875
38	0xbd59793c	-0.053094134
39	0x3cdbbe33	0.026824092
40	0xbe309a43	-0.17246346
41	0xbdaf5de5	-0.08562831
42	0xbd1e0961	-0.038583163
43	0x3cc081b1	0.023499342
44	0x3df98722	0.12183978
45	0xbdbd8d3c	-0.09255454
46	0xbc9e37c1	-0.019313695
47	0xbd3b3c18	-0.045711607
48	0xbd8acd5e	-0.06777452
49	0x3df7f7db	0.121078216
50	0xbd5811c3	-0.052751314
51	0x3db5d34a	0.08878191
52	0x3e04be60	0.12963247
53	0x3e3eb210	0.18622613
54	0xbc0e633c	-0.0086906515
55	0xbd5bdb12	-0.05367572
56	0xbe53770c	-0.20650882
57	0x3ea100cc	0.3144592
58	0xbca68262	-0.020325843
59	0xbc168a9d	-0.009188321
60	0xbc3b1e33	-0.011420774
61	0xbd0cfae6	-0.034418963
62	0xbe5d7942	-0.21628287
63	0xbde2d4fc	-0.1107578
64	0xbdc9d885	-0.09855751
65	0xbe3dece2	-0.18547395
66	0x3df712d0	0.12064135
67	0xbd3937d3	-0.045219254
68	0x3ca1b48d	0.019739414
69	0xbdd5796a	-0.104235485
70	0xbd678043	-0.056518804
71	0x3db073e4	0.086158544
72	0x3e21db1b	0.15806238
73	0x3e000dce	0.12505266
74	0x3dbe1708	0.092817366
75	0x3df060ef	0.117372386
76	0x3da53f30	0.08068693
77	0x3b8a6da0	0.004224494
78	0x3d225afa	0.039637543
79	0x3d869815	0.06571976
80	0xbe47c517	-0.19508778
81	0x3bfa2414	0.0076336954
82	0x3ec6214c	0.38697278
83	0xbbba04a1	-0.0056768213
84	0x3d2a7388	0.041614085
85	0x3e2b542b	0.16731326
86	0xbe05853b	-0.13039105
87	0x3eed3cf5	0.4633557
88	0x3b246b51	0.002508838
89	0x3dd3dc3b	0.1034474
90	0x3e2d67ca	0.16934124
91	0x3dd2f777	0.103011064
92	0x3d3cee07	0.046125438
93	0xbc7424a5	-0.014901315
94	0xbe941ff0	-0.28930616
95	0x3eefb983	0.46821222
96	0x3dd11f28	0.10211021
97	0x3c04d9a3	0.008108529
98	0xb9b2adc6	-0.00034080277
99	0x3d8e1bae	0.06938873
100	0xbdcc1081	-0.09964085
101	0x3b3dbd74	0.0028952034
102	0xbbbb163f	-0.005709439
103	0xbccf6111	-0.02531484
104	0xbd713b66	-0.058894537
105	0xbd3f40c5	-0.04669263
106	0x3d22357a	0.03960178
107	0xbd286de5	-0.04112043
108	0xbc7b4360	-0.015335888
109	0xbdc419db	-0.09575244
110	0xbc4d8693	-0.012544292
111	0xbcb0322f	-0.021508304
112	0xbdba9261	-0.09109951
113	0xbdcf2dab	-0.10116132
114	0xbd925256	-0.071446106
115	0xbcc5df09	-0.024154203
116	0xbdd0da99	-0.10197944
117	0xbd7c2ac7	-0.061564233
118	0xbe04d210	-0.12970757
119	0xbd5791d9	-0.052629326
120	0xbdd422ae	-0.10358177
121	0xbdba3f60	-0.09094119
122	0xbc72c1c5	-0.014816706
123	0xbcad713c	-0.021172158
124	0xbd975ecc	-0.07391128
125	0xbde19a20	-0.11015725
126	0xbd0a5f2c	-0.03378217
127	0x3d5e7793	0.054313254
128	0xbd2c4d02	-0.042065628
129	0xbd1a9b62	-0.03774584
130	0x3d5b0a0d	0.053476382
131	0x3c5c28d2	0.013437467
132	0xbdd9d872	-0.10636987
133	0xbdc4b4b7	-0.09604781
134	0xbdf4a867	-0.11946183
135	0x3b8b7a58	0.004256528
136	0xbdb1312a	-0.086519554
137	0x3c8a6830	0.016895384
138	0xbd5e390a	-0.054253615
139	0xbd10bc47	-0.035335805
140	0x3d2c97d6	0.04213699
141	0x3ce057fa	0.0273857
142	0xbd022d9a	-0.03178177
143	0xbe0432db	-0.12910025
144	0xbb2ae6c5	-0.002607749
145	0xbb2c5f22	-0.002630182
146	0x3ce07c35	0.027402977
147	0xbdc290c8	-0.09500271
148	0x3c07c9f8	0.008287899
149	0xbcc045f9	-0.023470866
150	0xbd53263a	-0.051550128
151	0xbcafb67b	-0.021449318
152	0xbda026db	-0.07819911
153	0x3c57a259	0.013161265
154	0x3d684f9c	0.056716546
155	0xbd8c2486	-0.06842904
156	0xbd183aba	-0.03716538
157	0xbdd57e73	-0.10424509
158	0x3b217cfc	0.0024641147
159	0x3c027273	0.007961857
160	0xbda68175	-0.08130161
161	0x3d3fa5eb	0.04678909
162	0x3a234a5e	0.0006229038
163	0xbd61a0a2	-0.055084832
164	0x3d01e64b	0.031713765
165	0xbd8c7528	-0.06858283
166	0xbda00c12	-0.07814802
167	0xbbb96bbc	-0.005658595
168	0xbd858857	-0.065201454
169	0xbdb48e81	-0.08816243
170	0x3d9f46ea	0.07777198
171	0xbcd1952d	-0.025583828
172	0x3d6266fe	0.055274002
173	0x3d6e23a3	0.058139455
174	0x3cdc2fae	0.026878204
175	0x3d7beb97	0.061503973
176	0xbb19a467	-0.0023443939
177	0x3cd155c4	0.025553592
178	0xbd82d1f6	-0.06387703
179	0xbd6aa5dc	-0.057287082
180	0xbc9d40fa	-0.019196022
181	0x3d87acf6	0.066247866
182	0x3d119873	0.035545778
183	0xbcc27754	-0.02373854
184	0xbd9c17a3	-0.07621696
185	0xbcf56a92	-0.029958043
186	0xbcdac28a	-0.026704092
187	0x3d57f3bb	0.052722674
188	0xbdc78dd9	-0.09743852
189	0xbd6309ef	-0.055429395
190	0x3d3e3846	0.046440385
191	0xbd756e27	-0.059919503
192	0xbddf8d8c	-0.1091567
193	0x3cd2a1c8	0.025711909
194	0x3cffc896	0.031223577
195	0xbdaf0a84	-0.085469276
196	0x3c384d83	0.011248949
197	0xbde93587	-0.11387163
198	0xbd9acef3	-0.07559004
199	0x3d30e082	0.043182857
200	0x3d1eb8d1	0.038750473
201	0x3d8ccd24	0.06875065
202	0x3d83e02a	0.0643924
203	0x3dd1e452	0.10248627
204	0x3dcaacc5	0.098962344
205	0x3d8b6857	0.068070106
206	0x3d86d59b	0.06583711
207	0x3d7307f2	0.05933375
208	0xbd8f7d9c	-0.0700638
209	0x3dae03a2	0.08496787
210	0x3d2d6039	0.042328093
211	0x3da6256c	0.081126064
212	0x3df3cc06	0.11904149
213	0xbd564a79	-0.052317116
214	0xbe8b2c53	-0.27182254
215	0xbda7f5fb	-0.08201214
216	0x3de259ce	0.11052285
217	0xbd4c58dd	-0.049889434
218	0x3e0c4490	0.1369803
219	0xbd3bd559	-0.04585776
220	0xbb2abf43	-0.0026053942
221	0xbe38bc33	-0.18040542
222	0x3d5315f2	0.0515346
223	0xbcdc378c	-0.026881956
224	0x3c008471	0.0078440765
225	0xbca6ad28	-0.02034624
226	0x3ba2967b	0.0049617863
227	0x3d890637	0.066906385
228	0xb8f9dd6f	-0.000119144905
229	0x3d34f6af	0.04418057
230	0x3c06a3f2	0.008217799
231	0x3d29f9e8	0.041498095
232	0x3df2c408	0.11853796
233	0xbd14d02f	-0.03633135
234	0xbca4a6f2	-0.020099137
235	0x3b0bea47	0.0021349357
236	0x3bd09eb9	0.0063665775
237	0x3d328973	0.043588113
238	0x3d78f80b	0.060783427
239	0x3e143483	0.14473157
240	0x3e06f201	0.13178255
241	0x3db4360a	0.0879937
242	0xbe07dfa3	-0.13268904
243	0x3ddfb1e1	0.109225996
244	0xbd5e2fca	-0.054244794
245	0x3e3c213b	0.18372051
246	0xbe220c01	-0.15824892
247	0xbca91590	-0.020640165
248	0x3ad0dfe5	0.0015935866
249	0x3e5ac620	0.21364641
250	0x3e2d80ca	0.1694366
251	0x3e345749	0.17611422
252	0xbd6942e6	-0.056948565
253	0x3ce8e295	0.028428355
254	0x3b903cd2	0.0044017816
255	0x3d865ea8	0.06561023

bias f4 [100]
0	0x3b09a0fe	0.00210005
1	0xbc847f82	-0.016174082
2	0x3ddfdc25	0.10930661
3	0x3e154d8a	0.1458036
4	0x3c5d0458	0.013489805
5	0xbd70f8aa	-0.058830895
6	0xbd61b1e6	-0.055101298
7	0x3a3d9e86	0.00072333997
8	0x3d09753d	0.033559073
9	0x3e493917	0.19650684
10	0x3dcff8ab	0.101548515
11	0x3d4fc655	0.050726254
12	0x3cde08a0	0.027103722
13	0x3e06a9a9	0.13150658
14	0xbd5cb130	-0.053879917
15	0x3cfba573	0.03071854
16	0xbc4352c5	-0.011921589
17	0xbce09799	-0.027416037
18	0xbbdcb62a	-0.006735583
19	0x3c3d24d6	0.011544427
20	0x3b7d57ad	0.0038656995
21	0x3e385e78	0.18004787
22	0xba6b462b	-0.00089749944
23	0x3e3ba0a6	0.18323001
24	0x3d76c3d5	0.060245354
25	0x3cdd91fc	0.02704715
26	0x3e1cf5de	0.15328166
27	0xbd9e9c35	-0.07744638
28	0x3d44b94b	0.04802827
29	0x3d1aa12c	0.03775136
30	0xbc957b67	-0.01824732
31	0xbd91bb53	-0.071158074
32	0xbb8050bc	-0.0039158743
33	0xbdb1d4b2	-0.086831465
34	0x3e029d05	0.1275521
35	0x3d4429e7	0.047891524
36	0x3e54e157	0.20789085
37	0x3ddb7fde	0.10717748
38	0xbd22cdfa	-0.039747216
39	0xbcf2c237	-0.029633624
40	0xbdaac26a	-0.08337863
41	0xbd13d923	-0.03609575
42	0x3e4f8b59	0.20268
43	0x3c1e9214	0.009678382
44	0x3e388f48	0.18023407
45	0xbe0f10f7	-0.13971315
46	0x3db36806	0.08760075
47	0x3dff4069	0.12463457
48	0xbd23420b	-0.039857905
49	0x3e1d65ae	0.15370819
50	0xbddce5c0	-0.10786009
51	0xbd5ac5ef	-0.05341142
52	0x3c63ee6a	0.013911823
53	0x3e1007d2	0.14065483
54	0x3e41b193	0.18915395
55	0x3d8473c1	0.06467391
56	0x3dcf5b67	0.101248555
57	0x3e55a47f	0.20863532
58	0x3cbaeb0a	0.022817153
59	0xbc3b2df9	-0.011424535
60	0x3d984a9a	0.07436104
61	0x3e000ad0	0.12504125
62	0x3e3205bf	0.17385004
63	0x3d967787	0.07347017
64	0x3d92e0da	0.07171793
65	0x3d9c9339	0.07645268
66	0x3de1b988	0.110217154
67	0x3c205f5c	0.00978836
68	0xbd2644f5	-0.040593106
69	0xbcde1642	-0.027110223
70	0x3d90354f	0.07041418
71	0x3e2a23e7	0.16615258
72	0xbd0c119c	-0.03419648
73	0xbc363c04	-0.011122707
74	0xbd0bf666	-0.03417053
75	0x3e1d25d9	0.15346469
76	0xbb84aab3	-0.0040486692
77	0x3e0d6354	0.13807422
78	0x3a231f4a	0.0006222619
79	0xbdac3199	-0.084078975
80	0x3dd45f7c	0.10369775
81	0xbd1d9868	-0.038475424
82	0x3da3a0e9	0.079896756
83	0x3dfab113	0.122408055
84	0xbdf588f1	-0.1198901
85	0xbd655e29	-0.055998
86	0x3d8bf956	0.068346664
87	0xbc820d1b	-0.01587539
88	0x3dfdfc71	0.12401665
89	0xbc1b34a4	-0.009473
90	0xbde74163	-0.112917684
91	0x3d55fb90	0.05224186
92	0x3d838ba6	0.0642312
93	0x3d8e6d2f	0.06954419
94	0x3e1b701b	0.15179484
95	0x3dfd01ad	0.12353835
96	0x3e1686e9	0.14699902
97	0xbdd938d5	-0.10606543
98	0xbd29b8db	-0.041436058
99	0x3c137c08	0.009001739

weight f4 [10, 100]
0	0xbe35e0a7	-0.1776148
1	0x3d2b7ad8	0.0418652
2	0x3d2ad30b	0.041705173
3	0xbe64887a	-0.22317687
4	0xbe86c89d	-0.2632493
5	0xbd983e16	-0.07433717
6	0x3e8af298	0.2713821
7	0x3e033e1e	0.12816665
8	0x3e23f075	0.16009696
9	0xbd47dfd7	-0.048797455
10	0x3e4fdc56	0.20298895
11	0x3d957786	0.07298188
12	0x3db2ad77	0.08724492
13	0xbdff6b9e	-0.12471698
14	0xbe9b52e8	-0.3033669
15	0xbe5604cf	-0.20900272
16	0xbe0f8059	-0.14013804
17	0x3e189ed7	0.14904343
18	0x3d40d7ab	0.047080677
19	0x3e222afe	0.15836713
20	0x3d9c36d2	0.07627644
21	0xbe674190	-0.22583604
22	0x3d53fe44	0.05175616
23	0x3d837b67	0.064200215
24	0x3d0da098	0.034576982
25	0x3df74f8a	0.12075718
26	0xbe84c779	-0.25933436
27	0xbe494f88	-0.19659245
28	0x3e52ff1f	0.20605133
29	0xbd987b16	-0.07445352
30	0xbd8af0e5	-0.06784228
31	0xbdb7f231	-0.08981741
32	0x3e49bb7e	0.19700429
33	0x3d8f5539	0.06998677
34	0x3ca2dba5	0.019880125
35	0x3e00832d	0.1255004
36	0xbe4896d2	-0.19588783
37	0xbdb3b619	-0.08774967
38	0xbdb4ac65	-0.08821944
39	0x3d369598	0.044576257
40	0x3decec07	0.11568456
41	0xbbb03270	-0.0053771064
42	0xbe2b04a1	-0.16700985
43	0xbce436c0	-0.027858138
44	0xbe55075e	-0.20803592
45	0x3e6b789f	0.22995232
46	0xbe9ae61f	-0.30253693
47	0xbe69c913	-0.2283061
48	0x3b59b509	0.0033219478
49	0xbe7e5b1e	-0.24839446
50	0xbdb842e0	-0.089971304
51	0x3e0c2097	0.13684307
52	0xbedea0b1	-0.43481973
53	0xbdea0aa1	-0.114278086
54	0xbe4fe409	-0.20301832
55	0x3d591671	0.052999917
56	0xbe949d2a	-0.29026157
57	0xbdd3cb09	-0.1034146
58	0xbe9163e7	-0.28396532
59	0x3eab9290	0.33510256
60	0x3e280cfd	0.16411205
61	0x3cfdf395	0.030999938
62	0xbb006ecc	-0.001959729
63	0xbe355f85	-0.17712219
64	0xbf0395fc	-0.51400733
65	0x3d9abfeb	0.07556137
66	0xbe4f4e7e	-0.20244786
67	0x3e0dff36	0.13866886
68	0x3dc3c2f3	0.09558668
69	0x3e465a63	0.19370417
70	0x3df8048f	0.121102445
71	0x3e45bce2	0.19310334
72	0xbe9401f0	-0.28907728
73	0xbea847fa	-0.32867414
74	0xbe4f0fcf	-0.20220874
75	0xbea462f3	-0.32106742
76	0x3c1902fb	0.0093390895
77	0x3e068ec2	0.13140395
78	0xbc2bbe17	-0.010482333
79	0x3cbafe58	0.022826359
80	0x3e7c7668	0.24654543
81	0x3dc849e8	0.097797215
82	0x3d49babe	0.049250357
83	0xbedd4d21	-0.43222907
84	0x3e347144	0.17621332
85	0xbdb5055e	-0.08838914
86	0xbe2ad785	-0.16683777
87	0x3b2a708f	0.0026007032
88	0xbcf9e919	-0.030506657
89	0x3dd12190	0.1021148
90	0x3dccdc03	0.100029014
91	0xbe219d11	-0.15782572
92	0xbe27ef68	-0.1639992
93	0xbe80784f	-0.25091788
94	0xbde971bd	-0.11398647
95	0xbd31085d	-0.043220866
96	0x3c4d2cf1	0.012522922
97	0xbc7074fd	-0.01467633
98	0xbd63b1a6	-0.05558934
99	0xbe80520a	-0.2506259
100	0x3d062d48	0.032758027
101	0x3bb98892	0.0056620324
102	0xbdae0494	-0.08496967
103	0x3e801171	0.25013307
104	0x3d59c301	0.053164486
105	0x3e6eebd2	0.23332146
106	0xbd824cec	-0.06362328
107	0x3b00046d	0.0019533888
108	0xbdc4a751	-0.096022256
109	0xbe37e56b	-0.1795861
110	0xbdce4c5a	-0.10073157
111	0xbe2a7371	-0.166456
112	0x3e585f2f	0.2113006
113	0x3dae8c69	0.08522875
114	0x3e73045f	0.23732136
115	0xbe0984e1	-0.13429596
116	0xbcc8566d	-0.024455274
117	0x3e0c8bb4	0.13725168
118	0xbe02aa2c	-0.12760228
119	0xbe1446f8	-0.14480197
120	0x3e0a1f89	0.13488592
121	0xbdc3b3b2	-0.095557585
122	0xbe0c020f	-0.1367266
123	0x3ba9eab2	0.0051854486
124	0xbcc9eb0c	-0.024648212
125	0xbe964848	-0.2935202
126	0x3e211cf0	0.15733695
127	0x3e35c1cd	0.1774971
128	0xbddb7acd	-0.10716782
129	0xbeb38535	-0.35062566
130	0x3e2dc919	0.16971244
131	0xbc7b2a31	-0.015329883
132	0xbe0a3f48	-0.13500702
133	0x3d5f7a4a	0.054559983
134	0xbeb529f3	-0.35383567
135	0xbd749bce	-0.0597189
136	0xbd489197	-0.04896697
137	0x3e3f06f0	0.1865499
138	0xbe3539aa	-0.17697778
139	0x3e4a0427	0.19728146
140	0xbd94f18f	-0.07272636
141	0x3a4094f1	0.0007346413
142	0xbf0dc3a7	-0.55376667
143	0xbe5f9e45	-0.21837719
144	0xbeec8678	-0.46196342
145	0xbe54cd4b	-0.20781438
146	0x3e8ae765	0.27129665
147	0xbb3f0e05	-0.0029152643
148	0xbe9ea1e5	-0.3098289
149	0xbeb638bb	-0.35590157
150	0xbd877d5b	-0.066157065
151	0x3df1caac	0.11806235
152	0x3ec2cdd0	0.38047647
153	0xbe3cb61a	-0.18428841
154	0x3dcb7368	0.09934121
155	0xbc12f29d	-0.008968976
156	0xbe30a5fa	-0.17250815
157	0xbe1274fc	-0.14302438
158	0x3e8899b2	0.2667976
159	0xbf145b44	-0.5795176
160	0x3c781e68	0.015143968
161	0xbe4b28e6	-0.1983982
162	0xbe54b81d	-0.20773359
163	0xbd39ac83	-0.045330536
164	0x3e8e42b0	0.27785254
165	0xbe8f0f3a	-0.27941304
166	0x3e25e9d0	0.16202474
167	0x3e58fb51	0.2118962
168	0x3d2772cc	0.040880963
169	0xbe78b530	-0.24287868
170	0xbec3a77a	-0.38213712
171	0xbe0417f4	-0.12899762
172	0x3e58a54e	0.21156809
173	0x3e0b046a	0.13575903
174	0x3d27a919	0.04093275
175	0xbe82e9ad	-0.25568905
176	0xbd9f2c07	-0.077720694
177	0xbec33892	-0.38129097
178	0x3e11f409	0.14253248
179	0xbd317ff4	-0.043334916
180	0x3e8e4a3f	0.2779102
181	0xbe8987b5	-0.2686135
182	0xbe921cc6	-0.28537577
183	0x3e2230eb	0.15838973
184	0xbd2139fc	-0.03936194
185	0x3df7f5f8	0.12107462
186	0x3e7ef816	0.24899325
187	0x3cfc7f1a	0.030822325
188	0xbdfec8f0	-0.124406695
189	0xbe92723c	-0.2860278
190	0x3d8c0b97	0.06838148
191	0xbe8d4abc	-0.2759608
192	0x3df9a69b	0.121899806
193	0x3d6c5446	0.057697557
194	0x3e735fbc	0.23766989
195	0x3e3a18e4	0.18173558
196	0xbe2897e1	-0.16464187
197	0xbd88e504	-0.06684306
198	0x3d0714bc	0.03297876
199	0x3e10f983	0.14157681
200	0x3c47c0be	0.012191949
201	0xbb689034	-0.0035486342
202	0xbe32af6e	-0.17449734
203	0x3d39390b	0.045220416
204	0xbb855ea5	-0.0040701204
205	0x3e266999	0.1625122
206	0x3e4647fb	0.19363396
207	0x3d617fad	0.0550534
208	0x3cf9abd1	0.030477436
209	0xbe0b0242	-0.1357508
210	0x3d761477	0.06007811
211	0x3e577914	0.21042281
212	0xbd49e082	-0.049286373
213	0xbdbc7e83	-0.09203818
214	0x3e09f1b0	0.13471103
215	0xbe066844	-0.13125712
216	0x3e01c19e	0.12671515
217	0x3e3a1473	0.18171863
218	0x3e4e03b5	0.20118602
219	0xbe343503	-0.17598347
220	0xbe891524	-0.26773942
221	0xbeb1958d	-0.3468441
222	0x3dcbd028	0.09951812
223	0xbe8dc903	-0.27692422
224	0xbe5b60f5	-0.21423705
225	0x3b640cd8	0.0034797695
226	0xbec2baae	-0.3803305
227	0x3da66b65	0.08125953
228	0x3e05304a	0.13006702
229	0x3e249457	0.16072212
230	0x3e019bda	0.12657109
231	0xbdf28d07	-0.11843305
232	0xbe04eb89	-0.12980475
233	0xbe54a994	-0.20767814
234	0xbd8f1120	-0.06985688
235	0xbcac5085	-0.021034488
236	0x3dfd1ffa	0.12359615
237	0xbe8f21b7	-0.2795541
238	0xbe3cb070	-0.1842668
239	0x3e3d4e95	0.18487008
240	0xbbeeef11	-0.0072916825
241	0x3b2be1b7	0.0026227066
242	0x3c2d04fa	0.010560269
243	0x3dc7e4f2	0.09760465
244	0x3dc266bf	0.094922535
245	0xbdd623d0	-0.104560494
246	0x3d728eb3	0.05921812
247	0x3e1a33bf	0.15058802
248	0xbdd2104c	-0.10257015
249	0x3df71b9a	0.120658115
250	0xbdbee53c	-0.09321067
251	0x3e560453	0.20900087
252	0x3df6910c	0.12039384
253	0xbd228cd8	-0.0396851
254	0x3de0114c	0.10940799
255	0x3d81f81a	0.0634615

bias f4 [10]
0	0xbda79ceb	-0.081842266
1	0xbe025d5f	-0.12730931
2	0xbd2a424a	-0.041567124
3	0xbcc29fca	-0.023757834
4	0x3c8dde15	0.017317811
5	0x3d1f6429	0.03891388
6	0xbbf206ac	-0.0073860493
7	0xbde9e83c	-0.11421248
8	0x3b3ef1e1	0.002913587
9	0x3d0e8b6d	0.034800936
