artifacts/1/04a788d93e754ee68e3d840dd7aaf492/artifacts/model/data/model.pth (torch, 362823 bytes, 6 tensors)

weight f4 [100, 784]
-0.0068791173 -0.0070122397 -0.032048214 -0.030837068 -0.005588553 0.00046186364 -0.016224105 0.013453544
-0.032144945 -0.0024102586 0.03140784 -0.014567572 0.032495882 0.013479068 -0.03222314 0.02259665
-0.0041212314 -0.015943103 0.028559048 -0.028860545 0.003832319 -0.007477454 0.025504025 0.009969448
0.017160906 0.012612821 -0.008588383 -0.0075109093 -0.02943148 0.019351577 0.028356362 0.024436602
-0.02519034 0.0016046665 -0.024265124 -0.017720982 -0.017423125 0.0137225045 -0.019191965 0.0024221886
0.0066424105 0.026283432 -0.026899982 -0.0230528 -0.020281315 0.0261575 -0.010508421 0.03351458
0.015528573 0.0064271963 0.0011210903 -0.006806813 0.004480941 -0.008155167 -0.00025094408 0.0045568943
-0.027935898 -0.01871898 0.02884009 -0.028960628 -0.0025190795 0.0354038 0.015321929 0.007034545
-0.021733351 0.026731309 -0.013066157 0.008166932 0.0068771057 0.009154798 0.02186271 0.05726737
0.031699475 0.05662968 0.047669508 -0.0013959543 0.028749926 -0.015542695 -0.009366662 0.012681038
0.011791644 0.026591992 -0.011496996 5.717363e-05 0.018386556 -0.034539007 0.025723085 -0.029274749
0.0025765714 -0.0028125804 -0.009002924 0.018018646 0.047164626 0.013854013 0.0043516555 0.012868295
-0.0058048237 0.04699851 0.011628202 0.014630316 0.011076448 0.04735931 0.06294988 0.067801304
0.039050445 0.017569853 0.005968392 0.02048856 0.033657108 0.009474217 -0.01659052 -0.016788479
-0.033766754 0.007718842 -0.020394417 -0.031854767 0.03321553 -0.018102607 0.0058282204 0.029068865
0.031875674 0.022579316 0.027005449 0.05906815 0.017769838 0.020933485 -0.0023910122 0.013518524
0.041581936 0.037746727 0.010146223 0.050438583 0.031436708 0.02422588 0.009121344 -0.0054789223
0.03696901 -0.022612767 0.015764983 -0.011649045 -0.017231 0.006415895 -0.018550105 0.008678892
0.010563229 -0.032932684 0.007502727 0.036650278 0.027885651 0.0061412174 -0.017902756 -0.024857773
-0.0042019524 -0.05208578 0.018537577 0.0052401396 0.03431044 0.04191438 -0.009612576 0.014970071
0.029820625 0.019323796 -0.011035373 0.016447682 0.04162804 0.040701296 0.024826953 0.005513052
0.016679078 -0.017342402 -0.029913835 -0.036142312 0.039782654 0.032856803 -0.013068097 0.029862665
0.047758657 0.04966142 0.026467098 0.010851277 0.0035957415 -0.027932502 0.031628367 0.051151153
-0.027989468 -0.0031053473 -0.04230012 -0.013477891 -0.053286348 -0.033901673 -0.019210992 0.04297082
0.031747874 0.03773582 0.013717833 0.016499491 -0.012138758 0.018026698 -0.028312966 -0.002219173
-0.008635663 -0.0025661916 -0.037402287 0.041851863 0.05839727 0.03562366 0.030305171 -0.0078224465
-0.0006422955 -0.015488026 0.0016553478 0.011984901 -0.071050905 -0.08162785 -0.11665696 -0.11326655
-0.052951377 -0.02430862 0.0044981814 0.011924796 0.05606884 0.020611811 0.024950461 0.032642603
0.011900542 0.03435095 0.017071446 0.017765751 0.00083399826 0.030912349 -0.00894855 0.0006638333
-0.03003492 -0.016700866 -0.032588154 0.036773514 0.047634862 0.04127714 -0.013544332 -0.016798422
-0.03206889 -0.04460078 -0.09317073 -0.030318692 -0.034408845 -0.07995891 -0.0028545887 0.003879898
0.008674534 0.055602662 -0.00783275 -0.004593275 0.030242499 -0.0007728178 -0.025820078 -0.017861484
00000000: 386a e1bb eec6 e5bb fd44 03bd 059e fcbc
00000010: 2e20 b7bb 4a26 f239 6ae8 84bc 416c 5c3c
00000020: 6baa 03bd 6ef5 1dbb 82a5 003d d3ac 6ebc
00000030: 671a 053d 4fd7 5c3c 69fc 03bd 9c1c b93c
00000040: 650b 87bb 1c9b 82bc aaf4 e93c f36c ecbc
00000050: a527 7b3b 6e05 f5bb d1ed d03c e556 233c
00000060: 0795 8c3c 01a6 4e3c 4ab6 0cbc 131e f6bb
00000070: 4a1a f1bc 3387 9e3c 9a4b e83c 452f c83c
00000080: f95b cebc ac53 d23a a7c7 c6bc 982b 91bc
00000090: f1ba 8ebc 5bd4 603c 7838 9dbc 95bd 1e3b
000000a0: 94a8 d93b 5a50 d73c 5a5d dcbc 3ad9 bcbc
000000b0: 0025 a6bc 4148 d63c 832b 2cbc 9646 093d
000000c0: 8e6b 7e3c 3b9b d23b 8cf1 923a b00b dfbb
000000d0: dcd4 923b 409d 05bc 2591 83b9 0052 953b
000000e0: d3d9 e4bc 8c58 99bc 0d42 ec3c d73e edbc
000000f0: 2417 25bb 9303 113d d408 7b3c 0a82 e63b
00000100: 240a b2bc 9efb da3c 6f13 56bc 98ce 053c
00000110: 5859 e13b 02fe 153c 6d19 b33c 3191 6a3d
00000120: 4fd7 013d 86f4 673d 1a41 433d 74f8 b6ba
00000130: f784 eb3c caa6 7ebc a176 19bc 21c4 4f3c
00000140: bd31 413c 73d7 d93c e55d 3cbc b8cd 6f38
00000150: 679f 963c c678 0dbd 38b9 d23c 99d1 efbc
00000160: b2db 283b 4553 38bb 0081 13bc d79b 933c
00000170: b22f 413d f1fb 623c 5598 8e3b 8bd5 523c
00000180: 6436 bebb 8281 403d 3784 3e3c feb3 6f3c
00000190: fd79 353c d6fb 413d deeb 803d 69db 8a3d
000001a0: 5cf3 1f3d a7ee 8f3c 8092 c33b a0d7 a73c
000001b0: 09dc 093d bf39 1b3c d8e8 87bc fe87 89bc
000001c0: 024f 0abd 57ee fc3b 3112 a7bc 257a 02bd
000001d0: 020d 083d eb4b 94bc a8fa be3b d421 ee3c
000001e0: 1190 023d 42f8 b83c 883a dd3c 72f1 713d
000001f0: 0d92 913c b37c ab3c 87b2 1cbb cd7c 5d3c
00000200: d251 2a3d 509c 1a3d 583c 263c b098 4e3d
00000210: c7c3 003d 5a75 c63c b171 153c 8888 b3bb
00000220: d16c 173d 693e b9bc 9125 813c a3db 3ebc
00000230: 0728 8dbc 6e3c d23b 64f6 97bc e931 0e3c
00000240: 6511 2d3c 6ce4 06bd 70d9 f53b 9a1e 163d
00000250: 7370 e43c 443c c93b cda8 92bc 87a2 cbbc
00000260: 88b0 89bb e657 55bd 1edc 973c 7ab5 ab3b
00000270: 1b89 0c3d 6aae 2b3d 117e 1dbc 0745 753c
00000280: 624a f43c f04c 9e3c b6cd 34bc 4abd 863c
00000290: 2a82 2a3d 67b6 263d e561 cb3c d5a6 b43b
000002a0: 90a2 883c a711 8ebc dc0d f5bc f609 14bd
000002b0: 23f3 223d db94 063d 921b 56bc 8ca2 f43c
000002c0: 959e 433d c669 4b3d 87d1 d83c 8ec9 313c
000002d0: 88a6 6b3b b4d2 e4bc bf8c 013d df83 513d
000002e0: 2b4a e5bc 1583 4bbb e442 2dbd 5fd2 5cbc
000002f0: c942 5abd 7bdc 0abd 5f60 9dbc 2c02 303d
00000300: 0f0a 023d e090 1a3d c3c0 603c f129 873c
00000310: a4e1 46bc baac 933c 98f0 e7bc 8b6f 11bb
00000320: 997c 0dbc 8d2d 28bb 2433 19bd dc6c 2b3d
00000330: fa31 6f3d 1dea 113d 8d42 f83c b829 00bc
00000340: b95f 28ba 7dc1 7dbc 41f8 d83a 515c 443c
00000350: 2383 91bd 812c a7bd d8e9 eebd 4bf8 e7bd
00000360: 8be3 58bd df22 c7bc 7b65 933b 3860 433c
00000370: 71a8 653d 1ada a83c e964 cc3c 40b4 053d
00000380: 7efa 423c 95b3 0c3d 6bd9 8b3c 7b89 913c
00000390: ada0 5a3a e53b fd3c f09c 12bc 1905 2e3a
000003a0: cb0b f6bc 41d0 88bc 287b 05bd d39f 163d
000003b0: c61c 433d 3812 293d 0ce9 5dbc d89c 89bc
000003c0: ab5a 03bd 4faf 36bd 4cd0 bebd e85e f8bc
000003d0: 4af0 0cbd 7fc1 a3bd 0d14 3bbb e345 7e3b
000003e0: a21f 0e3c 9ebf 633d ef54 00bc 2f83 96bb
000003f0: 1ebf f73c ed96 4aba a184 d3bc 3f52 92bc

bias f4 [100]
0.13125353 0.006060455 -0.08105697 0.1920705 -0.09833229 0.0128942095 0.05718134 0.044363763
0.036807332 -0.035996307 0.13907549 0.06582456 0.13139261 0.103731744 -0.10828525 0.087212026
0.08705167 0.01568363 -0.17129293 -0.048119094 0.0738161 -0.13377535 -0.001516197 -0.08472037
0.028258089 0.17058624 0.065042816 -0.027831335 0.024293913 -0.016902495 0.08796623 0.001320989
0.12044431 0.0767854 0.038102288 0.15304849 0.02632008 -0.10401137 -0.102843784 0.033800315
-0.007718888 -0.07973053 0.10099405 -0.0062276986 0.1141984 -0.010480982 0.032257304 -0.0047024754
0.115936436 0.033459697 0.06766536 0.023140328 0.08877738 0.026106665 -0.05012859 0.06237697
-0.1824796 0.051120643 -0.057602722 0.035939023 0.009304251 -0.025324447 -0.044204053 0.061219297
-0.00095224334 -0.07052449 -0.06720772 0.032642677 0.044061087 0.011813302 -0.013576057 0.17872176
-0.021729523 0.08655117 0.022017483 0.028029444 0.039345972 -0.12840547 -0.011340231 0.0021300176
-0.004204866 0.09443992 -0.030721031 0.026452947 0.002619669 1.43532525e-05 0.054735545 -0.007262574
-0.02785076 0.0099410815 0.030112218 -0.018526245 0.06511615 0.09787171 -0.018038303 -0.00079044455
0.064710796 0.122792475 0.14110926 -0.06453912
00000000: 5367 063e c896 c63b 3201 a6bd 21ae 443e
00000010: 7162 c9bd 3c42 533c fb36 6a3d c7b6 353d
00000020: 49c3 163d dd70 13bd ce69 0e3e 07cf 863d
00000030: c98b 063e 4f71 d43d a8c4 ddbd 389c b23d
00000040: 2548 b23d f57a 803c 6a67 2fbe 8718 45bd
00000050: e52c 973d 68fc 08be 21bb c6ba e081 adbd
00000060: 827d e73c 29ae 2e3e 2b35 853d 8afe e3bc
00000070: 0704 c73c 1a77 8abc a427 b43d 0925 ad3a
00000080: 82ab f63d aa41 9d3d 2511 1c3d beb8 1c3e
00000090: 359d d73c ea03 d5bd c39f d2bd 3372 0a3d
000000a0: baee fcbb c349 a3bd f8d5 ce3d b911 ccbb
000000b0: dae0 e93d 6db8 2bbc 3c20 043d 3917 9abb
000000c0: 1570 ed3d 090d 093d 2394 8a3d c990 bd3c
000000d0: ead0 b53d a5dd d53c a353 4dbd fe7e 7f3d
000000e0: efdb 3abe e163 513d d5f0 6bbd cc34 133d
000000f0: db70 183c 3775 cfbc 4f0f 35bd 16c1 7a3d
00000100: f89f 79ba 256f 90bd 33a4 89bd 54b4 053d
00000110: 6679 343d 948c 413c 1c6e 5ebc d602 373e
00000120: 1d02 b2bc bd41 b13d 025e b43c 019e e53c
00000130: 3e29 213d b97c 03be 60cc 39bc c497 0b3b
00000140: f9c8 89bb b769 c13d acaa fbbc dab3 d83c
00000150: c1ae 2b3b c0ce 7037 6132 603d e3fa edbb
00000160: 4727 e4bc ebdf 223c e6ad f63c 5ac4 97bc
00000170: 9e5b 853d f770 c83d 10c5 93bc d635 4fba
00000180: 1887 843d 9f7a fb3d f27e 103e 162d 84bd

weight f4 [100, 100]
-0.03475724 0.013993673 -0.0987834 -0.060465552 -0.08543538 0.107035294 0.0013117486 0.15767759
-0.18308586 0.15109056 -0.020955782 -0.026553417 0.008922767 0.11176092 0.13991979 -0.19321063
0.024723195 0.045684166 -0.058355764 -0.079748005 0.0023417363 -0.13542959 0.080972314 -0.085501984
-0.119642675 0.038170956 -0.032089587 0.16003397 0.103199326 -0.06289183 0.089894004 -0.083599046
0.12991406 -0.058583267 0.05722676 0.14944434 0.133978 0.15861474 -0.060894076 -0.0095874695
-0.106764495 0.11182765 0.21480067 0.07470138 -0.09513259 0.11573599 0.09277517 -0.10743719
-0.0036747896 -0.05433726 -0.20267269 -0.036371697 -0.1076432 0.15360354 -0.06138882 0.07391233
-0.1544732 -0.004952158 0.035569996 0.10436885 0.15649445 0.05998738 -0.1464129 0.0062064105
0.1458919 -0.11428104 -0.0540353 0.09318066 0.09939533 0.11895449 -0.048579335 0.08689445
-0.0047046244 0.12093225 0.09547358 -0.20564994 -0.009104012 0.13138549 -0.1263617 -0.01623306
-0.06182991 -0.05694817 -0.0025962968 0.18493335 -0.02728594 0.09286184 0.039782003 0.033671714
-0.080146536 0.04669744 -0.12221871 0.033254158 -0.020103045 0.009344865 -0.08602664 0.015962876
0.16134807 0.13202138 -0.12311284 -0.05885642 -0.05417383 0.15868919 -0.20502508 0.13088517
-0.047898095 -0.0012352224 0.31284395 0.042826828 -0.18387844 -0.12421766 -0.0043992363 -0.12022494
0.08867299 0.1484139 -0.049494993 0.07919456 0.109374695 0.20880345 -0.10938298 0.09344345
0.13564056 -0.179546 0.123134494 -0.0034620315 0.1489632 0.16262637 -0.15085728 -0.10642215
-0.11774617 0.09579683 -0.0906045 0.014102267 0.16517809 -0.049699172 0.17158234 -0.06308537
0.19047345 -0.10166646 0.10437538 -0.09987504 -0.064585775 0.1569492 0.13344306 0.0284334
0.16187944 0.21245053 0.20525134 -0.056288343 -0.09176347 0.21199267 0.09435041 0.04622539
-0.043650497 0.0657744 0.07243752 -0.10374712 -0.049144205 0.0897946 -0.059843365 0.24552439
-0.15902989 0.07369273 -0.0869326 0.052088194 0.2086096 -0.07968713 0.015832571 0.050267477
0.13605613 0.09440393 -0.04971959 -0.15663302 -0.020224761 -0.01326499 -0.12340355 0.045027696
0.055296805 0.18412152 -0.14042619 0.0026328773 0.08224833 0.13329531 0.04722038 0.062223215
-0.08346944 -0.10214147 -0.2518964 0.047148887 0.060091723 0.011789606 0.080021046 -0.0809476
0.010786899 0.056125168 -0.089136936 0.028275045 0.047368906 -0.1592096 -0.2038787 0.11505305
-0.0733673 0.05343046 0.00878029 -0.0729801 -0.025958356 0.025307676 -0.061902873 0.019382752
0.089452356 -0.10001799 -0.042391866 -0.10053037 0.04690846 0.03130171 0.03367278 0.023605661
-0.01728577 -0.058194537 0.13057996 0.071294874 -0.01029576 -0.014201923 0.11456526 0.026613351
0.021380953 -0.07586365 -0.0051054847 0.062528536 -0.020843737 0.08409861 0.010536124 -0.05436201
-0.0969186 -0.0027476784 0.04847821 0.12182492 -0.06440787 -0.004574641 0.0102621885 0.013988631
-0.09523024 0.0054554 -0.009157817 0.016118795 0.0062236353 -0.034730274 -0.033025153 -0.00786633
-0.05582182 0.018196795 0.04164712 -0.06542428 -0.103339165 -0.044119924 0.049276084 -0.09986265
00000000: 9c5d 0ebd b845 653c f44e cabd baaa 77bd
00000010: bff8 aebd 5235 db3d fbee ab3a 3c76 213e
00000020: dc7a 3bbe 7cb7 1a3e 76ab abbc 8d86 d9bc
00000030: cc30 123c e9e2 e43d 2247 0f3e 02d9 45be
00000040: 4c88 ca3c 521f 3b3d 7406 6fbd ec52 a3bd
00000050: d177 193b 0eae 0abe d0d4 a53d aa1b afbd
00000060: 3807 f5bd 2659 1c3d 5f70 03bd f2df 233e
00000070: 2b5a d33d 6fcd 80bd 591a b83d fa35 abbd
00000080: 3108 053e 02f5 6fbd 9b66 6a3d f007 193e
00000090: 8731 093e e76b 223e 116c 79bd c314 1dbc
000000a0: 58a7 dabd e505 e53d b5f4 5b3e 0afd 983d
000000b0: e0d4 c2bd fe06 ed3d e900 be3d 0808 dcbd
000000c0: bdd4 70bb bf90 5ebd 6e89 4fbe 7dfa 14bd
000000d0: 0a74 dcbd 3f4a 1d3e d872 7bbd 595f 973d
000000e0: 392e 1ebe b645 a2bb d8b1 113d 56bf d53d
000000f0: 1540 203e 54b5 753d 43ed 15be 255f cb3b
00000100: b064 153e 2e0c eabd 1e54 5dbd 80d5 be3d
00000110: c78f cb3d 699e f33d 20fb 46bd b8f5 b13d
00000120: 4029 9abb 54ab f73d a787 c33d e695 52be
00000130: fe28 15bc eb89 063e f664 01be 32fb 84bc
00000140: 5c41 7dbd 7c42 69bd a226 2abb 2b5f 3d3e
00000150: c386 dfbc 592e be3d 74f2 223d 5aeb 093d
00000160: de23 a4bd d145 3f3d ce4d fabd 8335 083d
00000170: 24af a4bc 341b 193c bc2e b0bd 94c4 823c
00000180: 6e38 253e 9d30 073e 9622 fcbd 6e13 71bd
00000190: 61e5 5dbd 6b7f 223e 18f2 51be c306 063e
000001a0: cb30 44bd 30e7 a1ba 152d a03e 2f6b 2f3d
000001b0: a14a 3cbe d465 febd 7827 90bb 7e38 f6bd
000001c0: 2f9a b53d d0f9 173e 43bb 4abd c230 a23d
000001d0: d7ff df3d 92d0 553e 2f04 e0bd 485f bf3d
000001e0: 5ce5 0a3e e8da 37be f02d fc3d 40e3 62bb
000001f0: cf89 183e 8787 263e 557a 1abe dbf3 d9bd
00000200: e724 f1bd 2131 c43d da8e b9bd 320d 673c
00000210: 7224 293e 5c91 4bbd 48b3 2f3e e732 81bd
00000220: 790b 433e 8136 d0bd c2c2 d53d 498b ccbd
00000230: 8c45 84bd 4bb7 203e 4ca5 083e 29ed e83c
00000240: b9c3 253e a28c 593e 682d 523e 9b8e 66bd
00000250: 7cee bbbd 9b14 593e ca3a c13d d656 3d3d
00000260: ddca 32bd bbb4 863d 1f5a 943d 5f79 d4bd
00000270: 6f4b 49bd 3be6 b73d 511e 75bd bf6a 7b3e
00000280: bbd8 22be 37ec 963d b809 b2bd 6e5a 553d
00000290: c19d 553e 0233 a3bd 4fb3 813c 45e5 4d3d
000002a0: 4c52 0b3e d956 c13d c5a6 4bbd 6864 20be
000002b0: 66ae a5bc 6755 59bc 00bb fcbd f66e 383d
000002c0: e77e 623d 5a8a 3c3e e2cb 0fbe 5a8c 2c3b
000002d0: d071 a83d 917e 083e 286a 413d c5dd 7e3d
000002e0: 07f2 aabd 8c2f d1bd 91f8 80be 311f 413d
000002f0: bd22 763d 3129 413c 13e2 a33d dbc7 a5bd
00000300: 89bb 303c 81e3 653d 6d8d b6bd 11a1 e73c
00000310: e605 423d d707 23be 94c5 50be efa0 eb3d
00000320: 9841 96bd e6d9 5a3d 35db 0f3c 9776 95bd
00000330: 9ea6 d4bc 0b52 cf3c de8d 7dbd 94c8 9e3c
00000340: cc32 b73d 3bd6 ccbd 18a3 2dbd dee2 cdbd
00000350: 1623 403d 3936 003d 78ec 093d a960 c13c
00000360: e39a 8dbc 655d 6ebd c1b6 053e 0c03 923d
00000370: 8caf 28bc 2faf 68bc 31a1 ea3d 3e04 da3c
00000380: 1c27 af3c 675e 9bbd e94b a7bb f60e 803d
00000390: 7cc0 aabc e43b ac3d b59f 2c3c b3aa 5ebd
000003a0: 427d c6bd 6512 34bb 1691 463d 587f f93d
000003b0: 46e8 83bd dfe6 95bb bd22 283c 9230 653c
000003c0: 1208 c3bd 36c3 b23b ab0a 16bc 900b 843c
000003d0: a3ef cb3b 5541 0ebd 6245 07bd c8e1 00bc
000003e0: 6ca5 64bd 7211 953c 2c96 2a3d 2afd 85bd
000003f0: 7ca3 d3bd 18b7 34bd b8d5 493d ca84 ccbd

bias f4 [100]
0.075738996 0.07734113 -0.07577674 -0.052303445 0.016093254 -0.03418683 0.06613422 0.012029833
0.031964194 -0.06719641 -0.045679476 0.13314928 0.14189531 0.05948742 -0.009749015 0.042164795
-0.046361964 0.048177645 -0.039479982 0.109154776 0.033285946 0.099149354 -0.0341696 0.002240734
-0.09138788 -0.024819192 -0.016209632 -0.004920022 0.058773365 0.03838634 0.011894602 0.050772104
0.0398163 0.0652845 -0.12919155 0.160747 0.13645509 0.042093784 0.06133417 0.08023208
0.11297971 0.025279943 -0.079164214 0.14023325 0.072677985 0.13448817 0.06616196 0.030127272
-0.03208807 0.070125155 -0.014405477 -0.079039805 0.11331664 0.04365925 0.08406417 0.027663007
-0.0792894 0.037042953 0.12267304 -0.06836514 -0.06501026 0.14140086 0.03715175 -0.09062407
0.10746994 0.00845246 0.1400936 0.06806125 -0.06774173 0.009158555 0.09252763 0.06018956
0.12023301 -0.034137614 0.10269037 -0.012503422 0.088659726 -0.04379759 0.10973313 -0.05200984
0.075638056 0.075431444 0.04740291 0.052811332 0.13788319 -0.023409689 0.11798481 -0.04018502
-0.12369919 -0.090015784 -0.07518387 0.039741483 0.06309875 0.057216678 0.079417706 0.1119
-0.0324358 0.18511663 0.083373114 0.14764906
00000000: 0c1d 9b3d 0765 9e3d d630 9bbd 233c 56bd
00000010: 00d6 833c 7d07 0cbd 6171 873d c718 453c
00000020: e3ec 023d 459e 89bd 671a 3bbd 4958 083e
00000030: 014d 113e 15a9 733d 55ba 1fbc feb4 2c3d
00000040: 0be6 3dbd ec55 453d c3b5 21bd 8a8c df3d
00000050: d856 083d d10e cb3d 6cf5 0bbd 47d9 123b
00000060: 9229 bbbd 9e51 cbbc 10ca 84bc 2338 a1bb
00000070: 57bc 703d ff3a 1d3d 94e1 423c 69f6 4f3d
00000080: 6b16 233d e1b3 853d ca4a 04be dd9a 243e
00000090: e2ba 0b3e 886a 2c3d 8a39 7b3d b750 a43d
000000a0: e861 e73d e217 cf3c d920 a2bd 4e99 0f3e
000000b0: 32d8 943d 44b7 093e ec7f 873d 78cd f63c
000000c0: c86e 03bd c79d 8f3d f304 6cbc 9fdf a1bd
000000d0: 8e12 e83d 0bd4 323d d629 ac3d 889d e23c
000000e0: 7b62 a2bd 5aba 173d 013c fb3d 0603 8cbd
000000f0: 1924 85bd 63cb 103e 6f2c 183d 1d99 b9bd
00000100: 3319 dc3d 307c 0a3c b274 0f3e b263 8b3d
00000110: 2dbc 8abd c40d 163c 207f bd3d 5489 763d
00000120: b93c f63d e2d3 0bbd 544f d23d 27db 4cbc
00000130: 3b93 b53d 1a65 33bd c3bb e03d 4508 55bd
00000140: 20e8 9a3d cd7b 9a3d 8e29 423d b250 583d
00000150: 4031 0d3e adc5 bfbc 05a2 f13d 0c99 24bd
00000160: 0056 fdbd 325a b8bd 00fa 99bd f7c7 223d
00000170: eb39 813d 095c 6a3d c0a5 a23d d42b e53d
00000180: 67db 04bd 378f 3d3e 86bf aa3d 5131 173e

weight f4 [10, 100]
-0.1351061 0.33439714 0.1212517 -0.30963537 -0.005922427 -0.051207535 -0.18149246 -0.087507755
-0.0012711888 -0.051189326 -0.0070343097 -0.38342002 -0.31231415 0.4882547 0.2720162 0.04990171
0.111465156 -0.063708045 -0.049675 -0.20066497 -0.07428208 0.44952157 0.010972204 -0.20818633
-0.08895602 -0.02455518 -0.35930178 0.39087003 -0.101540916 -0.1432038 0.1351412 0.3976472
-0.060653053 -0.08696308 0.40228605 -0.010565331 -0.10658474 -0.005769288 -0.18982679 -0.10766243
0.32623377 -0.04438937 0.44336545 -0.15989953 0.12074895 -0.2376861 -0.09156635 -0.15121968
0.27821693 -0.054549515 -0.20474988 -0.07272636 0.3786848 0.2742164 -0.4627792 -0.08165531
0.267372 -0.26248187 -0.18204506 -0.06724273 0.09622692 -0.347871 0.06446425 -0.085038744
0.1708245 -0.057218563 0.17583005 -0.36411902 -0.02147698 0.012258159 -0.17388065 -0.23901558
-0.4323094 0.04964528 -0.24731599 -0.05130198 0.57243335 0.05206121 -0.17530987 0.0824038
-0.61132854 0.107609585 0.00900398 0.61680347 -0.20789152 0.091829725 0.10064933 -0.12728937
0.13897175 -0.04478555 0.030000487 0.15743542 -0.04075134 0.18694326 0.057859767 0.00017447837
-0.09626645 -0.5223642 -0.05785367 -0.0013021713 -0.31596118 -0.52126527 0.13000885 0.036166903
0.11313671 0.0100742 -0.43706718 0.12572141 0.070815995 -0.06736803 -0.06517119 0.081902005
0.12128478 -0.07440309 -0.29655647 0.05193971 0.32523388 0.36242652 -0.041951254 -0.019033406
0.011778845 -0.23656708 -0.3269613 -0.15471372 -0.046825815 -0.14569145 0.12891899 -0.010157237
0.26467064 0.16023748 -0.121638395 -0.31706405 0.25513208 -0.11370314 -0.3182319 0.04115405
0.31336644 -0.11238073 0.07024059 0.050682135 0.1853363 0.027338523 0.1366514 0.16703436
-0.12438563 0.44700184 0.048972193 -0.11344511 -0.67564636 -0.08607065 0.5449807 0.014650584
-0.18876755 -0.31735504 0.50144595 -0.12187587 0.016314982 -0.07020601 -0.037051134 -0.06147486
0.03352642 0.116143495 0.019234989 -0.030480351 0.12788413 0.09093453 -0.086809866 0.564737
-0.021586401 0.14270854 -0.22476454 0.4145302 0.48634917 -0.078503035 -0.19762221 0.10266385
-0.24275336 -0.11504968 0.27755374 0.013527054 -0.117437884 0.40147156 -0.0667675 -0.28306317
0.15645751 0.21529521 -0.4594108 -0.028670782 0.059704073 -0.28424436 0.066187285 -0.09190793
-0.02206703 0.1450931 0.21649657 -0.147817 -0.072882116 -0.3315029 -0.3462446 -0.056506768
-0.08060023 -0.18789975 0.043966576 0.078841954 0.33196214 0.050382122 -0.55950683 0.25484696
-0.19094504 0.1142876 -0.03177716 -0.26430592 0.08280623 -0.24740306 -0.028016286 0.5562017
0.34852266 -0.05210469 -0.024588447 0.20421314 -0.049850687 -0.5017884 0.47641945 0.26948145
-0.016929064 0.08473342 -0.23961325 -0.3628116 0.2518407 0.25581595 0.47488487 0.17484868
-0.1029343 -0.10150683 0.3567892 -0.045128744 0.08849522 -0.51614934 0.018526414 0.3010228
0.38013643 0.051879134 0.013043109 0.3856318 0.020618152 0.09350711 -0.09211606 0.2902119
0.12994757 0.27537754 -0.44962603 0.0895673 0.09777435 0.19813843 0.08454187 -0.5958281
00000000: 4159 0abe 1a36 ab3e d052 f83d 8788 9ebe
00000010: eb10 c2bb febe 51bd 29d9 39be 4437 b3bd
00000020: 059e a6ba e6ab 51bd 1180 e6bb a14f c4be
00000030: a4e7 9fbe 85fc f93e b545 8b3e bc65 4c3d
00000040: d847 e43d 5d79 82bd 0378 4bbd 1e7b 4dbe
00000050: 3421 98bd b127 e63e c2c4 333c cc2e 55be
00000060: 932e b6bd f227 c9bc 67f6 b7be 1e20 c83e
00000070: aff4 cfbd 04a4 12be 7462 0a3e 6a98 cb3e
00000080: 566f 78bd b319 b2bd 70f8 cd3e 361a 2dbc
00000090: 1a49 dabd 4c0c bdbb f461 42be 1f7e dcbd
000000a0: 1d08 a73e a1d1 35bd cc00 e33e b4bc 23be
000000b0: 3a4b f73d fc63 73be 2387 bbbd 55d9 1abe
000000c0: 7372 8e3e 506f 5fbd f4a9 51be 8ff1 94bd
000000d0: f9e2 c13e 1866 8c3e 65f1 ecbe e63a a7bd
000000e0: fce4 883e 0664 86be 056a 3abe 8eb6 89bd
000000f0: 9f12 c53d 261c b2be d505 843d cb28 aebd
00000100: 9eec 2e3e 035e 6abd cb0c 343e cf6d babe
00000110: 7ef0 afbc 72d6 483c c50d 32be 80c0 74be
00000120: a857 ddbe d958 4b3d 6740 7dbe 0622 52bd
00000130: fe8a 123f 233e 553d 6e84 33be 53c3 a83d
00000140: 0780 1cbf 6a62 dc3d 6e85 133c d5e6 1d3f
00000150: 84e1 54be 3911 bc3d 3c21 ce3d 2558 02be
00000160: 9c4e 0e3e 0e71 37bd 95c3 f53c c036 213e
00000170: e1ea 26bd 0e6e 3f3e 5dfe 6c3d 2ef4 3639
00000180: 5827 c5bd a9b9 05bf f8f7 6cbd 9ead aaba
00000190: aac5 a1be a471 05bf 0a21 053e bf23 143d
000001a0: 38b4 e73d 420e 253c 45c7 dfbe 1dbd 003e
000001b0: fa07 913d 40f8 89bd 7978 85bd 3dbc a73d
000001c0: 2864 f83d a660 98bd 40d6 97be bcbe 543d
000001d0: 0e85 a63e f88f b93e 14d5 2bbd f2eb 9bbc
000001e0: 0ffc 403c a43e 72be 7967 a7be 466d 1ebe
000001f0: 6dcc 3fbd 2430 15be 5703 043e 8a6a 26bc
00000200: e982 873e 4b15 243e 8d1d f9bd 3856 a2be
00000210: aca0 823e 31dd e8bd 4bef a2be 2691 283d
00000220: 9171 a03e de27 e6bd 4cda 8f3d 1298 4f3d
00000230: cdc8 3d3e 0af5 df3c 58ee 0b3e 0e0b 2b3e
00000240: e5bd febd 6ddd e43e 1197 483d e955 e8bd
00000250: 29f7 2cbf cf45 b0bd db83 0b3f 0109 703c
00000260: 484c 41be 5c7c a2be c35e 003f 0e9a f9bd
00000270: ffa6 853c 2bc8 8fbd eec2 17bd 10cd 7bbd
00000280: 0053 093d a4dc ed3d b292 9d3c eeb1 f9bc
00000290: 0ff4 023e e23b ba3d 5fc9 b1bd 9b92 103f
000002a0: f7d5 b0bc 3022 123e ad28 66be 4d3d d43e
000002b0: c202 f93e 33c6 a0bd 7a5d 4abe 6d41 d23d
000002c0: 5694 78be 2b9f ebbd 861b 8e3e 94a0 5d3c
000002d0: 4683 f0bd ae8d cd3e 66bd 88bd a8ed 90be
000002e0: 6636 203e 5976 5c3e e437 ebbe fdde eabc
000002f0: 428c 743d 7a88 91be 338d 873d 3a3a bcbd
00000300: ebc5 b4bc 4993 143e 47b1 5d3e 575d 17be
00000310: 3843 95bd c0ba a9be f946 b1be a473 67bd
00000320: bc11 a5bd cb68 40be 4c16 343d e477 a13d
00000330: f1f6 a93e 7c5d 4e3d d73b 0fbf 4d7b 823e
00000340: 1987 43be 9e0f ea3d c428 02bd 1b53 87be
00000350: 5096 a93d 3a57 7dbe 6982 e5bc 3c63 0e3f
00000360: 9071 b23e ba6b 55bd b66d c9bc 401d 513e
00000370: 3c30 4cbd 3475 00bf 40ed f33e 79f9 893e
00000380: d2ae 8abc b788 ad3d 2d5d 75be 71c2 b9be
00000390: 44f1 803e 4ffa 823e 1c24 f33e 880b 333e
000003a0: 38cf d2bd d0e2 cfbd 13ad b63e ebd8 38bd
000003b0: fb3c b53d 5d22 04bf b5c4 973c a91f 9a3e
000003c0: 3ea1 c23e 377f 543d c4b2 553c 8871 c53e
000003d0: 66e7 a83c a880 bf3d 58a7 bcbd a796 943e
000003e0: fa10 053e 49fe 8c3e 6235 e6be 106f b73d
000003f0: eb3d c83d cde4 4a3e 4a24 ad3d 3188 18bf

bias f4 [10]
-0.13779236 0.09069831 -0.060414117 -0.15053728 0.059907574 0.1971392 -0.12543605 0.058268882
-0.27569506 -0.025305249
00000000: 7119 0dbe 09c0 b93d cb74 77bd 7226 1abe
00000010: a561 753d dcde 493e 4f72 00be 5aab 6e3d
00000020: e727 8dbe f44c cfbc
