artifacts/1/86a02d7f92b84eca9f674154f102f78e/artifacts/model/data/model.pth (torch, 362887 bytes, 6 tensors)

weight f4 [100, 784]
000000 a4 35 41 3c ce 7e db 3c e6 5d 3c bc 00 cc 6f 38
       0.011792574 0.026793864 -0.0114969965 5.717203e-05
000010 68 9f 96 3c c6 78 0d bd 02 86 d3 3c 13 ef f1 bc
       0.018386558 -0.034539007 0.025820736 -0.029532945
000020 40 09 01 3a dc f7 c6 bb e7 16 9a bc 88 ad 9a 3b
       0.0004922338 -0.0060720276 -0.018809749 0.0047203936
000030 17 e7 f1 3c 3b 2e 2b bc ac b2 ad bc 98 68 58 bc
       0.029529138 -0.010448034 -0.021203361 -0.013208531
000040 a8 fd 10 bd a2 10 84 3c ee 82 8c bc a5 3e c3 bc
       -0.035398155 0.016121212 -0.017152276 -0.023833582
000050 03 8d a8 bc 3a 37 a8 3c 2a f0 9a 3c 12 8e e0 3c
       -0.020575052 0.020534147 0.018913347 0.027411494
000060 b0 3e 54 3c 06 6a 43 bc 60 84 23 bc 64 de 2c 3c
       0.012954399 -0.011927133 -0.009980291 0.010551069
000070 fe 80 f0 3c 84 18 1f 3c c7 6d 8a bc fe 87 89 bc
       0.029358383 0.009710435 -0.016898049 -0.016788479
000080 0c 4f 0a bd 96 d5 fc 3b 31 f6 a3 bc a8 38 02 bd
       -0.03376679 0.007715891 -0.020014854 -0.031792313
000090 83 39 00 3d cb 03 be bc b8 61 85 bb 41 6a 27 3c
       0.031304847 -0.023195168 -0.004070487 0.010218204
0000a0 c4 61 88 3a ea c3 c5 bc 51 c8 ec bc 8d 68 e9 3c
       0.0010405113 -0.02414127 -0.028904112 0.028492237
0000b0 45 26 be 3b d3 94 f2 3c 02 8b 44 bc 1c f8 2b 3c
       0.005802902 0.02961198 -0.011996033 0.010496166
0000c0 5c f7 05 bc 9b 87 d0 ba 86 40 b2 bc eb c1 45 3c
       -0.008176651 -0.0015909554 -0.021759283 0.012070159
0000d0 94 00 39 3c 80 21 41 ba 92 99 03 bc 8a 59 b4 bc
       0.011291642 -0.00073673576 -0.0080322195 -0.022015352
0000e0 86 53 ca 3c 18 cc d9 bc 70 b6 6f 3c a0 c1 44 bc
       0.02469803 -0.026586577 0.014630899 -0.012009054
0000f0 0a 2c 8d bc 35 2c d2 3b ce db 97 bc 86 f7 07 3c
       -0.017232914 0.0064139613 -0.018537428 0.00829876
000100 63 ee e5 3b c8 09 da bc a8 30 af 3b 69 f9 5c 3c
       0.0070169433 -0.026615992 0.0053463764 0.013487198
000110 b6 cb 48 3c 21 6a c0 bb 99 f5 f6 bc 64 41 3b bb
       0.0122556 -0.0058720266 -0.030146407 -0.0028572911
000120 fd 6a 81 3c 46 1d 2a bc 98 40 83 3c 2a 13 d8 3c
       0.015798086 -0.010382956 0.016022012 0.026376326
000130 b3 f6 8c bc 90 6d 78 3a 20 d9 77 3c 5e a6 41 3b
       -0.01720748 0.00094767753 0.01512745 0.0029548625
000140 a0 5a 44 3b 7a 74 92 3b 1e 01 e6 bc 00 f1 37 3b
       0.0029961243 0.0044694515 -0.028076705 0.0028067231
000150 ce 98 ca 3c f1 d1 03 3d 61 f6 ab 3c c7 d3 9c 3b
       0.024731066 0.032182638 0.020991506 0.004785988
000160 7b 95 88 3c 1a 94 92 bc 32 e9 f5 bc da 84 03 bd
       0.01667284 -0.017892886 -0.030018423 -0.03210912
000170 c3 b3 08 3d e6 3e b3 3c 0f 5b e1 bc b1 26 83 3b
       0.03337456 0.021880578 -0.02750924 0.004002415
000180 99 f0 91 3c ae 98 eb 3c fd 08 db 3c c5 18 18 3d
       0.017814921 0.028759327 0.026737684 0.037132997
000190 ad de 92 3b 17 17 35 bb b1 0d 1b 3d c5 45 f9 3c
       0.0044821114 -0.002763217 0.037854854 0.030428777
0001a0 ec fb 4a bc c3 0e 20 3d 9a e2 a9 3c 8c ba b0 3c
       -0.012389164 0.039076578 0.020737935 0.021573327
0001b0 b5 62 a6 bc 14 62 38 3c 00 05 4b bc 46 9a e4 3c
       -0.020310739 0.011253852 -0.012391329 0.027905595
0001c0 f8 94 d2 bb 3a cd 63 3c 05 02 cf 3b 68 70 75 3c
       -0.00642645 0.01390391 0.0063173794 0.014980413
0001d0 61 b8 5a bc b5 0d 51 3c e4 e4 0a bd 29 d8 2a bb
       -0.013349623 0.012759616 -0.033909693 -0.0026068783
0001e0 6c 87 23 bd a0 8e 3b bd b8 4a 10 bd 5b 7f ce 3c
       -0.03992407 -0.045790315 -0.035227507 0.025207212
0001f0 c8 5e 43 3c f3 be dd 3c 3d 52 1e 3d 04 86 93 bb
       0.011924453 0.02706859 0.038652647 -0.00450206
000200 54 1a ee 3b e3 f9 dc 3c bc cf 98 3b ff 2a 39 3d
       0.007266322 0.026974624 0.0046634357 0.04520702
000210 37 10 16 bc 71 b3 6d 3b db 1f a3 bc b9 33 16 bc
       -0.009159139 0.0036270285 -0.01991265 -0.009167605
000220 9d 30 19 3d 60 36 05 3d d5 f9 d3 3c ec ac e1 3c
       0.037399877 0.03252256 0.025875965 0.027548276
000230 47 13 02 3d 5c d5 15 bc 36 4e 80 3c 1d ca f7 3c
       0.031756666 -0.009145107 0.015662294 0.030247742
000240 55 7b a7 3b 3d 92 ac 3c a6 fb aa bb 28 fc 88 b9
       0.005111138 0.021065826 -0.005217987 -0.00026127812
000250 90 76 fc bc 78 f1 3f 3c 12 5e 7d 3c 3e e9 88 3c
       -0.030818254 0.0117152855 0.015464323 0.016712781
000260 78 c5 62 39 b2 db c1 ba 00 e5 9a bb 18 65 40 3d
       0.00021626602 -0.0014790206 -0.004727006 0.04697141
000270 5e a7 4d 3d 8a 71 b7 3c d7 a2 32 3b a6 ca 2e 3d
       0.050208442 0.022393007 0.0027257705 0.04267373
000280 4e 52 34 3d 03 2a fb 3c be 74 ca 3b d8 3c 3b 3d
       0.044023804 0.030659681 0.0061784675 0.045712322
000290 5b de bd 3c f1 ac b8 bc 43 96 0f 3d 95 d0 dd 3c
       0.023177316 -0.022543402 0.03505541 0.027076999
0002a0 7c 47 55 bc 11 63 a4 3c 6d 76 a8 bc 25 18 32 bc
       -0.0130175315 0.02006677 -0.020564282 -0.010870014
0002b0 10 d6 96 3c fc 0b 89 bc 06 ba 48 bd 05 dc b0 bc
       0.01841262 -0.016729347 -0.04900553 -0.021589288
0002c0 84 f4 66 bb 0d ca 45 3c 55 b4 19 3d e0 8c 90 3d
       -0.0035240958 0.012072098 0.037525494 0.0705812
0002d0 2b 83 ef 3c ad 78 10 3c bd a6 2c 3d 80 5f 49 3d
       0.02923735 0.008817834 0.0421512 0.04916334
0002e0 34 9c 25 3d 46 05 82 bc fa 98 46 3c 5f d0 52 3c
       0.04043217 -0.015871655 0.012121433 0.012867062
0002f0 39 97 57 3c e4 b2 05 3d 62 58 a7 bb ee 90 d4 3c
       0.013158613 0.032641307 -0.0051069716 0.025948014
000300 17 7e 31 3d 81 2e 18 3c 2d 3b b8 bc 64 37 50 bc
       0.04333314 0.009288431 -0.022489155 -0.012708519
000310 4c 8b ff 3b 28 cc e1 bc 67 ac 86 3c 8f 44 20 bd
       0.007798588 -0.02756317 0.01643963 -0.039127883
000320 78 05 53 bd 96 8d 4a bd 00 f1 a0 bc bf d4 dd 3c
       -0.051518887 -0.049451433 -0.019646168 0.027078984
000330 06 f3 be bb 92 bc 80 3d 91 88 fa 3c 38 fb 21 3d
       -0.0058273105 0.06285967 0.030582698 0.03954622
000340 45 0a 9e 3c 51 83 57 bc a0 a6 7c 3d 23 fd 64 3d
       0.019292006 -0.013153867 0.061682343 0.055905472
000350 12 83 8a 3d 6f 2c d9 3c 28 d7 c0 3b 8a ae 7d 3d
       0.06763281 0.026510445 0.0058850236 0.06193403
000360 36 55 c1 3c ea e1 12 3d 6e da a0 bc cd 1b 08 bc
       0.023600202 0.03585998 -0.019635405 -0.0083074095
000370 2f f4 f5 bc a1 ce 05 bc 2b f3 06 3c 25 0d e5 bc
       -0.030023662 -0.00816694 0.008236687 -0.02796037
000380 87 83 3a 3c ea 92 97 3c 0c 79 35 3b 5c 05 00 bd
       0.011383898 0.018502671 0.0027690558 -0.03125511
000390 55 8e 3a bd 84 38 b3 bc b9 73 a2 3c 0e 95 45 3d
       -0.045545895 -0.021877535 0.019830571 0.048237853
0003a0 bf 93 52 3d 30 f0 fe 3c a9 34 2c 3d b6 b6 d5 bb
       0.051410433 0.03112039 0.04204241 -0.006522025
0003b0 0c b0 02 bd 06 d9 1e 3c a9 84 6f bc 98 3b d2 3c
       -0.031906173 0.009695297 -0.014619031 0.025663182
0003c0 b8 cd be bc 16 d9 90 bc 3f 22 d4 bc 59 c4 81 3c
       -0.023291454 -0.01768164 -0.025895236 0.015840696
0003d0 44 7d b7 bc a9 96 03 3c 8c 86 44 bb 6c 89 12 3c
       -0.022398598 0.008031526 -0.0029987423 0.008943897
0003e0 06 ab 57 3a 91 2f 11 bc ce 9c db bb 89 58 a3 3b
       0.00082270836 -0.008861438 -0.006702042 0.0049849194
0003f0 9e f5 90 3c 14 71 d4 bc 2b d7 dd 3c 4f b7 4e bc
       0.017695244 -0.025932826 0.02708014 -0.012616946

bias f4 [100]
000000 ec 1a 0c bd b1 d2 d8 3a ab 1d 52 bc 49 e7 c2 3c
       -0.034205362 0.0016542283 -0.012824456 0.023791926
000010 19 f0 ee bc 73 79 46 3d 07 b3 e5 3d 05 16 ff bc
       -0.029167222 0.048455667 0.112157874 -0.03113843
000020 4b bf 2f bd c4 9e 8c 3d 51 3d 87 3d 42 c5 28 3c
       -0.04290704 0.0686622 0.06603492 0.010300936
000030 cc 63 dc 3d e9 b6 cf 3c 59 09 72 bc 79 4c 3d 3d
       0.10761222 0.025355773 -0.0147727365 0.046215508
000040 af 42 34 3d 59 ba 10 3d b9 dd ee 3c 6b cb 4c 3c
       0.044008907 0.035333965 0.02915846 0.0124996705
000050 a5 92 68 3d 19 68 74 bc 0d e3 12 3d 30 07 38 3c
       0.056780476 -0.014917397 0.035861064 0.011232182
000060 73 d4 0d bb e8 64 c9 3d 83 48 b2 bc 17 d5 59 3d
       -0.0021641522 0.098336995 -0.021763092 0.053181734
000070 53 47 d2 bc 58 aa 08 3d 39 2d 16 bc f9 b4 4c 3d
       -0.025668776 0.033365577 -0.009166055 0.049977276
000080 31 74 ab bd f2 34 83 3d 9a 70 7f 3c 3e 91 83 3d
       -0.08371771 0.06406583 0.015590811 0.06424187
000090 d3 77 8c bc 52 be 9a 3c b1 40 cf bb 9d 9d eb 3c
       -0.01714698 0.01888958 -0.0063248505 0.02876168
0000a0 07 84 72 3c 12 f6 82 3d b3 03 ad 3c aa aa 0a 3c
       0.014801986 0.063945904 0.021119928 0.008463541
0000b0 0f 83 9d bd 87 61 b1 3c 5e bd 38 3d fd e2 08 bc
       -0.07691013 0.02165295 0.04510247 -0.0083548995
0000c0 17 c8 b1 3c f2 2c 87 ba 51 78 08 3d 4e 5f 3b 3d
       0.021701856 -0.0010313077 0.033317868 0.045745187
0000d0 12 1e d9 3d 9f 5b 03 bd ab a3 a6 3b 9c fc 8c 3d
       0.106014386 -0.0320698 0.0050854287 0.06884119
0000e0 b4 10 ff 3c c4 3a 21 3d fc a3 01 3c af 8e 1b bc
       0.031135894 0.039362684 0.007912632 -0.009494468
0000f0 b0 c6 50 bc d1 f4 91 bc f2 20 42 3c bc 33 21 3d
       -0.012742683 -0.017816933 0.011848675 0.03935598
000100 c1 8d b3 3b 32 6c 84 3d b0 01 f9 3d d6 29 89 bd
       0.005479545 0.06465949 0.12158525 -0.06697433
000110 5c 75 04 bc cc 6b dd bc bb 8c 06 bc e9 f3 88 3c
       -0.008084621 -0.02702894 -0.008212264 0.016717868
000120 a0 c9 11 bd 36 1f 24 3d cc 53 8d 3c 66 2c 18 3d
       -0.035592675 0.040068828 0.017251872 0.037151717
000130 44 8d b3 bd 52 71 da 3d 55 d7 24 bc 71 c9 a1 3b
       -0.08767179 0.106661454 -0.010061105 0.0049373438
000140 b8 07 e2 bd 98 8c 58 3d 4d 03 44 bc 89 a8 55 3d
       -0.110366285 0.052868456 -0.011963678 0.05216268
000150 54 ed 46 3d 7e ed c7 3d 79 42 76 3d 56 d4 ce 3c
       0.048566177 0.09762095 0.060121987 0.025247734
000160 0d fd 59 bd be 7b ff 3c de af 65 3d 55 35 e1 3d
       -0.053219844 0.031186935 0.056075923 0.109965004
000170 cf 2e 42 3d 74 be 93 bd ad b8 e0 3c 9a ec e4 bc
       0.04740792 -0.072140604 0.02743181 -0.027944852
000180 7c 45 25 bb 4c de 63 3d dd ab a2 bb 00 db 00 3c
       -0.0025218418 0.05563192 -0.0049643354 0.007864714

weight f4 [100, 100]
000000 a1 41 3c bd 17 23 35 bd ba 4c 59 bb c3 3a a0 3d
       -0.045961026 -0.044222917 -0.0033157305 0.07823708
000010 46 c9 5f bd 4f 64 0c 3e 5c b1 43 3d 93 4d d1 bc
       -0.05463531 0.1371014 0.047776565 -0.025549686
000020 e0 d6 a5 bb 5f 95 a9 bd 11 d0 3b 3b 87 40 f9 3d
       -0.0050610155 -0.082804434 0.0028657953 0.12170511
000030 ce 27 83 3a 9b 82 ce 3c 47 86 d1 bd f3 5b fa 3d
       0.001000637 0.025208762 -0.102306895 0.12224569
000040 c5 fd 1b 3e 34 1e e2 3d d2 72 62 bd 90 d6 59 3c
       0.15233524 0.11040917 -0.055285282 0.013295785
000050 09 62 ba 3d 3c 28 b5 3d 3c 53 e0 bd f8 ac 05 3e
       0.0910073 0.08845565 -0.10953376 0.13054264
000060 c9 71 ab bc d4 62 0e be 55 67 cb 3d e6 bb 92 bd
       -0.02092828 -0.13904887 0.099318184 -0.07164745
000070 27 51 56 bd 57 49 f9 bd 1e 97 0c 3e cc 55 7f bc
       -0.052323487 -0.121721916 0.13729522 -0.01558442
000080 89 81 50 bd c8 74 8f 3e 1c df d4 38 11 5c c8 3d
       -0.050904784 0.28018785 0.00010150505 0.09783185
000090 b8 48 be bb 62 68 43 3e 0e 83 51 bd a3 ce 18 3e
       -0.0058070086 0.19082788 -0.051150374 0.14922576
0000a0 b6 4d ba 3d d3 5a 39 bd 2d 09 c8 3d a8 26 11 3d
       0.090968534 -0.045252632 0.09767375 0.035437256
0000b0 86 44 0b 3e 4d 00 9d 3d 1f a8 43 be ee c1 b5 bd
       0.13600358 0.07666073 -0.19107102 -0.0887488
0000c0 6a 69 05 be 5e a7 24 3e d9 6b e0 bc bf 03 43 bc
       -0.13028494 0.1607947 -0.027395176 -0.011902749
0000d0 e2 f9 6b 3e 73 9c 46 bc 4d 48 d2 3d e7 4c 84 be
       0.23044541 -0.012122261 0.102676965 -0.25839922
0000e0 ee b6 84 3e 39 e6 69 be 2e 1d 6f 3d dd 50 02 bd
       0.25920814 -0.22841729 0.058377437 -0.0318154
0000f0 5e ee 17 be 9e d7 67 bd 43 9f c7 bc 57 58 fb bd
       -0.14837024 -0.056602113 -0.024367934 -0.12272709
000100 3b 87 a5 ba 1b c9 a7 3d d5 1c 33 3e 7f 25 3d bd
       -0.0012628803 0.08192655 0.17491467 -0.046178337
000110 2f f3 0e 3d 98 84 b6 3b 9b 63 cd 3c 76 38 98 3d
       0.034899887 0.0055700056 0.02507191 0.07432644
000120 36 fc d3 3d d7 48 dd bc 9e cc 1f 3c 98 1b 18 bd
       0.1035084 -0.027012272 0.009753374 -0.03713569
000130 90 20 c3 bd 83 36 3c 3e 33 f9 12 bd 96 cc da 3d
       -0.09527695 0.1838017 -0.035882186 0.10683553
000140 39 d1 65 bd 27 21 05 3e 04 c9 63 3d 15 ed 55 bd
       -0.056107733 0.13000928 0.055611625 -0.052228052
000150 d1 dd 03 bd 37 51 eb 3d f3 fd e8 bd f6 a4 c9 3d
       -0.032193962 0.114901 -0.11376562 0.09845917
000160 d6 01 4e 3d 0c b6 18 3d 0e 79 f6 ba ce 5b 67 3c
       0.05029472 0.03728299 -0.0018804388 0.014121009
000170 77 6b ed 3c 69 ba 6f 3c 5b 18 69 be 48 d3 78 3d
       0.028981907 0.014631846 -0.22763197 0.06074837
000180 f4 3d 21 3c 95 01 27 3d 12 50 0e be 8a 8a 9f bd
       0.009841431 0.040772993 -0.13897732 -0.07790096
000190 aa e6 c0 3d b8 17 07 bd 9d 9f 28 3d 9e 5e 5a 3d
       0.09418996 -0.032981604 0.041167844 0.05331289
0001a0 cb 0b 69 3d 76 79 38 be e7 55 cd bd c9 ef 38 3b
       0.056896012 -0.18015084 -0.1002615 0.0028219095
0001b0 39 9e db 3c 88 97 73 3d 34 03 89 bd d6 03 03 be
       0.026808845 0.059470683 -0.06690064 -0.12794432
0001c0 58 df 7a 3c ed 15 b5 3d 1c 2b 2a 3b a0 5d e0 bb
       0.015312038 0.08842073 0.0025965637 -0.0068470985
0001d0 3c 31 84 3b 7b c3 4e bd 66 5f b3 bd f1 bf 8e bc
       0.0040341895 -0.050479393 -0.0875843 -0.01742551
0001e0 52 fe f7 bd 29 75 54 3d f1 54 51 3d 94 7f 04 be
       -0.121090546 0.051869545 0.051106397 -0.12939292
0001f0 63 90 04 bd df 6c bb 3a 38 e0 f6 bc ed 4c 0d 3d
       -0.03236426 0.0014299414 -0.030136213 0.03449719
000200 96 93 8c 3d b6 19 ed bd 0b 96 8e bd 20 b5 0a be
       0.06864087 -0.115771696 -0.06962212 -0.13545656
000210 38 47 eb 3d ba 8c 5a bd 50 05 7c 3d e9 58 41 3d
       0.11488193 -0.053356864 0.061528504 0.047203932
000220 7f 62 04 3c 84 ef 22 be da a6 ca 3d 08 23 96 3c
       0.008080124 -0.1591168 0.09895106 0.018327251
000230 2b 30 94 ba 69 91 78 ba cd af 0f 3e 50 0d 64 3a
       -0.0011305859 -0.0009482117 0.14031906 0.00086994935
000240 3e 42 8c 3d 77 1f 84 bd 75 1a 92 3d a1 0f 03 3e
       0.06848572 -0.06451314 0.071339525 0.1279893
000250 de 91 8e 3b 2c d8 24 3e f1 0f 42 bc 77 1d 67 bd
       0.004350885 0.16098088 -0.011844621 -0.056424584
000260 1e 4e 40 be 4f 72 b3 3a ad 4c 53 3d d4 62 5c 3e
       -0.187798 0.0013690683 0.051586796 0.21522075
000270 c5 ea 2d be 2b 13 47 3d 4b 39 07 bc 41 ef 73 3d
       -0.16984089 0.048602264 -0.008253406 0.059554342
000280 79 c2 a9 bd 02 9c 98 bb 94 31 94 3b 50 b8 c2 3c
       -0.08289046 -0.0046572695 0.0045225117 0.023769528
000290 a9 56 20 3d ea 21 99 bd 3f 1c 02 be b2 3a 9b bd
       0.039145146 -0.07477172 -0.12706088 -0.075795546
0002a0 44 44 c0 bd c4 9b cf 3c e4 d3 35 3d 4d 9f ee bd
       -0.09388021 0.02534283 0.044391528 -0.11651478
0002b0 e3 97 1a be 46 04 9e 3c b0 47 d0 3d ff e2 b2 bd
       -0.15097003 0.019289147 0.10169923 -0.08734702
0002c0 80 a1 01 bd f1 a4 0e be 10 30 9f bd ac c1 7e bd
       -0.03164816 -0.13930108 -0.07772839 -0.06219642
0002d0 0a 1a 75 bd d1 10 41 3d ce 11 b7 bd bb 26 4a 3e
       -0.059839286 0.047135178 -0.08938943 0.19741337
0002e0 07 02 03 3e 7f 64 c8 bd fa 2f d6 bd a6 75 a3 3d
       0.12793742 -0.09784793 -0.104583696 0.07981424
0002f0 c7 b4 28 3e f2 24 79 bc fa 2c 1e 3d be 8a 06 be
       0.16475211 -0.015206562 0.03861711 -0.13138863
000300 90 4c df bc 59 d8 ab bc 8d 28 29 3e dd 02 02 bc
       -0.027258188 -0.020977186 0.16519375 -0.007935253
000310 e1 24 3d 3d 3e f6 50 3e ec 81 9b 3a 3f 5c 00 3d
       0.04617775 0.20406434 0.0011864281 0.031337973
000320 c6 5e 1b 3e 9e 2a 49 bd 53 61 30 3e e8 ea 64 3c
       0.15172872 -0.04911291 0.17224626 0.013972022
000330 de 34 d2 3c 71 7e 83 3e c8 07 e6 3d cf bf 9f 3d
       0.025659975 0.25682405 0.11231953 0.078002565
000340 65 f3 bd bb a4 74 ee 3c 4c 65 a3 bd 2a 3c 08 bd
       -0.005796837 0.029108353 -0.07978305 -0.033260502
000350 38 68 12 bd 89 ba 05 3e bd 12 80 ba 39 b3 52 3c
       -0.035743922 0.13059439 -0.000977121 0.012860113
000360 61 bc 8d bd 95 62 9a bd 9f 62 0a 3e a1 32 bb bc
       -0.06920696 -0.07538334 0.13514183 -0.02285129
000370 6a 14 4b 3e 54 96 13 be 3b a7 22 3e 0c 6a 8b 3d
       0.19832006 -0.14412814 0.15884106 0.06807336
000380 7c 83 98 bd d1 71 59 be 04 74 1a 3e 73 51 45 be
       -0.07446954 -0.21234824 0.15083319 -0.19269352
000390 04 f1 bf 3c e2 42 af bb 02 d4 d0 3d b9 dd d2 3d
       0.023430355 -0.005348549 0.10196687 0.102961965
0003a0 5d 32 16 3e 94 25 90 3d 15 4c 85 bd ab 0c 82 3e
       0.1466765 0.070384175 -0.06508652 0.2540029
0003b0 9f d7 93 3d f2 0f 02 3e 66 2e 86 3c 9e 7b 42 bc
       0.07218861 0.12701395 0.016379546 -0.011870293
0003c0 a1 3a 30 3d 9a 7d d1 3d 11 37 29 3e 9c d5 66 3e
       0.043024663 0.10229035 0.16524912 0.22542423
0003d0 7d f9 e3 bc b9 33 3c bc 3c 8c 78 3e 4e 7d fc bc
       -0.027828926 -0.011486941 0.24272245 -0.030821469
0003e0 55 fa d6 3d 0b 96 44 3e c3 23 ee 3d 9e 8a 5e 3c
       0.10496966 0.19197862 0.11627915 0.013582854
0003f0 1a 0d 87 3d ba 26 54 3c 8e 19 8d bd 71 0e b3 be
       0.06594296 0.012948686 -0.0688964 -0.34971955

bias f4 [100]
000000 4c 61 30 3d a2 3d 02 3d 94 f5 77 3d 03 98 ba 3c
       0.04306154 0.03179706 0.060536936 0.022777563
000010 b6 3b 33 3e a5 d7 4c bd 02 26 a0 3d 8f 44 39 bd
       0.17503247 -0.050010342 0.078197494 -0.0452314
000020 a2 35 07 be 52 85 1c bd 77 36 ae bd f2 b9 33 bd
       -0.13204053 -0.03821308 -0.08506482 -0.043878503
000030 1b 0f 28 3c 0a 40 63 3d 62 0d be 3d 87 e2 01 3e
       0.010257508 0.055480994 0.09279896 0.1268407
000040 e0 cd 29 3c 40 ee ba 3d ce 4a 84 3d 91 0e a3 3d
       0.010364026 0.09127474 0.0645958 0.07961763
000050 53 be 0e bd f8 e7 73 3d b0 d6 04 3e f4 57 e4 bc
       -0.034849476 0.059547395 0.12972522 -0.02787397
000060 c6 81 04 3d 1d 92 38 bd b0 fe 5e bc b2 7c a0 3c
       0.032350324 -0.04506122 -0.013610527 0.01959071
000070 9a 29 31 3d c1 35 d0 bb 47 fa 2a 3d 43 a8 64 bd
       0.043252565 -0.006354064 0.04174259 -0.05582453
000080 25 e5 67 bd 42 e7 1c 3e dc 62 19 3d 4d 56 8f 3d
       -0.056615014 0.15322593 0.037447795 0.069988824
000090 3e 54 72 3d 8b f8 9d 3d 8e 6c 4e bd f6 d3 39 bd
       0.05916237 0.077134214 -0.050396495 -0.045368157
0000a0 cf e8 b8 bc 3b 68 f4 3d 9c 95 05 3d 25 ba bc 3b
       -0.02257195 0.11933943 0.03261338 0.005759495
0000b0 44 4d f4 bd 92 29 28 3d b2 5d dc bd 53 c7 52 3d
       -0.119288 0.04105527 -0.107600585 0.05145962
0000c0 1d a8 15 bd 8f 7f 66 3b 00 e0 bf 3d 7c 5e 12 3e
       -0.03653728 0.0035171246 0.093688965 0.14293855
0000d0 3e 9b e0 bc bf 12 97 3d 32 77 05 3d 2b c4 d5 3d
       -0.027417775 0.073766224 0.032584377 0.10437807
0000e0 d2 c0 ed 3b 36 77 c1 bb ac 9c 99 bd 17 96 7b 3d
       0.007255652 -0.0059041036 -0.07500586 0.061422434
0000f0 94 13 27 3e b3 ca f2 bc db 06 61 3d 63 90 75 bd
       0.16316062 -0.02963767 0.05493818 -0.05995215
000100 33 29 0b bd 6d 6e 6c bd 5d 34 36 3c 98 e7 1d 3c
       -0.033974838 -0.057722498 0.011120883 0.009637736
000110 f0 43 40 3d 0b 1a 70 bd 63 4a 24 bd 2d a1 e9 bc
       0.04693979 -0.058618587 -0.040110003 -0.028519237
000120 64 55 15 3d 19 4b 30 3e 2d fe cf bd 7c 05 c4 bc
       0.036458388 0.17216147 -0.10155902 -0.023928396
000130 b4 f5 4e 3d 7f 5f bb bd 52 6d a3 bd 05 4f bc bb
       0.05052729 -0.09149074 -0.079798356 -0.0057467245
000140 53 47 6a bb 98 27 3b 3d 7e 71 ff 3d 19 9b 94 bd
       -0.003574808 0.045692056 0.12472819 -0.07256145
000150 50 86 0f 3e 4e 26 38 bd ed ad 1e bd 79 ec aa 3c
       0.1401608 -0.044958405 -0.038740087 0.020864712
000160 b7 ca e8 3d 73 44 68 3d 89 57 33 3b 1f 59 77 3c
       0.1136679 0.056705903 0.0027365407 0.015096932
000170 e1 bb c7 bd 35 56 63 3e 26 d3 59 bc 25 ac 9d 3d
       -0.09752632 0.22200854 -0.013294971 0.076988496
000180 76 0c 87 3d 50 47 1c 3e ca d5 72 3d df 79 24 3e
       0.065941736 0.15261579 0.059285916 0.16062115

weight f4 [10, 100]
000000 3b 8b f9 be 3c 7c bc 3e 8a 50 16 3d e3 50 67 3e
       -0.48739037 0.36813533 0.0366979 0.2258945
000010 1e 45 70 be 3e 43 01 3e 7e 7f b9 3d dd 46 0d be
       -0.23463866 0.12623307 0.0905752 -0.13796563
000020 97 32 27 3e 4f 52 25 be f9 50 22 3d 45 13 ac 3c
       0.16327892 -0.1614468 0.039628003 0.021005282
000030 5c d3 a2 bc 67 b8 89 bd c5 94 07 bd fe 2e 02 3e
       -0.019876175 -0.06724625 -0.033100862 0.12713239
000040 e5 f1 7a 3c 3e bf 8d be b4 54 e7 bd 37 56 c6 bd
       0.015316461 -0.2768497 -0.11295453 -0.09684413
000050 73 a0 75 3d 1d 41 3a bc 42 6b 26 3e d7 77 56 bd
       0.05996747 -0.011368063 0.16251853 -0.052360382
000060 14 f7 18 3d 82 33 41 bd 65 62 6e be e7 22 1a bd
       0.037345007 -0.047168262 -0.23279722 -0.03763094
000070 12 ea 51 3e 07 17 21 3d 75 c0 67 be 7a 96 06 3d
       0.20499447 0.0393286 -0.2263201 0.03285835
000080 1a 93 4a 3e 32 91 20 3e 10 51 4b be a9 cf 28 be
       0.19782677 0.15680388 -0.19855142 -0.16485466
000090 96 c5 97 3d f7 7d 4e 3e fc fc 2d bd 55 bd be 3a
       0.074107334 0.2016524 -0.042477593 0.0014552275
0000a0 bf 1d 50 ba b0 c1 26 be f4 ed d3 be 52 b1 03 bd
       -0.0007939003 -0.16284823 -0.4139248 -0.032151528
0000b0 40 63 3f 3d 51 fa cd bd 22 d8 81 ba cf ab 99 bd
       0.04672551 -0.1005751 -0.0009906332 -0.07503473
0000c0 9c db 01 3c d8 a8 4d 3e 2c 15 21 be d2 75 b1 be
       0.007925894 0.2008394 -0.15730733 -0.34660202
0000d0 45 6f ad 3d 24 c5 18 be 66 ec 79 bb 42 31 b1 bd
       0.084684886 -0.14918953 -0.003813529 -0.08651973
0000e0 78 01 55 3e df da fe 3c 27 1b aa 3c fa c8 3f 3c
       0.20801342 0.031110225 0.0207649 0.011705631
0000f0 0d df ad bd 5d 43 98 3e 2a 90 b4 3e 5e d5 54 3e
       -0.08489809 0.29738894 0.35266238 0.20784518
000100 7f ec 6d bd 3d 76 0e 3e 52 cd b9 3d 5b b0 46 bd
       -0.05808687 0.13912292 0.09072365 -0.04850803
000110 ae 46 89 be f2 49 8f bc ea 4f fd 3e 8b 12 eb bd
       -0.26811737 -0.017491315 0.49475032 -0.11478146
000120 be bc 80 3e db b5 a6 be be 61 3f bd 5c 27 2a be
       0.25144 -0.3256062 -0.046724074 -0.16616577
000130 b6 90 fb bd 3e 10 0a 3c a1 3e 12 be 34 66 36 be
       -0.12283461 0.008426724 -0.14281704 -0.17812425
000140 d3 aa f4 3e 4f 34 46 be d3 70 63 3b a0 ba 53 3d
       0.4778658 -0.19355892 0.00347047 0.05169165
000150 e1 c8 04 be 6e cb 86 3e 15 c9 91 3c a6 0e b0 3d
       -0.12967254 0.2632708 0.017796079 0.08596544
000160 8a b4 f2 bd 81 84 69 3e 34 e2 32 be 0f e3 80 3e
       -0.11850841 0.22804452 -0.17469102 0.25173232
000170 59 13 1d 3e 98 ca d8 be 5d bc e0 bc 7d 1b 74 3d
       0.15339412 -0.42342067 -0.027433569 0.059596527
000180 7c df ad bd b1 13 6b be 84 96 02 be 7c d5 a0 be
       -0.08489892 -0.2295673 -0.1275273 -0.31412876
000190 91 97 3c bd 28 26 b2 3c 24 c2 35 bd 1f d9 58 be
       -0.046042982 0.02174671 -0.0443746 -0.21176575
0001a0 82 88 7a 3e 23 e9 cb bd ef 37 f3 be ec da ea 3d
       0.24466136 -0.09956577 -0.4750361 0.11467537
0001b0 e0 79 ff bc 6b 4c 9f bd 76 be 92 3c 79 69 52 3d
       -0.031186044 -0.077782474 0.017913084 0.051370118
0001c0 ea fe a0 3c e9 92 ac 3c e6 71 b7 3e ce 14 a7 bd
       0.019652802 0.021066146 0.35829085 -0.08158265
0001d0 c8 a7 11 be 36 75 51 be f0 7d 7f be 07 ee a8 bb
       -0.1422416 -0.20454869 -0.24950385 -0.005155328
0001e0 5e 1a ec bd 3f 61 8a be e8 e2 01 3f 2c bf bb bc
       -0.11528467 -0.27027318 0.50736856 -0.022918306
0001f0 83 6b 36 3e 83 9c ef 3b 8e b3 d7 bd f4 0c 20 3e
       0.1781445 0.007312359 -0.10532294 0.15629941
000200 0c f0 dc bd 1d f9 be bd 32 1d 6a be 92 83 3c bd
       -0.10787973 -0.09324858 -0.228627 -0.046023913
000210 dc 1e df 3d bb dc 38 be 9a 28 56 3d 5b 8e 1c 3e
       0.10894558 -0.18052952 0.052284814 0.1528868
000220 4a af 5b 3e 31 49 37 be be 7a d0 bc 95 f0 91 3d
       0.21453586 -0.17899014 -0.025449153 0.071259655
000230 77 45 5b bd 74 02 56 be a3 65 fe 3e 85 50 b9 3c
       -0.053533044 -0.20899373 0.49686918 0.022621403
000240 8b d6 13 bd 83 96 02 3e 52 14 7d bd 21 5f 9b be
       -0.036093276 0.12752728 -0.061786957 -0.30346015
000250 c2 be 0e 3d 15 02 c8 3d 26 e3 8b 3e 7c 5d 5a 3d
       0.03484989 0.09766022 0.27321738 0.05331181
000260 12 b6 0b be fa fb dd 3d a4 a3 08 3d 62 3c 3e 3e
       -0.13643673 0.10839076 0.033359185 0.18577722
000270 c2 45 67 3e 54 6c 38 be 56 92 82 3d 7f c9 87 3e
       0.22585204 -0.18010074 0.063755676 0.26520917
000280 a9 8b c6 3e c3 27 60 3d 0d 8e 97 bd 53 79 17 be
       0.38778427 0.05472542 -0.07400141 -0.14792375
000290 3e d8 aa bc 71 f4 08 3c 40 30 3f be 9b ea 81 3d
       -0.020855065 0.008359061 -0.1867075 0.063435756
0002a0 fb f9 9e be 00 76 a4 3d c3 d7 a4 be 34 a7 f3 3e
       -0.31050095 0.08030319 -0.32195863 0.47588503
0002b0 cc 8f 8b bd c2 73 f8 3d 08 fb 14 3e a8 b1 85 be
       -0.068145365 0.12131454 0.14548886 -0.26112103
0002c0 79 2d 9f 3c e2 3c 46 bd 8d 9e 2a 3e b9 f7 83 be
       0.019430863 -0.048397906 0.16662045 -0.25774935
0002d0 c3 eb 80 be 77 01 27 be 01 6a 63 bd 9a ec 6d bd
       -0.25179872 -0.16309153 -0.055521015 -0.05808697
0002e0 04 36 49 3e be fe 5d be e6 19 b7 be f6 ac 95 3e
       0.19649512 -0.21679208 -0.35761946 0.2923352
0002f0 6b 5b 66 be 27 b4 8a 3d 07 2e ea be 9f 61 e6 bd
       -0.2249581 0.067726426 -0.4573824 -0.112490885
000300 6d 16 02 3b 09 e7 a2 3e 03 3f 02 3e 71 da 85 3e
       0.0019849793 0.3181689 0.1271935 0.2614322
000310 d8 cd a8 bd c6 27 9b be e4 08 a6 3e 00 cd 34 3e
       -0.082423866 -0.30303782 0.32428658 0.17656326
000320 0e 60 40 be 14 5d 32 3d ce e2 7d be 3a 8c 45 3e
       -0.18786642 0.043545797 -0.2479355 0.19291773
000330 47 1a b9 3d fe 24 1c be 65 ec a4 be 2f 9e b0 be
       0.09038215 -0.15248486 -0.32211605 -0.34495685
000340 2e 69 db bd cb 39 a4 3d 37 22 a0 bc 15 57 c2 bd
       -0.10713421 0.08018836 -0.019547565 -0.09489266
000350 9a c9 8b 3d 55 81 7b ba 62 c4 83 3a ac d6 6f bd
       0.06825562 -0.0009594162 0.0010053033 -0.058554336
000360 da f9 f1 bd 4a fb ea bd 2e c4 2a bd dc 88 97 bc
       -0.118152335 -0.11473711 -0.041690998 -0.018497877
000370 d4 57 d2 3e a0 41 ae 3d a9 69 2a 3e e4 6c ff bc
       0.41082633 0.08508611 0.16641869 -0.031179853
000380 7a ad c7 bd ba e0 6a 3d cf 12 0b 3f 2e 50 18 be
       -0.09749885 0.057343222 0.54325575 -0.14874336
000390 21 d4 d0 3d b6 e9 9c 3e 5b 8d 17 bd 5b 0d 93 3b
       0.101967104 0.30647057 -0.03700004 0.004487676
0003a0 7e 7e a3 3d bc 90 81 3e 56 0d d3 3d c9 48 02 3f
       0.07983111 0.25305736 0.10305278 0.5089231
0003b0 d8 f7 c7 3e 59 f3 92 bd 89 4d b6 bc ce 95 ba 3c
       0.39056277 -0.07175321 -0.022253769 0.02277651
0003c0 1c eb 32 3d 49 be fa 3d 4d 0c e4 3c b3 5b 25 3b
       0.04368125 0.12243325 0.027837897 0.002523166
0003d0 85 6e d7 3c fd 18 ab 3e db a9 23 3e ae 36 89 3e
       0.026297817 0.33417502 0.15982763 0.2679953
0003e0 1b 6c 32 bd ef a8 6f bd aa 25 26 be fd 62 94 be
       -0.04356013 -0.058510717 -0.16225305 -0.28981772
0003f0 7e 4a 60 bc 34 eb 79 be 9f 8d 45 bd 8c 9b 8b be
       -0.013689635 -0.24406129 -0.048230764 -0.2726711

bias f4 [10]
000000 23 a8 25 be df c0 7c 3e e7 b5 9b bd b0 16 cc bd
       -0.1617742 0.2468295 -0.076030545 -0.09965265
000010 4e f0 5e 3d 14 23 1d 3e 78 c8 dd 3c d8 48 f2 3d
       0.05442839 0.15345412 0.02707313 0.118303
000020 69 bd 86 be 74 bf 29 3d
       -0.26316383 0.04144235
