model.pt (torch, 360391 bytes, 6 tensors)

fc1.weight f4 [100, 784]
000000 c5 80 a9 3c 1a 48 d3 bc 87 9c 84 3b b7 da 13 3c
       0.020691285 -0.025791217 0.00404698 0.009024314
000010 32 5e ac 3c 3c 5e eb bb 65 92 e8 3c ef 28 a1 bc
       0.02104101 -0.0071828645 0.028390119 -0.019672839
000020 8e 03 08 bb 32 1d cf 3c 18 aa 55 3c 07 57 da bc
       -0.0020754072 0.025282476 0.013041042 -0.026652826
000030 5a c7 7e 3d f9 b5 d6 3c 48 f3 1a 3d 75 d2 ab bc
       0.062201835 0.026209818 0.037829667 -0.020974377
000040 0a f7 f7 3c d6 02 14 bc 43 a2 b7 bc cc 19 9e bc
       0.030269165 -0.009033879 -0.02241624 -0.01929941
000050 6a 8d c4 bb 37 63 bb bc 6f 7a 94 3c 99 28 a2 3b
       -0.005998303 -0.022874458 0.018124787 0.0049486873
000060 8e fa 2f 3b b4 34 eb bc 3f c3 b3 bc e6 a0 94 bc
       0.0026852223 -0.028711654 -0.021943687 -0.018143129
000070 83 51 83 bb b9 01 a5 3c 52 28 ab 3c 46 9a 5f bc
       -0.0040075197 0.020142423 0.02089325 -0.0136476215
000080 82 c8 4a 3d c6 ce a0 3c df 95 87 3c 06 a3 0c 3d
       0.049507625 0.019629847 0.016550956 0.03433516
000090 a8 b2 9f 3d af ee dd 3c e5 c2 6f 3d 86 f4 21 3d
       0.07797748 0.027091352 0.058535475 0.039539836
0000a0 1f 96 91 3d 30 dc af 3d a3 5e d2 3c a6 e4 49 3e
       0.071087115 0.08586919 0.025679892 0.19716129
0000b0 18 9f 3b 3e 1a 3d 36 3e 9c 23 a6 3d 23 b3 0d 3d
       0.18322408 0.17796746 0.08112261 0.034594666
0000c0 53 e7 06 3e 82 69 b3 3d b0 41 ce 3d 81 26 9d 3c
       0.1317418 0.087603584 0.10071123 0.0191834
0000d0 d6 c2 a0 bc 9a dc 4b 3c e8 ba 7c 3c eb 7c e1 bc
       -0.019624155 0.012442732 0.015425421 -0.027525386
0000e0 cc c8 b2 bb 2f bd a0 3a ee f6 84 3d 07 6f 66 3c
       -0.0054560658 0.0012263412 0.064924106 0.014064557
0000f0 97 f7 cf 3c 6e 0d 5c 3d 70 02 b3 3d 29 b9 c6 3d
       0.025386615 0.053723745 0.08740699 0.09703285
000100 24 43 37 3e 77 4a 6c 3e e6 49 3c 3e 7c 0a 37 3e
       0.17896706 0.23075281 0.18387565 0.17875093
000110 c0 43 d4 3b 2c 3a 10 3d 4c 4e 69 bd e5 ba 80 bd
       0.006477803 0.035211727 -0.056959435 -0.06285647
000120 4e e7 0e 3d 16 ae c3 3d 91 5f 2c 3e ef c6 98 3d
       0.034888558 0.09554689 0.1683333 0.074598186
000130 85 00 f2 3d 69 10 43 3e c0 38 15 3e 4b a4 bb 3d
       0.11816505 0.19049229 0.1457243 0.09162196
000140 69 7f 88 3c 57 7f 30 3d ad ec 3f bc ba fe 21 bc
       0.016662316 0.04309019 -0.011714143 -0.009887392
000150 07 15 8a bc d0 b6 ee 3c 54 db 1f 3e 2e d6 c7 3d
       -0.01685573 0.029139906 0.15611011 0.097576484
000160 94 a1 0b 3b 7b 03 f2 3c 4f 35 91 3d 48 11 1d 3d
       0.0021306025 0.029542675 0.07090246 0.03834656
000170 dc 24 ab 3d 64 ca a6 3e d7 1d 7c 3e a2 17 12 3c
       0.0835664 0.32576287 0.24620758 0.008916767
000180 6e fc 21 3e d5 d9 ff 3d 2d b0 92 bd de 9e b4 bb
       0.1581895 0.1249272 -0.07162509 -0.0055121025
000190 2d 62 a0 3a 79 7b 0b bd 45 bd 74 3d 28 a6 94 3c
       0.001223629 -0.0340533 0.059750814 0.018145636
0001a0 45 d4 96 3d 57 98 71 3c 88 c5 2e 3d 8b 32 33 3e
       0.07364706 0.014745793 0.04266885 0.1749975
0001b0 6c 7b 46 3d d4 b5 cd 3d cf e3 96 3c ee 96 9b 39
       0.048457548 0.100444466 0.018419174 0.00029676355
0001c0 c6 db f5 3c 15 4b 7c bc 12 fe 59 3e ad 17 ec 3d
       0.030012023 -0.01539876 0.21288326 0.11527953
0001d0 b2 5a 82 bd 5d 22 61 bd 9a e2 e4 3c 28 1e df 3d
       -0.06364955 -0.054964412 0.027940083 0.10894424
0001e0 ca b8 12 3c a2 dc 2c 3e 8c 9b 27 3e 42 a0 ea 3d
       0.00895519 0.1688104 0.1636793 0.11456348
0001f0 14 01 c0 3d cf 32 8e bc b9 6e 8f 3d 11 41 be 3d
       0.09375206 -0.017358212 0.070035405 0.09289754
000200 e8 9a d9 3c 56 46 44 3d 46 bd e8 3c 35 83 43 bd
       0.026563123 0.04791864 0.028410565 -0.04773255
000210 65 7f 6e 3c e7 db ec bc 67 81 ab bd 57 4d 92 bc
       0.01455674 -0.028913451 -0.08374291 -0.017859144
000220 b5 87 0d bd ff 74 bb bc 23 29 04 3e 24 8f 3c bd
       -0.03455325 -0.022882937 0.12906317 -0.046034947
000230 df 8d 01 3d 5d 49 6d bc 18 16 44 3e a8 4e a0 3d
       0.03162944 -0.014482823 0.19149053 0.078275025
000240 de 8f e0 bd 7b 95 b3 3c 84 5d 78 bc 40 e4 74 bb
       -0.109649405 0.021921864 -0.015159015 -0.0037367493
000250 76 41 3a 3d 94 85 c1 3d d0 7a de 3a 5b 7f 80 3d
       0.045472585 0.09449306 0.0016973857 0.06274291
000260 81 70 f2 3c a6 a3 9e 3a b9 f9 87 3c 51 7b 8e 3c
       0.029594662 0.0012103214 0.01659857 0.017392786
000270 0d 1a 07 bc b1 1f 99 bc e9 ff c5 3b 5c 31 ec 3d
       -0.008245957 -0.01869187 0.0060424698 0.11532852
000280 4b 7b 3a 3e c8 3c 44 3d 29 8d 22 bc cb 16 f5 bd
       0.18211095 0.047909528 -0.0099213505 -0.11967238
000290 41 70 f3 bc b0 d1 11 3e de c2 40 3e 05 f7 6a bd
       -0.029716613 0.14240146 0.18824336 -0.057364482
0002a0 39 55 d0 3b 54 b5 96 bd 74 3d ec bd 02 65 2b be
       0.0063578156 -0.07358804 -0.11535159 -0.1673775
0002b0 d7 0a 04 be 1c 51 61 be 6c ac 0f bd 25 3b e2 3d
       -0.1289476 -0.22003597 -0.035076544 0.11046437
0002c0 bf d3 4d 3e c9 9e ce 3d 32 15 8f 3d 3d be a9 3c
       0.20100306 0.100888796 0.069864646 0.020720595
0002d0 72 db 0b 3d 72 5e 20 3d 72 80 84 3d 4d bf 22 3e
       0.034144826 0.03915257 0.064698115 0.15893288
0002e0 3c f5 f1 3d e0 84 71 3d 2a 1a 41 3e 51 ea d6 3d
       0.11814353 0.05896461 0.18857637 0.10493911
0002f0 10 ac c7 3d a6 35 72 3d 5f 96 d9 bb f9 83 6c bc
       0.09749615 0.059133194 -0.00664024 -0.014435762
000300 65 f3 79 bd 25 3b 39 3e 0f 94 ee 3c 9d 37 3c 3d
       -0.061023135 0.18088968 0.029123334 0.045951474
000310 69 b8 b1 3c f7 be 9e 3d 8c 4c e0 bd 7c 8b 19 be
       0.021694379 0.077512674 -0.109521 -0.14994615
000320 4d 0f 10 be 3d 34 1d be 75 fb a7 3c 02 c7 c5 3d
       -0.14068337 -0.15351959 0.020505646 0.09657098
000330 4d 03 f7 3d 6f 76 5b 3d c6 fd 89 3d 7c 05 3d bd
       0.120611764 0.053579744 0.067378566 -0.04614781
000340 6a f0 f3 3c 75 ec 43 3d 80 0a c1 3c ed a4 f7 3d
       0.029777724 0.047832925 0.023564577 0.12092004
000350 e3 dd d2 3d 1b b6 8e 3d 95 b9 10 3e 95 67 55 3d
       0.10296228 0.069683276 0.14133294 0.052100737
000360 ad 6c 9a 3b 7f b8 b6 3d db 4a b8 3c 8f 68 cc bc
       0.004712662 0.089219086 0.022496631 -0.024952201
000370 c7 17 20 be 67 b0 9d bd a0 bf c2 bc 8c c6 9f bb
       -0.1563407 -0.07699662 -0.023773015 -0.0048759636
000380 bc bc 7d bd 84 c4 09 3e 97 d4 37 bd 1c 25 ec 3d
       -0.06194757 0.13453871 -0.044880476 0.115305156
000390 86 22 b1 bd 1b 78 75 3b ec db e3 3d 1f c2 8d 3c
       -0.08649163 0.0037455622 0.11125931 0.017304478
0003a0 40 f5 a0 3d c8 c2 e0 3c 76 5d 03 bc 24 30 5a bd
       0.07859278 0.027436629 -0.008017888 -0.053268567
0003b0 f3 9f 4a bd 20 d2 8c 3c 62 df 2c bd 5d dd 4d bd
       -0.049468946 0.01719004 -0.042205222 -0.050259937
0003c0 62 4c 0e bd ef 52 73 3c 9d 76 92 bb 04 0a 67 3d
       -0.034740813 0.014851316 -0.004469706 0.056406036
0003d0 c6 be 40 bc 9f bd 1d 3c 27 de 98 3c 83 3e 14 3d
       -0.011764234 0.009627729 0.018660618 0.03619243
0003e0 6c c3 08 bc 0d fe ae bd 1c 7d 42 3d f9 35 63 3d
       -0.008347373 -0.0854455 0.047482595 0.055471394
0003f0 1e c8 11 3c 3a 12 15 3e a7 84 0c 3d 8c ac c9 3d
       0.008897809 0.14557734 0.034306195 0.09847364

fc1.bias f4 [100]
000000 a6 30 7a bb 16 f9 86 ba 77 6a f1 3c 92 83 f1 3d
       -0.003817597 -0.0010297622 0.029469712 0.11792673
000010 6b 17 7d bb 3e c2 d8 3d 1d 82 3d 3d c2 62 ab 3d
       -0.0038618695 0.10583924 0.046266664 0.08368446
000020 72 ab d2 3c ea 20 00 3e b7 fe a5 3d 4e e3 98 bc
       0.025716517 0.12512556 0.081052236 -0.018663075
000030 06 d0 13 3d 8e a2 8c 3d f9 23 42 3c cd e4 92 bd
       0.03608706 0.06866942 0.011849397 -0.071725465
000040 60 a7 0c 3e ee a7 dd bb 45 dc 9c bc 71 51 20 3e
       0.13735723 -0.0067644035 -0.019148001 0.15656067
000050 18 4e 14 bd 52 6a 51 bd f0 cc de 3d ba af f2 bc
       -0.03620729 -0.051126786 0.108789325 -0.029624809
000060 29 03 fb 3d 35 26 d3 bc c0 0b 3b 3d 88 01 86 3d
       0.12256462 -0.025775054 0.045665503 0.06543261
000070 69 ce 9a 3b b5 16 6e 3d f8 8a 92 3c a9 74 2a bd
       0.004724313 0.058127124 0.017888531 -0.041615162
000080 a1 f0 7b 3d 3c 34 25 bd 06 bf 78 3e 23 1e 9f bd
       0.06150878 -0.040333018 0.2429162 -0.0776942
000090 00 62 42 3e 3e cb 02 bd e1 af 20 3e 22 35 be 3d
       0.18982697 -0.031932108 0.15692092 0.09287478
0000a0 8a ac 81 3b e4 ed 54 bc e7 76 30 3d cd d9 6d 3e
       0.003957336 -0.012996171 0.043082144 0.23227616
0000b0 43 08 de 3d 77 e2 62 39 77 ec ed 3b 4a ab 3a 3d
       0.108414195 0.00021637404 0.007260855 0.04557351
0000c0 e1 75 14 3c d8 21 90 3c e9 0f ed 3d 12 75 a5 bc
       0.009061308 0.017594263 0.115753 -0.020197425
0000d0 7d 6d 34 bc 67 f5 c9 3c 82 c3 39 bc 85 cd 9d 3d
       -0.011012432 0.02465315 -0.011338117 0.07705215
0000e0 fb 55 94 3d f8 80 1c bd af cb a3 bd 1f 9a 44 3d
       0.07242962 -0.03820893 -0.07997834 0.047998544
0000f0 12 63 3e 3d 97 cd 30 bd 12 80 d0 bc 72 2a 8a 3d
       0.0464812 -0.043164816 -0.025451694 0.06746377
000100 39 78 d7 3c 52 15 cc 3d 6f 6f 9b bd 78 f9 d5 3d
       0.026302444 0.09965004 -0.07589614 0.10447973
000110 c0 c7 c6 3d 19 bc 8e bd 74 2f e9 3d 31 a2 04 bd
       0.09706068 -0.069694705 0.11386004 -0.03238124
000120 ad 81 39 3d 3b e6 3a 3d d6 25 c7 bd 30 73 c8 3d
       0.045289684 0.04562972 -0.097240135 0.09787595
000130 47 33 0e bd 09 f8 ee 3d 0f 54 b6 bc c5 f6 4f 3e
       -0.03471687 0.11668403 -0.02225688 0.20308979
000140 75 a4 a9 3d 27 45 51 3c a1 19 46 3d f6 5b 1b 3e
       0.08283321 0.012772835 0.048364285 0.15171799
000150 c2 79 6b 3c 57 14 e8 3b 5c c9 a1 3d 24 5b c5 3c
       0.014372291 0.007082503 0.078997344 0.02409131
000160 64 40 13 3e f1 da e3 3b 6a bc 17 bd 5d cb e3 bd
       0.14380032 0.00695359 -0.03704492 -0.11122773
000170 82 5d 0f 3d 78 4b 5d 3d 96 71 0d bd 6d 71 c0 3c
       0.035001285 0.05402705 -0.034532152 0.023491586
000180 26 97 2b 3d 65 80 ce 3d 67 48 39 3d 5e 18 0c 3b
       0.041892193 0.10083083 0.045235064 0.0021376829

fc2.weight f4 [100, 100]
000000 f4 d0 01 3d 3c 61 9e 3c 5b 40 9e 3d 00 50 9a 35
       0.031693414 0.019333474 0.077271186 1.1497177e-06
000010 76 91 0e 3d 19 9c 6b bd ec f7 b5 3d f2 5a dd 3d
       0.03480669 -0.057521913 0.08885178 0.10808362
000020 17 28 53 be c1 ef 1e be 26 e2 2f 3e f2 0d 9c bd
       -0.20620762 -0.15521146 0.17176113 -0.07619847
000030 50 fe b3 bd 90 57 05 be 0f 76 d5 3d 78 fd b1 3d
       -0.08788741 -0.13021684 0.104229085 0.086909235
000040 fc c0 02 3e 94 b6 a4 bd 85 77 23 3e 4c 10 7c be
       0.1276893 -0.080426365 0.15963562 -0.24615592
000050 a8 ca 6e 3e 9a da 84 3c be 8d 76 bc 20 02 50 3e
       0.23319495 0.016217519 -0.015048442 0.2031331
000060 17 44 30 3e 01 44 cb bd c4 a1 06 3e fc 6b 82 3e
       0.17213474 -0.0992508 0.13147646 0.2547301
000070 1e a6 e5 bd 83 bb 49 be ef 52 8b bd 20 39 23 3d
       -0.11213325 -0.19700436 -0.06802928 0.0398494
000080 89 35 18 bc e5 45 8c be 5b bc 15 3e 55 4d 92 bd
       -0.0092901075 -0.27397075 0.14622633 -0.07143656
000090 80 de 32 3e aa ef e2 3d 42 d6 9a 3d e0 9e 09 3e
       0.1746769 0.110808685 0.07560398 0.13439512
0000a0 14 81 95 3d 5d c6 78 bd 7d 4f 0c 3d a9 93 9a 3d
       0.0730001 -0.06073605 0.034255493 0.07547695
0000b0 97 3d bc 3c d1 3a 20 3e f4 69 9a 3b 3b 83 7e bd
       0.022978587 0.15647437 0.0047123376 -0.06213687
0000c0 06 70 4c 3e ac ae cf 3d 60 e0 4a 3d 3d 30 9b 3d
       0.19964609 0.10140738 0.049530387 0.0757756
0000d0 88 46 1b be ee 31 c2 3b b6 46 8a 3d b0 05 81 3c
       -0.15163624 0.0059263622 0.06751768 0.015749782
0000e0 d9 31 ef 3d d9 72 92 3c 5a b3 66 bd 65 86 6b bd
       0.116794296 0.01787703 -0.056323387 -0.057501215
0000f0 90 4b 10 3e d9 02 d5 3d a1 4f 0a bc a0 64 e5 3d
       0.14091325 0.10400934 -0.008441837 0.11200833
000100 9c 7b eb bb e6 a9 00 be cd 7c 39 bd 3f b8 b5 bd
       -0.0071863662 -0.12564811 -0.045285035 -0.08873033
000110 03 9a dc 3d 41 03 4f 3e fd d5 29 3e 07 b7 9f bd
       0.10771563 0.20216085 0.16585536 -0.077985816
000120 da e1 bc bd be 41 57 be f3 db c6 3d 2a 86 81 bc
       -0.09222765 -0.21021172 0.09709921 -0.015811045
000130 11 4a 67 3d d2 8d 57 be 2f 31 f2 3d e4 4f a5 be
       0.05646712 -0.21050194 0.11825787 -0.32287514
000140 0c 38 b0 bc e7 60 fe 3c 30 f1 e4 3d df 50 69 3d
       -0.0215111 0.031052066 0.11178815 0.05696189
000150 33 53 10 be e3 12 92 3d de e9 67 3e 0a 8c 0a bd
       -0.14094238 0.071325086 0.22647807 -0.033824958
000160 51 87 36 be 45 31 2e 3c ad fd 48 bc bc f7 39 be
       -0.17825057 0.010631864 -0.012267512 -0.1816091
000170 29 91 64 be 14 aa bf 3d 7a ac 77 bd c4 be 6e 3c
       -0.22320999 0.09358612 -0.06046722 0.014571849
000180 2c c5 61 3e 6c 46 24 be c2 d4 36 be 8c 16 8a 3d
       0.22047871 -0.16042489 -0.17854598 0.06742582
000190 08 57 70 bd d1 b7 10 3e f3 d2 51 be b8 2b fa 3c
       -0.05867675 0.1413262 -0.20490627 0.030538425
0001a0 1b 3b 88 3e 3c 31 a7 3b 63 09 d7 bd 58 41 ff 3d
       0.26607594 0.0051023047 -0.10499837 0.12463635
0001b0 c8 7d 19 be 35 5c 7e bd 14 15 50 be 79 ac 5d 3b
       -0.14989388 -0.062099654 -0.2032054 0.0033824726
0001c0 80 77 c8 bd 2b 58 ac ba 54 6f a3 bd cc e1 e4 bc
       -0.09788418 -0.0013148835 -0.079802185 -0.0279397
0001d0 e7 1e 63 3d f1 dc 68 be 88 e3 4f 3d a8 11 4c 3d
       0.055449393 -0.22740532 0.0507541 0.049821526
0001e0 a4 62 a8 3d 98 32 67 3e e4 9b 16 3d 48 d8 ec bd
       0.08221939 0.22577894 0.036769763 -0.1156469
0001f0 3c e1 2b 3e 7d 57 3a 3d 69 de d1 3d 80 7c 3d bc
       0.16785139 0.04549359 0.102474995 -0.011565328
000200 c3 1c 21 3e b8 f5 da bd 37 f9 ce 3d 37 40 4e 3e
       0.15733628 -0.106913984 0.10106128 0.20141684
000210 51 16 c1 bd 0f 5c f2 3d 5b fd 7d 3e b2 c8 a2 be
       -0.09428085 0.11833965 0.24803679 -0.31793743
000220 8b 4c 4a bd b3 1e 81 bd 76 67 8a 3d f5 84 4e 3d
       -0.049389403 -0.063046835 0.06758015 0.050419766
000230 be f6 94 bc 9b 47 f8 bc b0 6c a8 3d 9d dd 09 3e
       -0.018184062 -0.030307582 0.082238555 0.13463445
000240 9f 98 a9 3d 2d 18 a3 3d 9e 1b 07 3d f2 ae 08 bd
       0.08281063 0.079635955 0.032985322 -0.033369966
000250 a4 ae 89 bd e5 0f 00 3d d2 06 06 3e 96 c3 c2 3d
       -0.06722763 0.03126516 0.13088539 0.09509961
000260 73 23 9c bc 8c 12 11 3c 45 66 cc bc d9 43 c1 3d
       -0.019059872 0.00885452 -0.02495111 0.09436769
000270 30 f2 35 bd 99 6d 72 bd e5 c7 05 be e6 da 5c 3e
       -0.04442042 -0.05918655 -0.13064535 0.21567878
000280 59 46 e7 ba d8 db 3d bc 07 6c 8e bc 1b 55 ed bd
       -0.0017644867 -0.011588059 -0.017385496 -0.11588498
000290 d0 67 87 3e 68 d5 f5 3d be df 5d 3e 87 ba 23 be
       0.2644639 0.12003595 0.21667382 -0.15989123
0002a0 25 f6 c1 bc 4f c7 ae be b6 2b 1d 3e eb ff 43 bd
       -0.023676941 -0.34136435 0.15348706 -0.047851484
0002b0 79 70 a5 bd 39 1a cb bd 2a 24 9a bd 6c 32 58 3d
       -0.08078093 -0.09917111 -0.07526429 0.05278246
0002c0 af 6d ec 3d be bf b2 3c ce ed 3f bc 8b 4c 73 3e
       0.11544358 0.021819945 -0.011714412 0.23759668
0002d0 f4 3b ce 3c 84 30 31 bb 13 50 72 bc c0 f7 0a 3e
       0.025175072 -0.0027036974 -0.014789599 0.13571072
0002e0 60 5d 15 3e 38 13 ad bd 07 42 2e be 0f ba 65 3b
       0.14586401 -0.08450931 -0.17017375 0.0035053527
0002f0 4f c0 27 3e 90 a5 a2 bd 15 21 11 bc 2a 7a 5e 3d
       0.16381954 -0.07941735 -0.008857985 0.054315723
000300 d4 95 37 3e 48 e2 39 bd df 8c a5 3e d3 1c 94 bd
       0.17928249 -0.045381814 0.3233404 -0.0723206
000310 4e 79 a2 bc ea 75 20 be 86 14 5f bc db 46 e1 bc
       -0.019833233 -0.1566998 -0.013615733 -0.027499607
000320 0a 96 00 3d 94 fa a8 bd 99 e8 4e be 13 04 96 3d
       0.03139309 -0.08250919 -0.20205916 0.07324996
000330 f6 ce 70 3d 58 aa 25 3e 14 55 06 be 80 c2 12 3e
       0.058791123 0.16178262 -0.13118392 0.14332008
000340 f7 77 c7 be 04 77 c2 bb c9 ee 1c 3d 6d 0c c6 3d
       -0.38958713 -0.005934598 0.03831366 0.09670339
000350 62 15 e0 3d 67 0a 0c bd 1a 3e c3 3d b3 0c f6 bc
       0.109415784 -0.034189608 0.09533329 -0.030035352
000360 87 54 4f 3e 78 4d aa bd 6a a4 a5 3c ee 0c d8 bd
       0.20247088 -0.08315557 0.02022 -0.10549341
000370 bf 07 a7 3d f2 92 8e be 4c af 45 3e a0 b3 9c 3d
       0.08155774 -0.27846485 0.19305152 0.07651448
000380 49 14 06 bc c1 31 96 bd 0e e0 31 3d fc 9a c1 bc
       -0.008183547 -0.073337086 0.043426566 -0.023633473
000390 bf 76 87 3c eb 2b 80 be 76 14 91 bd 0f a2 7b 3b
       0.016536115 -0.25033507 -0.07083981 0.0038396155
0003a0 5a 15 79 3e c2 41 9c bc 68 82 2e 3e b8 d2 aa bd
       0.24324551 -0.019074325 0.17041934 -0.08340973
0003b0 c1 ea 88 3d d2 a4 86 3d 76 8f 82 3e 64 de 24 bd
       0.06685401 0.06574406 0.25500077 -0.04025115
0003c0 5c 64 1f 3e da 2b 3b bd dd d5 c6 3d 00 b9 a6 3e
       0.15565628 -0.045696117 0.0970876 0.3256302
0003d0 27 72 8b 3d db 8c 6b 3d 1c ed 0f 3e 20 6a 17 3e
       0.06808882 0.057507377 0.14055294 0.14786577
0003e0 48 60 1b 3d 2b 74 67 bd 0c 40 1d 3e 25 8e 9e 3d
       0.037933618 -0.05650727 0.15356463 0.07741956
0003f0 77 4a 87 3b 05 3f e2 3d dc b0 c2 3c ba bd e0 3d
       0.00412875 0.11047176 0.023765974 0.109736875

fc2.bias f4 [100]
000000 a8 12 c2 3d 01 a0 19 3e d0 0a 76 3e 38 b1 a6 bd
       0.09476215 0.15002443 0.24027562 -0.081392705
000010 f6 8a 01 3e 05 67 aa bc 81 6d 47 bd 6d 16 e2 bb
       0.12650666 -0.020801077 -0.048688415 -0.006899646
000020 1b 83 eb 3d 92 a9 a6 3d 15 d4 02 3e b2 e3 7b bd
       0.11499616 0.08137812 0.12776215 -0.061496444
000030 77 e1 62 3e 69 d9 2d 3e d4 b9 ad bc 1b 1f ee 3b
       0.2215632 0.16977467 -0.021206774 0.0072668917
000040 ef ee 18 bc 94 3c af 3b b4 14 fa 3d b5 f2 98 3d
       -0.00933431 0.0053477976 0.1221098 0.07468168
000050 b6 55 32 bc 8e d3 55 3d c7 24 ad 3c 5a f3 9f 3d
       -0.010884693 0.052203707 0.0211357 0.078100875
000060 a5 23 1c 3d aa 05 02 3e ec 4c 27 3e 8a 19 6e 3d
       0.03811993 0.12697473 0.16337937 0.058129825
000070 69 b1 4d bc a7 75 f7 bd 0c 65 e8 3d 61 be c7 bd
       -0.012554505 -0.12082987 0.11347398 -0.09753109
000080 e2 a4 8b 3c fa 00 10 3e f1 45 a1 3d f1 70 8b 3d
       0.017046396 0.14062873 0.078746684 0.06808651
000090 33 c0 7a bd 44 e8 0b 3e e1 51 fd 3d ac 69 ef bc
       -0.06121845 0.13662821 0.12369133 -0.029225193
0000a0 23 fc f2 3d 8e ce ec 3d f7 76 5e 3d 88 69 6f bd
       0.118644975 0.11562835 0.054312672 -0.05845025
0000b0 e8 65 d3 bd 28 82 27 3d df fa 22 3d 7a 1a 6e bb
       -0.103221714 0.04089561 0.03979003 -0.00363317
0000c0 d8 16 d9 3d c9 b9 91 3d bb ff 96 3d 12 e7 e4 3d
       0.1060006 0.07115514 0.073729955 0.11176886
0000d0 d0 0a 78 bd 60 b5 0a bd f7 5f 10 3e 30 e2 99 3c
       -0.060557187 -0.03386438 0.14099108 0.018784612
0000e0 4b 8a 16 3e 7b 99 92 bc d5 83 53 3d a3 76 4d 3e
       0.14701192 -0.01789545 0.051639397 0.20064788
0000f0 e6 c9 6a 3b 33 bf a2 bd 87 ad ac 3c 30 fc 86 3d
       0.0035825907 -0.079466246 0.021078838 0.0659107
000100 d9 26 a0 3d f8 c8 50 3c 1b d1 de bb 52 5b 8e 3c
       0.078199096 0.012743227 -0.0067998297 0.01737753
000110 cf fb c8 bb 83 c6 5c bd 26 d8 f9 3c a3 36 ba 39
       -0.0061335335 -0.053900253 0.030498575 0.00035517392
000120 35 6d 0e 3d b1 93 ce bc 66 84 8d 3d 27 29 0e 3e
       0.034772117 -0.02521691 0.069100186 0.13882886
000130 a1 77 9a 3c 46 0c 51 bd 11 06 9e 3d 1d 88 e2 bc
       0.018855872 -0.051037095 0.07716001 -0.027652794
000140 fa 09 1d 3c a7 0a 96 3d 5e 32 d3 3d 62 10 f8 3d
       0.009584898 0.073262505 0.10312341 0.121125
000150 50 9e fe 3c 36 90 c8 bd 9e f2 f3 3d c3 3e ee 3d
       0.031081349 -0.09793131 0.1191151 0.116330646
000160 7c 11 3c 3e 29 6a 83 3d 46 42 a3 3d b7 7a 19 3e
       0.18366045 0.06416733 0.07971625 0.14988218
000170 e1 ae ec bc e3 3d 82 3d 3f 0f 25 3c bf 4d a2 3d
       -0.028891983 0.0635946 0.010074436 0.07924985
000180 be 08 02 bd 2b 17 12 3e 78 90 14 3e 5b c3 9c 3c
       -0.03174662 0.1426665 0.14508235 0.019136121

fc3.weight f4 [10, 100]
000000 5c 36 11 3e e7 14 39 3d 68 a6 98 3d 54 c3 b5 3d
       0.14180893 0.04518595 0.074536145 0.088751465
000010 9e 13 99 3d 82 5f 6b 3e 6e ac 85 3d ce 0b 80 3d
       0.07474445 0.22985652 0.06527029 0.062522516
000020 73 16 ef be 50 2e df bd 93 b1 49 be df 0b 53 be
       -0.46696815 -0.10897505 -0.19696645 -0.20609997
000030 a7 73 93 be b3 80 ce 3d 39 47 8f bd e9 31 a8 3b
       -0.28799173 0.10083141 -0.069960065 0.005132903
000040 b4 94 ca bc fc e2 80 3d b5 90 85 bc 0b c7 e8 bd
       -0.02472911 0.06293294 -0.016304353 -0.113660894
000050 cb b7 7e bd 93 2d 33 3d 43 ae 12 3e 8b 55 90 3e
       -0.062186997 0.043744635 0.14324288 0.28190264
000060 8a 18 fe 3c 6c ad 43 3e 19 2c bd bc 10 db 35 3e
       0.03101756 0.19109124 -0.023092316 0.17759347
000070 06 77 62 bd ea cc 55 3d f2 21 08 be ea 5c 4d bc
       -0.05528929 0.052197374 -0.13294199 -0.0125343595
000080 ef f2 f8 bb 94 d8 38 be 63 67 84 3b 7c a4 4b 3e
       -0.0075973193 -0.18051368 0.004040645 0.19886965
000090 69 60 10 be 6b bf 6d be 23 c1 8f bd 94 da e0 3d
       -0.14099278 -0.23217551 -0.0701926 0.109791905
0000a0 3e bb 62 bd 5f ce c8 be f8 d1 b7 3b 25 bf fc bc
       -0.05535435 -0.3921995 0.005609747 -0.030852864
0000b0 4f 18 f2 3d 76 0d 0f bd 43 a2 b1 be f1 18 02 be
       0.11821043 -0.034924947 -0.34694108 -0.12704827
0000c0 8c 94 d2 bc 5a 0e 1e 3e 92 57 44 bd c6 6c 46 be
       -0.025705598 0.15435162 -0.047935076 -0.19377431
0000d0 d9 7c ce 3d 4e 4f 40 bc eb ec af be d7 02 1d be
       0.100824066 -0.011737658 -0.34360442 -0.15333115
0000e0 ca 39 a7 bc 3f 5f 2b 3e 74 d9 a8 bd 5e 41 75 be
       -0.020413298 0.16735552 -0.08244601 -0.23950717
0000f0 ca a3 b3 be 46 d2 13 be 25 83 d2 3b da 67 5e be
       -0.350859 -0.14435682 0.006424325 -0.21719304
000100 b0 07 bd 3b 49 38 c7 be 9f 7a aa be 90 76 b7 bd
       0.0057687387 -0.3891013 -0.33296677 -0.08958161
000110 2e 86 06 3e 3c 6b 29 bd 52 19 75 be 54 ca 0c 3f
       0.13137123 -0.041362032 -0.2393544 0.5499623
000120 b8 f9 de bc d9 ec c6 3d 9c 2b f4 bd b5 77 83 be
       -0.027218685 0.09713144 -0.1192238 -0.25677267
000130 79 b5 9d 3d 95 ff 79 bd 17 47 0b 3d b1 9d 4f 3c
       0.07700629 -0.061034758 0.034003343 0.012671874
000140 a1 7c 1a 3e af 1f 99 bd 81 a6 c9 be f6 20 7b be
       0.15086605 -0.07476746 -0.39384845 -0.24524292
000150 f8 70 0f 3d 5c 3b d7 bc c9 ce 88 3d 9e 6e 31 be
       0.035019845 -0.026273422 0.06680066 -0.17327353
000160 23 d2 50 bd 2e 1b 49 bd 1b 42 cd be 9c c1 16 be
       -0.050981652 -0.049098186 -0.40089497 -0.14722294
000170 b8 32 52 3e 7f ec 13 3d b8 13 b0 3d 01 49 00 3e
       0.2052716 0.036114212 0.08597511 0.12527849
000180 d7 39 fa 3d b9 a7 66 be eb c3 1a be 6d 11 6a bd
       0.12218063 -0.22524919 -0.151138 -0.057145525
000190 25 72 50 be 38 e7 8c 3e 90 b4 99 be ac 67 79 3e
       -0.20356043 0.27520156 -0.3002057 0.24355954
0001a0 e6 31 93 be 06 99 95 3e f5 bb 0d 3d 41 69 b9 3d
       -0.28749007 0.2921831 0.034603078 0.09053279
0001b0 79 38 14 3c 53 80 2a 3e 89 e1 94 be 94 ca f2 3b
       0.009046667 0.16650514 -0.2907832 0.007409403
0001c0 21 e6 a2 bd e5 f5 41 be b1 aa bf 3c 11 21 3e 3d
       -0.0795405 -0.18941458 0.023396822 0.046418253
0001d0 28 bf 50 3e 37 db 1b 3e f8 ba 8b 3e 9c 58 df 3d
       0.2038542 0.15220343 0.27291083 0.10905573
0001e0 6d cc 3d bd b1 56 8a 3e b2 fc a8 bd 73 ee 21 3e
       -0.046337534 0.27019265 -0.08251323 0.15813617
0001f0 56 6a 03 bf 23 56 dc bd f0 84 22 3e 45 e5 36 be
       -0.5133413 -0.10758617 0.15871024 -0.17860897
000200 5a cf 48 bb 02 db aa bc d4 cf 64 3e d4 ef 02 be
       -0.003064117 -0.020856384 0.22344905 -0.127868
000210 2a 5d 85 3e 1b 59 0e 3e 53 4f 19 be f7 25 75 be
       0.2604764 0.13901179 -0.14971666 -0.23940264
000220 05 91 1d bc 26 8c c4 be f9 e7 a4 3c 52 66 df be
       -0.009617095 -0.38388175 0.020130144 -0.43632752
000230 b1 5e 78 be 69 fe 00 3d 71 ee 46 3d de cb 85 3d
       -0.24254872 0.031492624 0.04856724 0.06533025
000240 d4 b8 01 be 95 ea a3 bc 14 c4 6e be fb 40 e7 3d
       -0.12668163 -0.020009318 -0.23316985 0.11291691
000250 08 8d ed bd 41 a3 6d be bd ff 86 be 88 bc d8 3d
       -0.11599165 -0.23206808 -0.26366988 0.105828345
000260 d2 0a 02 be 40 c2 6a bd 37 4d 1a 3e 7f 26 6a be
       -0.1269944 -0.057314157 0.15068518 -0.22866248
000270 f9 34 14 be c2 f3 45 3d dc 8a d9 bd a1 92 0e 3e
       -0.14473332 0.04832817 -0.106221884 0.13923122
000280 3c 7e c3 bd c8 a8 4a 3e a5 e5 1e 3e e7 a9 fe 3d
       -0.09545562 0.19790947 0.1551729 0.1243475
000290 91 10 83 be d8 13 a2 bd 32 77 97 3e 9d b2 c4 ba
       -0.25598577 -0.07913941 0.29583126 -0.0015006844
0002a0 d1 66 b2 3d 20 b6 63 be 67 f2 5d 3d 01 86 96 be
       0.08711017 -0.22237444 0.05418625 -0.29399112
0002b0 d2 e2 3f be fe ff 72 bb 51 89 e6 3d e4 93 13 3e
       -0.18738869 -0.0037078853 0.1125666 0.14411885
0002c0 79 20 27 be 2b 40 87 3e 80 d5 01 be 31 31 79 3d
       -0.16320981 0.26416144 -0.126791 0.06083793
0002d0 9e ed af bc d0 e6 2e 3e ea 53 c7 3d 03 3f d4 bc
       -0.02147561 0.17080235 0.09732802 -0.025908953
0002e0 6a a0 bb 3d fa 31 d1 bd cc dc 46 be 2e 1e 54 be
       0.09161456 -0.102146104 -0.19420165 -0.20714638
0002f0 9f e7 5d be 63 e5 92 be 85 02 5e 3e 06 b0 84 be
       -0.21670388 -0.28690633 0.21680649 -0.25915545
000300 5c 0a 8f 3e 38 7e b0 be fb 5f 81 be 9b fd 8a bd
       0.2793759 -0.34471297 -0.2526854 -0.06786653
000310 c9 d9 27 bd e0 6a 64 be 1d 2e 11 bd f4 8c 22 3e
       -0.04097918 -0.22306395 -0.035444368 0.15874082
000320 18 82 0b be 09 6f 83 3d 33 12 87 bd d7 07 af be
       -0.13623846 0.06417663 -0.06595268 -0.3418567
000330 dc f3 51 3e 29 69 95 be 00 b1 5b 3e 9c 38 eb 3c
       0.20503181 -0.29181793 0.21454239 0.028713517
000340 09 1e b7 bb 05 11 e9 be 69 36 80 be ae 54 e9 3d
       -0.0055882973 -0.45520797 -0.25041512 0.113931045
000350 54 15 f8 3d 21 ce 1e be 5f 6c 25 bd 63 37 30 bc
       0.12113443 -0.1550832 -0.040386554 -0.010755393
000360 93 14 20 3c 91 68 0b bc 70 e2 53 be 63 03 c5 3d
       0.00977053 -0.008508817 -0.20691848 0.096197866
000370 77 1d ca 3e ac 86 25 be b4 8a 25 3d 80 27 0f 3d
       0.39475605 -0.16164654 0.04041548 0.03494978
000380 43 f0 0b 3e 4c 78 f7 bb 3b da a0 be f5 0a 6b bd
       0.13665871 -0.0075521823 -0.31416497 -0.057383496
000390 70 b0 ef 3d 68 11 d9 3c 9c e7 65 3e 16 24 a5 3d
       0.11703575 0.026497558 0.22451633 0.080635235
0003a0 b4 14 57 3e 62 ea ad bc 73 38 32 3e 3c f9 f2 3d
       0.21003991 -0.021229926 0.17404346 0.11863944
0003b0 f2 9d 81 be 4f 4b 76 3e 8c 0a 92 be b8 ee 0c be
       -0.25315815 0.24052165 -0.28523672 -0.13762939
0003c0 54 98 fa be a6 e8 5d 3c 6d 9d 7b be 13 51 ea 3d
       -0.48944342 0.013544237 -0.24571772 0.11441245
0003d0 13 44 ba 3d d5 cb 49 bd 0b 82 98 3e 6e 20 11 be
       0.090950154 -0.049266655 0.29786715 -0.14172527
0003e0 93 12 e3 3d 6d 33 b3 3d f7 a8 02 be 8c 0b 1e be
       0.11087527 0.08750043 -0.12759767 -0.15434092
0003f0 21 f8 63 3e 0b 91 3c 3e f3 18 9b 3c 23 b6 38 be
       0.22262622 0.18414705 0.018932795 -0.1803823

fc3.bias f4 [10]
000000 bf e2 f0 bd 5d c5 79 3d 7e 5d 9c 3d 1c ba f0 3b
       -0.117619984 0.060979236 0.0763502 0.0073464047
000010 f3 7e e6 3d 9e 8b e3 3c 9c 6d 8a 3d 6d e5 56 3c
       0.112546824 0.027776536 0.067591876 0.013116223
000020 54 03 3a 3d a0 61 54 bd
       0.04541333 -0.051850915
