model.pt (torch, 360407 bytes, 6 tensors)

fc1.weight f4 [100, 784]
00000000: 0030 8cb9 b6f2 9c3c accc f0bc 9350 d7bc
00000010: ce5e 61bc 10e9 1c3c 407f 39ba 12fa e73c
00000020: 30b6 4fbb 10d6 1a3c 7cd6 30bc a409 e6bb
00000030: b219 0cbd d62f c3bc 2fff 70bc 257a ad3a
00000040: dc53 673c ae8c af3c a058 c6bc d8ce 7ebc
00000050: b088 543c a2f2 f23c 54d8 f0bb 46ef da3c
00000060: 70a1 bcbb 60aa 773b 4f75 043d 76b4 07bd
00000070: 502f b8bc 4a23 14bc b216 64bc 2ec8 fc3c
00000080: 8ca3 bdbc feb5 86bc 762a cfbc 8a46 0cbd
00000090: fc2d b2bc 39bf f53c 380e 763c 1510 7e3c
000000a0: b608 41ba bcfe a1bc 1b1c b33b 551b 0abd
000000b0: 39dc d2bc 7983 9abc 11f1 b33c 3155 a73c
000000c0: ae83 85bc 3ff1 ceba ef1a ba3c 3a64 113d
000000d0: 983b 683c e818 9e3b 482a c43c 4a44 acbc
000000e0: 6813 da3b 0ed5 e2bc 8bcd cabc 552b 97bc
000000f0: ac0c 843c b092 6a3c f8b7 b2bc a63f 0f3c
00000100: f5a6 873c 1089 01bc d294 6fbb ca07 113b
00000110: 321d 5f3c 97ed cb3c 2cde 12bd bb0a afbc
00000120: f092 aa3b 9a4f b03c a09b be3c 884f cd3c
00000130: e8ba 5c3b fddc 09bd f371 f03a 358d bbbc
00000140: 1e11 09bd d5dc 013d a675 de3c 92ec 11bd
00000150: 780b db3b 7825 c5bb c6cd c0bb cf58 86bc
00000160: f7e4 5e3c 8179 a9bc cfb1 4a3c 60ff 883c
00000170: c994 c23c 048a 5a3c 4417 09bd 6061 93bc
00000180: bb6f dc3c 2ed6 753c e5cd 9ebc 9543 83bc
00000190: 5421 093d 54e2 9f3c 5e92 bebc cf53 8bbc
000001a0: ec31 27bd 82a4 0bbc 9cd2 07bd d837 febc
000001b0: cf8b 6bbb e171 a43b d392 71bc f89a ad3c
000001c0: 8a0a b2bc 5ebf 043d a0a1 c83c db57 f5bc
000001d0: 3798 04bc b40e a63b b563 3f3c 4ebf 963c
000001e0: 9f92 f23c 78d1 d03c 7363 203c 7fe7 443d
000001f0: 4377 b3bb 3eda 5c3b b91f 153c b288 adbb
00000200: 51d0 09bc 1298 fdbc ec25 28bc 76f2 2bbb
00000210: f911 20bd 60de 99bc 539c 393c 6fdf 61bc
00000220: aab3 a3ba 8f23 60bb 53cd ec3b 7bdb b93c
00000230: 8f91 0a3d 9acc b93c 5121 0b3d 5e79 9fba
00000240: 8b8c e1bc ee20 9dbb 216b 2d3d ec14 b83c
00000250: cd76 263c 9b94 953b 0393 40ba c5da cf3b
00000260: df4b 8e3c 5498 133d 02fe c83c 1228 debc
00000270: 9a72 d23c 140e 15bd ae5c a0bc 928c 09bd
00000280: 080d edbc 5320 f5bc 6717 5abd ee57 42bd
00000290: 1964 35bc 4a81 9ab7 7993 84bc c8fe 5b3c
000002a0: 6baa 03bd e4d1 1dbb 3e66 013d dac1 37bc
000002b0: 8565 283d 0af8 f53c bcbc 15bc 0782 373d
000002c0: 6b1c ad3c 5dec 743c 43b7 803d a0dd b73b
000002d0: e44e 203d 26ec 1b3d 8f19 9f3d 0a64 823d
000002e0: c1eb 933d d6a4 623d c59d bc3c d909 84ba
000002f0: 50f1 06bd c154 c83b b1a7 9f3b dacb da3a
00000300: 5bde 0dbd 83bd 1fb9 3226 cfbc a010 a1bc
00000310: 747c aabc 589b 493c 70fd abbc 40df 603b
00000320: fe7f 683c 6df4 283d e314 14bc 8d39 76bc
00000330: cd7a 30bc fcf5 283d 078a 083c a64e 693d
00000340: c5fc 6f3d d943 8d3d 0df3 a63d ef9a 9e3d
00000350: bd16 a23d 20b2 4f3d 4a60 2d3d 9d07 093d
00000360: 1e96 2ebc 16c8 98bc 5094 6a3c 043b 52bd
00000370: c4a9 85bc 8ecd 053d ec5e 4e3c d362 7d3a
00000380: 7dea fdbc d10f 903c 4b0a d1bc 8ab8 d7bb
00000390: 6d34 583a 129a 1a3c 4b29 293c 0751 e63c
000003a0: 068a 703b 0f11 093d 1e8c e23c a4e7 87bc
000003b0: dee0 093d 076f 193c f65a 203d 31e8 8d3d
000003c0: 32b6 813d b44c 893d 7ce9 ef3c 2e5d 083d
000003d0: 2eb4 393d 636a a8bc fb52 bc3c 3d5a 4bbd
000003e0: 8e85 64bc 2a5e 1dbc e454 9fbc 8b22 973b
000003f0: 27d4 f13c 3c76 2dbc 69b5 afbc 56dc 1cbc
-0.00026738644 0.019158702 -0.02939447 -0.026283538 -0.013755513 0.009577051 -0.00070761517 0.028317485
-0.0031694286 0.009450451 -0.010793325 -0.007020192 -0.034204192 -0.02382652 -0.014709278 0.0013235254
0.014119115 0.021429386 -0.024212182 -0.015552245 0.012972042 0.029656712 -0.007350007 0.026725423
-0.0057565495 0.003779076 0.032338437 -0.033131085 -0.022483498 -0.009041617 -0.013921427 0.030857172
-0.023149274 -0.016444203 -0.025288802 -0.03424696 -0.021750443 0.029998409 0.015018038 0.015506764
-0.0007363664 -0.019774787 0.005465997 -0.033717472 -0.025739776 -0.01886152 0.021965535 0.020426365
-0.016298141 -0.001578845 0.022717921 0.035495974 0.0141743645 0.0048247464 0.023945943 -0.021028657
0.0066551454 -0.027689483 -0.024756214 -0.01845328 0.016119324 0.0143172 -0.021816239 0.008743202
0.016559104 -0.007906213 -0.003655721 0.0022129887 0.013617801 0.024893565 -0.03585641 -0.021367421
0.0052055046 0.021522332 0.023267567 0.025062338 0.003368074 -0.033658016 0.0018344506 -0.022894481
-0.03346359 0.031704742 0.027155709 -0.035626 0.006684717 -0.0060164295 -0.005883905 -0.01639977
0.013604394 -0.02068782 0.012371494 0.016723335 0.023752587 0.01333857 -0.033469453 -0.017990768
0.026908746 0.015004678 -0.019385288 -0.016023437 0.03347905 0.019517101 -0.023263153 -0.017007736
-0.040819094 -0.008523108 -0.033159837 -0.031032488 -0.0035941487 0.0050184582 -0.014744478 0.021192059
-0.021733541 0.032409064 0.024491131 -0.02994912 -0.0080929315 0.0050676707 0.011681487 0.018401768
0.02961093 0.025490507 0.009789336 0.048072334 -0.0054768636 0.0033699418 0.009101802 -0.0052958364
-0.008411483 -0.030956302 -0.0102629475 -0.0026237047 -0.03907964 -0.018782794 0.0113287745 -0.013786181
-0.0012489457 -0.0034200882 0.007226625 0.022687664 0.03383022 0.02268057 0.03396732 -0.0012166908
-0.027532836 -0.0047951853 0.042338494 0.022470914 0.01016016 0.0045648343 -0.0007346125 0.006343218
0.017370163 0.036033943 0.024535183 -0.027118716 0.025689412 -0.03639038 -0.019575443 -0.033581324
-0.028936878 -0.02992264 -0.053244974 -0.047447138 -0.011071228 -1.8418436e-05 -0.016183602 0.013427444
-0.032144945 -0.0024081403 0.031591646 -0.011215651 0.04111244 0.0300255 -0.009139236 0.044801738
0.021131715 0.0149489315 0.062849544 0.0056111366 0.039137736 0.038067006 0.07768547 0.06366737
0.07222701 0.05533298 0.02302445 -0.0010073736 -0.032944977 0.006113619 0.0048722853 0.0016692833
-0.034635883 -0.0001523402 -0.025286768 -0.019661248 -0.020811297 0.012305103 -0.020994872 0.0034312755
0.014190672 0.041248728 -0.009038183 -0.01502837 -0.0107714655 0.041250214 0.0083336895 0.05695977
0.05859067 0.068977065 0.08151827 0.07744395 0.07914493 0.050706983 0.042328157 0.033454526
-0.010655908 -0.018650096 0.014317587 -0.051325813 -0.016316302 0.032666735 0.012595873 0.000966591
-0.030995602 0.017585667 -0.025517603 -0.006583278 0.0008247558 0.009436147 0.010324786 0.028114809
0.0036703362 0.033463534 0.027654704 -0.016589947 0.033661716 0.00936485 0.039149247 0.069290526
0.06333579 0.06704083 0.029286139 0.033291988 0.04533785 -0.020558542 0.022988787 -0.049646605
-0.013947858 -0.00960497 -0.019449659 0.004612272 0.029520107 -0.010587271 -0.021448808 -0.009574017

fc1.bias f4 [100]
00000000: aac3 8fbc 4777 583d 7e9a 303c 63fc 0dbd
00000010: 3111 36bc 5590 813c b993 bbbc 805f c23d
00000020: 6437 0f3d 4c2a 9e3c 4a40 3cbd fc4a f23c
00000030: 1957 a3bc 6b54 b7bc 53fb 59bd 7574 9a3b
00000040: 3f35 aa3b 2522 e4bb e0b5 d03c 6405 52bd
00000050: 1d90 e43d 684d 8dbc ee69 053e 026c bebd
00000060: ae6e d83c cb15 983c ab6a 3ebd f6c1 ae3c
00000070: 9cb7 85ba e731 f83c 0c8a 883d 1fcb 873d
00000080: b90f 803c ea4d 5ebc c63f da3c 651c b2bb
00000090: 4485 833d 2587 653b 4c9e b03d 864e 503d
000000a0: 2795 c83b a49a 21bc c771 9fbb 2ba7 8fbc
000000b0: 8f17 033d 5db8 f13c 0d17 003d ae9d a43b
000000c0: e5ed 3b3c 9fea d53d 343d 483b 3a27 783a
000000d0: 9a6f 623d f81b c13c 8146 293d c211 48bd
000000e0: b277 063d 68fd 0f3d c8bc fc3c 8087 8dbc
000000f0: ae54 443d 2a29 fabc fe8a 8e3c 8591 8c3c
00000100: f875 c13d df94 243d 327d c0ba f1d8 0e3c
00000110: 5412 85bc ef76 bc3c 45f4 4dbc ee72 eb3b
00000120: 1538 8d3d b70f fbbc e20b 35bd 736d c03d
00000130: 422d 7c3c 65a5 9e3d 4f74 c4bc e36b da3c
00000140: cd29 be3c e01f 7c3d c583 5f3c bc3e a5bc
00000150: 773c 413d 7b62 9dbb 74ce 9abb 3b37 2abd
00000160: 08f4 54bc ad4f 97bc 0cd8 273b 7d3e 64bc
00000170: 0e3b 373c ecbd f53c c4f4 063d cac6 163c
00000180: 5825 913b 999c 9b3d b856 253b b1e7 99bb
-0.017549355 0.052848127 0.010779021 -0.034664523 -0.011112497 0.015815893 -0.022897588 0.094908714
0.034964934 0.019307278 -0.04595975 0.029576771 -0.019938992 -0.02237912 -0.053218197 0.00471359
0.0051943357 -0.006962078 0.02547735 -0.051274672 0.111603 -0.017248824 0.1302869 -0.092979446
0.026419964 0.01856508 -0.046488445 0.021332722 -0.0010201815 0.030297233 0.06666955 0.06630539
0.015632497 -0.013568381 0.026641738 -0.005435514 0.06421903 0.003502318 0.08623943 0.050856136
0.006121296 -0.009863529 -0.0048658582 -0.017535767 0.03200489 0.029506857 0.031271983 0.0050236797
0.011470293 0.10445141 0.0030554058 0.00094662944 0.055282213 0.023572907 0.041327003 -0.04884506
0.032828994 0.035153776 0.030851737 -0.017276525 0.04793232 -0.030537207 0.017400261 0.017159233
0.09446329 0.040181037 -0.0014685749 0.008718715 -0.016244091 0.02300593 -0.012570445 0.0071853315
0.068954624 -0.030647142 -0.044200785 0.09395876 0.01539165 0.0774639 -0.023981242 0.026662773
0.023213292 0.061553836 0.013642256 -0.020171516 0.047176804 -0.0048029996 -0.004724318 -0.041556578
-0.012997635 -0.01847061 0.0025610952 -0.013930914 0.011183513 0.029997788 0.03294827 0.009202668
0.0044295006 0.07598228 0.002522869 -0.004696809

fc2.weight f4 [100, 100]
00000000: 1558 80bd 84bb 43bc f7d0 a7bc 0f91 dabd
00000010: 4637 203d 359b 6fbb 64dd ad3b 0a9e d63c
00000020: aa32 283d 4578 12bd c87c 3bbd 387d 4ebd
00000030: 1ad7 a83c 1f49 88bd 58ef ebbb 837a a33d
00000040: bb7a 893b ebbd a73d 9043 c13d 8a7a e9bd
00000050: bbcf aebd 81ac d83d d52c ad3d da59 0bbe
00000060: 7732 4a3d 6927 413d 8b3d be3c 6aea b23c
00000070: 5c38 ef3c 8740 8abd e555 a73d a595 263d
00000080: 1b42 c1bd 0f4a 9dbd 7b9e 803d 8c5b 8b3c
00000090: 2b26 123e 3a6c 943d d7dd 99bc 0dec 733c
000000a0: 74e8 a4bd ba97 d1bd 6f51 c4bd 07ed ddbd
000000b0: fd98 1e3d cff6 7abd ba48 b7bd 5797 b6bd
000000c0: 367f aebd c1e4 b63d d1fe 7abc bc7b cd3c
000000d0: a6cf 36bd 4f6b 43bd f7ee 37bc 2715 1bbd
000000e0: 8c79 c13d d3ea b3bd 4d11 353d 1b57 90bd
000000f0: 0f86 e4bc acf9 81bd 4fca 8b3c 5d9f a43d
00000100: 181f f13c 6e35 153c 031d 5d3d 37bf ddbc
00000110: 43c8 bfbd 84a8 e43d 422f 453d d840 0c3d
00000120: 5933 cf3c dd53 8c3d 6ec2 03bc aede 8e3d
00000130: 866c cbbc 2ec0 88bd aa33 c2bd 56cd 6abd
00000140: e2c4 8bbc 2cb4 8cbd c42e b1bd b95e 89bd
00000150: 22cc 8dbd cffd a03c 2bef 42bc 550f 8abb
00000160: 4eb4 173d cd84 41bb a274 95bd 04a0 5bbd
00000170: b3a0 b03d 96d3 f4bd 9268 85bc 13b7 aa3d
00000180: 864a 303d ba57 c53d 5b51 8fbd 7481 9abd
00000190: 8384 b73d 8de5 12be 9ac9 133e a243 373c
000001a0: 98e6 4abc d30e 62bc 800a 6d3d 6e63 013b
000001b0: 114b d1bc 1edb 943d 408d df3d 5c03 393e
000001c0: 68ce 323d 4291 c1bd 940c b73d e45e b43c
000001d0: 9e32 92bd ae95 0fbd 79b3 c4bd 0f4d 32bd
000001e0: 0f50 863d c0c9 c9bd ecaa 5c3d d328 b4bc
000001f0: a177 05bd 3d9a a7bd 156b 03bd d2d2 5f3d
00000200: 4c76 0f3d 8d8a 673d be3c 903d 88dc 1d3e
00000210: 34c1 cbbc 1677 f23d 929c 003e f246 d93d
00000220: c622 2d3d e4ec 403c a966 65bc 3306 c83d
00000230: 63e5 f23b 641e cc3c 6dbb 57bd 9234 c0bb
00000240: ae43 aebd 7d02 c8bc 5832 b03d 621d 05bd
00000250: 22ea e1bb 89c2 28ba 784c a3bd 1d15 7bbd
00000260: 04c8 4f3d 4ab9 ce3d 2b39 f7bd a31f d7bc
00000270: 5f7b 85bc 2066 2c3d 0f9d e73d 2f24 213c
00000280: d37e 7cbd b7fa 1abc e120 37bd 1a37 ccbd
00000290: 7e31 673d 1a97 923d 219a 663c fa5e 1d3d
000002a0: a7cc 8cbd 460c 5abc a264 163c 3ff2 ad3c
000002b0: be9c 9abc 347f 083d be8a fb3d d0f8 7fbd
000002c0: 774b a0bc cda5 6dbd fc48 d7bd 512b b8bd
000002d0: 1c32 583d 2830 7bbd dabf 553d 8bd1 4fbd
000002e0: d8d2 e6bc 89bd d9ba e944 a63d 9b63 143e
000002f0: 924c b33d 076f 5cbc a8cd 923d 6c42 b5bd
00000300: ee32 90bc 335c 883d 44c9 003d 0c09 f13c
00000310: 53bb b73d 22fa d73d f73c 713c dc4c 12bd
00000320: ef8a 7dbd 5b9c 2ebb 5efc 5c3d 0973 1e3d
00000330: 8b8e 8fbd 5368 8b3d c329 4c3d 562d a6bd
00000340: 160e 853b 33ee 77bd 0cc1 aebd e050 aa3b
00000350: 9816 18bd 57bc b13d 9b5c 7bbd 42e2 2b3d
00000360: 0b5c b6bc c9cc 83bd 56c8 ddbc ca47 db3c
00000370: fe17 333d 110b 47bc 2166 9dbd 1992 98bc
00000380: 8a7e 263d 7446 2dbd f8a7 4d3d 293b b73d
00000390: d2b9 90bd ae4a 8e3d ac0e 94bd a676 243c
000003a0: b1af 563c 9e71 b43d cf38 933c 4e3d d8bc
000003b0: fc83 833b ff17 bc3c 43c6 22bd 40a7 1e3c
000003c0: 47ab 71bd 7dce 84bb f9be ddba 2a39 5a3d
000003d0: b9f1 78bd 11ae 9c3d ad42 f03c 6a65 0cbd
000003e0: 2ebb 7bbd cd1a 11bd ff79 22bd 6efd 353d
000003f0: 633f 71bb 5981 b13c f35d 8bbd c8ec 9c3c
-0.062668 -0.011946563 -0.020485384 -0.10672199 0.039115213 -0.0036561016 0.005305933 0.026198406
0.041063942 -0.03575923 -0.045773298 -0.050412387 0.02061038 -0.06654572 -0.007200163 0.07982352
0.004195539 0.08190521 0.09436715 -0.114003256 -0.08535715 0.105797775 0.08455817 -0.13608494
0.049364533 0.047156725 0.023222705 0.021840293 0.029201679 -0.06750589 0.0817068 0.040670056
-0.09436437 -0.07680141 0.06280228 0.017011426 0.14272372 0.07247205 -0.01878254 0.014887822
-0.080521494 -0.10234018 -0.09585845 -0.10836225 0.03872012 -0.06127053 -0.08949418 -0.089155845
-0.08520357 0.0893035 -0.015319542 0.025083415 -0.044631623 -0.04770976 -0.011226407 -0.03786197
0.09447011 -0.087850235 0.044205952 -0.07047864 -0.027895955 -0.06346449 0.017064242 0.08038209
0.029433772 0.009106977 0.053982746 -0.027068717 -0.09364369 0.11164954 0.04814077 0.034241527
0.02529304 0.06851933 -0.008041961 0.069760665 -0.024832021 -0.0667728 -0.094825104 -0.05732473
-0.017061654 -0.068703026 -0.08651498 -0.0670752 -0.06923701 0.019652275 -0.011897842 -0.0042132535
0.037037186 -0.0029528618 -0.072976366 -0.0536194 0.08624401 -0.11954419 -0.016285215 0.083357
0.04303982 0.09635873 -0.06997939 -0.075442225 0.089608215 -0.14345379 0.14432374 0.0111855585
-0.012384079 -0.01379748 0.05787134 0.0019743103 -0.02554849 0.07268356 0.10915613 0.18067688
0.043653876 -0.09451534 0.08937946 0.022017904 -0.07138561 -0.035054855 -0.09604544 -0.04353052
0.06558239 -0.09852934 0.05387394 -0.021992123 -0.03258479 -0.081837155 -0.032084543 0.054644413
0.035024926 0.056528617 0.07042836 0.15416157 -0.0248724 0.1183912 0.12559727 0.10609235
0.04226949 0.011775229 -0.014001527 0.097668074 0.007412599 0.024916835 -0.052668978 -0.005865642
-0.085090026 -0.024415249 0.08603352 -0.032498725 -0.006894366 -0.00064376794 -0.0797357 -0.061299432
0.05072786 0.10093935 -0.12071451 -0.026260203 -0.01629418 0.04208958 0.113092534 0.009835287
-0.061644387 -0.009459189 -0.04470909 -0.09971447 0.056443684 0.071577266 0.014074833 0.038420655
-0.06874972 -0.01330859 0.009179266 0.021233676 -0.018873569 0.033324435 0.12282322 -0.062493145
-0.019567234 -0.058019448 -0.105119675 -0.08992637 0.052782163 -0.061325222 0.052184917 -0.050736945
-0.02817671 -0.0016612272 0.08118612 0.14491121 0.08754839 -0.013454205 0.07168132 -0.088505596
-0.01760241 0.066582106 0.03144194 0.02942326 0.08971276 0.10545756 0.014724008 -0.03571783
-0.061900076 -0.0026643488 0.053951614 0.038683925 -0.0700961 0.06807008 0.049844515 -0.08114116
0.004060517 -0.0605299 -0.085329145 0.0051976293 -0.037130922 0.08678501 -0.061367612 0.041963823
-0.022260686 -0.06435544 -0.027073067 0.02676763 0.043724053 -0.0121486345 -0.07685495 -0.018624352
0.04064802 -0.042303517 0.050209016 0.08946831 -0.070666924 0.06947838 -0.07229361 0.010038054
0.0131034115 0.08810733 0.017971424 -0.02639642 0.0040135365 0.022960661 -0.03973986 0.00968343
-0.059001233 -0.0040529356 -0.0016917876 0.053277172 -0.0607774 0.07650388 0.029328668 -0.034276403
-0.061457805 -0.03542595 -0.039667126 0.044431143 -0.0036811463 0.021668123 -0.06805029 0.019155875

fc2.bias f4 [100]
00000000: 6bde d3bc b729 333e 735d 3ebc 4f14 9fbd
00000010: 8e30 883d fb68 1b3e db40 ab3c aacf e7bd
00000020: 2e8a 73bd 3ba4 7cbd fb04 87bd 2762 ee3d
00000030: c198 dd3d 33c7 56bd 297f 273d 50d1 2f3e
00000040: 0c48 7d3d 1cb8 ef3d 2e73 003e 14f3 c23d
00000050: 5edb 903c b6ae edbb 42f6 253d 6398 183d
00000060: b79e 363e 92ae 863d 0c3f fb3d ab33 473d
00000070: 0706 a83d 07f8 593d 6314 b43d 7473 bc3d
00000080: d84d 56bd 23a4 503d c87d 80bd 4157 fbbc
00000090: 33bf f6bc 7fb3 2fbd 37e6 c03c fdf4 2d3d
000000a0: 6082 0a3e 2c60 a03d d52c 243e 9b46 553c
000000b0: c277 c4bd db06 05bd 99fd 89bd 32b0 7dbb
000000c0: f011 5e3d 5963 97bb ad88 403d d0f1 ddbd
000000d0: 7342 0dbd 65f1 9fbc a757 923c 2f9c 053e
000000e0: 3fa0 ca3c 9096 a33c 2e31 e33d 52d9 aa3d
000000f0: a250 59bd a8d6 0c3d 7ce1 b93d 6167 6dbd
00000100: 44d6 3cbc 29a3 883d bdb4 183e 47fb b1bd
00000110: 643f d33d 8cd5 203e 97f8 8fbb 7e99 c6bd
00000120: df8e 7cbd a53f 2b3d 68a0 3a3d 306f 64bb
00000130: cff2 24bd 545a 263d 34bf 9fbd 15be dcbc
00000140: c7f6 41bb ff16 6cbd a308 0abd 5596 04bd
00000150: 5a0f ad3d 238f d1bc 6992 973d 7b99 8dbc
00000160: a78e 81bd 5817 cdbd d350 4a3d 2ccf bdbc
00000170: dace 253d c0a8 3bbd 42be b6bc 45a2 b0bb
00000180: 064a 0b3e 0c68 cebd 07c5 523c 9010 bd3d
-0.025862893 0.17496382 -0.01161896 -0.077675454 0.06649886 0.15176766 0.020904949 -0.11318906
-0.05945795 -0.06168006 -0.06592747 0.11639815 0.10820151 -0.052436065 0.040892754 0.1716969
0.061836287 0.11705038 0.12543938 0.0951902 0.017682727 -0.007253493 0.040518053 0.037254702
0.17833982 0.065762654 0.122678846 0.04863326 0.082042746 0.053215053 0.08792951 0.092017084
-0.05232033 0.050937783 -0.06273991 -0.030681254 -0.030120468 -0.04289579 0.023547275 0.042469967
0.13526297 0.07830843 0.16032727 0.013017322 -0.095931545 -0.03247724 -0.06737823 -0.0038709757
0.054216325 -0.0046199975 0.047005344 -0.10837138 -0.0344872 -0.019524286 0.017864062 0.1304786
0.024734614 0.019969255 0.11093365 0.08342232 -0.053055413 0.0343844 0.09076211 -0.057959918
-0.011525694 0.06671745 0.14912696 -0.086905055 0.10314825 0.15706462 -0.004393648 -0.09697245
-0.06165969 0.041808743 0.04556313 -0.0034856312 -0.040270623 0.040613487 -0.07800141 -0.026946107
-0.0029596554 -0.05763912 -0.033699643 -0.03236993 0.08450194 -0.025580948 0.074009724 -0.0172851
-0.06326037 -0.10014218 0.049393486 -0.023170076 0.040480472 -0.04581523 -0.022307519 -0.005390438
0.13602456 -0.10078439 0.012864358 0.09231675

fc3.weight f4 [10, 100]
00000000: 806d 39bc 5a1d 7abe 09ea eb3c 0eb2 463d
00000010: 7457 963e 5a06 6a3c 9ebc 2f3e 20a0 fd3d
00000020: b1d1 8bbd c36d 793e fd96 e43c afb0 07be
00000030: babc 16be 8d3b 3fbd 2ccd afbc 936c 0f3d
00000040: 15f0 be3e 8ee9 d33c 4f19 943e 418e 11bd
00000050: 062a e63e 14f0 0f3d 8f7e a0bb 6540 ee3d
00000060: 6ae6 fcbd 2275 d8bd 6a81 cdbd 9c4a 23be
00000070: 35df 82bd 0351 08be 72b4 3dbe fa7b 8cbe
00000080: d2b1 f13d 9152 843d 5f3d be3c e659 aebe
00000090: a9b6 23be 3866 e13d f3cd d7bd 429c e13d
000000a0: 3cf9 af3d 147a 8fbe 2b92 f0bd 7b0d 1fbd
000000b0: cc46 f23d 8220 783d 3889 64bd a9c6 703d
000000c0: 4015 a8bc e6bb 44bd fc8c 023e 2c45 913e
000000d0: 7a0b 8a3d 352f 77bd 7abf 1bbe 7e21 673e
000000e0: 29e7 f2bd a8e5 9c3d e68c e5bd 740e 323c
000000f0: b764 673d c165 093c 808e 85be 58d8 b3bd
00000100: 176e dfbd 56c7 72bd e389 cfbd a98c 62bd
00000110: 063f c23d 2607 82be 17c3 6fbd 9b49 4e3d
00000120: 6645 5a3e 074d 44bd 356a 18bd e11d e3bd
00000130: 0511 79bd 8112 f3bc e80a c7bd 49a5 3a3d
00000140: 3c7e 8fbc 2267 a33d cd5f 36be ec25 7bbd
00000150: 5305 7ebd bbcc eebd 019f 27bc f050 82bc
00000160: 9079 133d 1f9e 873d 55bf 4ebd dc7f c53e
00000170: 4cf8 22bd f029 163d d7ba 7dbe 0620 e63c
00000180: 49ad 083d c015 863d 3d98 023e 09cd 9fbc
00000190: c6bd ac3d 62c2 3c3e fd10 25ba 963a 183d
000001a0: 5da3 c2bd d612 f73d 1aaa d9ba 9ef8 fbbd
000001b0: 2619 443c 962d 243c ad10 0abd 2049 34be
000001c0: c741 683e 4272 59bd c32e bb3c 800f a23d
000001d0: a6cd a8be 3bef afbd 44a1 d73d ce40 07be
000001e0: c9d6 8abe 9fe6 893d 83a6 1a3d f39e a0be
000001f0: d72b af3e 5bb4 0a3c 92bd b93e ab9f be3d
00000200: cce7 67bd 7e62 07be 9a17 8d3e c90d a0bd
00000210: e572 65bc 79af 0dbe 357d 2abb 10cf 35be
00000220: 3092 6ebc 6744 07be fd18 403e 1a00 7cbe
00000230: bef2 dabd 8d56 8f3e 3341 7c3e 9a53 c43c
00000240: 2690 833b e36a 13be 9334 bf3d 2096 eebd
00000250: 0115 4bbe 7e8d adbd d9f6 9cbe f741 74be
00000260: e43b 4f3c f2e9 d73c b009 72bd d39f 3b3c
00000270: 5fc4 c8bd 66a1 e33c ec01 ab3e 65c4 743e
00000280: b1a9 14bd 881d 6a3e a564 c63e 0f09 80bd
00000290: a759 883d 9038 04be 812f d5bd 82ac b8bc
000002a0: bfec f3bd 3c43 d7bd 2b9a e03b 0957 64bd
000002b0: 901f 4abe a698 423e 6b22 113c f3cf 1a3e
000002c0: 6296 443d 3fe9 473d 546e 40be 00e0 66bd
000002d0: 0163 cd3b c0d3 363e 20c2 d3bc 8610 c43c
000002e0: b413 f3bd a163 703d e7d0 87be d3c1 2d3e
000002f0: 1302 36bd 775f 10bd 7fcf 063e 0771 6f3c
00000300: 0148 a0bd 4ef1 8f3c de65 003e 146f 8d3d
00000310: a817 4fbd 7ae8 d0bc b93f 5dbe 6b9b f13c
00000320: 16ad da3d a99c d8bd 2287 dd3d 3d5c 36bc
00000330: 5fe6 0cbe 06ce e0bd 9fbf a93d b292 5fbe
00000340: 3a31 8ebd ac05 f4bd a074 55bd 901e 88be
00000350: b125 4c3e 437f d13d 1f46 c5bd a584 48bc
00000360: 34a0 303e 03ce 35bd bf97 0bbe f1d6 c0bd
00000370: 3346 5f3e df28 abbd b737 8c3d 03b1 7fbe
00000380: d2d5 7f3e 35de 6ebd 884a c03d d533 3cbe
00000390: 5367 6b3c 98bd 893e 3ee9 1dbe 3b16 74bd
000003a0: 6ff1 95be 0e4a b33e 7fa7 70bd 9ec4 c53c
000003b0: 5e67 983e 8e32 af3e a775 053e 2670 743e
000003c0: 545d 8fbe a8b5 e43d 2060 10bd 307f c03d
000003d0: e60a 3abc 442f ae3d 21a9 db3b a695 823b
000003e0: 2def 5d3d a8a6 53bd 5b24 e23d 495e b23e
000003f0: eedf a0bc de1e abbb 86e6 993d 4cc9 653e
-0.011317611 -0.24425259 0.02879812 0.04850965 0.29363596 0.014283741 0.17161795 0.12384057
-0.06827105 0.24358277 0.027904028 -0.13250993 -0.14720431 -0.04668765 -0.021460138 0.035015654
0.37292543 0.025868203 0.2892556 -0.035536055 0.44953936 0.035141066 -0.0048978995 0.11633376
-0.123486355 -0.10569216 -0.100344494 -0.1594643 -0.063902296 -0.13312154 -0.18525866 -0.27438337
0.11801495 0.06461061 0.023222623 -0.34052962 -0.15987648 0.11005825 -0.105373286 0.11016132
0.085924596 -0.28022826 -0.11746629 -0.038831215 0.1182991 0.060577877 -0.055794924 0.058783207
-0.020517945 -0.048030756 0.12749094 0.28373086 0.0674047 -0.060347755 -0.15209761 0.2257137
-0.118604966 0.07660991 -0.11208515 0.010867704 0.056492534 0.008386076 -0.2608528 -0.08781499
-0.1090967 -0.059272133 -0.10133722 -0.055309925 0.09484677 -0.2539608 -0.05853566 0.050363164
0.21315536 -0.04792502 -0.037210662 -0.11089683 -0.060807247 -0.02967191 -0.09718877 0.045567784
-0.017516248 0.079786554 -0.17809983 -0.061315462 -0.062016796 -0.11660143 -0.010230781 -0.015907735
0.036004603 0.06621956 -0.050475437 0.3857411 -0.039787576 0.03666109 -0.24778305 0.028091442
0.033368383 0.06547117 0.12753387 -0.019506948 0.08434634 0.18433526 -0.0006296782 0.037165247
-0.09503815 0.120641395 -0.001660648 -0.12303279 0.0119688865 0.010020634 -0.03370731 -0.1760602
0.22681342 -0.05308748 0.022849446 0.07913113 -0.32969397 -0.085905515 0.10528806 -0.13208315
-0.27116993 0.067334406 0.037756454 -0.3137127 0.34213135 0.008465852 0.36277443 0.09307798
-0.056617543 -0.13221166 0.2755707 -0.07815129 -0.014004444 -0.13836469 -0.002601457 -0.1775477
-0.014561221 -0.13209687 0.18759532 -0.24609414 -0.10690831 0.2799572 0.24634247 0.023965646
0.0040149866 -0.14396243 0.093361996 -0.11649728 -0.19832231 -0.08474253 -0.3065708 -0.23853289
0.012648556 0.026356671 -0.05909127 0.011451679 -0.0980308 0.027786922 0.33399904 0.23903044
-0.036294643 0.22862828 0.3874866 -0.06251728 0.06657725 -0.12912202 -0.10409451 -0.022543196
-0.1191039 -0.10510871 0.0068543158 -0.055747066 -0.19738603 0.19003543 0.008858304 0.15118389
0.04799498 0.048806425 -0.18792087 -0.056365967 0.0062679057 0.17854214 -0.025849402 0.02393366
-0.118689924 0.058688764 -0.26526567 0.1696847 -0.044435572 -0.035247292 0.13165091 0.01461435
-0.07826234 0.017571118 0.12538859 0.06905952 -0.05055967 -0.025501478 -0.2160634 0.029493054
0.10677545 -0.105767556 0.1081679 -0.01113039 -0.13759755 -0.10976796 0.08288502 -0.21833304
-0.06942983 -0.11915144 -0.052113175 -0.26585817 0.19936253 0.10229351 -0.09632515 -0.012238656
0.17248613 -0.04438592 -0.13632105 -0.09415997 0.21804123 -0.08357405 0.06846564 -0.24969868
0.2498391 -0.058317382 0.09389216 -0.18379147 0.014367896 0.2690246 -0.15421006 -0.059591513
-0.29285762 0.35017437 -0.058753487 0.024141606 0.29766363 0.34218258 0.13033162 0.23870906
-0.2800089 0.11167461 -0.035247922 0.09399259 -0.011355137 0.08505109 0.0067035113 0.0039851246
0.054183174 -0.051672608 0.110420905 0.3483756 -0.019638028 -0.0052221855 0.07514672 0.2244007

fc3.bias f4 [10]
00000000: 95da 35be 05b1 993e 1174 d73d d669 fcbd
00000010: 7fdb 003e 4101 813e 7aa1 df3c a9f6 c63b
00000020: 1e6e 75be e72d 54bc
-0.17759164 0.30017868 0.10520185 -0.12324874 0.12583731 0.2519627 0.027298678 0.0060718847
-0.23967788 -0.012950397
