artifacts/1/e4b18234a4ae4108927993803d2f6b4b/artifacts/model/data/model.pth (torch, 362823 bytes, 6 tensors)

weight f4 [100, 784]
0.0026978 0.012251314 0.029253174 -0.007055981 0.0050885677 0.018376049 -0.01987731 -0.0035085978
-0.0019251449 -0.014665307 -0.014467699 0.00591485 -0.027711203 0.021310214 -0.011395469 -0.014208353
0.01820277 0.017949194 -0.007943656 0.02663005 -0.0066810763 -0.011030491 0.035422016 -0.011164368
-0.0045990646 0.029525643 0.011357589 0.00647834 0.015743857 0.025430638 0.011646395 -0.0057024364
-0.029039044 0.008835898 -0.009795597 -0.006797385 -0.010231827 -0.014375414 -0.013674351 -0.011921722
-0.010983511 -0.022490162 0.0014061328 0.028907115 -0.0003754566 -0.03586648 0.028481781 -0.023644902
0.015003878 -0.021487253 -0.02568009 -0.021745503 0.01928086 0.02257845 -0.01367907 0.020549528
0.009924322 0.006420421 -0.021559898 0.026623923 -0.01436628 0.0046342034 0.015264582 -0.012104795
0.022584729 -0.010987774 -0.004050436 -0.0038653635 -0.024411533 -0.03646107 -0.031601913 -0.02926276
-0.0042867325 -0.022462104 -0.02514987 -0.01523775 0.008560468 0.025721958 -0.00025347527 -0.024804674
-0.0069634854 -0.021701392 -0.022225786 0.0032029324 -0.004764689 0.035102345 -0.020566424 0.025896916
-0.029418996 -0.030085167 -0.017676068 -0.0014309909 0.014916528 0.02803407 0.011148395 -0.01177566
-0.046351366 -0.028211819 -0.043991294 -0.040877823 0.00649955 -0.03559857 -0.017241197 -0.03885956
-0.023397783 0.008608292 0.024495702 0.017193083 -0.025927365 0.016368533 -0.006899364 0.007372618
0.01293859 0.027281752 -0.017286666 0.02418762 -0.010410808 -0.012791597 0.0025258127 -0.0017289479
-0.014663527 0.01940633 0.037359897 0.036644604 -0.027688432 0.014568139 -0.004245385 -0.0011486649
0.006296273 -0.009466124 0.013343081 -0.020358192 -0.043795563 -0.0031385534 -0.03713065 -0.031043718
-0.024561973 0.005129975 -0.02032419 0.0042451276 -0.020431656 0.020338114 0.007688992 -0.014169524
0.017886387 0.00602116 -0.004558474 0.03822858 -0.0040171174 0.055804946 0.049408246 0.059004404
0.0031817064 -0.00035017618 -0.029287064 0.010819801 0.045498017 0.036198083 -0.01058753 -0.014417149
0.028906582 -0.03571833 0.03278165 -0.026609946 -0.029566718 -0.015422587 0.032415625 -0.025922064
0.028653355 0.024065021 0.022748116 -0.01931788 -0.03275207 -0.0021525577 0.013479051 0.0147347
0.036083605 0.06039009 0.009719848 -0.002595478 0.023939338 0.02112227 0.018900063 -0.028842378
-0.032969628 0.03148321 0.01060287 0.04133881 0.010825732 0.0462792 0.0026383658 0.020810174
0.038382173 0.023838842 -0.03295831 0.009421294 0.032884944 -0.03280861 -0.027032752 -0.013264015
0.020507142 -0.006995287 0.059854094 0.005044903 0.08115437 0.054445986 0.049331103 -0.005296143
-0.009708471 0.034845296 -0.028756307 0.029776966 -0.016699944 -0.02124319 0.023310222 0.017132947
-0.011568336 0.034944933 0.034614 0.018597007 0.045115843 -0.020227285 -0.030658638 -0.0114091085
0.02318555 -0.025718804 -0.0036921664 -0.006273691 -0.018256258 0.027301658 0.06061117 0.069668874
0.032915678 0.08696675 0.078299135 0.06426118 0.03547731 -0.005901061 0.0054706414 -0.019399343
-0.0056128334 0.02414533 0.02369522 0.04156216 0.035363495 0.04770852 -0.0033187917 0.029115772
0.0006050533 0.029425897 0.0024633561 0.003703763 -0.0002953622 0.019436667 -0.0048163594 -0.01864992
00000000: 93cd 303b bcb9 483c 5aa4 ef3c dc35 e7bb
00000010: 00be a63b 5e89 963c bed5 a2bc 81f0 65bb
00000020: 2555 fcba c146 70bc ee09 6dbc 5cd1 c13b
00000030: 9b02 e3bc c292 ae3c 10b4 3abc 27ca 68bc
00000040: fa1d 953c 300a 933c 1c26 02bc 4327 da3c
00000050: eeec dabb 3cb9 34bc ad16 113d c1ea 36bc
00000060: c0b3 96bb c3df f13c 2e15 3a3c 4148 d43b
00000070: 43f9 803c ea53 d03c 85d0 3e3c 81db babb
00000080: 4ae3 edbc 71c4 103c b67d 20bc 99bc debb
00000090: 65a3 27bc db86 6bbc 630a 60bc 5453 43bc
000000a0: 2ff4 33bc 4a3d b8bc fd4d b83a 9dce ec3c
000000b0: efd8 c4b9 bbe8 12bd a052 e93c f4b2 c1bc
000000c0: d3d2 753c 0906 b0bc 0d5f d2bc a023 b2bc
000000d0: e5f2 9d3c 71f6 b83c 2e1e 60bc 7c57 a83c
000000e0: a099 223c 6562 d23b 629e b0bc 6a1a da3c
000000f0: 8c60 6bbc 84da 973b 4c18 7a3c 3153 46bc
00000100: 9c03 b93c 1006 34bc 85b9 84bb 0a52 7dbb
00000110: b2fa c7bc 3458 15bd 0271 01bd 75b8 efbc
00000120: b877 8cbb 7202 b8bc 1a07 cebc c1a7 79bc
00000130: 3541 0c3c dbb6 d23c e0e4 84b9 2c33 cbbc
00000140: f32d e4bb 1ec7 b1bc da12 b6bc 4ae8 513b
00000150: 1c21 9cbb 7ac7 0f3d eb7a a8bc c525 d43c
00000160: 1b00 f1bc 2b75 f6bc 67cd 90bc 1690 bbba
00000170: 7464 743c b5a7 e53c c2a7 363c b3ee 40bc
00000180: eeda 3dbd 791c e7bc 3730 34bd 816f 27bd
00000190: 2dfa d43b cecf 11bd 693d 8dbc 342b 1fbd
000001a0: b5ac bfbc cb09 0d3c 36ab c83c 82d8 8c3c
000001b0: a065 d4bc 4d17 863c 0f14 e2bb 0196 f13b
000001c0: 61fc 533c fb7d df3c c49c 8dbc 1e25 c63c
000001d0: 1892 2abc d993 51bc 1b88 253b dd9d e2ba
000001e0: 4a3f 70bc 06fa 9e3c b106 193d a718 163d
000001f0: dad2 e2bc 34af 6e3c df1c 8bbb cc8e 96ba
00000200: f750 ce3b cd17 1bbc f09c 5a3c 39c6 a6bc
00000210: fa62 33bd 30b0 4dbb 4f16 18bd 654f febc
00000220: 3136 c9bc 5919 a83b ea7e a6bc b61a 8b3b
00000230: 4a60 a7bc 1e9c a63c f1f3 fb3b 4b27 68bc
00000240: 7986 923c 274d c53b 405f 95bb 9295 1c3d
00000250: 06a2 83bb ba93 643d 4d60 4a3d 9aae 713d
00000260: 2d84 503b da97 b7b9 6deb efbc 8945 313c
00000270: 215c 3a3d 7144 143d 5277 2dbc e835 6cbc
00000280: 7fcd ec3c 624d 12bd 0d46 063d 1afd d9bc
00000290: e735 f2bc 05af 7cbc 3fc6 043d 825a d4bc
000002a0: 71ba ea3c 0224 c53c 425a ba3c 8840 9ebc
000002b0: 0927 06bd ed11 0dbb 3dd7 5c3c d069 713c
000002c0: 67cc 133d 995b 773d ff3f 1f3c e518 2abb
000002d0: 6e1c c43c 9c08 ad3c 4ed4 9a3c da46 ecbc
000002e0: 290b 07bd 8af4 003d a9b7 2d3c e252 293d
000002f0: 695e 313c 428f 3d3d 6fe8 2c3b 197a aa3c
00000300: a036 1d3d ad49 c33c 4bff 06bd c55b 1a3c
00000310: 5db2 063d 5262 06bd ca73 ddbc 5051 59bc
00000320: 98fe a73c b838 e5bb 9129 753d b74f a53b
00000330: 4334 a63d c102 5f3d 690f 4a3d 448b adbb
00000340: 4710 1fbc f1b9 0e3d 5992 ebbc d3ee f33c
00000350: 52ce 88bc 3306 aebc 14f5 be3c 655a 8c3c
00000360: 1e89 3dbc 6b22 0f3d 69c7 0d3d c058 983c
00000370: 64cb 383d b1b3 a5bc d327 fbbc 45ed 3abc
00000380: 9fef bd3c 3eb0 d2bc 46f8 71bb 8993 cdbb
00000390: 268e 95bc baa7 df3c 6b43 783d 8eae 8e3d
000003a0: 97d2 063d a01b b23d 4c5b a03d 5e9b 833d
000003b0: a850 113d b05d c1bb 1143 b33b 5feb 9ebc
000003c0: dceb b7bb 6dcc c53c 7a1c c23c 153d 2a3d
000003d0: 50d9 103d 026a 433d 1680 59bb 3384 ee3c
000003e0: 719c 1e3a 940e f13c 4270 213b d5ba 723b
000003f0: d8da 9ab9 a539 9f3c 8dd2 9dbb b8c7 98bc

bias f4 [100]
0.087614454 0.040857375 -0.07851148 -0.011078447 -0.042352773 0.057867717 0.05761561 0.07522584
0.042947873 0.07496115 0.00067765807 -0.044649728 -0.0034584159 -0.04024441 0.024796048 -0.0101828035
0.08203843 -0.018908432 0.024210433 0.0062276335 -0.017759476 0.014367249 0.001708206 0.03623663
0.030268472 -0.008167247 0.020566044 0.08973522 0.026081469 0.081667915 0.046281222 -0.025827052
0.0435398 0.016493531 0.03983377 0.16598123 -0.06722434 0.01775985 0.048245452 0.16695711
-0.035773072 0.06884885 0.024824573 0.085927196 0.05676535 -0.0023467103 0.16521342 0.084508836
0.03623225 -0.028271506 0.11183983 -0.037740085 0.038677953 0.0010543321 0.0039105364 -0.016155384
0.014719965 -0.00059935026 -0.0033123007 0.006252964 0.0455033 -0.006621416 0.05620781 -0.0061587733
-0.071796596 0.1178835 -0.041986622 -0.079974115 0.06255922 -0.014131717 -0.039272778 0.03982563
0.031161034 0.060842607 0.005626244 0.0015214379 -0.020148704 -0.11946669 -0.03933034 -0.018537657
-0.035795808 0.034459975 0.06384845 0.033214092 -0.013316075 0.019854765 0.025129603 -0.03791106
0.03630697 -0.019487465 0.10147672 0.038652368 0.07949011 -0.011036463 -0.013956299 0.007534144
0.02537453 0.12491583 0.025258183 0.08585328
00000000: 356f b33d 105a 273d a0ca a0bd 6082 35bc
00000010: 1a7a 2dbd b306 6d3d 59fe 6b3d 0110 9a3d
00000020: 1cea 2f3d 3b85 993d dda4 313a a2e2 36bd
00000030: 97a6 62bb 53d7 24bd 1521 cb3c c6d5 26bc
00000040: c403 a83d dbe5 9abc f554 c63c 2d11 cc3b
00000050: 527c 91bc 9c64 6b3c e2e5 df3a dc6c 143d
00000060: 96f5 f73c ebcf 05bc 1f7a a83c 19c7 b73d
00000070: cea8 d53c 8241 a73d 6191 3d3d 4193 d3bc
00000080: ca56 323d 711d 873c bc28 233d fcf6 293e
00000090: eaac 89bd 1b7d 913c 069d 453d cef6 2a3e
000000a0: c986 12bd a000 8d3d e75c cb3c 99fa af3d
000000b0: c982 683d 44cb 19bb b52d 293e f812 ad3d
000000c0: 4568 143d a599 e7bc 480c e53d 5995 1abd
000000d0: c66c 1e3d 8431 8a3a f523 803b 4c58 84bc
000000e0: 022c 713c b71d 1dba 2f13 59bb aae5 cc3b
000000f0: ab61 3a3d 77f8 d8bb 293a 663d 89cf c9bb
00000100: 180a 93bd e86c f13d 2afa 2bbd 78c9 a3bd
00000110: 0c1f 803d b888 67bc 7edc 20bd 3320 233d
00000120: 6d45 ff3c 1936 793d 5b5c b83b fc6a c73a
00000130: e50e a5bc f4aa f4bd da18 21bd 49dc 97bc
00000140: a09e 12bd e725 0d3d fac2 823d 800b 083d
00000150: ab2b 5abc 76a6 a23c 99dc cd3c a148 1bbd
00000160: 9eb6 143d 2da4 9fbc 07d3 cf3d f251 1e3d
00000170: b6cb a23d 48d2 34bc f6a8 64bc fbe0 f63b
00000180: 3fde cf3c dfd3 ff3d 40ea ce3c d8d3 af3d

weight f4 [100, 100]
0.049028065 -0.06210607 0.057178974 0.12831569 -0.14034672 -0.10234865 0.29491496 -0.09627628
-0.12108254 -0.039635632 -0.059696727 0.1166257 0.038395543 0.09188311 0.042733625 -0.047930617
-0.06184979 -0.09283306 0.054826796 0.0012918074 -0.075169 0.21413828 -0.11362926 -0.035700068
0.08749772 0.060299404 0.08053946 -0.05546848 -0.06494195 -0.12024469 0.051241405 -0.03187212
0.20743917 -0.004200301 -0.027441746 0.027729021 0.098530106 0.11302729 -0.061296396 0.031225793
0.07370045 0.037873488 -0.026602902 0.032534778 0.041455533 -0.06114276 0.1762169 0.097930886
-0.09011578 0.09995774 -0.093241096 0.18559219 -0.03290361 0.033477142 0.028397853 -0.07014599
-0.011306748 0.095935956 0.015957698 0.07846174 -0.013795137 0.06573568 -0.04035439 0.079455785
0.028417412 -0.05232868 -0.070428446 -0.00915138 0.09991212 0.006310997 0.14034127 -0.050715014
-0.12363812 0.10647158 -0.03859428 0.106581524 -0.0781997 0.26686996 0.25372693 -0.055860475
0.01364568 0.06942255 0.05478311 -0.02418419 0.17526355 -0.16858685 0.020340538 0.02312401
-0.17976682 -0.024282508 0.1229778 0.061562486 0.007851268 0.16430418 0.07905158 -0.03107223
0.0119569935 -0.1463954 0.022398904 -0.025890045 0.061413623 -0.07882926 -0.019033166 -0.09191464
0.026706811 0.05541973 0.055430602 0.013929779 -0.07206627 -0.06283671 -0.08679772 0.027473949
-0.059393376 0.031090181 0.0736436 -0.055666633 0.011399851 -0.08555734 -0.02543099 0.05346788
0.023390375 0.033450607 -0.069628775 0.094069265 -0.018088348 -0.015815591 0.0496454 -0.06894559
0.05220383 -0.041955765 0.089323156 0.0029680645 -0.08810594 -0.08952275 -0.085181564 0.088620804
-0.015998106 -0.0029353336 -0.025948817 0.022378031 -0.068587594 0.009147024 -0.048882317 0.039197486
0.021232322 0.09451619 0.0764071 0.09473501 -0.0527091 0.070380256 -0.09791728 -0.030017648
0.008893199 -0.0060051484 0.07926041 0.00570714 -0.06646296 -0.07285611 0.044815123 -0.07558643
-0.04942239 -0.10100064 -0.010862884 0.04830269 -0.08200958 0.016107958 0.084485784 0.08899311
-0.0024188624 -0.00040665406 0.09463891 0.08797553 0.09129559 -0.08748403 0.07089581 -0.09668652
-0.09385377 0.012256003 0.029335657 0.05546052 -0.052762598 0.07262975 -0.08570997 -0.082951374
0.07940772 -0.08997284 -0.020151315 -0.06884729 0.042883128 0.021602295 -0.070503786 -0.08742008
-0.063272685 0.011721662 -0.021462886 -0.039019372 -0.10462826 0.058585115 0.081608914 0.008608287
0.03587789 0.019741565 0.03256252 0.08539396 -0.03181433 0.040848386 -0.043392777 0.014626744
-0.02806881 -0.038896713 0.021760475 0.04923771 -0.020712823 0.07500279 -0.02523565 -0.00880126
0.056208044 -0.024029627 -0.055008404 0.20130338 0.048791353 0.040477008 -0.042710315 -0.038959105
0.09765551 -0.052845307 -0.034280263 0.11459797 0.009549048 -0.015762202 0.13748202 -0.08514626
-0.11287623 0.0007090344 0.17799784 0.024415253 0.07840138 -0.05805939 0.10771618 0.00070580345
0.21846291 -0.08451475 -0.010332756 0.134226 0.11796916 0.047848314 0.029685859 0.11339986
-0.06093699 -0.021877468 0.019113481 0.08724781 0.0715817 0.01715027 -0.027669834 -0.002159061
00000000: a7d1 483d ef62 7ebd 8034 6a3d 3065 033e
00000010: 0db7 0fbe 2b9c d1bd 18ff 963e 802c c5bd
00000020: 1ffa f7bd f958 22bd 8e84 74bd 74d9 ee3d
00000030: a544 1d3d 362d bc3d 7409 2f3d e552 44bd
00000040: 3556 7dbd 421f bebd 1092 603d dd51 a93a
00000050: 34f2 99bd 1147 5b3e 75b6 e8bd 3c3a 12bd
00000060: 0132 b33d 82fc 763d dff1 a43d eb32 63bd
00000070: 4900 85bd d942 f6bd 82e2 513d 578c 02bd
00000080: ef6a 543e aea2 89bb 83cd e0bc f927 e33c
00000090: 27ca c93d da7a e73d ee11 7bbd 3ccd ff3c
000000a0: 43f0 963d 3b21 1b3d 54ee d9bc 3043 053d
000000b0: 47cd 293d d570 7abd 3472 343e fd8f c83d
000000c0: 9f8e b8bd a5b6 cc3d 30f5 bebd e10b 3e3e
000000d0: f0c5 06bd 541f 093d 9da2 e83c b3a8 8fbd
000000e0: f03f 39bc 127a c43d b8b9 823c 8cb0 a03d
000000f0: 0005 62bc 6ea0 863d a54a 25bd b7b9 a23d
00000100: a2cb e83c 9956 56bd ca3c 90bd abef 15bc
00000110: ba9e cc3d 7bcc ce3b 9fb5 0f3e 8cba 4fbd
00000120: fc35 fdbd c60d da3d 0915 1ebd 6a47 da3d
00000130: 2a27 a0bd 2ea3 883e 7fe8 813e f4cd 64bd
00000140: 2192 5f3c 692d 8e3d 4164 603d ec1d c6bc
00000150: 4a78 333e 08a2 2cbe 33a1 a63c 906e bd3c
00000160: cb14 38be 1cec c6bc c9db fb3d f228 7c3d
00000170: 9ba2 003c 5b3f 283e cbe5 a13d 308b febc
00000180: 44e7 433c ade8 15be e87d b73c 5c17 d4bc
00000190: da8c 7b3d 3c71 a1bd 71eb 9bbc be3d bcbd
000001a0: 3ec8 da3c ccff 623d 330b 633d ba39 643c
000001b0: 7b97 93bd 88b0 80bd 01c3 b1bd 0c11 e13c
000001c0: 7846 73bd d6b0 fe3c 75d2 963d b202 64bd
000001d0: 71c6 3a3c b038 afbd a754 d0bc 2301 5b3d
000001e0: 2c9d bf3c 8103 093d 8899 8ebd 63a7 c03d
000001f0: 042e 94bc b38f 81bc fa58 4b3d 5833 8dbd
00000200: afd3 553d cfd9 2bbd 0fef b63d dc83 423b
00000210: e370 b4bd b457 b7bd ac73 aebd d37e b53d
00000220: 760e 83bc ba5e 40bb 9d92 d4bc 2252 b73c
00000230: a777 8cbd 66dd 153c d338 48bd 8b8d 203d
00000240: 68ef ad3c b491 c13d 537b 9c3d 6e04 c23d
00000250: 7fe5 57bd 8623 903d db88 c8bd 92e7 f5bc
00000260: c8b4 113c d6c6 c4bb 4853 a23d f602 bb3b
00000270: bb1d 88bd 9635 95bd 1090 373d 0fcd 9abd
00000280: 226f 4abd 6cd9 cebd 3dfa 31bc 0bd9 453d
00000290: a4f4 a7bd d6f4 833c e206 ad3d 0542 b63d
000002a0: c785 1ebb 2f34 d5b9 0bd2 c13d 842c b43d
000002b0: 2ff9 ba3d d42a b3bd d331 913d 9503 c6bd
000002c0: 6836 c0bd 67cd 483c 5551 f03c 922a 633d
000002d0: 981d 58bd e8be 943d b588 afbd 69e2 a9bd
000002e0: 84a0 a23d ae43 b8bd 5f14 a5bc cfff 8cbd
000002f0: 38a6 2f3d 4cf7 b03c 4a64 90bd 4d09 b3bd
00000300: 1c95 81bd 370c 403c efd2 afbc c7d2 1fbd
00000310: 5747 d6bd f2f6 6f3d 9322 a73d c609 0d3c
00000320: b2f4 123d 10b9 a13c 4760 053d 07e3 ae3d
00000330: be4f 02bd a350 273d a0bc 31bd 03a5 6f3c
00000340: 90f0 e5bc 2952 1fbd 0643 b23c 7bad 493d
00000350: f0ad a9bc 109b 993d feba cebc 2933 10bc
00000360: 683a 663d c8d9 c4bc 7e50 61bd 7922 4e3e
00000370: 71d9 473d 38cb 253d 03f1 2ebd 9593 1fbd
00000380: 9dff c73d 5274 58bd 7669 0cbd 57b2 ea3d
00000390: 9c73 1c3c bc1f 81bc 16c8 0c3e 2a61 aebd
000003a0: a72b e7bd 7ede 393a 1145 363e 7f02 c83c
000003b0: e790 a03d afcf 6dbd 4d9a dc3d ab05 393a
000003c0: beb4 5f3e 1216 adbd b84a 29bc 8a72 093e
000003d0: d199 f13d 98fc 433d c22f f33c 303e e83d
000003e0: 1199 79bd 6038 b3bc e093 9c3c fbae b23d
000003f0: 6d99 923d b97e 8c3c d9ab e2bc 087f 0dbb

bias f4 [100]
0.050599296 0.027316496 0.1430783 -0.054933727 0.13990761 0.021052623 -0.020596638 0.10568729
0.1983631 -0.064235315 0.072536774 0.084744796 -0.028800478 -0.09033499 -0.08039167 -0.056847155
-0.07055091 -0.044341397 0.14103357 -0.07384892 0.013045847 -0.03315832 -0.014052812 0.103200644
-0.093826614 0.08458009 0.0060467278 0.082998134 -0.0948206 0.0037274945 0.04697266 0.16302097
0.029847013 0.2656485 0.1256049 0.026114505 -0.036271468 -0.021983104 0.027008185 0.12076851
-0.020180238 -0.08460343 0.11772931 -0.039326966 -0.07274948 0.006572081 -0.024257837 0.14821461
-0.055905428 0.044158477 0.059867956 0.040679418 -0.06718981 -0.031040734 0.07937116 0.015847998
0.08821942 0.079841845 0.13632743 -0.026255434 0.075495645 0.1019621 0.159088 -0.021534767
0.062473267 0.0014104815 0.10085434 -0.033759937 -0.046669178 -0.051025912 0.06372908 0.103505164
-0.05831425 0.13557799 0.03125062 0.08591885 -0.041267637 0.01586 0.053492416 0.02348171
0.112106755 0.06791086 0.12481524 -0.08226993 -0.012124768 0.024067946 -0.06775321 0.08299031
-0.07242707 0.013210459 0.008248423 -0.068668164 -0.008387322 0.101071015 0.102801695 0.02089051
0.032230414 -0.044311736 0.09527719 0.06722198
00000000: 3541 4f3d d8c6 df3c 1e83 123e 3002 61bd
00000010: f143 0f3e 8d76 ac3c 48ba a8bc 9472 d83d
00000020: b21f 4b3e ce8d 83bd 298e 943d ae8e ad3d
00000030: fbee ebbc 8d01 b9bd 63a4 a4bd 90d8 68bd
00000040: ff7c 90bd 539f 35bd 1b6b 103e 1a3e 97bd
00000050: 40be 553c 05d1 07bd c43d 66bc dc5a d33d
00000060: 2b28 c0bd 5438 ad3d a123 c63b edfa a93d
00000070: 4d31 c2bd fb48 743b 6766 403d f8ee 263e
00000080: b981 f43c 1503 883e 929e 003e 16ee d53c
00000090: 6491 14bd e915 b4bc 4540 dd3c 7b55 f73d
000000a0: 0751 a5bc 9044 adbd 111c f13d 5015 21bd
000000b0: aefd 94bd 9c5a d73b 5fb8 c6bc 92c5 173e
000000c0: 17fd 64bd 85df 343d 1a38 753d 769f 263d
000000d0: d09a 89bd 2349 febc 598d a23d a9d3 813c
000000e0: 62ac b43d 1f84 a33d 6b99 0b3e a315 d7bc
000000f0: 769d 9a3d 81d1 d03d f7e7 223e ae69 b0bc
00000100: f8e3 7f3d e8df b83a b88c ce3d dc47 0abd
00000110: 2e28 3fbd 8c00 51bd 6484 823d 84fa d33d
00000120: ecda 6ebd f5d4 0a3e a600 003d 39f6 af3d
00000130: 4108 29bd d5ec 813c dd1a 5b3d b75c c03c
00000140: 3a98 e53d d914 8b3d 229f ff3d 237d a8bd
00000150: f7a6 46bc 242a c53c 32c2 8abd d3f6 a93d
00000160: a554 94bd ae70 583c 6524 073c e5a1 8cbd
00000170: fa6a 09bc 52fe ce3d b289 d23d 9322 ab3c
00000180: 0a04 043d 3980 35bd b020 c33d adab 893d

weight f4 [10, 100]
-0.06981232 0.050060216 -0.053395636 0.004540939 -0.11616941 0.3286799 -0.021763172 -0.30074513
-0.12463005 -0.05019454 -0.24947435 -0.04958461 -0.0029271387 0.026612738 -0.07533873 0.015369508
-0.085306376 0.06822611 -0.0345694 -0.02558069 -0.04481057 0.45888734 -0.06917212 -0.011389399
0.0470044 0.17436689 0.07536444 -0.13373335 0.011863685 0.24429546 -0.41500756 -0.22199245
-0.18942675 -0.44618368 0.27264586 0.28863806 -0.027828425 -0.07007951 -0.25827277 -0.20065834
0.019976296 0.055714834 0.16190886 -0.03905262 -0.03075419 0.058436498 0.10077412 -0.102154225
-0.045960683 0.030736268 0.073557325 0.122918755 -0.048457216 -0.019550527 -0.27126893 0.008844546
0.078830086 -0.13556121 -0.32678688 -0.1694302 -0.23339117 0.11081154 -0.19536251 0.6016735
0.44628334 -0.15445124 0.051034953 0.33839157 0.25702012 0.13453989 0.002843426 -0.21815355
0.027510546 0.0028975077 -0.04840607 -0.07349059 -0.066095434 0.36696693 -0.19634826 0.456072
0.11969896 -0.02675047 -0.048162118 0.2553506 0.1103857 0.051961057 0.078724846 -0.3079343
-0.06423286 0.12969641 -0.03181304 -0.14230542 0.010022253 0.15627375 0.0006959017 -0.26396415
-0.056053795 0.06512074 -0.30479395 -0.089602046 0.068979904 -0.02350959 0.19966668 0.072782
-0.079260096 -0.30725533 0.10211331 -0.14508022 0.47525188 0.035166334 0.18228883 -0.071650624
0.081962496 -0.07968066 0.020410594 -0.0007992695 -0.019971943 -0.07208543 0.39621803 -0.027911749
-0.15781435 0.03698881 -0.27259508 0.4698023 0.07755399 0.08285041 -0.1843305 -0.2315211
0.065380014 -0.1155684 0.36680797 0.10198136 -0.22922936 0.22651339 -0.3621559 -0.12012225
0.11881719 -0.032316774 -0.15970494 0.10474333 -0.25521582 0.0057171695 -0.41057354 -0.08276155
-0.004246229 0.021659233 0.1094077 0.15884586 -0.18852879 -0.0647307 0.2244505 -0.24001266
-0.04511935 -0.020660847 -0.0014923379 -0.096992776 -0.15235715 0.0150200445 0.55417746 -0.16825807
0.10147049 0.0041249413 -0.08257913 -0.092303164 0.053839125 -0.14595187 0.00701283 -0.13703972
-0.23616959 0.009109362 -0.02220315 -0.27125436 -0.0710658 -0.27843726 0.29695934 -0.20831063
-0.19996816 -0.0399116 0.28881222 -0.07341058 -0.01007575 0.06452136 0.0033973055 -0.2743867
-0.255571 0.041075964 -0.016173124 0.18705916 0.1208381 -0.38637462 -0.061982017 0.32393435
0.08355974 0.0038270087 -0.14660221 0.48901826 0.09942888 -0.10572605 -0.2994702 0.34667248
-0.09235212 0.02853434 -0.39703414 -0.06910223 -0.042845313 0.13569869 0.14480631 -0.15164296
-0.29054296 0.03225521 -0.1364495 0.06491735 0.08200829 0.11015407 0.013833293 -0.004052887
-0.010619356 0.36967823 -0.07358841 -0.1534843 0.05634055 -0.17718542 -0.13033426 -0.2462124
-0.049739856 0.34345493 0.8211955 -0.13450849 0.004673815 0.12826478 -0.044275362 0.19992055
-0.4098305 -0.26476052 0.1521696 0.19802204 -0.11075854 0.15628481 0.24113278 -0.32097703
0.042530682 0.007452912 -0.14564736 0.079100825 -0.054722983 -0.0533394 0.011036124 0.30418172
0.6194161 0.07394231 -0.23727827 0.26838058 -0.04957117 -0.059154995 -0.49998307 0.17578925
00000000: c3f9 8ebd f10b 4d3d 62b5 5abd 28cc 943b
00000010: 3aea edbd bb48 a83e ae48 b2bc 44fb 99be
00000020: 0a3e ffbd ca98 4dbd 3476 7fbe 3b19 4bbd
00000030: 3dd5 3fbb f502 da3c 314b 9abd 64d0 7b3c
00000040: 1cb5 aebd 21ba 8b3d a598 0dbd 988e d1bc
00000050: 4a8b 37bd 48f3 ea3e 1daa 8dbd 9a9a 3abc
00000060: b087 403d 3c8d 323e ac58 9a3d 65f1 08be
00000070: e75f 423c 9728 7a3e df7b d4be fd51 63be
00000080: 16f9 41be 3072 e4be 3d98 8b3e 5ec8 933e
00000090: 70f8 e3bc d985 8fbd 543c 84be 6179 4dbe
000000a0: 54a5 a33c 3d35 643d 70cb 253e a4f5 1fbd
000000b0: 36f0 fbbc 1c5b 6f3d a962 ce3d 3c36 d1bd
000000c0: 4541 3cbd a0ca fb3c 39a5 963d d4bc fb3d
000000d0: 137b 46bd 6d28 a0bc c3e3 8abe b7e8 103c
000000e0: ab71 a13d 8fd0 0abe 9c50 a7be 1c7f 2dbe
000000f0: 18fe 6ebe 29f1 e23d 1c0d 48be 4607 1a3f
00000100: 407f e43e 7728 1ebe 070a 513d a941 ad3e
00000110: 2498 833e d3c4 093e c658 3a3b a563 5fbe
00000120: cc5d e13c 1de4 3d3b 7145 46bd 3c82 96bd
00000130: 0b5d 87bd 17e3 bb3e 850f 49be 4582 e93e
00000140: ba24 f53d cd23 dbbc a445 45bd 50bd 823e
00000150: e611 e23d 1ed5 543d 7e3a a13d 91a9 9dbe
00000160: 858c 83bd 23cf 043e 644e 02bd 83b8 11be
00000170: 6034 243c 3a06 203e 2c6d 363a 4f26 87be
00000180: aa98 65bd 065e 853d f40d 9cbe 4781 b7bd
00000190: 5645 8d3d 2f97 c0bc 6c75 4c3e bb0e 953d
000001a0: 1e53 a2bd 9250 9dbe c820 d13d e98f 14be
000001b0: 3754 f33e 930a 103d eca9 3a3e 90bd 92bd
000001c0: f4db a73d 9d2f a3bd 1e34 a73c 1186 51ba
000001d0: 339c a3bc 87a1 93bd 17dd ca3e 2ea7 e4bc
000001e0: 169a 21be 9481 173d 9591 8bbe ed89 f03e
000001f0: a0d4 9e3d 7aad a93d 22c1 3cbe de13 6dbe
00000200: f5e5 853d 20af ecbd 41ce bb3e 9adb d03d
00000210: 1abb 6abe 20f3 673e 806c b9be a702 f6bd
00000220: 6d56 f33d 985e 04bd b189 23be ac83 d63d
00000230: a6ab 82be 1857 bb3b b236 d2be e37e a9bd
00000240: f323 8bbb b46e b13c 2511 e03d 7da8 223e
00000250: b10d 41be 8791 84bd 5ad6 653e e1c5 75be
00000260: 11cf 38bd f040 a9bc 8d9a c3ba 26a4 c6bd
00000270: 8303 1cbe a216 763c 93de 0d3f d84b 2cbe
00000280: c3cf cf3d 842a 873b 3f1f a9bd 7109 bdbd
00000290: 6a86 5c3d 6874 15be e2cb e53b 2454 0cbe
000002a0: 71d6 71be 6f3f 153c 61e3 b5bc dae1 8abe
000002b0: f28a 91bd 548f 8ebe 0e0b 983e 624f 55be
000002c0: 74c4 4cbe 597a 23bd 32df 933e 4958 96bd
000002d0: c214 25bc c623 843d 54a5 5e3b 6a7c 8cbe
000002e0: 34da 82be 453f 283d 807d 84bc 708c 3f3e
000002f0: f779 f73d e5d2 c5be dbe0 7dbd b9da a53e
00000300: 5e21 ab3d 8dce 7a3b e41e 16be 9a60 fa3e
00000310: 5ea1 cb3d e686 d8bd 2854 99be 0e7f b13e
00000320: 1c23 bdbd d9c0 e93c 0f48 cbbe 7885 8dbd
00000330: 917e 2fbd 99f4 0a3e 1b48 143e 4b48 1bbe
00000340: 0cc2 94be 0a1e 043d 6bb9 0bbe 63f3 843d
00000350: f6f3 a73d 7598 e13d 09a5 623c 15ce 84bb
00000360: cffc 2dbc 7746 bd3e 85b5 96bd fd2a 1dbe
00000370: 59c5 663d 1870 35be 5876 05be 1a1f 7cbe
00000380: 05bc 4bbd 53d9 af3e de39 523f 98bc 09be
00000390: cd26 993b d857 033e 155a 35bd f9b7 4c3e
000003a0: 4ed5 d1be b18e 87be 59d2 1b3e 4ac6 4a3e
000003b0: 60d5 e2bd 2009 203e 83eb 763e 1a57 a4be
000003c0: a734 2e3d 8f37 f43b 9524 15be 9dff a13d
000003d0: 3525 60bd 6a7a 5abd dcd0 343c b5bd 9b3e
000003e0: 0e92 1e3f 116f 973d 13f9 72be 2e69 893e
000003f0: 240b 4bbd 824c 72bd c8fd ffbe 1902 343e

bias f4 [10]
-0.24443251 0.1570171 0.049243443 0.026130345 -0.017065693 0.26136047 -0.062412288 -0.038539726
-0.15734255 0.06061861
00000000: 844c 7abe 17c9 203e 7eb3 493d 4e0f d63c
00000010: 5acd 8bbc 0ad1 853e 07a4 7fbd d5db 1dbd
00000020: 681e 21be 384b 783d
