artifacts/1/b5de5cd19cf24edc929813408268dd4c/artifacts/model/data/model.pth (torch, 362823 bytes, 6 tensors)

weight f4 [100, 784]
0	0xbca5481d	-0.020175988
1	0xbced0b1a	-0.028935958
2	0x3bcca015	0.006244669
3	0x3a64ce8c	0.00087282876
4	0xbc1f964a	-0.009740422
5	0x3c5f547d	0.013630983
6	0x3c652438	0.013985686
7	0x3c1f9ea6	0.009742415
8	0xbcb72034	-0.022354223
9	0xbc50063e	-0.012696801
10	0xbcad2513	-0.021135842
11	0x3cc9edaf	0.02464947
12	0xbdf3f4dc	-0.119119376
13	0xbd95ccf0	-0.07314479
14	0xbd8a9f4f	-0.06768667
15	0xbc86f9ad	-0.016476477
16	0xbc6b3ca8	-0.014357723
17	0x3c68dd1e	0.014212875
18	0x3cad8bf7	0.021184905
19	0xbcbd03ea	-0.023073155
20	0xbcc3f531	-0.023920627
21	0x3cf52c8a	0.029928464
22	0x3cabf8cc	0.020992659
23	0x3cfc00aa	0.030762035
24	0xbc6fdc5f	-0.014639943
25	0x3cc5e6d8	0.024157926
26	0xbb59d6bc	-0.0033239564
27	0xbc8bbd91	-0.017058166
28	0x3c0a37ae	0.008436127
29	0xbc4490fb	-0.011997457
30	0xbcd65fc0	-0.026168704
31	0xbcf261d0	-0.029587656
32	0x3b1112a2	0.002213635
33	0xbda88072	-0.08227624
34	0xbdef43cf	-0.11682855
35	0xbdcd1f37	-0.100157194
36	0xbd9ddcae	-0.07708107
37	0xbd2ceea9	-0.04221979
38	0xbda3a4c0	-0.07990408
39	0xbd237dbd	-0.039914835
40	0xbd9e637e	-0.077338204
41	0xbd694faf	-0.056960758
42	0x3d855b75	0.06511585
43	0xbe14de59	-0.14537944
44	0xbe44b273	-0.19208698
45	0xbe58331b	-0.21113245
46	0xbe8d8913	-0.27643642
47	0xbe6f9805	-0.23397835
48	0xbe8eae9b	-0.27867588
49	0xbe5a5d94	-0.2132476
50	0xbdd85e0d	-0.10564814
51	0xbdf6a825	-0.1204379
52	0xbcefdd08	-0.0292802
53	0x3cd36969	0.0258071
54	0x3d0070fd	0.031357754
55	0x3c3f8fa9	0.011691966
56	0xbc814d7b	-0.015784016
57	0x3c9340db	0.017975261
58	0xbdf5bd20	-0.11998963
59	0xbe49c337	-0.19703375
60	0xbe761e13	-0.2403491
61	0xbdd1eafa	-0.10249896
62	0xbdae5c95	-0.08513752
63	0xbde6adcc	-0.11263618
64	0xbe08b1ee	-0.13349125
65	0xbe365083	-0.1780415
66	0xbe98371f	-0.29729554
67	0xbee5f221	-0.44911292
68	0xbee9fb64	-0.45699608
69	0xbe993051	-0.29919675
70	0xbe95b7c4	-0.29241765
71	0xbe9d8420	-0.30764866
72	0xbdb8d321	-0.09024645
73	0xbd43cd70	-0.047803342
74	0xbeba74cd	-0.36417237
75	0xbe67330e	-0.2257807
76	0xbe93a032	-0.28833157
77	0xbeab5cbc	-0.33469188
78	0xbe38286d	-0.17984171
79	0xbe81049a	-0.25198823
80	0xbe017d89	-0.12645544
81	0x3d20106c	0.03907816
82	0xbcbfff56	-0.023437183
83	0xbb521df2	-0.0032061306
84	0xbc54d4a3	-0.01299015
85	0x3cbd0cd1	0.0230774
86	0xbdfa1bd5	-0.1221234
87	0xbe6b5bf0	-0.2298429
88	0xbe3d9523	-0.18513922
89	0xbe2cac42	-0.16862586
90	0xbe9a0c20	-0.30087376
91	0xbedd269f	-0.43193528
92	0xbee3baeb	-0.44478545
93	0xbea8a648	-0.32939363
94	0xbeaaf2e9	-0.3338845
95	0xbe1e071b	-0.15432398
96	0xbe267aca	-0.16257778
97	0xbf0c4073	-0.5478584
98	0xbebe8a16	-0.37214726
99	0xbddb3ce1	-0.10704971
100	0xbe11a57a	-0.1422328
101	0x3db0955a	0.086222365
102	0x3e4c08cc	0.1992523
103	0x3d510337	0.051028457
104	0xbd196c15	-0.03745659
105	0x3d721d69	0.05911008
106	0x3dea8533	0.11451187
107	0xbe895010	-0.26818895
108	0xbe5bcba6	-0.21464404
109	0x3d0a7907	0.033806827
110	0x3d92208e	0.071351156
111	0xbbd182a6	-0.0063937483
112	0x3aa77c45	0.0012778124
113	0xbc080875	-0.008302798
114	0xbe268513	-0.16261701
115	0x3dab3a03	0.08360674
116	0x3dd8d659	0.105877586
117	0xbe3f110f	-0.18658851
118	0xbef24d23	-0.47324476
119	0xbf01cd19	-0.5070358
120	0xbef02c21	-0.46908668
121	0xbf061bc0	-0.52386093
122	0xbf21ffb5	-0.632808
123	0xbef42b58	-0.4768932
124	0xbf0bf875	-0.5467599
125	0xbee6e610	-0.450974
126	0xbef10311	-0.47072652
127	0xbd7aa244	-0.061189905
128	0xbdbcab3b	-0.09212347
129	0xbda56545	-0.08075956
130	0x3e215734	0.15755922
131	0xbdafb219	-0.08578891
132	0xbd8a3bf5	-0.06749717
133	0x3d81f492	0.06345476
134	0x3da54e85	0.08071617
135	0x3c2d7297	0.010586402
136	0x3c885893	0.016643798
137	0x3d36f131	0.04466361
138	0x3d8399c8	0.06425816
139	0xbe114caf	-0.14189409
140	0x3c440cde	0.011965958
141	0x3bb00cac	0.0053726044
142	0xbe68b3dd	-0.22724862
143	0xbe5d07c2	-0.2158499
144	0xbe819912	-0.25312096
145	0xbe971476	-0.29507798
146	0xbe8c40c1	-0.27393153
147	0xbe3486b9	-0.17629518
148	0xbe1d09c9	-0.15335764
149	0xbd9ad8de	-0.075608954
150	0xbeabac8c	-0.3353008
151	0xbe4059ab	-0.18784206
152	0xbe2d5245	-0.16925915
153	0xbe663ca4	-0.2248407
154	0xbe8728d3	-0.26398334
155	0xbe8b3b0c	-0.27193487
156	0xbe58668c	-0.21132869
157	0xbe078874	-0.13235646
158	0xbe02974e	-0.1275303
159	0xbdd54839	-0.10414166
160	0xbd89a510	-0.06720936
161	0xbe24ca71	-0.1609285
162	0xbd870a44	-0.06593755
163	0xbb4df68a	-0.0031427466
164	0x3aeecf00	0.001821965
165	0xbdc33f99	-0.09533615
166	0x3c8955a3	0.016764468
167	0x3e2ed90f	0.17074989
168	0xbc588471	-0.01321517
169	0xbcea3f19	-0.02859454
170	0x3e6f5a6f	0.23374341
171	0xbc420fc4	-0.011844579
172	0xbdcd712b	-0.10031351
173	0xbd90ed72	-0.07076539
174	0xbd95f9d6	-0.07323043
175	0xbe42cda1	-0.19023754
176	0xbe120657	-0.14260231
177	0x3d382c92	0.04496438
178	0x3d740d84	0.059583202
179	0xbd40f946	-0.047112726
180	0xbd7cf539	-0.0617573
181	0xbdc9fe30	-0.098629355
182	0xbce9e72b	-0.028552612
183	0xbd67dde4	-0.056608096
184	0xbdb4882d	-0.08815036
185	0xbd444d71	-0.047925416
186	0xbd01b212	-0.03166396
187	0x3d0a9b05	0.033839244
188	0x3dd1e323	0.10248401
189	0xbd236dac	-0.039899513
190	0xbd2e638c	-0.042575404
191	0xbdd3d190	-0.10342705
192	0x3d3aea55	0.045633633
193	0xbd81ead5	-0.06343619
194	0x3de5512d	0.11197124
195	0x3d34eb46	0.044169687
196	0x3cbcad6b	0.02303191
197	0xbc62879d	-0.013826278
198	0x3e48adb7	0.19597517
199	0x3d7891d2	0.06068594
200	0x3d130aed	0.03589909
201	0xbe2eb3e8	-0.17060816
202	0xbd7e9854	-0.06215699
203	0xbe19a609	-0.15004744
204	0x3df4a67f	0.11945819
205	0x3e150320	0.14551973
206	0x3dff848e	0.12476455
207	0x3d949394	0.07254711
208	0x3c8924b8	0.016741142
209	0x3da4c48c	0.08045301
210	0x3d3e41ee	0.046449594
211	0x3d87f418	0.06638354
212	0x3d8d85c4	0.069102794
213	0x3cefbc26	0.02926452
214	0xbd5d3bbc	-0.054012045
215	0x3d4f16ad	0.050558735
216	0x3d68c5c1	0.056829218
217	0xbde9735f	-0.113989584
218	0xbdeaa7a2	-0.11457755
219	0x3d142792	0.03617055
220	0x3da2cdcf	0.07949411
221	0xbcd2c728	-0.02572973
222	0x3e03ce1d	0.12871595
223	0xbd6ab9a7	-0.057305958
224	0xbe908b73	-0.2823139
225	0xbd26357c	-0.04057835
226	0x3e18df66	0.1492897
227	0x3d73866c	0.059454367
228	0x3e0f436b	0.13990562
229	0xbdb72160	-0.08941913
230	0xbdcf849f	-0.10132717
231	0xbe011b66	-0.12608108
232	0x3de7e6e8	0.11323339
233	0x3dd259a8	0.10271007
234	0x3c95ff2a	0.018310148
235	0x3df5b093	0.119965695
236	0x3d454c6e	0.048168592
237	0xbc9e1df3	-0.01930139
238	0x3d610819	0.054939363
239	0x3db5044e	0.08838712
240	0x3e45ee68	0.19329226
241	0x3e2f998d	0.17148419
242	0x3dc726bf	0.09724187
243	0x3d3ca56b	0.046056192
244	0x3d9f5690	0.07780182
245	0x3daf6d57	0.08565777
246	0x3d85103e	0.064972386
247	0x3c8f9ae5	0.017529914
248	0x3e525de9	0.20543636
249	0x3e034fec	0.12823457
250	0xbe087128	-0.13324416
251	0xbdd46af4	-0.10371962
252	0x3d42df61	0.047576312
253	0x3dfd2432	0.12360419
254	0x3daaca5a	0.08339377
255	0xbd8ef353	-0.06980004

bias f4 [100]
0	0x3e4ba472	0.1988695
1	0xbca97550	-0.020685822
2	0x3e37bedb	0.179439
3	0x3e2180ea	0.15771833
4	0xbd0138b7	-0.031548228
5	0x3ce24d19	0.027624654
6	0x3dad5959	0.08464307
7	0x3df090cf	0.1174637
8	0x3d267b86	0.040645145
9	0xbd0568fa	-0.032570817
10	0xbcd0cb61	-0.025487604
11	0x3ce7d949	0.028301852
12	0x3bcda4bc	0.0062757414
13	0xbd4c2105	-0.049836177
14	0x3d322a3f	0.04349732
15	0x3d84d4b3	0.06485882
16	0xbe2f24a5	-0.17103823
17	0x3db196da	0.08671351
18	0xbc08d28c	-0.00835098
19	0xbd13d416	-0.036090933
20	0x3de956c8	0.11393505
21	0x3e40b71a	0.18819848
22	0x3bde7746	0.006789121
23	0x3d984661	0.07435299
24	0x3dd4244c	0.103584856
25	0xbd2667a4	-0.040626183
26	0x3d9f68da	0.07783671
27	0x3d56327f	0.05229425
28	0x3da0e260	0.078556776
29	0x3dcbf207	0.099582724
30	0xba9dcb10	-0.0012038667
31	0x3dbeb755	0.093123116
32	0x3d272979	0.040811036
33	0x3d13d927	0.036095764
34	0x3cde3d6b	0.027128896
35	0xbcc3ba94	-0.023892678
36	0xbdf78cc6	-0.12087397
37	0x3d704adf	0.058665153
38	0x3e1ce376	0.15321144
39	0xbdd6d831	-0.10490454
40	0x3e1b2a53	0.15152864
41	0x3ded503b	0.11587568
42	0xbcfb5564	-0.030680366
43	0x3e22f307	0.1591302
44	0x3d4d04e9	0.05005351
45	0x3db3df20	0.08782792
46	0x3bc56d7e	0.0060250154
47	0xbda32a25	-0.07967023
48	0xbcaa2093	-0.020767486
49	0xbd952673	-0.07282724
50	0x3e08b01f	0.13348435
51	0xbccb4380	-0.02481246
52	0x3ddfef70	0.10934341
53	0x3c99b9f7	0.018765433
54	0x3e13718e	0.14398786
55	0xbb70aee7	-0.0036725344
56	0xbddc19c1	-0.107471
57	0xbaa16cd0	-0.0012315754
58	0x3d17f12f	0.037095245
59	0x3cd9b90e	0.026577499
60	0xbe24de2e	-0.1610038
61	0x3d4cef91	0.050033156
62	0xbd3daf0c	-0.046309516
63	0xbc9f945f	-0.019479929
64	0x3d95e115	0.073183216
65	0xbccaf06d	-0.024772847
66	0xbc26bcc2	-0.010176839
67	0x3de4aa70	0.11165321
68	0x3e30bf76	0.17260537
69	0x3e163821	0.14669849
70	0x3bf76911	0.0075503667
71	0xbd7db347	-0.06193855
72	0x3d8672b3	0.06564846
73	0xbc737376	-0.014859071
74	0x3e03e92b	0.12881915
75	0xbe490a4f	-0.19632839
76	0x3d856c72	0.06514825
77	0x3d8304a1	0.06397367
78	0x3e19e714	0.15029556
79	0x3c4eb9b3	0.012617516
80	0x3cd46c50	0.025930554
81	0x3e2814c1	0.16414167
82	0xbd3cc268	-0.046083838
83	0xbd4e8505	-0.050419826
84	0x3dd53460	0.1041038
85	0x3d3530ba	0.044235922
86	0xbdff5497	-0.12467306
87	0xbc3898ea	-0.011266926
88	0xbdcfa7d4	-0.101394325
89	0xbd2d7f08	-0.042357475
90	0x3d94be4d	0.072628595
91	0x3ce5a1ae	0.028031196
92	0x3d0af698	0.033926576
93	0x3b649555	0.0034879048
94	0xbd480039	-0.048828337
95	0x3d52957c	0.05141209
96	0x3d0c4167	0.03424206
97	0xbd75c7ba	-0.060004927
98	0xbcabea0f	-0.020985631
99	0x3e1054b6	0.14094815

weight f4 [100, 100]
0	0xbb2cd7e8	-0.0026373807
1	0x3e91957a	0.28434354
2	0xbdc20adf	-0.0947473
3	0x3d8b0b31	0.06789244
4	0x3db309b0	0.08742082
5	0xbe29a1a5	-0.16565569
6	0xbde25d81	-0.11052991
7	0xbe338be3	-0.17533831
8	0x3da0f3a2	0.07858969
9	0x3d8a2a88	0.067463934
10	0xbd8ef3c1	-0.06980086
11	0xbd68e0f7	-0.05685517
12	0xbd8b51cc	-0.06802711
13	0xbe8037b0	-0.25042486
14	0xbcafd908	-0.021465793
15	0x3c46fdef	0.012145503
16	0x3ab59819	0.0013854533
17	0x3e21491d	0.15750547
18	0x3e43c554	0.19118243
19	0xbdc912ab	-0.09818014
20	0xbce206ee	-0.027591195
21	0x3e149669	0.14510502
22	0xbcb91ab6	-0.022595745
23	0xbd516457	-0.051121082
24	0x3db37c2d	0.08763919
25	0x3e29a821	0.16568042
26	0xbcdcaea7	-0.02693875
27	0x3d523f79	0.051330063
28	0x3da180e4	0.07885912
29	0xbde5c749	-0.11219651
30	0x3df46a68	0.11934358
31	0xbdcdb7a9	-0.10044796
32	0xbe82b117	-0.25525734
33	0xbdaa7b19	-0.0832426
34	0x3e49f20a	0.19721237
35	0x3dfb1375	0.122595705
36	0x3dcd1b6f	0.10014998
37	0xbd6a6583	-0.057225715
38	0xbc3f65f2	-0.0116820205
39	0xbe043a2e	-0.12912819
40	0xbe59fb46	-0.2128726
41	0xbea6ecae	-0.32602447
42	0x3cbfdcc1	0.023420693
43	0xbe584898	-0.21121442
44	0x3e1501f6	0.1455153
45	0x3e49fc46	0.19725141
46	0x3e0fb44c	0.14033622
47	0x3d95c307	0.07312589
48	0x3d9d3fcf	0.07678186
49	0xbcc03e3a	-0.023467172
50	0x3ea87505	0.3290178
51	0x3cea5724	0.028606005
52	0xbe106c17	-0.14103733
53	0x3d91e75d	0.07124207
54	0x3e02b6d7	0.1276506
55	0x3c96fff1	0.01843259
56	0xbe1a026c	-0.15039986
57	0x3e903705	0.28166977
58	0x3d662786	0.056190036
59	0xbe3c77a9	-0.18405022
60	0x3d9f9c2d	0.0779346
61	0xbe00a7ec	-0.12564057
62	0x3e229bba	0.15879717
63	0xbea3b6ba	-0.31975347
64	0xbdf90828	-0.12159759
65	0x3e462a74	0.19352132
66	0x3dcf577d	0.10124109
67	0xbcd52c05	-0.026021967
68	0xbe1e2fde	-0.15447947
69	0xbdab9735	-0.0837845
70	0x3cac9f4f	0.021072058
71	0xbc9db537	-0.019251449
72	0xbc86913a	-0.016426671
73	0x3dae0004	0.08496097
74	0xbd479bf8	-0.048732728
75	0x3d0b80b0	0.034058273
76	0x3d211804	0.039329544
77	0x3e32171a	0.17391625
78	0xbc55501b	-0.013019587
79	0xbd9abd7f	-0.07555675
80	0x3e6d115c	0.23151153
81	0xbe2ae48d	-0.16688748
82	0xbdf11dee	-0.11773287
83	0x3df9d580	0.12198925
84	0xbeba763e	-0.36418337
85	0x3e12ac72	0.14323595
86	0x3acd7745	0.0015675804
87	0x3d9433a8	0.07236415
88	0xba9c058a	-0.0011903506
89	0x3d39bbbf	0.045345064
90	0x3e059342	0.13044456
91	0x3d7edf46	0.06222465
92	0xbe4092d5	-0.18806012
93	0x3d802b47	0.062582545
94	0x3e911c5d	0.28341952
95	0xbebd8ff1	-0.3702388
96	0xbdad3e52	-0.08459152
97	0x3de33d27	0.11095648
98	0xbbea70a0	-0.007154539
99	0xbcb45a68	-0.022015765
100	0xbdd0841a	-0.101814464
101	0x3d0f7982	0.03502799
102	0xbc5e058e	-0.013551129
103	0x3ea8aa9a	0.3294266
104	0x3dec08b5	0.11525098
105	0xbdba557c	-0.09098336
106	0x3ca05dae	0.01957592
107	0x3cd35b47	0.02580036
108	0x3d9caa85	0.076497115
109	0x3da449cf	0.0802189
110	0xbdb33613	-0.08750548
111	0xbd88bc70	-0.066765666
112	0xbd4e1742	-0.05031515
113	0x3f002be8	0.50066996
114	0x3d124d16	0.035718046
115	0x3e34c767	0.17654191
116	0x3d5a51cd	0.053300668
117	0x3d33b45f	0.043873187
118	0xbddb23b5	-0.1070017
119	0xbd553412	-0.05205161
120	0x3da93f5c	0.08264038
121	0xbe8c0117	-0.2734458
122	0x3ce3ba4f	0.0277988
123	0xbc9e0a5a	-0.019292045
124	0x3eb59aec	0.3546976
125	0x3e2ec095	0.17065652
126	0xbe99809c	-0.29980934
127	0xbc907e8f	-0.017638473
128	0x3de0f627	0.1098445
129	0xbb52d8fc	-0.003217279
130	0xbe412092	-0.18860081
131	0x3e1eb570	0.154989
132	0x3db9b54d	0.090677835
133	0xba50e38d	-0.0007968478
134	0xbe6e08fe	-0.23245618
135	0xbd764f3d	-0.06013416
136	0xbd154f23	-0.036452424
137	0xbd5ae3b1	-0.0534398
138	0x3d23a7e4	0.039955035
139	0x3e94070b	0.28911623
140	0x3d89eb7e	0.0673437
141	0x3e6679c5	0.22507389
142	0xbed01c3b	-0.40646538
143	0xbb65c528	-0.0035060141
144	0xbe0d2eb5	-0.13787349
145	0xbd0dcd0d	-0.03461938
146	0xbd1ce9be	-0.03830885
147	0x3d4cd7d9	0.050010536
148	0xbcb2b56f	-0.02181503
149	0xbd3ad038	-0.04560873
150	0xbd8ea9e0	-0.06965995
151	0xbbba803e	-0.005691557
152	0x3d9671d1	0.073459275
153	0xbea3a425	-0.3196117
154	0xbe928647	-0.2861807
155	0x3e0899ea	0.13339964
156	0xbdd7887c	-0.10524079
157	0xbcccd1b5	-0.02500234
158	0xbdf6eb22	-0.12056567
159	0xbe65ad23	-0.22429328
160	0x3bfdc9ec	0.007745018
161	0x3de11592	0.10990442
162	0xbe033c80	-0.12816048
163	0xbe9a1d18	-0.30100322
164	0x3d1f06ef	0.03882497
165	0x3af69bac	0.0018814704
166	0x3e3c9205	0.18415077
167	0x3e1454eb	0.14485519
168	0x3d8685c0	0.065684795
169	0x3e454495	0.19264443
170	0x3d905b2d	0.070486404
171	0xbee5474a	-0.44780952
172	0xbd93b9a6	-0.07213144
173	0x3d890f86	0.06692414
174	0x3d8f8066	0.07006912
175	0x3c6551b3	0.013996529
176	0xbdf41ab4	-0.11919156
177	0x3cde00b1	0.027099939
178	0x3c01beb6	0.007919004
179	0xbc837c28	-0.016050413
180	0xbed1bca8	-0.40964246
181	0xbdf9dae8	-0.12199956
182	0x3c2393cd	0.009983969
183	0x3d97a477	0.07404416
184	0x3e9bbb55	0.3041636
185	0xbe38604e	-0.18005487
186	0xbebb197e	-0.36542886
187	0x3e17cd26	0.14824352
188	0xbe1b64f3	-0.15175228
189	0x3ec05453	0.37564334
190	0xbba1c787	-0.0049371156
191	0xbe7f60a1	-0.24939205
192	0x3dece775	0.115675844
193	0xbf1cc6b7	-0.61240715
194	0x3db3f837	0.087875776
195	0x3e448a25	0.19193323
196	0x3e0d60d3	0.13806467
197	0xbe3056cd	-0.17220612
198	0xbd9b1c9c	-0.07573816
199	0x3cb93274	0.022607066
200	0x3c2fc5a6	0.010728275
201	0x3e31d4a4	0.17366272
202	0x3da64561	0.08118702
203	0x3e04aec8	0.12957299
204	0xbd1b3c06	-0.03789904
205	0xbe05b9c9	-0.13059153
206	0xbc30427e	-0.0107580405
207	0xbdc8feb9	-0.098142095
208	0xbcddc98c	-0.027073644
209	0x3de7c58b	0.11316975
210	0x37eaf706	2.8010003e-05
211	0x3e822f81	0.25426868
212	0x3bc524f2	0.006016367
213	0xbd46a1d1	-0.048494164
214	0xbdc79ae3	-0.09746339
215	0x3dfe3bf7	0.12413781
216	0xbc8dcce2	-0.01730961
217	0x3d8f4914	0.069963604
218	0xbd8a4bcf	-0.067527406
219	0x3d25a69e	0.0404421
220	0x3e812736	0.25225228
221	0xbdbed95f	-0.09318804
222	0xbb55ff64	-0.0032653445
223	0xbe04841b	-0.12941019
224	0x3d752904	0.05985357
225	0x3d15be6b	0.03655855
226	0xbe0e0ea3	-0.13872771
227	0x3de1f598	0.110331714
228	0x3ddd4579	0.108042665
229	0x3e9d1b3a	0.30684835
230	0x3e6c2bf6	0.23063645
231	0xbdae996d	-0.085253574
232	0xbd582c27	-0.052776482
233	0xbdec05d9	-0.11524553
234	0x3e4dd498	0.2010063
235	0xbc81a459	-0.015825437
236	0xbd9a4c1f	-0.0753405
237	0x3d6eee93	0.05833299
238	0x3dcc1202	0.09964372
239	0x3dbf8ea8	0.093533814
240	0xbdcf48c4	-0.10121301
241	0x3e27223a	0.1632165
242	0x3d59a0be	0.05313181
243	0x3e25d4f8	0.16194522
244	0x3db0a1b4	0.086245924
245	0x3ea590c2	0.32337004
246	0x3e5530ea	0.2081944
247	0xbdd08909	-0.101823874
248	0x3df4b4ae	0.119485244
249	0x3e54025a	0.20704022
250	0xbe02dc92	-0.12779453
251	0xbdf8fdcc	-0.12157783
252	0xbda0b19a	-0.07846375
253	0xbdb0d897	-0.08635061
254	0xbd43aa7b	-0.047770005
255	0xbcf72775	-0.030170182

bias f4 [100]
0	0xbc755ef0	-0.014976248
1	0x3e462b8e	0.19352552
2	0x3e356e1c	0.17717785
3	0x3de6bff4	0.11267081
4	0xbc251199	-0.010074996
5	0xbd53d30e	-0.05171495
6	0x3dfbea31	0.12300528
7	0x3e4b99d3	0.19882898
8	0x3e017594	0.12642509
9	0xbd86d404	-0.065834075
10	0x3e44c714	0.19216567
11	0x3d8082c2	0.0627494
12	0xbd8a809c	-0.067628115
13	0x3e116e21	0.14202167
14	0x3d7ee6b4	0.062231734
15	0xbe04ba82	-0.12961772
16	0x3df37088	0.11886698
17	0x3d4a3f85	0.049376983
18	0x3ded8a36	0.11598627
19	0xbdc32760	-0.095289946
20	0xbe05ae15	-0.13054688
21	0x3df0d896	0.117600605
22	0x3e121e5e	0.14269397
23	0xbd9c0bb9	-0.076194234
24	0x3d9ff903	0.07811167
25	0x3e8e9ef8	0.2785566
26	0xbda5502d	-0.08071933
27	0x3c6aea15	0.014338036
28	0xbd489f8a	-0.048980273
29	0x3dfac956	0.12245433
30	0x3e425bfc	0.18980402
31	0xbd186476	-0.037205182
32	0x3e301b19	0.17197837
33	0x3e571a17	0.21006046
34	0x3cde08a8	0.027103737
35	0xbda048dd	-0.078263976
36	0x3e18b35f	0.14912175
37	0x3da29375	0.079382814
38	0xbd908185	-0.07055954
39	0xbdc8a8c3	-0.09797814
40	0xbdb14ffd	-0.08657835
41	0xbdb27e49	-0.08715493
42	0x3d84b2f5	0.06479446
43	0xbdcaa83e	-0.09895371
44	0x3ce241df	0.0276193
45	0xbc63fa16	-0.013914606
46	0x3db6852e	0.08912121
47	0xbd881dc4	-0.06646302
48	0x3c2a5bb0	0.010397837
49	0xbc30ce33	-0.010791349
50	0x3baad569	0.0052134288
51	0x3cfbbd30	0.03072986
52	0x3df6b702	0.12046625
53	0x3e0ebff1	0.13940407
54	0x3d5b0f89	0.053481612
55	0x3e002bd5	0.1251672
56	0x3c39a1d9	0.011330091
57	0x3e5f424b	0.21802633
58	0x3e074ff8	0.132141
59	0x3da4cc0f	0.080467336
60	0xbd79ec3e	-0.061016314
61	0x3e026ae2	0.12736085
62	0x3e0f340a	0.13984695
63	0x3df88e7a	0.1213655
64	0x3e27d237	0.16388784
65	0x3dc9148a	0.09818371
66	0xbd46b446	-0.048511766
67	0x3d47b78a	0.04875902
68	0x3df08686	0.11744408
69	0xbd793f97	-0.06085166
70	0x3e2f1ab9	0.17100038
71	0x3e4fb1f8	0.20282733
72	0xba8ab00f	-0.0010581034
73	0x3d533422	0.05156339
74	0x3e1daf88	0.15398991
75	0x3da0d77c	0.078536004
76	0x3da68859	0.08131475
77	0x3cc38849	0.023868697
78	0x3e31dcc7	0.17369376
79	0x3c93b492	0.018030439
80	0xbd9911e6	-0.07474117
81	0x3d3b0f2d	0.04566877
82	0x3d8582bd	0.06519077
83	0x3e201e21	0.15636493
84	0x3e532f59	0.2062353
85	0x3da7e04f	0.0819708
86	0x3e0784e8	0.13234293
87	0x3e3a5eaf	0.18200181
88	0xbd2afc50	-0.04174453
89	0x3b8a7cfc	0.004226325
90	0xbb65e63c	-0.0035079857
91	0x3d5bec2a	0.05369202
92	0x3e39d979	0.18149365
93	0xbc70c4c5	-0.014695351
94	0xbd39c0db	-0.045349937
95	0x3e050e9c	0.12993854
96	0x3d7fc598	0.0624443
97	0x3d843848	0.06456047
98	0x3ddc3b75	0.10753528
99	0x3c6b6ff1	0.014369951

weight f4 [10, 100]
0	0xbd0b63c8	-0.034030706
1	0x3e5d0531	0.21584012
2	0xbd33ad7e	-0.043866627
3	0xbef7fe4e	-0.48436207
4	0x3df4211e	0.11920379
5	0xbed61bad	-0.4181799
6	0xbe3308ba	-0.17483798
7	0xbeb3f4e1	-0.35147765
8	0x3e699a39	0.22812738
9	0xbde0db7f	-0.109793656
10	0x3c9f76da	0.019465853
11	0xbd67b82b	-0.05657212
12	0x3bdd9d09	0.006763105
13	0xbf195f8e	-0.5991143
14	0xbea83e73	-0.32860145
15	0xba5da4de	-0.0008455048
16	0x3e419fb9	0.18908586
17	0x3d37c5ce	0.044866376
18	0xbd27e2b4	-0.040987685
19	0x3de79f55	0.11309687
20	0x3ba78db2	0.005113327
21	0x3e21d714	0.15804702
22	0x3da22389	0.07916934
23	0x3e80b79f	0.25140092
24	0x3d5ae448	0.053440362
25	0xbe69a40b	-0.22816484
26	0x3da4daa8	0.08049518
27	0x3e4671ab	0.19379298
28	0x3c004332	0.007828521
29	0xbc8d2727	-0.017230583
30	0x3dd51577	0.10404485
31	0xbd2a2d99	-0.04154739
32	0xbe023258	-0.12714517
33	0x3dc02968	0.093828976
34	0xbce9a25a	-0.028519798
35	0xbcf145af	-0.029452173
36	0x3da4fd58	0.08056134
37	0xbe9b2de3	-0.30308446
38	0x3e95430b	0.29152712
39	0xbda57e9f	-0.08080792
40	0xbd6cc808	-0.057807952
41	0x3b274c60	0.00255277
42	0x3e47aebc	0.1950025
43	0x3e1173ba	0.14204302
44	0xbd53ee8b	-0.051741164
45	0x3d163831	0.036674682
46	0xbf01e223	-0.5073568
47	0xbd668d18	-0.0562869
48	0x3de94b1d	0.1139128
49	0xbecd6562	-0.4011641
50	0xbe2a9e78	-0.16662014
51	0x3da65c2a	0.08123048
52	0xbe9589ed	-0.29206792
53	0xbd9b9a71	-0.07597817
54	0xbea7f0af	-0.32800815
55	0x3dd6c92a	0.10487588
56	0xbed60f97	-0.4180877
57	0xbdd424c2	-0.103585735
58	0x3e2df255	0.16986974
59	0xbd78ba79	-0.06072471
60	0xbe216b85	-0.15763672
61	0xbee42727	-0.4456112
62	0xbdbbcf3f	-0.091703884
63	0xbed4ce65	-0.41563717
64	0x3e0849b2	0.13309363
65	0xbd5707a9	-0.05249754
66	0xbe9ade1e	-0.30247587
67	0xbe92f966	-0.287059
68	0x3d3da4f7	0.0462999
69	0xbf01077d	-0.5040205
70	0xbdee2268	-0.11627656
71	0x3e74bca5	0.23900087
72	0xbe36386e	-0.17794964
73	0xbe588a91	-0.21146609
74	0xbc07eab8	-0.008295707
75	0x3e11c261	0.14234306
76	0xbf0ae336	-0.54252946
77	0xbd2e80e7	-0.0426034
78	0x3e53786e	0.20651409
79	0x3e349686	0.17635545
80	0x3dbb64aa	0.091500595
81	0x3dde039d	0.10840533
82	0x3eb25416	0.34829777
83	0xbdeae009	-0.114685126
84	0x3e718513	0.2358592
85	0xbd549ac7	-0.05190542
86	0xbecdcd42	-0.40195662
87	0xbea0c44c	-0.31399763
88	0x3d3b85e4	0.045781985
89	0x3ddfc648	0.10926491
90	0x3de1d59f	0.11027073
91	0xbe47c990	-0.19510484
92	0xbe04bd2e	-0.12962791
93	0x3dae81a6	0.08520822
94	0x3e9e3776	0.30901688
95	0x3dc45d3b	0.09588095
96	0xbebd7c4a	-0.37008888
97	0x3dbf0361	0.09326816
98	0xbe8f0859	-0.27936056
99	0x3d37913d	0.044816244
100	0x3d7cbe3f	0.06170487
101	0x3e7a29f6	0.2443007
102	0x3dc4d10f	0.09610187
103	0xbeaaaa7b	-0.3333319
104	0x3dcdf6c3	0.10056832
105	0x3e890487	0.26761267
106	0x3d5276ec	0.051382944
107	0x393b23ee	0.00017847095
108	0xbc78a789	-0.015176662
109	0xbd731ec3	-0.05935551
110	0xbe6ca091	-0.23108126
111	0x3e45deab	0.19323222
112	0xbe94c064	-0.29053032
113	0x3e0af8f1	0.13571526
114	0x3e02b7f7	0.1276549
115	0x3d8096db	0.062787734
116	0xbd1636fd	-0.036673535
117	0xbd21383c	-0.03936027
118	0xbeaf2bcb	-0.342131
119	0x3ca12717	0.01967196
120	0x3d3cc1d3	0.046083283
121	0x3d2719a0	0.040795922
122	0xbee063ef	-0.43826243
123	0x3dee1771	0.11625565
124	0xbe0d7868	-0.13815463
125	0xbe738e81	-0.2378483
126	0xbce319b9	-0.027722226
127	0x3e135c07	0.14390574
128	0xbcab7fd7	-0.020934982
129	0xbe884d6c	-0.26621568
130	0xbed58f00	-0.41710663
131	0x3cb13094	0.02162961
132	0x3cdc88be	0.026920673
133	0xbe99c5f7	-0.30033848
134	0xbe86532f	-0.2623534
135	0x3ca68b85	0.0203302
136	0xbeeccec2	-0.46251494
137	0x3e2022a2	0.15638211
138	0xbbc42938	-0.005986359
139	0x3d8245fe	0.06361006
140	0xbd60951b	-0.054829698
141	0xbd331b71	-0.043727342
142	0xbe3c86b8	-0.18410766
143	0xbe037996	-0.1283935
144	0xbf01b025	-0.506594
145	0x3e385b53	0.18003587
146	0x3d30438d	0.04303317
147	0x3cabfbc8	0.020994082
148	0xbcd86727	-0.026416374
149	0x3ea9d5e3	0.33170995
150	0xbe640874	-0.2226885
151	0x3e5f0271	0.21778275
152	0x3e0fae89	0.14031424
153	0xbeb32a03	-0.3499299
154	0x3e1cda71	0.15317704
155	0xbe7da98a	-0.24771705
156	0x3d859d4d	0.06524143
157	0x3e4587b4	0.19290048
158	0xbe4fab41	-0.20280172
159	0x3d4ec108	0.050477058
160	0x3ead7325	0.3387691
161	0xbde1ff0b	-0.11034974
162	0xbcc41f80	-0.023940802
163	0x3d731b88	0.059352428
164	0xbeb49071	-0.3526645
165	0xbe22f82b	-0.15914981
166	0x3e1a06b5	0.15041621
167	0x3e2d4e75	0.1692446
168	0x3e18bfed	0.14916964
169	0x3e7f0742	0.24905112
170	0xbeafed2d	-0.34360638
171	0xbe30c60c	-0.17263049
172	0xbd2b64a2	-0.041844018
173	0x3e22f69a	0.15914384
174	0xbeba4481	-0.3638039
175	0x3db3da99	0.087819286
176	0x3db76b58	0.08956021
177	0xbd15ccac	-0.036572143
178	0xbea8aeff	-0.3294601
179	0xbf46483c	-0.7745397
180	0xbea672ec	-0.32509553
181	0x3ee76ef4	0.45201838
182	0xbeebe0f6	-0.4607007
183	0x3e12d735	0.14339907
184	0x3e5cbe7d	0.2155704
185	0x3db833ca	0.08994253
186	0xbdf70119	-0.12060756
187	0x3dd917b7	0.10600226
188	0x3d1866b2	0.037207313
189	0xbd9fe5e3	-0.07807519
190	0xbe23e6af	-0.16005968
191	0x3e02c5f3	0.12770824
192	0xbeefea73	-0.46858558
193	0x3eaabf04	0.33348858
194	0x3dfd7cc0	0.1237731
195	0x3d8d96af	0.06913506
196	0x3e8214f9	0.25406626
197	0xbeb78660	-0.35844707
198	0xbb2291cf	-0.0024806147
199	0xbde72586	-0.11286454
200	0xbeef7778	-0.46770835
201	0xbe80f19c	-0.25184333
202	0xbe59d16f	-0.21271299
203	0x3dd5571f	0.10417008
204	0x3d5bda90	0.053675234
205	0x3e689407	0.22712718
206	0x3e25c7eb	0.16189544
207	0xbdf2f4db	-0.11863109
208	0xbe361fb5	-0.17785533
209	0x3cb35d49	0.021895068
210	0x3d959ebb	0.07305666
211	0xbf013a1a	-0.5047928
212	0xbe1651cd	-0.14679642
213	0xbea89896	-0.32928914
214	0xbd9b9e58	-0.07598561
215	0xbc0ac731	-0.0084703425
216	0x3ea04ef6	0.31310242
217	0xbf18e06f	-0.5971746
218	0x3d6d4943	0.057931196
219	0x3dfcc0d4	0.123414665
220	0x3d493acd	0.049128342
221	0xbd1ae0c7	-0.03781202
222	0xbd9a429f	-0.07532238
223	0x3d74a620	0.05972874
224	0xbd4edf59	-0.05050597
225	0xbda78b99	-0.08180923
226	0x3bcaba43	0.006186755
227	0xbe490da4	-0.1963411
228	0x3d1297ef	0.035789426
229	0x3e1e547e	0.15461919
230	0x3dd944ac	0.10608801
231	0x3d041371	0.032245103
232	0x3e20d1ac	0.15704983
233	0xbe04c1b4	-0.12964517
234	0x3e267fab	0.16259639
235	0x3d167d69	0.036740694
236	0xbe83e83a	-0.25763112
237	0xbe027159	-0.12738551
238	0xbe12b50f	-0.14326881
239	0x3e7c8422	0.2465978
240	0x3d55f904	0.052239433
241	0x3d0e4a0e	0.034738593
242	0x3e644d11	0.22295024
243	0x3e75bedd	0.2399859
244	0xbc877175	-0.016533593
245	0xbd64dec6	-0.055876516
246	0xbf2bc95c	-0.67104125
247	0x3d019de9	0.031644735
248	0x3d03c309	0.032168422
249	0x3e79dca6	0.24400577
250	0x3d821436	0.06351511
251	0x3e1bd63f	0.15218447
252	0xbd6d0f48	-0.0578759
253	0x3d4ce3c3	0.050021898
254	0xbead4e61	-0.3384886
255	0x3c3f0f24	0.011661325

bias f4 [10]
0	0xbd705af1	-0.05868048
1	0xbd5196e2	-0.051169284
2	0xbc694209	-0.014236935
3	0x3c5ce093	0.013481277
4	0x3d20befc	0.039244637
5	0xbc832fe5	-0.016014049
6	0xbc1ef182	-0.009701135
7	0xbdf6a8fe	-0.120439515
8	0x3e4c6e78	0.19964015
9	0x3cc40d52	0.023932133
