project/artifacts/1/57fa3dd9e37a4444b7516384f70a085b/artifacts/model/data/model.pth (torch, 362823 bytes, 6 tensors)

weight f4 [100, 784]
00000000: 0030 8cb9 b6f2 9c3c accc f0bc 9350 d7bc
00000010: ce5e 61bc 10e9 1c3c 407f 39ba 12fa e73c
00000020: 30b6 4fbb 10d6 1a3c 7cd6 30bc a409 e6bb
00000030: 2302 0dbd 0308 c7bc 09b4 70bc 3093 ad3a
00000040: dc53 673c ae8c af3c a058 c6bc d8ce 7ebc
00000050: b088 543c a2f2 f23c 54d8 f0bb 46ef da3c
00000060: 70a1 bcbb 60aa 773b 4f75 043d 76b4 07bd
00000070: 502f b8bc 4a23 14bc b216 64bc 2ec8 fc3c
00000080: e5a4 bdbc c2bc 86bc f73b d8bc fd7d 17bd
00000090: bcdf c5bc f564 f03c 8323 673c d270 5c3c
000000a0: a826 7cbb e6af b4bc 6c0f aa3b 56c0 09bd
000000b0: 8207 c9bc 1d90 9bbc eee5 a33c 6c8b 8e3c
000000c0: ccbb 91bc 738f ecba fa8f b93c 975f 113d
000000d0: 983b 683c e818 9e3b 482a c43c 4a44 acbc
000000e0: 6813 da3b 0ed5 e2bc 77c7 cabc 192b 97bc
000000f0: 82f2 833c 843f 6a3c 010b bebc 2760 903b
00000100: b193 363c f028 1abc 5841 a5bb 9fbe 67b9
00000110: ce4a c53b fd72 533c 6ceb 3abd d2f5 ddbc
00000120: 73e3 8b3b 005a 933c 384f 853c 1090 953c
00000130: 4855 e6b9 bbf9 16bd 3564 f439 0113 c0bc
00000140: 47bd 09bd c4e6 013d a675 de3c 92ec 11bd
00000150: 780b db3b 7825 c5bb 3f7a bfbb 8e3a 86bc
00000160: 63ed 5e3c 650c a3bc 827a 2c3c 1429 783c
00000170: cb25 c23c fce0 423c ef2b e5bc 2763 1dbc
00000180: 5586 eb3c 7b4b d639 f7f2 1ebd 392b 00bd
00000190: 6314 ab3c e4e7 be3b d8c5 07bd a33b c8bc
000001a0: fc92 3ebd ab89 87bc 03a3 23bd 1ff2 0bbd
000001b0: 578c adbb 3b90 a03b b73c 72bc f89a ad3c
000001c0: 8a0a b2bc 32be 043d f4ba c93c 8f91 f1bc
000001d0: 1a2d debb dc13 153c 5029 983c 6421 ad3c
000001e0: 6a9f ec3c 166d 643c 7057 113a 4e98 133d
000001f0: 7c64 efbc 7500 22bd 27ad 2bbd 76e5 5abd
00000200: 1b7a 58bd 82f5 61bd 30da 53bc e188 76bc
00000210: 5028 5dbd 34bc 07bd ca5a 06bb 661a bfbc
00000220: e3eb 15bb 1f79 64bb 3afb ee3b 6be4 b93c
00000230: 8f91 0a3d 9acc b93c 0e3a 0b3d 8fa3 eb3a
00000240: 08a5 98bc bf7c 353c 7897 713d eb58 dd3c
00000250: cd31 01bc 81d1 a9bc 4a2b 9cbc ab89 353c
00000260: 1dde c13c 6fb9 c83c 3528 48bb 841d 3abd
00000270: 9054 523c a988 5cbd c88d 10bd 5905 4abd
00000280: a4a6 29bd 313d 3dbd fda9 85bd 7b97 6abd
00000290: 05e1 8abc f5e8 d3ba f0f4 82bc 2c1e 5c3c
000002a0: 6baa 03bd c017 1dbb 413c 033d 0959 c4bb
000002b0: b330 553d 205a 173d 642f 103b 2f1f 323d
000002c0: 7188 373c 67b2 ea3c fa9d ba3d ec29 193d
000002d0: 337e 783d 7561 853d 6028 cc3d b1a0 7e3d
000002e0: 2c38 823d 8239 013d 1b95 0fbc 5dba 3ebd
000002f0: 7299 65bd bc3c 5fbc 40c8 95bc 54e6 6abc
00000300: 8212 34bd 0551 6bbb 2260 cebc 59a9 a0bc
00000310: c27e aabc 2313 4f3c 09ae a9bc b282 d93b
00000320: b9e6 d53c 5762 363d e001 75bb bfa8 a8bc
00000330: 0189 e0ba a1cc 753d e489 fa3c b2dd a03d
00000340: a869 b33d 6567 bb3d 4ac6 c13d cc1d 7e3d
00000350: 2003 763d 71de fa3b 9249 aabc 7a24 d1bc
00000360: 65cb 23bd 7703 63bd cd1f 47bc 84ca 9cbd
00000370: 0be0 efbc 1fe3 ea3c 7b38 463c 49f4 7a3a
00000380: 6c8e 00bd d7b7 8c3c e4fb d0bc 4e67 dcbb
00000390: 002b 0f3c 4947 083c a739 0e3c ba22 183d
000003a0: 9125 013d 8b22 5b3d b402 423d 770d 34bc
000003b0: cf2a 033d c00f 303c ae55 3f3d 8f04 8c3d
000003c0: 91e3 993d 8741 513d aed9 debb 1fcb 8dbc
000003d0: d423 2b3c 9a00 22bd 4604 b73c cba7 89bd
000003e0: 4d2c fabc 3d6d 5dbc b501 a3bc 5120 973b
000003f0: d2b5 f13c 50ff 33bc d3b6 b0bc e1d0 ebbb
-0.00026738644 0.019158702 -0.02939447 -0.026283538 -0.013755513 0.009577051 -0.00070761517 0.028317485
-0.0031694286 0.009450451 -0.010793325 -0.007020192 -0.034425866 -0.024295812 -0.014691361 0.0013242718
0.014119115 0.021429386 -0.024212182 -0.015552245 0.012972042 0.029656712 -0.007350007 0.026725423
-0.0057565495 0.003779076 0.032338437 -0.033131085 -0.022483498 -0.009041617 -0.013921427 0.030857172
-0.023149917 -0.016447429 -0.026395781 -0.036985386 -0.024154536 0.029345015 0.014107588 0.013454633
-0.003847519 -0.022056531 0.0051898267 -0.03363069 -0.024539713 -0.018989617 0.0200071 0.017400466
-0.017789744 -0.0018048122 0.022651661 0.035491552 0.0141743645 0.0048247464 0.023945943 -0.021028657
0.0066551454 -0.027689483 -0.024753315 -0.018453168 0.016106848 0.01429737 -0.023198606 0.0044059935
0.011143611 -0.009409174 -0.00504319 -0.00022100889 0.0060208803 0.012905833 -0.045634672 -0.027094755
0.0042690574 0.017987251 0.016273126 0.01825717 -0.00043932558 -0.036859255 0.00046613967 -0.023446562
-0.033627775 0.031714216 0.027155709 -0.035626 0.006684717 -0.0060164295 -0.0058434303 -0.016385343
0.013606402 -0.019903371 0.010527255 0.015146513 0.023699662 0.011894461 -0.02797505 -0.009606159
0.028750578 0.00040873498 -0.038805928 -0.03129122 0.020883745 0.0058259834 -0.033147663 -0.0244425
-0.046526894 -0.016545137 -0.039950382 -0.03416645 -0.005296271 0.004900006 -0.014784983 0.021192059
-0.021733541 0.032407947 0.024625279 -0.029488353 -0.006780279 0.009098973 0.018574387 0.021134086
0.028884608 0.013942024 0.000554434 0.03603392 -0.02922272 -0.039551217 -0.041913178 -0.053441487
-0.052850824 -0.055165775 -0.012930438 -0.015047283 -0.053993523 -0.03313847 -0.0020500892 -0.023328017
-0.0022876195 -0.0034862233 0.007293132 0.022691926 0.03383022 0.02268057 0.033990912 0.0017977821
-0.01863338 0.011077105 0.058982342 0.027019938 -0.007885409 -0.020729782 -0.01906361 0.011080186
0.023665482 0.024502484 -0.0030541543 -0.045438305 0.012837544 -0.053841267 -0.035291463 -0.049321506
-0.041418687 -0.046200935 -0.06526563 -0.05727337 -0.016953 -0.0016167449 -0.015985936 0.013434928
-0.032144945 -0.0023970455 0.032039884 -0.005992059 0.052048396 0.036951184 0.0022000903 0.04348677
0.011201964 0.028649522 0.09112163 0.037393495 0.060667228 0.06512729 0.099686384 0.062164966
0.0635837 0.031548984 -0.008763577 -0.04656445 -0.05605454 -0.01362532 -0.018283963 -0.014337141
-0.043962963 -0.0035906446 -0.025192324 -0.019612001 -0.020812396 0.01263884 -0.02071287 0.0066378945
0.026110994 0.044527378 -0.003738515 -0.020588277 -0.0017130674 0.060009602 0.03058333 0.07854785
0.08760387 0.0915058 0.09461649 0.062040135 0.060061574 0.0076559116 -0.020787034 -0.025530089
-0.039988894 -0.055423226 -0.012153578 -0.07655814 -0.029281637 0.028672753 0.012098427 0.00095731445
-0.031385824 0.017177505 -0.025510736 -0.006726182 0.008738279 0.008317777 0.008680738 0.037142493
0.031529967 0.05349974 0.04736586 -0.010989538 0.032023247 0.010745943 0.04671257 0.06836807
0.07514108 0.051087882 -0.006800852 -0.01730877 0.010445554 -0.039551355 0.022340905 -0.06721457
-0.030538702 -0.013514814 -0.019898275 0.0046120067 0.029505644 -0.010986164 -0.021571552 -0.007196531

bias f4 [100]
00000000: d945 3cbd f8e9 c93a cb73 75bc b675 0cbe
00000010: c531 debd 652e 1fbd e908 d9bc ca00 7e3d
00000020: aec3 3a3d 0082 573d 647a e9bc df16 e03d
00000030: 0da6 b43b 361b 5abd 9dfc 2abd 330c 143d
00000040: cd4f 013e 8739 3fbb b837 0a3d d9ac 18bd
00000050: 31fd e83d 58b5 18bd 67d3 0a3e aa0f aabd
00000060: ebcf 993d b5d3 ff3c 5ca0 9fbd 24b3 513c
00000070: 6fa1 333d bf2a 1fbc c1cc b73d e3c7 b4bc
00000080: 678d 3c3d 7dc4 aabc 813c bd3d eda8 08bd
00000090: 0727 c63d d890 393c 8d7d b63d ab33 e7ba
000000a0: 8e6a 7d3d 00e4 9bbd 665f b0ba e098 793d
000000b0: 8c38 653d 8195 52bc 3f65 423d 488f e9bc
000000c0: cc71 27bc a068 d33d 4a17 323c a610 ea3c
000000d0: 07a4 f73c b386 d23c 13a5 b43d d5fb 39bd
000000e0: bd8d cc3d bf3a a13d cc35 483c a930 e9ba
000000f0: 2f79 923c fcd8 f2bc 9973 bf3b 7346 9f3d
00000100: fe45 8c3d d159 913d 6c6e 88bc cd58 ee3c
00000110: 0a0b 07bd 0587 a33d 835d 5bbd cbd7 5e3d
00000120: fdaf af3d 0973 8cbd 3f34 16bd 9d02 0f3e
00000130: 43a2 9abb 959a 593d bc0e d8bd 09c9 193d
00000140: 2c66 f83a c109 09bc 38b1 373d cb6f a1ba
00000150: eec3 f23d a268 8fbc e06b 9e3b e527 d6bd
00000160: 9c90 4cbc 24cc b1bc 576b 0cbc 2bcc b6bd
00000170: aa18 2a3a 0563 393d f2db f1bc 5eb4 743b
00000180: 2850 cf3c 7db3 723d 2231 6c3d d8b5 a0bb
-0.04596505 0.0015404811 -0.0149812205 -0.13716778 -0.108493365 -0.038862605 -0.026493507 0.06201247
0.04559677 0.052614212 -0.028500743 0.10941862 0.005512959 -0.053248607 -0.041744817 0.036144447
0.12628098 -0.0029178576 0.033744544 -0.037274215 0.113764174 -0.037282318 0.13557206 -0.08303769
0.0751036 0.03122888 -0.07794258 0.012799058 0.043855127 -0.009714781 0.089746006 -0.02206797
0.04603329 -0.020845646 0.09240056 -0.033364225 0.096754126 0.011326037 0.08910666 -0.00176393
0.061869197 -0.07611847 -0.0013456165 0.06093681 0.05596213 -0.012853027 0.047459837 -0.028510705
-0.010220002 0.1032269 0.01086981 0.028572392 0.030229582 0.025698995 0.08820548 -0.04540618
0.09987972 0.07872533 0.012219857 -0.0017790991 0.01788005 -0.029644482 0.0058426377 0.07777109
0.068492875 0.07097209 -0.016654216 0.029095078 -0.032969512 0.07984737 -0.053555977 0.054405015
0.08578489 -0.06857879 -0.03667092 0.1396584 -0.00471905 0.053125937 -0.10549685 0.037545238
0.0018951348 -0.008364142 0.044846743 -0.0012316642 0.11853777 -0.017505948 0.004834637 -0.10456828
-0.012485649 -0.021703787 -0.008570514 -0.08925661 0.00064886606 0.045260448 -0.029523823 0.0037338953
0.025306776 0.059253205 0.057664044 -0.00490449

weight f4 [100, 100]
00000000: 8cab cfbd 2bda 2e3d a265 bdbd 66dd 4dbe
00000010: 948d 1f3c c22d 13bd d6a2 af3b 5299 65bc
00000020: ce69 2d3d 2e2f 38bd 8784 42bd 16bb 87bd
00000030: 5d59 bc3c b34f 6dbd 1054 c8bc 8e8a a03d
00000040: 1a55 c13d 7c25 a83d 3089 c13d 4bca 19be
00000050: 30f7 13be 37ee 0b3e 8627 0c3e 4772 5ebe
00000060: e865 413d 9039 a13d c990 c5bc f379 853d
00000070: 7f08 8a3d 52d0 c5bd a9fe 003e 8983 a93c
00000080: 0061 25be 78fd 05be 7263 a93d 6616 633d
00000090: 13d0 673e ba2e 463d 9b3b c7b7 4817 a13c
000000a0: aa01 1ebd 9381 51be f18f cabd a543 1abe
000000b0: e664 bd3d f82a d3bc 90f3 84bd 9b8e f1bd
000000c0: d40a 90bd 46f6 f03d 1bba f83c 64e0 a03c
000000d0: b10e 863c abb1 5cbd c57d babc efd5 d8bd
000000e0: 29c3 253e 7701 27be eb80 113d d928 8cbd
000000f0: 5c9e 8bbd 9f4e e9bd 5d45 f63c 7fc1 c03d
00000100: a5b8 cd3c 3dad eb3c bed3 0e3d 5f3a 9abd
00000110: 18d2 4fbe 82a5 1d3e 50c2 033d d25e 963d
00000120: 0705 333d f4f5 873d e006 fbbc fa30 373e
00000130: e40f 86bd f816 55bd 7664 10be bdb8 8a3d
00000140: deab eebb ccb2 6bbd 6460 a9bd 0c7c 8bbd
00000150: 603b 28bd f669 90bc ba63 cfbb b623 c33c
00000160: 38b3 183d 47ac 0dbb 7972 ebbd ec03 1abd
00000170: aa03 953d d30f 23be 2e0b 213c f56f b63d
00000180: dca1 9e3d 23b2 ee3d ff37 d3bc 7bc6 dfbd
00000190: a655 a13d 5f21 48be bf1e 093e 5a0a 3e3d
000001a0: d4a1 403c 76c9 5cbd ea26 6c3d 0196 933c
000001b0: 9bf9 933a 7889 173d 7a76 dd3d 761b 443e
000001c0: e500 e73c 5997 bdbd aadb 933d deaf a33c
000001d0: 03ff 8abc e6cb 15bd f342 82bd b6ba 6ebd
000001e0: b92b 563d fa22 30be 8144 17bc e91c 6dbd
000001f0: 2b29 2cbd 4e61 1ebe dfc6 2ebd f9a6 ed3d
00000200: 3a19 643c b1dc 363e 9e98 b43d 6ec1 583e
00000210: 7914 6c3c f2a9 c03d 6875 2f3e bc06 e33d
00000220: 62ed 16ba 2899 983c 7b81 c23b 182e f13d
00000230: 4e4b 4cbd d609 933d 1246 4cbd 1f8f 24bd
00000240: d03c d0bd 45e0 803a 189a ce3d c639 9fbc
00000250: 866d e63c 4f86 893c 553f f0bd 1ac7 99bd
00000260: 4189 a03b 2e91 193e 002e 4cbe 0068 d9bc
00000270: bd9c b13a 7374 bd3d 4651 f13d 1052 41bc
00000280: 9e7b d0bc ef2a 60bd 1785 5dbc e363 cdbd
00000290: c0ff a43d 4aed 9f3d 8a67 95bc 1354 843d
000002a0: eae0 49bc 4539 4e3c 0879 0c3d 1317 7ebb
000002b0: 167a 00bc 55a1 0bbd 5082 5d3e 3758 89bd
000002c0: 55f6 c9bc 0a3a 61bd 115e 9abd ffd8 e7bd
000002d0: a29b 7e3d 5dcd 9fbd 82dd 653d d16f 8fbd
000002e0: 1441 41bd 47a8 a63c 5b68 b83d c8d4 4f3e
000002f0: faaa b23d 1fec 09bc cf2f 823d 3fac 20be
00000300: 1f5a 0c3c 9732 9e3d 5127 08bc 73e0 0a3d
00000310: c8ed 793d 253e 103e fac3 893d e88f 61bd
00000320: fda0 b3bd 0f58 3abc ccaf a03d 00ac 603d
00000330: 42c5 80bd 516a d43d 669c 4d3d 986e 88bd
00000340: b0b9 173c 8add 44bd da39 95bd ba60 113c
00000350: b329 f0bc bcc5 dd3d 55cb 9fbd 8acb 2c3d
00000360: d9c4 09bd c698 85bd 33be dfbb 6a2c e63c
00000370: 2021 903d 9ebc d2bc db83 99bc 8563 02bd
00000380: 67c1 213d d356 2cbd 6659 803d 48c0 b23d
00000390: 12c0 83bd 4382 af3d 900f a3bd 16fa c9bb
000003a0: 63ec 9a3d 5af9 0a3e df43 cc3c 324a 01bd
000003b0: cedb 74bb 68ce b53c 0831 26bd 49a6 393b
000003c0: 889f 60bd c0e7 803b b1de 193b 8571 c43d
000003d0: 5d70 90bd 7443 8d3d a3c3 053d 3f7a 06bd
000003e0: 3d8b 40bd 9746 e7bc 37f7 54bd 2b47 8e3d
000003f0: c1c0 fbbb 8950 6a3b f6f1 b5bd b80f e33c
-0.10140142 0.04268853 -0.092479005 -0.20103988 0.009738345 -0.03593231 0.0053599877 -0.014013605
0.04233723 -0.04496687 -0.04748967 -0.06627481 0.02299183 -0.057937335 -0.024454147 0.07838927
0.0944006 0.082102746 0.094499946 -0.15018575 -0.14449763 0.1366509 0.13686952 -0.21723281
0.047216326 0.07872307 -0.02411689 0.065174006 0.06739902 -0.096588746 0.12597145 0.020692604
-0.16150284 -0.13084972 0.08270921 0.055441283 0.22637968 0.048384406 -2.3750405e-05 0.019664422
-0.038575806 -0.20459585 -0.09890736 -0.15064867 0.092477605 -0.025777325 -0.06491768 -0.11794778
-0.07033315 0.11765723 0.03036218 0.019638248 0.016364427 -0.053880375 -0.02276505 -0.105876796
0.16187729 -0.16309153 0.035523336 -0.068437286 -0.06817314 -0.11391949 0.030062372 0.094119065
0.02511246 0.02876913 0.0348699 -0.07530665 -0.20294988 0.15395167 0.032167733 0.07342304
0.043705966 0.06638709 -0.030642927 0.17889777 -0.06546 -0.052023858 -0.14100823 0.06773517
-0.0072836718 -0.05754356 -0.08270338 -0.068107694 -0.04107225 -0.017628651 -0.006329027 0.02382074
0.03728029 -0.0021617578 -0.11496443 -0.037601396 0.072760895 -0.15924005 0.009829326 0.08908073
0.07745716 0.11655071 -0.025783537 -0.10926529 0.07877664 -0.1954398 0.13390635 0.04639659
0.011757333 -0.053903066 0.0576543 0.018015863 0.0011289598 0.036996335 0.10813613 0.191511
0.028198669 -0.09257383 0.07219632 0.019981321 -0.016967302 -0.036571406 -0.06360426 -0.05828353
0.05228779 -0.17200842 -0.009232641 -0.0578889 -0.04203145 -0.15466806 -0.042670127 0.11604113
0.01392203 0.17857625 0.08818172 0.21167538 0.014409178 0.094074145 0.1713463 0.11085269
-0.00057574187 0.018627718 0.0059358454 0.1177637 -0.049876504 0.071796104 -0.04987151 -0.040175553
-0.10167849 0.0009832463 0.10087985 -0.019436728 0.028128397 0.016787676 -0.117308296 -0.07508679
0.0048991744 0.14996788 -0.19939423 -0.026538849 0.001355074 0.092507266 0.1178308 -0.01179935
-0.02544957 -0.054728445 -0.013520501 -0.100288175 0.08056593 0.07808931 -0.018237848 0.064613484
-0.01232169 0.012586896 0.034295112 -0.0038771078 -0.007841608 -0.034089405 0.21631742 -0.06706279
-0.024653593 -0.05498699 -0.07537473 -0.113206856 0.06216014 -0.07802842 0.05611945 -0.07003749
-0.047181204 0.020343913 0.09004279 0.20296013 0.087240174 -0.008418112 0.06356775 -0.15690707
0.008566408 0.07724493 -0.008310155 0.033905458 0.06101778 0.14086206 0.06726833 -0.05506888
-0.087709405 -0.011373534 0.078460306 0.054851532 -0.06287624 0.10371841 0.05019798 -0.06661719
0.00926058 -0.04806284 -0.07286425 0.008873159 -0.029316759 0.108287305 -0.078024544 0.042186297
-0.033634994 -0.0652328 -0.0068280934 0.02809735 0.07037568 -0.025724705 -0.018739631 -0.03183319
0.039491083 -0.04207499 0.062670514 0.08728081 -0.06433119 0.08569767 -0.07961953 -0.006163846
0.075646184 0.13571683 0.024934707 -0.0315649 -0.003736246 0.022193149 -0.040574104 0.0028327873
-0.05483964 0.0039338768 0.0023478682 0.09591965 -0.070526816 0.06897631 0.032657277 -0.032831427
-0.047007788 -0.028231902 -0.051993575 0.06947168 -0.00768289 0.003575357 -0.08884041 0.027717456

bias f4 [100]
00000000: 0383 8d3b 4892 483e 3c65 f8ba 76f4 a8bd
00000010: f8dd c83d 6181 223e 46dd b4bc 11d9 adbd
00000020: d03c 74bb 6593 20bd 481e 6bbd 4890 113e
00000030: a4f4 ca3d 0ed6 57bd 60e2 253d eeb7 3b3e
00000040: 3cb0 9c3d e0e3 d43d eeeb cb3d db93 003e
00000050: 6f91 0bbd e042 563c 3596 353d 3002 193d
00000060: c7f8 003e 5d05 313d 81ec fb3d 062c c53d
00000070: 0c54 a63d f50c 9d3c 84f4 f03d a868 d83d
00000080: 506e 27bd 1a2f 843d 03a0 72bd 3412 273b
00000090: 9ba7 fa3b 13f8 1abd 30e4 f63b 7d3a 4e3d
000000a0: 8b6d 2f3e 3156 813d 1675 183e 47b5 123c
000000b0: 2d5b d0bd ff45 3bbd cbae 91bd 929d 93bb
000000c0: bca4 8a3d a284 05bc f452 693d 4610 1fbe
000000d0: 2f62 05bd 399e d2bb 5466 303d b4f5 dc3d
000000e0: 2a08 883d 079a ae3c 278f 053e e2e9 c03d
000000f0: 8ca6 57bd 649b 9a3d 2bbf 773d 5044 76bd
00000100: cadb 063d 8248 863d c9b9 383e 9c15 a8bd
00000110: 4240 bd3d 28d4 453e c839 793c 5fa9 c9bd
00000120: 6c0f 60bd 0610 463d c321 693d 584b 95bb
00000130: dea2 d1bc 336b 2a3d 89aa 88bd ff2b e0bc
00000140: a3c5 723c aa55 9abd 90d2 5fbd 2ed5 09bd
00000150: 7d32 d23d a6b9 c2bc a2c0 d93d ccc2 0cbc
00000160: cc81 87bd fa36 c9bd 903e 343d d991 3ebd
00000170: 970e 993d 9abd 3cbd d2e9 253c 22a0 a23c
00000180: dd6e df3d 2935 93bd 10ff a4bc e9a4 a63d
0.0043185963 0.19587052 -0.0018951069 -0.08249752 0.09807962 0.15869667 -0.022078168 -0.08488668
-0.0037267692 -0.039203066 -0.057401925 0.14215195 0.09909943 -0.052694373 0.04049909 0.18331882
0.076508015 0.10395026 0.099571094 0.12556402 -0.034074243 0.013077468 0.0443327 0.0373556
0.12594901 0.043218005 0.12300969 0.096275374 0.081214994 0.019171217 0.11765388 0.105668366
-0.040876687 0.064542964 -0.05923463 0.0025493028 0.0076493747 -0.03783424 0.0075345263 0.050348748
0.17131631 0.06315268 0.14888415 0.008954353 -0.101736404 -0.04572105 -0.07113417 -0.004504868
0.06769702 -0.008149298 0.056963876 -0.15533552 -0.03256434 -0.006427553 0.043066338 0.10789052
0.06642182 0.02131368 0.1304289 0.094196096 -0.052649066 0.0754917 0.060485046 -0.06012374
0.03292445 0.065567985 0.18039621 -0.08207247 0.09240772 0.19319212 0.01521153 -0.09846758
-0.054702207 0.048355125 0.056916963 -0.004556101 -0.025590356 0.04160614 -0.06673152 -0.027364729
0.014817628 -0.075358704 -0.054644167 -0.03365057 0.10263536 -0.023770165 0.10632445 -0.008591365
-0.06616554 -0.09824939 0.044004977 -0.04652581 0.07473486 -0.046079256 0.010126548 0.019851748
0.10909817 -0.07187874 -0.020141155 0.08136923

weight f4 [10, 100]
00000000: e432 bfbd 0ee0 8abe 3e55 353d 6fd5 6d3d
00000010: 0845 ea3e b083 943d 800b a73e 014e 343e
00000020: 9e6d f9bd bd01 bd3e 553b 443d 057c 9fbe
00000030: b860 3dbe ae01 5abd d302 afbc 3870 9dbc
00000040: 0dce e53e 3cf7 8f3c a9ef c53e 99d3 74bc
00000050: be65 fb3e 90d4 5c3c da17 8ebb c391 813e
00000060: 2785 18be 4447 84bd 0606 f5bd 2fc7 9fbe
00000070: 8312 7ebd a79d 86bd d6b0 8ebe b6e3 b9be
00000080: d858 2f3e bb81 223e d031 193d c173 adbe
00000090: 5e05 ddbd 5214 1a3e b185 7dbd a379 8d3e
000000a0: 836c ed3c 2d9a a8be 28aa 4bbe 7300 fbbc
000000b0: 3f09 623e 8500 f73c 71e6 66bd cf86 3f3d
000000c0: dff6 50bd ea10 46bd f01f 0d3e e2d7 8d3e
000000d0: 9735 763d 297f e6bd 35ac 08be 528f 993e
000000e0: 2ad1 17be a902 9d3d 25cc e1bd ea0a 9f3d
000000f0: 7fec 653d f698 96bc d856 c4be 89e2 b3bd
00000100: 229a 30be 6b8e 07be ab8a e9bd 2796 1fbd
00000110: 0848 0a3e 573d 9cbe 4a52 91bd fb1d 4e3d
00000120: 9a07 933e 561d 133d 9955 41bd f4dc f8bd
00000130: 08a4 88bd 5d54 f0bc 1bd6 b5bd a3ea 443d
00000140: 03a5 36bd b1b1 fa3d f8e5 70be 405c 64bb
00000150: 1197 0fbe 6ccf 11be 27e3 81bd 87db 0b3c
00000160: 9d86 393d 251a 873d edee 4ebe 253b e63e
00000170: 8da0 a0bd f429 163d 06fb a1be 7fe1 0c3d
00000180: 9c62 a4bd 5eab f03d de44 323e 6992 0e3e
00000190: 548f cf3d 710a 873e b16c a5bb b90f ac3c
000001a0: 3787 3ebd ceb4 263e 797f 1c3e 1984 12be
000001b0: 554c 68bd 61e8 1d3c 0c89 1abd 44c8 5abe
000001c0: beb8 783e 0545 7fbd 7b11 bb3c 3961 c73d
000001d0: ed2e bdbe 1724 d2bc 333b 6a3e 23ba 3cbe
000001e0: 21cd 8dbe a069 e73d c524 713d 56f9 afbe
000001f0: 1ede fa3e 1e94 be3c 4ffe dd3e 4994 193d
00000200: 7546 61bd 0827 84bd 9f60 a53e 42ef 8fbd
00000210: ec17 e3bd af66 10be 1c76 dabb 94a1 92be
00000220: 0f96 1dbd 0aa6 00be 7cb6 a63e 9244 a0be
00000230: fa32 42be 55cd c33e efd0 a83e f32c e13c
00000240: 3565 55bd 9921 20be a275 c53d 0f56 2bbe
00000250: cfc5 52be 0ae4 acbd 4abe b4be fa44 84be
00000260: 7e97 5ebc db2d ff3c cbe5 eebd 3db9 de3d
00000270: 41f3 05be 5679 e23c 9aa2 e73e 2ec6 a83e
00000280: b416 14bd 365a 573e 0313 fd3e cbfa 62bd
00000290: 32ee d63d 2d17 2fbe 1134 00be ee0f aebc
000002a0: 22ef a7bd 8b95 35be 63c2 15bc 0aa8 65bd
000002b0: a998 6ebe 7ffd 793e 0287 053b c2b5 2b3e
000002c0: 1bcf cc3b 2c73 473d 74c4 8dbe 41fa 66bd
000002d0: 38a3 0a3e 9862 573e fa69 6abb 59fa 393d
000002e0: 3c76 17be a276 b73d e626 9fbe ef95 443e
000002f0: c1c8 94bd 1122 1fbd 0e26 213e e63d 073e
00000300: 2a6c ebbd 8bf1 8f3c aa2b c33d b8bf 853d
00000310: ac5c b33d 886f 6fbd d716 6dbe 4da7 3f3d
00000320: 08ff 303e 31f4 2cbe 464a 163e c8bf 66bb
00000330: 2765 70be 5690 d8bd 3495 383e 645d 96be
00000340: 8678 cabc b578 49be c37f 07bd 4319 dbbe
00000350: b7f7 dc3e 359e 073e 6281 c5bd 504f adbd
00000360: a4bf fa3d 0c26 b83d f529 6abe 99cc bcbc
00000370: 9fde a93e 2a3b 2c3c ff72 833d a107 96be
00000380: 59b2 b03e 4203 36be 4ef2 043e 7bad e2be
00000390: 09a9 353c e7cf a53e ed6d 95be a3d6 92bd
000003a0: c221 e8be b145 053f 574d 4bbd 0025 a0bc
000003b0: cbb8 e33e cdfb f93e 1565 723e 2b5e b43e
000003c0: 12ce c6be baf4 4a3e 2789 443c c163 bd3d
000003d0: 7914 3a3d 1e42 e63d d8af 593d 03c4 813d
000003e0: 0a80 9d3d 7abb 45bd 4920 183e 38b0 0d3f
000003f0: 18af adbc fd33 90ba 492d 0a3e 728b e23e
-0.093358785 -0.27124065 0.044270746 0.058064874 0.45755792 0.0725168 0.3262596 0.17607881
-0.12179111 0.3691539 0.047908146 -0.31149307 -0.18493927 -0.053224258 -0.021363651 -0.01921855
0.44883767 0.017573945 0.3865941 -0.014943027 0.4910106 0.013478413 -0.0043363394 0.2530652
-0.14894544 -0.06458905 -0.119640395 -0.31206653 -0.062029373 -0.065730385 -0.2786929 -0.36306542
0.17123735 0.15869801 0.03740102 -0.33877376 -0.10792039 0.15046814 -0.061895076 0.27631864
0.028982406 -0.32930127 -0.19889128 -0.030639863 0.2207384 0.030151615 -0.05637211 0.046759423
-0.051016685 -0.048355974 0.13781714 0.27703768 0.0601097 -0.112547226 -0.13346942 0.29992157
-0.14825884 0.07666523 -0.110252656 0.077657536 0.056133743 -0.018383484 -0.38347507 -0.087834425
-0.17246297 -0.13237922 -0.11403402 -0.038961556 0.1350404 -0.3051555 -0.070957735 0.05032156
0.28716737 0.03591665 -0.047200773 -0.121515185 -0.066719115 -0.029337103 -0.08878728 0.04807533
-0.04459096 0.12240923 -0.23525226 -0.0034845024 -0.14022471 -0.14239281 -0.06342154 0.008536226
0.045294393 0.065967835 -0.2020833 0.44967 -0.07843123 0.036661103 -0.31636828 0.034394737
-0.08026621 0.11751436 0.17409083 0.13923039 0.101347595 0.26375154 -0.0050483574 0.02100359
-0.04651567 0.16279909 0.15283002 -0.14308204 -0.05671342 0.009637923 -0.037728354 -0.21365458
0.24289224 -0.06232168 0.022835484 0.097353406 -0.36949864 -0.025651975 0.22874145 -0.1843038
-0.27695563 0.11299443 0.058872957 -0.34369916 0.48997587 0.023263987 0.43358085 0.03749493
-0.054998834 -0.06452757 0.3230028 -0.07028057 -0.11088547 -0.1410167 -0.0066669118 -0.286389
-0.038473185 -0.12563339 0.325611 -0.31302315 -0.18964759 0.38242593 0.32971904 0.027487254
-0.05209847 -0.15637816 0.09641577 -0.16732047 -0.2058327 -0.084419325 -0.3530143 -0.25833875
-0.013585923 0.031149795 -0.11664923 0.10875175 -0.13081075 0.027645748 0.45241243 0.329637
-0.036154464 0.21030506 0.49428567 -0.055414956 0.10494651 -0.17098685 -0.12519862 -0.02124783
-0.08199908 -0.17732827 -0.009140584 -0.056068458 -0.23300423 0.24413107 0.002037466 0.16768554
0.006250275 0.04869382 -0.27688944 -0.056391004 0.13538826 0.21033704 -0.0035768733 0.045404766
-0.14791197 0.08958174 -0.31084365 0.1919782 -0.07264853 -0.038850848 0.15737173 0.13207206
-0.1149524 0.017571231 0.09529813 0.06530708 0.0875791 -0.058455974 -0.23153244 0.04679041
0.17284787 -0.16890027 0.1467677 -0.0035209525 -0.23476087 -0.10574405 0.18025666 -0.29368126
-0.024715673 -0.19674952 -0.033080827 -0.4279271 0.4315774 0.13243945 -0.096438184 -0.08462393
0.12243584 0.08991632 -0.22867568 -0.023046779 0.3317766 0.010512153 0.06418418 -0.29302695
0.34511068 -0.1777468 0.12983057 -0.4427298 0.011087664 0.3238518 -0.2918543 -0.07169845
-0.45338255 0.52059466 -0.049634304 -0.019548893 0.44476923 0.4882492 0.23671372 0.35228094
-0.38829094 0.19819918 0.01199559 0.09247542 0.04542968 0.112430796 0.053146213 0.063362144
0.07690437 -0.048274495 0.14856066 0.55347013 -0.021201655 -0.0011001822 0.13493837 0.44247013

bias f4 [10]
00000000: 9174 6cbe 66eb 9a3e 4842 dd3d ac57 3bbe
00000010: 1fe6 063e 9dea 963e c668 e23c f3ce e2bb
00000020: 11ec 4ebe e49f ad3c
-0.23091342 0.3025772 0.10803658 -0.18295163 0.13173722 0.2947587 0.02763785 -0.006921643
-0.2020724 0.021194406
