artifacts/1/d2ae28eefab1475a8815e294cf502ebd/artifacts/model/data/model.pth (torch, 362823 bytes, 6 tensors)

weight f4 [100, 784]
-0.00026738644 0.0191587 -0.02939447 -0.026283538 -0.013755513 0.009577049 -0.0007076136 0.028317483
-0.0031694302 0.009450449 -0.010793325 -0.0070201927 -0.034291156 -0.0240083 -0.014699653 0.0013239266
0.014119115 0.021429386 -0.024212183 -0.015552245 0.01297204 0.029656714 -0.0073500066 0.02672542
-0.0057565486 0.003779075 0.032338437 -0.033131085 -0.0224835 -0.009041617 -0.013921428 0.030857172
-0.02314943 -0.016445305 -0.025627377 -0.035057917 -0.02258656 0.029649727 0.014647076 0.014653229
-0.002212879 -0.02071106 0.0053878943 -0.033586644 -0.025287274 -0.018877277 0.021482695 0.019831456
-0.016661935 -0.0017118668 0.022692265 0.035494488 0.0141743645 0.004824745 0.02394594 -0.021028657
0.006655144 -0.027689483 -0.024757134 -0.018454205 0.016115064 0.014315137 -0.022197708 0.0072845165
0.014522992 -0.0088038575 -0.004828955 0.0007106447 0.011058518 0.021967655 -0.037983708 -0.023071902
0.004129767 0.019818848 0.02027607 0.021989018 0.001323736 -0.03563979 0.00077160686 -0.023323521
-0.03360086 0.031691704 0.027155707 -0.035626 0.0066847163 -0.006016429 -0.0058847507 -0.01640181
0.013472455 -0.020137837 0.012038763 0.016450094 0.02427476 0.014524537 -0.030361667 -0.012141406
0.03422424 0.021240624 -0.012600194 -0.010868167 0.03688959 0.02122178 -0.023570025 -0.018760908
-0.042868868 -0.012648741 -0.036772568 -0.032961648 -0.004407173 0.004905987 -0.014800439 0.021192057
-0.021733541 0.03240871 0.024501354 -0.029800238 -0.007727481 0.007117306 0.015546978 0.02316812
0.036671974 0.033532858 0.016763194 0.05307956 -0.0028253451 0.004111451 0.007380626 -0.007350507
-0.011519523 -0.031600077 -0.0064822063 -0.004395124 -0.045202233 -0.026445603 0.0037744644 -0.019295728
-0.0020013442 -0.0035360435 0.007202273 0.022687728 0.03383022 0.02268057 0.03400005 -0.00014714136
-0.024964988 0.0018124123 0.049885854 0.028470622 0.013758733 0.0067194407 -6.00163e-05 0.011747669
0.02090772 0.03800258 0.022596255 -0.02266456 0.031206412 -0.03621673 -0.019267106 -0.03933788
-0.037077446 -0.03698594 -0.060270425 -0.05454289 -0.013950117 -0.000502969 -0.01610657 0.013430205
-0.032144945 -0.0024062507 0.031674072 -0.009272543 0.044594932 0.034550883 -0.0044402746 0.0442283
0.019760603 0.019581884 0.07213137 0.015282838 0.04636725 0.04864633 0.08675035 0.06875747
0.08155043 0.060713656 0.02735496 -0.009732805 -0.038426425 0.001947915 -0.0026729733 -0.0066132476
-0.038644355 -0.0012334116 -0.025143366 -0.019563053 -0.02081212 0.012346737 -0.021000272 0.0052685407
0.018557975 0.044082433 -0.009640559 -0.02202862 -0.013322844 0.048391506 0.017371599 0.06193653
0.0654512 0.07457877 0.08878163 0.081583135 0.08262007 0.05016509 0.03428612 0.023668421
-0.017784344 -0.026281174 0.009312459 -0.05944283 -0.022630207 0.031146972 0.012588747 0.0010009044
-0.031060532 0.01735453 -0.025748126 -0.0061107413 0.0042303973 0.0099611115 0.007934389 0.026204586
0.010913257 0.04401186 0.033712287 -0.023739533 0.02181778 0.0031172947 0.044669576 0.07654735
0.069066234 0.064451426 0.023219377 0.021998778 0.036789794 -0.02327176 0.023643233 -0.055638704
-0.02038842 -0.011403664 -0.019812979 0.0046066656 0.029508965 -0.010882134 -0.021702273 -0.008832919
00000000: 0030 8cb9 b5f2 9c3c accc f0bc 9350 d7bc
00000010: ce5e 61bc 0ee9 1c3c 257f 39ba 11fa e73c
00000020: 37b6 4fbb 0ed6 1a3c 7cd6 30bc a509 e6bb
00000030: e274 0cbd 0ead c4bc d0d6 70bc 9b87 ad3a
00000040: dc53 673c ae8c af3c a158 c6bc d8ce 7ebc
00000050: ae88 543c a3f2 f23c 53d8 f0bb 45ef da3c
00000060: 6ea1 bcbb 5caa 773b 4f75 043d 76b4 07bd
00000070: 512f b8bc 4a23 14bc b316 64bc 2ec8 fc3c
00000080: e0a3 bdbc 4eb8 86bc 81f0 d1bc e498 0fbd
00000090: 7307 b9bc fce3 f23c 4afa 6f3c 1914 703c
000000a0: f305 11bb 3eaa a9bc ef8c b03b 2692 09bd
000000b0: 4227 cfbc 85a4 9abc 7afc af3c 9475 a23c
000000c0: 9c7e 88bc b860 e0ba 21e5 b93c ab62 113d
000000d0: 983b 683c e518 9e3b 472a c43c 4a44 acbc
000000e0: 6513 da3b 0ed5 e2bc 79cf cabc 462d 97bc
000000f0: bd03 843c 098a 6a3c f8d7 b5bc f4b2 ee3b
00000100: d8f1 6d3c 0e3e 10bc 363c 9ebb 8f4a 3a3a
00000110: c92e 353c 83f5 b33c ce94 1bbd 4901 bdbc
00000120: ff52 873b 235b a23c 001a a63c 5022 b43c
00000130: 3681 ad3a 07fb 11bd a945 4a3a f810 bfbc
00000140: 0ea1 09bd 29cf 013d a575 de3c 92ec 11bd
00000150: 770b db3b 7725 c5bb ded4 c0bb 175d 86bc
00000160: 92bb 5c3c 1bf8 a4bc 3b3e 453c 59c2 863c
00000170: dddb c63c 53f8 6d3c 08b9 f8bc bfec 46bc
00000180: b72e 0c3d d100 ae3c 0b71 4ebc 6510 32bc
00000190: 8a19 173d 4cd9 ad3c ed15 c1bc 7ab0 99bc
000001a0: 4497 2fbd aa3c 4fbc d59e 16bd cb02 07bd
000001b0: 0c6a 90bb 67c2 a03b 8a7d 72bc f79a ad3c
000001c0: 8a0a b2bc ffbe 043d 10b7 c83c a11f f4bc
000001d0: cf36 fdbb 4a38 e93b c1b8 7e3c 12cb bd3c
000001e0: 5a35 163d c059 093d f752 893c f469 593d
000001f0: 6d29 39bb 5ab9 863b 2ed9 f13b 86dc f0bb
00000200: 62bc 3cbc 156f 01bd b068 d4bb f904 90bb
00000210: fa25 39bd 73a4 d8bc 015d 773b 1312 9ebc
00000220: fc28 03bb f7bc 67bb 0b01 ec3b 9ddb b93c
00000230: 8f91 0a3d 9acc b93c a343 0b3d f549 1ab9
00000240: 6083 ccbc 778e ed3a 1c55 4c3d 393b e93c
00000250: 4f6c 613c c12e dc3b 03ba 7bb8 4c79 403c
00000260: ab46 ab3c 98a8 1b3d c81b b93c 07ab b9bc
00000270: 97a4 ff3c fe57 14bd 0dd6 9dbc c220 21bd
00000280: 85de 17bd 927e 17bd 1fde 76bd 5e68 5fbd
00000290: 088f 64bc aed9 03ba edf1 83bc 5d0a 5c3c
000002a0: 6baa 03bd 30b2 1dbb acbc 013d ddeb 17bc
000002b0: 2da9 363d 3a85 0d3d b97f 91bb bc28 353d
000002c0: fde0 a13c 306a a03c 9db9 933d de64 7a3c
000002d0: 96eb 3d3d 6041 473d 2baa b13d b7d0 8c3d
000002e0: e903 a73d e2ae 783d 8217 e03c 5876 1fbc
000002f0: 0765 1dbd 2e51 ff3a 0d2d 2fbb f1b3 d8bb
00000300: 8b49 1ebd 6daa a1ba 76f9 cdbc b242 a0bc
00000310: 2e7e aabc f849 4a3c c308 acbc b9a3 ac3b
00000320: e506 983c c88f 343d 6ff3 1dbc 5d75 b4bc
00000330: 0f48 5abc 2c36 463d e24e 8e3c 29b1 7d3d
00000340: 470b 863d c1bc 983d 25d3 b53d 0f15 a73d
00000350: b634 a93d e979 4d3d 9a6f 0c3d 47e4 c13c
00000360: 79b0 91bc 9e4b d7bc 4993 183c 537a 73bd
00000370: fc62 b9bc ef27 ff3c 0841 4e3c c730 833a
00000380: a872 febc 162b 8e3c bced d2bc 9d3c c8bb
00000390: 259f 8a3b ee33 233c 3dff 013c 00ab d63c
000003a0: 84cd 323c c845 343d e515 0a3d 6979 c2bc
000003b0: 33bb b23c 874b 4c3b 72f7 363d dbc4 9c3d
000003c0: 9972 8d3d 1cff 833d 9036 be3c c836 b43c
000003d0: e5b0 163d 6ba4 bebc 74af c13c 69e5 63bd
000003e0: 9e05 a7bc 6fd6 3abc d44e a2bc 83f3 963b
000003f0: c9bc f13c fa4a 32bc f7c8 b1bc f3b7 10bc

bias f4 [100]
-0.02220655 0.0625045 -0.0010190852 -0.06762277 -0.03130212 0.009787964 -0.024222141 0.10439879
0.046246644 0.010460102 -0.051423136 0.03945848 -0.011577234 -0.023026077 -0.08931049 0.0055021388
0.029906396 -0.0072086733 0.031927872 -0.07083912 0.12492247 -0.02326901 0.1560815 -0.123955294
0.032179795 0.008429246 -0.06490446 0.022320298 -0.009431283 0.032110028 0.07999847 0.047333017
0.01973604 -0.016772809 0.045383073 -0.030330688 0.085204676 -0.0049176896 0.09092839 0.038879707
0.013890985 -0.0239408 -0.0009386793 -0.02449138 0.047153458 0.02715551 0.03677952 -0.0051013036
0.016811097 0.11690266 0.009047803 -0.0065093483 0.06548292 0.03637836 0.03790083 -0.06497845
0.052304104 0.04442645 0.01721516 -0.012558604 0.04232672 -0.036991112 0.026620382 0.024682682
0.08733309 0.0345709 -0.015635557 0.012710278 -0.02329541 0.029283635 -0.0273939 -0.007684569
0.08237411 -0.0464121 -0.06676259 0.13108395 -0.0032435183 0.073747575 -0.046793062 0.033686303
0.025267482 0.054431885 0.032109547 -0.013523689 0.060606144 -0.0091381995 -0.0027961505 -0.07329899
-0.012775815 -0.026004713 -0.0009865325 -0.040705103 0.00284099 0.012825756 0.035163026 0.009831774
0.002528105 0.09143503 0.017280445 -0.020730732
00000000: 83ea b5bc 5c02 803d d392 85ba cf7d 8abd
00000010: a736 00bd b25d 203c 836d c6bc 08cf d53d
00000020: 1f6d 3d3d d960 2b3c 11a1 52bd 379f 213d
00000030: 70ae 3dbc 2fa1 bcbc 6be8 b6bd 494b b43b
00000040: 42fe f43c bc36 ecbb cdc6 023d 1a14 91bd
00000050: 5ad7 ff3d a79e bebc d4d3 1f3e 46dc fdbd
00000060: f6ce 033d d21a 0a3c a1ec 84bd 0fd9 b63c
00000070: ab85 1abc ce85 033d 3dd6 a33d 44e0 413d
00000080: 7aad a13c 2167 89bc 9ae3 393d 1078 f8bc
00000090: ca7f ae3d 9224 a1bb aa38 ba3d 5440 1f3d
000000a0: 0497 633c 7f1f c4bc b411 76ba 26a2 c8bc
000000b0: fc23 413d 3b75 de3c 1fa6 163d d628 a7bb
000000c0: 6db7 893c a96a ef3d 3c3d 143c 5f4c d5bb
000000d0: e91b 863d 7a01 153d e73d 1b3d 6c13 85bd
000000e0: d43c 563d 82f8 353d cf06 8d3c 9ac2 4dbc
000000f0: c85e 2d3d fe83 17bd fd12 da3c 5633 ca3c
00000100: b1db b23d 379a 0d3d 2416 80bc c53e 503c
00000110: 04d6 bebc 3ce4 ef3c 2c69 e0bc d6ce fbbb
00000120: c2b3 a83d 9d1a 3ebd d3ba 88bd df3a 063e
00000130: 3591 54bb f808 973d 15aa 3fbd a6fa 093d
00000140: c0fd ce3c f8f3 5e3d 4d85 033d 7692 5dbc
00000150: 263e 783d 63b8 15bc 9f3f 37bb c81d 96bd
00000160: a751 51bc d607 d5bc 8a4e 81ba 65ba 26bd
00000170: e72f 3a3b 1f23 523c 1b07 103d 7315 213c
00000180: 90ae 253b 4a42 bb3d b88f 8d3c 7fd3 a9bc

weight f4 [100, 100]
-0.080873765 0.0089147 -0.042794798 -0.13354756 0.02830203 -0.01486229 0.0053358097 0.021723676
0.046807047 -0.036473125 -0.04701893 -0.058716863 0.020752909 -0.06977909 -0.025223406 0.08009254
0.01754004 0.08194709 0.106759995 -0.12522225 -0.100355834 0.11624858 0.10440547 -0.17139098
0.058171812 0.04897448 0.004757896 0.02521345 0.04144007 -0.07374617 0.10072162 0.045451622
-0.10640342 -0.094932675 0.0671238 0.026304008 0.17067291 0.064855225 -0.0070366403 0.010304363
-0.06629217 -0.13876273 -0.09574841 -0.12241505 0.05467185 -0.058282122 -0.0887579 -0.102629505
-0.08192098 0.10987364 0.0026110662 0.02192206 -0.047239114 -0.05094721 -0.013889187 -0.04910828
0.12087296 -0.11276913 0.033680875 -0.07001677 -0.03929052 -0.0772756 0.01561605 0.08759093
0.016773626 0.013081634 0.04826115 -0.03945144 -0.12747778 0.12640877 0.04130783 0.04205832
0.026300706 0.067178994 -0.011191784 0.09476329 -0.046397645 -0.06548846 -0.1157662 -0.025475388
-0.014879945 -0.066321895 -0.08125078 -0.064280584 -0.05915202 0.012206161 -0.009441005 -0.022364542
0.037129022 -0.009802671 -0.088842265 -0.04885453 0.078094736 -0.1356349 -0.0014025584 0.083420046
0.059496373 0.100826845 -0.05896977 -0.09114519 0.09185307 -0.16975388 0.14650515 0.020296207
-0.008060263 -0.014829643 0.057761777 0.0038366746 -0.021698276 0.063174255 0.109622814 0.19177854
0.042486157 -0.09539422 0.08344845 0.016357897 -0.05510968 -0.03540121 -0.0929026 -0.0451948
0.067374 -0.12608738 0.0320745 -0.033993658 -0.034429424 -0.09080751 -0.034342956 0.07376697
0.024982536 0.08371299 0.07273496 0.16457972 -0.02635325 0.11522337 0.13485809 0.097466744
0.032774154 0.008610322 0.009404307 0.10447255 -0.009395216 0.033126593 -0.052944705 -0.0177921
-0.09009508 -0.017581167 0.08905207 -0.026499273 0.00025003048 -0.0005014976 -0.091591164 -0.062801234
0.048310935 0.11569019 -0.14114588 -0.030983545 -0.017015846 0.0584103 0.11224603 0.0055120806
-0.056557648 -0.01503796 -0.03877681 -0.09862702 0.060349893 0.072457075 0.0042375633 0.046337213
-0.054607604 -0.00977124 0.01731481 0.015939098 -0.01666417 0.015169306 0.13955145 -0.05137625
-0.020101659 -0.04897886 -0.10024563 -0.10403657 0.053490493 -0.06389452 0.051385935 -0.053971566
-0.038357377 0.005096804 0.08536184 0.16649842 0.08744683 -0.008906103 0.072803505 -0.113667004
-0.015900461 0.07243786 0.013845042 0.029417805 0.08008233 0.11657346 0.028489258 -0.036992453
-0.07068437 -0.00025661648 0.05682309 0.03800604 -0.06883475 0.07912061 0.050017916 -0.07955359
0.0020352828 -0.060126927 -0.084565304 -0.0014955195 -0.036133774 0.090684876 -0.070429504 0.04437845
-0.022753712 -0.0644802 -0.020663954 0.025369769 0.050426926 -0.014974689 -0.055191312 -0.028046034
0.03256327 -0.041861057 0.05398113 0.08769123 -0.06553593 0.068906136 -0.07846336 0.004364945
0.028860198 0.10038831 0.013533992 -0.02757256 0.005695643 0.022756098 -0.045096952 0.0064625745
-0.05704166 0.001019298 0.0005932217 0.06713198 -0.06282798 0.073517494 0.032336246 -0.035271462
-0.058561083 -0.036232892 -0.03903806 0.05266902 -0.008019968 0.023143817 -0.07217751 0.01932656
00000000: 25a1 a5bd f60e 123c 9949 2fbd b1c0 08be
00000010: a9d9 e73c f680 73bc 04d8 ae3b daf5 b13c
00000020: bfb8 3f3d d864 15bd ec96 40bd 1881 70bd
00000030: 0102 aa3c 57e8 8ebd 51a1 cebc 8f07 a43d
00000040: 21b0 8f3c e0d3 a73d fca4 da3d 433a 00be
00000050: 5c87 cdbd bc13 ee3d 89d2 d53d 1e81 2fbe
00000060: 9145 6e3d 7799 483d 20e8 9b3b 708c ce3c
00000070: 10bd 293d 3b08 97bd 2347 ce3d 7b2b 3a3d
00000080: 09ea d9bd 106c c2bd 3478 893d 817b d73c
00000090: e1c4 2e3e d1d2 843d 9e93 e6bb a2d3 283c
000000a0: 30c4 87bd d117 0ebe be17 c4bd beb4 fabd
000000b0: 97ef 5f3d 3cb9 6ebd b4c6 b5bd 6b2f d2bd
000000c0: 30c6 a7bd 6e05 e13d 6c1e 2b3b e495 b33c
000000d0: cd7d 41bd 06ae 50bd 798f 63bc c425 49bd
000000e0: 3e8c f73d 80f3 e6bd f5f4 093d f464 8fbd
000000f0: 19ef 20bd ab42 9ebd 76da 7f3c e062 b33d
00000100: d868 893c 5a54 563c 7cad 453d d597 21bd
00000110: 8989 02be 4d71 013e 6632 293d 5845 2c3d
00000120: 9474 d73c 2495 893d bf5d 37bc 4113 c23d
00000130: 750b 3ebd d01e 86bd d416 edbd c3b1 d0bc
00000140: 03cb 73bc c6d3 87bd cf66 a6bd 8aa5 83bd
00000150: 6349 72bd 5afc 473c 72ae 1abc d835 b7bc
00000160: 9a14 183d 629b 20bc eff2 b5bd b01b 48bd
00000170: 22f0 9f3d e0e3 0abe 0dd6 b7ba 21d8 aa3d
00000180: 78b2 733d 4e7e ce3d 498a 71bd 54aa babd
00000190: 761d bc3d f6d3 2dbe 7205 163e 3b44 a63c
000001a0: 310f 04bc 08f8 72bc 9d97 6c3d b870 7b3b
000001b0: 95c0 b1bc 8161 813d ed81 e03d 9861 443e
000001c0: f705 2e3d 0b5e c3bd 05e7 aa3d ff00 863c
000001d0: b0ba 61bd dc00 11bd b843 bebd 2f1e 39bd
000001e0: 61fb 893d 0d1d 01be 8d60 033d ef3c 0bbd
000001f0: de05 0dbd 4af9 b9bd 33ab 0cbd 2313 973d
00000200: 2da8 cc3c b771 ab3d 11f6 943d 9687 283e
00000210: c5e2 d7bc 3bfa eb3d 3d18 0a3e a59c c73d
00000220: 313e 063d 4f12 0d3c 8614 1a3c b4f5 d53d
00000230: 64ee 19bc c0af 073d 8cdc 58bd bdc0 91bc
00000240: c583 b8bd 6106 90bc ef60 b63d 0115 d9bc
00000250: 8616 8339 ef76 03ba 2694 bbbd ef9d 80bd
00000260: b0e1 453d faee ec3d 8c88 10be 34d1 fdbc
00000270: d164 8bbc a43f 6f3d 3fe1 e53d af9e b43b
00000280: fea8 67bd c761 76bc 6fd4 1ebd f7fc c9bd
00000290: 7331 773d 6064 943d 42db 8a3b 17cc 3d3d
000002a0: 39ac 5fbd 8d17 20bc cad7 8d3c b692 823c
000002b0: 4c83 88bc ae88 783c 93e6 0e3e e76f 52bd
000002c0: 3cac a4bc 0f9e 48bd 954d cdbd 2011 d5bd
000002d0: d918 5b3d 21db 82bd 0f7a 523d 4a11 5dbd
000002e0: a01c 1dbd 1703 a73b 30d2 ae3d 907e 2a3e
000002f0: 5317 b33d e7ea 11bc 011a 953d 3fca e8bd
00000300: af41 82bc 4d5a 943d 51d6 623c 9cfd f03c
00000310: 3402 a43d 11be ee3d 4e62 e93c 6685 17bd
00000320: f8c2 90bd 7b8a 86b9 54bf 683d 39ac 1b3d
00000330: 3cf9 8cbd fd09 a23d 96df 4c3d feec a2bd
00000340: 6162 053b a747 76bd 9330 adbd 4f05 c4ba
00000350: 0201 14bd feb8 b93d 583d 90bd 2dc6 353d
00000360: fe65 babc 320e 84bd 7447 a9bc 43d4 cf3c
00000370: 778c 4e3d 6658 75bc 4910 62bd ccc0 e5bc
00000380: 1061 053d 8076 2bbd 511b 5d3d 7697 b33d
00000390: b437 86bd a91e 8d3d 66b1 a0bd d007 8f3b
000003a0: 396c ec3c 6398 cd3d adbd 5d3c d9df e1bc
000003b0: 84a2 ba3b ff6a ba3c 95b7 38bd 01c4 d33b
000003c0: 84a4 69bd f799 853a 6f82 1b3a 7e7c 893d
000003d0: f5ab 80bd 5790 963d 0373 043d cf78 10bd
000003e0: bfdd 6fbd f168 14bd 5fe6 1fbd 78bb 573d
000003f0: 2f66 03bc 1a98 bd3c cdd1 93bd bc52 9e3c

bias f4 [100]
-0.012146429 0.17947116 -0.0016617916 -0.0775533 0.055066712 0.16059418 0.021135146 -0.120424345
-0.054651234 -0.06586169 -0.06332501 0.12811978 0.09785085 -0.052861553 0.040679075 0.18364438
0.0708107 0.13561915 0.13868356 0.10386556 0.0092759915 0.011294401 0.040864274 0.03782446
0.18430899 0.06344855 0.11331376 0.06718544 0.082393065 0.050673373 0.087774396 0.09923845
-0.06456486 0.05042292 -0.062348723 -0.046409126 -0.034760926 -0.04291182 0.028816303 0.025256105
0.15334888 0.07270715 0.17548518 0.013565885 -0.12231736 -0.029454341 -0.06062853 -0.003014477
0.07149153 -0.005461573 0.05158808 -0.12397043 -0.031985585 -0.016996525 0.012376321 0.13378425
0.045458205 0.020232018 0.1134717 0.07045023 -0.05297971 0.036167342 0.08086964 -0.05783958
-0.015867302 0.07564923 0.17223272 -0.08586945 0.11694262 0.18074663 -0.00151079 -0.09688005
-0.06284671 0.034744147 0.0541212 -0.022203468 -0.041404765 0.03996743 -0.07860219 -0.02742223
-0.0020779958 -0.05484964 -0.024271589 -0.03962317 0.09909954 -0.01966476 0.078514606 -0.021463186
-0.062443495 -0.100429714 0.060502317 -0.019072868 0.04195161 -0.045812096 -0.031714078 0.0056320014
0.14265218 -0.10784012 0.0035074132 0.08510193
00000000: d101 47bc 4ac7 373e 79d0 d9ba 44d4 9ebd
00000010: a28d 613d cd72 243e 9d23 ad3c 0aa1 f6bd
00000020: f9d9 5fbd 7ee2 86bd 8bb0 81bd d531 033e
00000030: 0766 c83d 5b85 58bd 1a9f 263d 460d 3c3e
00000040: 3305 913d bfdf 0a3e 1003 0e3e 77b7 d43d
00000050: 54fa 173c 270c 393c 4c61 273d d2ed 1a3d
00000060: 7fbb 3c3e 50f1 813d 0b11 e83d 8598 893d
00000070: b2bd a83d e28e 4f3d 10c3 b33d 873d cb3d
00000080: 953a 84bd 4488 4e3d 6061 7fbd 7f17 3ebd
00000090: 7961 0ebd 4ec4 2fbd 2b10 ec3c e4e5 ce3c
000000a0: 7d07 1d3e 7ce7 943d 63b2 333e 7243 5e3c
000000b0: 8681 fabd 3b4a f1bc 9f55 78bd 888e 45bb
000000c0: 276a 923d fff6 b2bb 064e 533d 35e4 fdbd
000000d0: 5103 03bd 4c3c 8bbc 0dc6 4a3c bdfe 083e
000000e0: 6232 3a3d 9ebd a53c da63 e83d 3648 903d
000000f0: 4101 59bd 3524 143d fb9e a53d 32e9 6cbd
00000100: 25fc 81bc fced 9a3d c65d 303e 52dc afbd
00000110: 9d7f ef3d a515 393e b305 c6ba 0c69 c6bd
00000120: c7b5 80bd e14f 0e3d 31ae 5d3d 0ce4 b5bc
00000130: 0b98 29bd e3b4 233d 2ffa a0bd 96a4 e0bc
00000140: fc2e 08bb 04aa 60bd 36d5 c6bc e84b 22bd
00000150: b3f4 ca3d fe17 a1bc 44cc a03d 90d3 afbc
00000160: c0c4 7fbd 18ae cdbd 47d1 773d b43e 9cbc
00000170: 74d5 2b3d 77a5 3bbd 9fe6 01bd a78c b83b
00000180: 6a13 123e 48db dcbd a1dc 653b ec49 ae3d

weight f4 [10, 100]
-0.02839272 -0.24436498 0.023077216 0.04858615 0.35239717 0.02924967 0.20718229 0.1476642
-0.08645566 0.27943727 0.029365027 -0.17951882 -0.15948713 -0.04658945 -0.021486517 0.012135039
0.38763323 0.009185385 0.31466576 -0.037245154 0.47635707 0.029370662 -0.0049163206 0.15798537
-0.13625675 -0.09737748 -0.098951645 -0.20879555 -0.06401954 -0.10907098 -0.22030376 -0.29342434
0.13202807 0.09021905 0.025622573 -0.32595697 -0.1495982 0.117830016 -0.098774694 0.16841578
0.06583 -0.29973435 -0.15483399 -0.035476547 0.16382687 0.044183947 -0.056617506 0.050463375
-0.028935283 -0.048092898 0.13156842 0.2933567 0.06690917 -0.07108024 -0.1492357 0.22177519
-0.13893321 0.07654279 -0.11426383 0.03138384 0.05649843 0.0060337516 -0.3003812 -0.08781636
-0.10005299 -0.0793109 -0.106575124 -0.051140063 0.10695635 -0.28575593 -0.06162499 0.050362114
0.23449872 -0.015078288 -0.042172804 -0.12168093 -0.06436564 -0.029723648 -0.09920116 0.046287686
-0.0172463 0.08489899 -0.20373313 -0.0427373 -0.08860301 -0.13426256 -0.025757236 -0.012944059
0.03436667 0.06631339 -0.10189359 0.41167328 -0.052336402 0.0366608 -0.25598562 0.019055936
0.0067256866 0.08356566 0.14470638 0.027282914 0.0889092 0.2111209 -0.0033262826 0.03617002
-0.089936875 0.13902351 0.0306576 -0.12349282 0.0055052773 0.010124336 -0.033563532 -0.1676347
0.21813555 -0.054350656 0.022765895 0.07836999 -0.34071413 -0.073796704 0.13431156 -0.14542766
-0.28318852 0.072937846 0.037989683 -0.31410146 0.35936457 0.017795451 0.37112284 0.09930015
-0.0566188 -0.12753811 0.29651514 -0.07139608 -0.01778504 -0.15294258 -0.00433106 -0.19559447
-0.041549053 -0.1329761 0.20473872 -0.27390885 -0.11694111 0.2979831 0.26351133 0.023685738
-0.013861807 -0.14637247 0.10182042 -0.1312867 -0.18795575 -0.08490023 -0.31929225 -0.26538816
0.008673267 0.025654798 -0.068527356 0.020142095 -0.113200225 0.027830977 0.36361748 0.26802173
-0.036294665 0.23050083 0.40340063 -0.06253138 0.066736445 -0.13449702 -0.117399774 -0.022262583
-0.11651956 -0.12665173 0.0034493587 -0.05575065 -0.19722648 0.19054836 0.010256885 0.15645793
0.04114026 0.0488629 -0.21829428 -0.05629254 0.011396123 0.18651763 -0.007715194 0.03285065
-0.113940656 0.079912625 -0.27422616 0.18085773 -0.049949486 -0.035699725 0.14780438 0.041192587
-0.098172694 0.017570857 0.11016806 0.06736345 -0.034388077 -0.025236772 -0.22461797 0.040265072
0.13115348 -0.11774491 0.12405207 -0.0090168575 -0.17096372 -0.1077094 0.119471036 -0.2317447
-0.05756303 -0.15372927 -0.0435243 -0.3142121 0.28726882 0.11375101 -0.096224435 -0.035923865
0.15341768 0.02603177 -0.16027142 -0.023029905 0.26501513 -0.047960658 0.068421975 -0.25186166
0.29442406 -0.092777416 0.09163106 -0.27336413 0.014311138 0.2741064 -0.1948089 -0.056085955
-0.34754044 0.3952248 -0.052471682 0.0035933997 0.31566042 0.3875984 0.16608094 0.24696794
-0.29624018 0.14417055 -0.011322674 0.09404603 -0.008121252 0.094395906 0.01510085 0.028586617
0.059402514 -0.05048596 0.12094057 0.4396612 -0.019962203 -0.0032979855 0.08899244 0.32447812
00000000: d997 e8bc d03a 7abe 6e0c bd3c 4502 473d
00000010: 676d b43e 019d ef3c 9827 543e 4935 173e
00000020: aa0f b1bd 6712 8f3e ed8e f03c c8d3 37be
00000030: 9850 23be 94d4 3ebd 7e04 b0bc 0bd2 463c
00000040: dd77 c63e 4c7e 163c df1b a13e 608e 18bd
00000050: 13e5 f33e be9a f03c 1619 a1bb ebc6 213e
00000060: e486 0bbe d86d c7bd 29a7 cabd 80ce 55be
00000070: ad1c 83bd 9b60 dfbd 4f97 61be b73b 96be
00000080: 5e32 073e c4c4 b83d 6ee6 d13c d5e3 a6be
00000090: 4530 19be dd50 f13d 634a cabd 3075 2c3e
000000a0: e1d1 863d c876 99be cd8c 1ebe db4f 11bd
000000b0: 3bc2 273e 3afa 343d c2e7 67bd afb2 4e3d
000000c0: b009 edbc 0ffd 44bd dfb9 063e d932 963e
000000d0: ad07 893d 8492 91bd 3ed1 18be 0919 633e
000000e0: 8244 0ebe 77c2 9c3d 2803 eabd 578c 003d
000000f0: e66a 673d c7b6 c53b 91cb 99be 10d9 b3bd
00000100: 95e8 ccbd c16d a2bd 0f44 dabd 3e78 51bd
00000110: ee0b db3d 9a4e 92be 7c6a 7cbd 8148 4e3d
00000120: 6f20 703e ec0a 77bc 64bd 2cbd da33 f9bd
00000130: 22d2 83bd 027f f3bc fa29 cbbd 2898 3d3d
00000140: 1d48 8dbc 86df ad3d 6b9f 50be 4f0d 2fbd
00000150: 7f75 b5bd 207c 09be d700 d3bc 5213 54bc
00000160: 11c4 0c3d 51cf 873d 96ad d0bd d7c6 d23e
00000170: b25e 56bd a329 163d 8c10 83be 321b 9c3c
00000180: 2663 dc3b 7924 ab3d e92d 143e 6b80 df3c
00000190: 0716 b63d 1430 583e c3fd 59bb 0427 143d
000001a0: d330 b8bd 2e5c 0e3e a625 fb3c cee9 fcbd
000001b0: 9d65 b43b 8be0 253c ea79 09bd 6ea8 2bbe
000001c0: ed5e 5f3e cb9e 5ebd 8b7f ba3c 7280 a03d
000001d0: 1572 aebe ba22 97bd f888 093e fdea 14be
000001e0: 16fe 90be 7060 953d 129b 1b3d e8d1 a0be
000001f0: a2fe b73e c4c7 913c d003 be3e e15d cb3d
00000200: 1de9 67bd 5a99 02be d5d0 973e 1c38 92bd
00000210: efb1 91bc fb9c 1cbe 91eb 8dbb eb49 48be
00000220: 572f 2abd e32a 08be 07a7 513e c83d 8cbe
00000230: d27e efbd 3e91 983e f5ea 863e 9808 c23c
00000240: a21c 63bc aae2 15be 3987 d03d 0570 06be
00000250: 7977 40be 2ce0 adbd 467a a3be f5e0 87be
00000260: 521a 0e3c 032a d23c 1258 8cbd 0901 a53c
00000270: 85d5 e7bd cafd e33c 122c ba3e 253a 893e
00000280: b7a9 14bd 6908 6c3e 878a ce3e 7410 80bd
00000290: 1ead 883d 96b9 09be 4b6f f0bd 0560 b6bc
000002a0: cfa1 eebd feb0 01be a30e 623b cb5a 64bd
000002b0: bdf5 49be 1c1f 433e 7e0c 283c 8236 203e
000002c0: b082 283d 7724 483d 8988 5fbe 0293 66bd
000002d0: ceb6 3a3c 7afe 3e3e bdcf fcbb 678e 063d
000002e0: b859 e9bd 3ba9 a33d 5f67 8cbe c532 393e
000002f0: d597 4cbd e039 12bd 085a 173e 8fb9 283d
00000300: c40e c9bd c2f0 8f3c cb9f e13d d9f5 893d
00000310: 83da 0cbd 59bd cebc 4102 66be fdec 243d
00000320: 194d 063e 3e24 f1bd 030f fe3d 71bb 13bc
00000330: 1d11 2fbe bf96 dcbd 3bad f43d 7c4e 6dbe
00000340: 36c7 6bbd 356b 1dbe 8946 32bd 69e0 a0be
00000350: e614 933e 4af6 e83d 5111 c5bd e724 13bd
00000360: 8619 1d3e 9440 d53c 311e 24be 36a9 bcbc
00000370: 10b0 873e 6572 44bd d220 8c3d 03f4 80be
00000380: c0be 963e 1602 bebd 11a9 bb3d 62f6 8bbe
00000390: 4379 6a3c ad57 8c3e fc7b 47be 63ba 65bd
000003a0: d2f0 b1be e85a ca3e 8cec 56bd 3e7f 6b3b
000003b0: 3e9e a13e 4c73 c63e 1f11 2a3e 2ae5 7c3e
000003c0: cbac 97be 72a1 133e bd82 39bc 349b c03d
000003d0: 000f 05bc a452 c13d 8e69 773c 7b2e ea3c
000003e0: 0d50 733d 5eca 4ebd b1af f73d 461b e13e
000003f0: c687 a3bc 0423 58bb ab41 b63d ff21 a63e

bias f4 [10]
-0.19677784 0.30488718 0.11450853 -0.13567157 0.12282024 0.30587605 0.024018103 0.0074077547
-0.2798437 -0.004138747
00000000: 2180 49be 2c1a 9c3e 7383 ea3d 7ded 0abe
00000010: 2e89 fb3d c99b 9c3e 9dc1 c43c c0bc f23b
00000020: ac47 8fbe 549e 87bb
