artifacts/1/01b5f99883924c9e8837a211af503305/artifacts/model/data/model.pth (torch, 362887 bytes, 6 tensors)

weight f4 [100, 784]
-0.03328408 0.031731877 0.027155709 -0.035626 0.006684717 -0.0060164295 -0.0058771838 -0.01634846
0.013734151 -0.021153698 0.013092548 0.018061005 0.025498215 0.013204805 -0.03534647 -0.023167698
0.017832682 0.0074750483 -0.027860144 -0.020564983 0.03359819 0.024064925 -0.015572328 -0.008988744
-0.034021363 -0.0006419346 -0.026894962 -0.027548455 -0.0019678436 0.0053623244 -0.014626082 0.021192059
-0.021734037 0.03240258 0.02423299 -0.030666934 -0.009628566 0.001111213 0.0045076474 0.007211175
0.012254002 0.0011965461 -0.01770007 0.016472954 -0.03470323 -0.02154852 -0.009186437 -0.0176241
-0.012752811 -0.02949765 -0.007764853 0.007585463 -0.023266636 -0.0018328354 0.025566101 -0.0036714375
0.0009925775 -0.0030810311 0.0072272415 0.022703134 0.03380842 0.022662003 0.03352714 -0.003901769
-0.034081433 -0.019452414 0.019983606 -0.005250857 -0.023126004 -0.031658232 -0.037182022 -0.03351234
-0.010265703 0.016726332 0.016416937 -0.03664307 0.02108018 -0.02890508 -0.008142205 -0.0146997105
-0.006935049 -0.0070270346 -0.032048214 -0.030837068 -0.005588554 0.00046186522 -0.016225403 0.013427995
-0.0322497 -0.002264979 0.030653538 -0.016901927 0.0281786 0.0073935036 -0.039006572 0.016277522
-0.007877886 -0.019152079 0.02717643 -0.029791292 0.00345221 -0.0092208525 0.022073522 0.0056661535
0.013636422 0.009047894 -0.010894607 -0.008637637 -0.030086728 0.01927732 0.028254628 0.024436604
-0.025192082 0.0015930954 -0.025161603 -0.019553535 -0.020229252 0.012960156 -0.021261154 -0.0011604929
0.0014084966 0.021135867 -0.030012457 -0.026800882 -0.018289208 0.031834 -0.008206287 0.030311624
0.011624018 -0.0012862177 -0.0049490035 -0.011592319 0.0004959684 -0.014863661 -0.0057108514 0.0006611156
-0.029131738 -0.019042388 0.02878819 -0.029021993 -0.0025645085 0.035329957 0.012964372 0.0014141665
-0.029442372 0.021455934 -0.02266387 -0.010800669 -0.015564305 -0.011653891 -0.008272866 0.02812259
0.011084633 0.044080526 0.031982586 -0.012937391 0.018118748 -0.033570595 -0.025232874 -0.00066557294
-0.0023079887 0.01272653 -0.024062471 -0.009050897 0.014963313 -0.035610907 0.025409339 -0.029576235
0.0004922338 -0.006071614 -0.01866308 0.0063637774 0.032566983 -0.0068374337 -0.018859237 -0.015812125
-0.037792023 0.017626356 -0.009527799 -0.014845455 -0.0111025 0.034693718 0.03211629 0.043842915
0.032559007 -0.0012055885 -0.0076980754 0.000987228 0.02068371 0.0002716918 -0.03416269 -0.034442693
-0.045188006 0.0033459933 -0.021377183 -0.03210008 0.03131785 -0.023156293 -0.0034654487 0.013634574
0.0076985387 -0.017116614 -0.02200818 0.031136109 0.008691737 0.043911424 0.0034553348 0.015954025
-0.0020417043 0.0045080963 -0.014982016 0.030916456 0.03325783 0.01926103 0.0023446234 -0.017004983
0.028097557 -0.035446234 -0.0045385384 -0.03919868 -0.04054342 -0.005329491 -0.020846516 0.007957518
0.0069141854 -0.026280906 0.0070320587 0.019734303 0.025287729 0.006616264 -0.018101765 0.0051264246
0.0264507 0.0015502339 0.018357733 0.018011767 -0.028892888 -0.008030629 0.020667246 0.0209755
0.0204064 0.024411097 -0.004893956 0.012633026 0.024670428 0.020985713 -0.0023316457 -0.036373112
-0.021148983 -0.035849053 -0.03332708 -0.030973556 0.035657093 0.023115875 -0.023242995 0.019757042
00000000: e354 08bd 49f9 013d a675 de3c 92ec 11bd
00000010: 780b db3b 7825 c5bb 6495 c0bb 35ed 85bc
00000020: 3405 613c 854a adbc 2082 563c acf4 933c
00000030: a2e1 d03c f758 583c 76c7 10bd 2fca bdbc
00000040: d815 923c 40f1 f43b f53a e4bc e577 a8bc
00000050: 419e 093d ce23 c53c 1423 7fbc 8645 13bc
00000060: fc59 0bbd 8047 28ba d352 dcbc 4cad e1bc
00000070: f0f6 00bb 70b6 af3b 3ca2 6fbc f89a ad3c
00000080: 940b b2bc 91b8 043d 4384 c63c 3939 fbbc
00000090: 22c1 1dbc 1fa6 913a e3b4 933b b84b ec3b
000000a0: 02c5 483c 6dd5 9c3a bdff 90bc 4af2 863c
000000b0: f924 0ebd 8686 b0bc b682 16bc 6b60 90bc
000000c0: 2bf1 50bc 0ea5 f1bc 4f70 febb 7a8f f83b
000000d0: ac99 bebc c03b f0ba 0070 d13c 809c 70bb
000000e0: 6019 823a 20eb 49bb 7fd2 ec3b ecfb b93c
000000f0: b37a 0a3d aaa5 b93c c153 093d d2b4 7fbb
00000100: f998 0bbd ab5a 9fbc a9b4 a33c 620f acbb
00000110: bf72 bdbc 10ac 01bd 2d4c 18bd 3c44 09bd
00000120: 7b31 28bc a905 893c d07c 863c 0b17 16bd
00000130: 57b0 ac3c 59ca ecbc e266 05bc 0ed7 70bc
00000140: 683f e3bb 0a43 e6bb fd44 03bd 059e fcbc
00000150: 3020 b7bb 8026 f239 23eb 84bc 1801 5c3c
00000160: 4318 04bd 0b70 14bb 211d fb3c e975 8abc
00000170: cfd6 e63c 3445 f23b 5bc5 1fbd 7058 853c
00000180: 4012 01bc d2e4 9cbc 1ba1 de3c de0c f4bc
00000190: 793e 623b 0f13 17bc 88d3 b43c 24ab b93b
000001a0: 4d6b 5f3c 9e3d 143c 4b7f 32bc e084 0dbc
000001b0: 7178 f6bc 78eb 9d3c 4076 e73c 462f c83c
000001c0: a05f cebc 69cf d03a b51f cebc bc2e a0bc
000001d0: d1b7 a5bc d656 543c df2b aebc ae1b 98ba
000001e0: 4e9d b83a 2025 ad3c afdc f5bc 868d dbbc
000001f0: 40d3 95bc 5e64 023d aa73 06bc 1550 f83c
00000200: aa72 3e3c 4e96 a8ba 402b a2bb b6ed 3dbc
00000210: e003 023a b686 73bc 1822 bbbb b84e 2d3a
00000220: afa5 eebc c8fe 9bbc 36d5 eb3c 88bf edbc
00000230: 5011 28bb 25b6 103d 8468 543c 8e5b b93a
00000240: 2131 f1bc 5bc4 af3c 95a9 b9bc 4af5 30bc
00000250: 6d01 7fbc f6ef 3ebc ea8a 07bc 5961 e63c
00000260: 529c 353c c88d 343d 2c00 033d 5af7 53bc
00000270: c56d 943c 5281 09bd 2cb5 cebc d879 2eba
00000280: a041 17bb f082 503c a91e c5bc 374a 14bc
00000290: af28 753c bedc 11bd 3f27 d03c dc49 f2bc
000002a0: 4009 013a 64f4 c6bb 51e3 98bc 3c87 d03b
000002b0: f564 053d 8d0c e0bb b07e 9abc 6e88 81bc
000002c0: cfcb 1abd 2665 903c 7c1a 1cbc 5a3a 73bc
000002d0: 43e7 35bc 001b 0e3d 5f8c 033d a194 333d
000002e0: 985c 053d d604 9eba 2340 fcbb e065 813a
000002f0: e270 a93c db71 8e39 2dee 0bbd c813 0dbd
00000300: 0f17 39bd 7448 5b3b 341f afbc 607b 03bd
00000310: 2547 003d 44b2 bdbc 951c 63bb 8c63 5f3c
00000320: 0644 fc3b 2438 8cbc 804a b4bc 2711 ff3c
00000330: ca67 0e3c 77dc 333d e672 623b 04b2 823c
00000340: 1dce 05bb a7b8 933b 2177 75bc 8244 fd3c
00000350: 5d39 083d 4fc9 9d3c 41a8 193b 094e 8bbc
00000360: d92c e63c 1230 11bd 05b8 94bb cc8e 20bd
00000370: db10 26bd 03a3 aebb 50c6 aabc 4060 023c
00000380: 6490 e23b 0e4b d7bc 2f6d e63b d5a9 a13c
00000390: 3628 cf3c 3fcd d83b 274a 94bc 91fb a73b
000003a0: 23af d83c 3831 cb3a f562 963c 6a8d 933c
000003b0: c7b0 ecbc e692 03bc 5b4e a93c d0d4 ab3c
000003c0: 532b a73c c8f9 c73c 7a5d a0bb c0fa 4e3c
000003d0: a319 ca3c 3bea ab3c 86ce 18bb f9fb 14bd
000003e0: a240 adbc 75d6 12bd fa81 08bd 41bc fdbc
000003f0: 2c0d 123d 815d bd3c 1868 bebc 85d9 a13c

bias f4 [100]
-0.0048844977 -0.035293262 -0.03820091 0.019456085 0.05239788 0.010220203 -0.053615354 0.044811778
0.0032555105 0.04804159 0.027980521 -0.034877535 0.019563064 0.049194403 -0.06603322 0.13739553
0.02953867 0.00997628 -0.01520027 0.015479001 -0.037247747 0.025520882 -0.071901545 0.045392673
-0.02446381 0.042527534 -0.095179 0.044983912 0.0043510655 -0.02101261 0.048086207 -0.083922446
0.018537724 0.02040444 0.13411273 0.07881829 0.0060876077 0.059791543 0.046210974 0.079898596
0.005639182 0.07502029 0.0049262824 0.0011337951 0.10787205 0.15731284 0.009631659 0.014631265
0.054282255 0.0075287633 0.14639959 0.048855633 0.040717762 0.0034525995 0.034534324 -0.01529731
0.031110572 -0.004924592 -0.02316299 -0.031135913 -0.030351186 -0.00028997503 0.03948394 -0.04339481
0.018219253 -0.10178326 -0.061078556 -0.03541833 -0.04297223 0.008781333 -0.05347835 0.008731135
-0.0015212224 -0.0050720917 0.01767429 -0.014640249 0.048907366 -0.001002595 0.032964166 -0.008314189
-0.0020750673 0.003560952 0.037015215 0.09516568 0.0737037 -0.032282874 0.033293676 -0.027276965
0.026446475 -0.008432274 0.04424764 0.012116908 0.057969347 0.07484147 0.0614371 0.038264327
-0.022802355 -0.02292422 -0.030513773 -0.0341895
00000000: 230e a0bb ab8f 10bd 8f78 1cbd 5e62 9f3c
00000010: 299f 563d a372 273c c69b 5bbd 8e8c 373d
00000020: 675a 553b 42c7 443d 6837 e53c bfdb 0ebd
00000030: b842 a03c 1280 493d 6d3c 87bd 6ab1 0c3e
00000040: 15fb f13c 8d73 233c 8e0a 79bc a39b 7d3c
00000050: 1891 18bd 2b11 d13c 1e41 93bd abed 393d
00000060: 5468 c8bc 5a31 2e3d 35ed c2bd 0d41 383d
00000070: 6293 8e3b a322 acbc 0bf6 443d 88df abbd
00000080: 6ddc 973c 3627 a73c d954 093e 7c6b a13d
00000090: 8e7a c73b fae7 743d b847 3d3d e0a1 a33d
000000a0: e3c8 b83b 3da4 993d a76c a13b da9b 943a
000000b0: 05ec dc3d 9e16 213e 1bce 1d3c f9b7 6f3c
000000c0: 1257 5e3d d8b3 f63b c6e9 153e d81c 483d
000000d0: abc7 263d 0245 623b dd73 0d3d 92a1 7abc
000000e0: 99db fe3c 795e a1bb 50c0 bdbc be10 ffbc
000000f0: 0da3 f8bc ca07 98b9 e9b9 213d c2be 31bd
00000100: 8b40 953c be73 d0bd 822d 7abd d012 11bd
00000110: a603 30bd 95df 0f3c 1d0c 5bbd 090d 0f3c
00000120: c163 c7ba ca33 a6bb acc9 903c a8dd 6fbc
00000130: 1753 483d 8169 83ba 6f05 073d 3c38 08bc
00000140: dafd 07bb dc5e 693b 449d 173d 39e6 c23d
00000150: f7f1 963d 0c3b 04bd f35e 083d f173 dfbc
00000160: 47a6 d83c 8527 0abc 033d 353d ff85 463c
00000170: 4471 6d3d 7c46 993d 78a5 7b3d 0ebb 1c3d
00000180: 01cc babc 93cb bbbc 05f8 f9bc 4a0a 0cbd

weight f4 [100, 100]
-0.013310771 -0.08141386 -0.08892229 -0.07067566 -0.08527463 0.02247411 -0.017918125 0.03479981
0.036982317 0.0018429393 -0.04561272 -0.05291254 0.08771414 -0.09749579 -0.04252364 0.08282412
0.018938592 0.085740246 -0.09113838 -0.046521794 0.028462993 -0.09770177 0.09971053 0.010318263
0.0019384159 -0.028039798 0.056827936 0.0075198566 -0.07620722 0.047019847 0.09204946 0.087488756
0.04358008 -0.08909594 0.049421523 0.029676879 -0.0965888 -0.035619285 -0.09412447 -0.045451287
-0.03394963 -0.065889634 0.03615532 -0.034093175 -0.0824396 -0.08123104 -0.036252055 0.03220907
-0.017513944 0.0062117474 0.049446434 0.08680693 -0.05644304 0.09922943 0.09153697 0.06810486
0.06409263 0.04785454 -0.091125585 0.064927444 0.0006372362 0.024133934 -0.052915692 -0.08052934
-0.075233005 -0.024435867 0.08241844 -0.05287558 -0.016905798 0.007710385 -0.06670292 -0.0632866
0.02699928 0.07590871 -0.09627928 -0.024128098 -0.02491133 -0.015769824 0.086565815 0.011238913
-0.038451485 -0.009378357 -0.010769027 -0.09597729 -0.010688638 0.020211106 0.010140583 0.016599052
-0.07653248 -0.019227091 0.003651843 -0.048560888 -0.039444976 0.046179034 0.06680524 -0.06654008
-0.010159534 -0.04812628 -0.099487394 -0.072692394 0.052557375 -0.052499413 0.058641918 -0.031909745
-0.051652815 -0.00029619955 0.06296669 0.07988879 0.111794755 -0.015220006 0.058455538 -0.08119934
-0.0019274459 0.0072249747 0.012934631 0.046691176 0.055425707 0.06841434 0.0012505288 -0.055236526
-0.056047067 -0.014700071 0.05760892 0.044479094 -0.07555376 0.054619588 0.059796542 -0.085214555
0.012147055 -0.06778618 -0.08147639 0.015594443 -0.028897863 0.10445235 -0.04698805 0.046601586
-0.022360677 -0.050965987 -0.007235633 0.045593288 0.03013698 0.00045048198 -0.09470542 -0.019128034
0.052210845 -0.02553955 0.04231742 0.09458857 -0.07140674 0.09767638 -0.056519993 0.039615713
-0.0036988745 0.08780585 0.0228122 -0.018941514 -0.004803342 0.021477908 -0.037240718 0.017206185
-0.05363262 -0.010387849 0.0039673266 0.034688685 -0.06502793 0.08275659 0.036652204 -0.026723752
-0.060774747 -0.028345106 -0.028991817 0.037640404 0.0030056394 0.015137898 -0.06943659 0.011589594
0.07622915 0.09161096 -0.05368655 0.01659841 0.024380874 0.07994209 -0.023469675 0.09958434
0.0006204719 -0.0924692 0.09825367 -0.00694237 -0.044641547 -0.080217466 0.095525764 -0.029992698
-0.050680786 0.09376155 0.0018166602 0.03852192 0.0025055504 0.06591282 -0.06105932 0.059210923
0.12379605 -0.05439661 0.14965606 0.0005663328 0.08750991 0.20273751 -0.10830251 -0.13761501
-0.12824184 0.18925779 -0.10187304 -0.021169707 0.12975822 -0.018460268 0.15991215 -0.07998896
0.09696481 -0.058413915 0.091521904 -0.081793584 -0.14502954 -0.027716754 0.017533718 0.083870105
0.07531617 0.056681063 0.12763982 -0.14309166 -0.01845864 0.13227886 0.05274232 -0.030442724
0.06164535 -0.029618451 0.039859906 -0.04412348 -0.03228231 0.21628876 -0.019297266 0.11940817
0.01994977 0.13948633 0.010947133 -0.028066518 0.1513856 0.10607069 -0.07564824 0.08796475
0.07704756 0.15385057 -0.0028010467 -0.054431863 -0.048857536 -0.08905442 -0.11134244 0.091702305
00000000: 6c15 5abc 4fbc a6bd e41c b6bd 67be 90bd
00000010: 77a4 aebd a01b b83c 08c9 92bc 3f8a 0e3d
00000020: c57a 173d c88e f13a 67d4 3abd d2ba 58bd
00000030: 79a3 b33d dfab c7bd 452d 2ebd b19f a93d
00000040: 1b25 9b3c 9598 af3d c2a6 babd a38d 3ebd
00000050: 392b e93c de17 c8bd 0935 cc3d ef0d 293c
00000060: 7212 fe3a b8b3 e5bc 69c4 683d 2169 f63b
00000070: 8812 9cbd e297 403d 6d84 bc3d 4e2d b33d
00000080: 0781 323d ef77 b6bd 396e 4a3d ed1c f33c
00000090: 59d0 c5bd 87e5 11bd 55c4 c0bd 212b 3abd
000000a0: c40e 0bbd 25f1 86bd 9a17 143d 49a5 0bbd
000000b0: 18d6 a8bd 765c a6bd 097d 14bd a8ed 033d
000000c0: 6779 8fbc ea8b cb3b 5888 4a3d d5c7 b13d
000000d0: d130 67bd cd38 cb3d bc77 bb3d 907a 8b3d
000000e0: ff42 833d 1f03 443d 0da0 babd aef8 843d
000000f0: 330c 273a 87b4 c53c 20be 58bd 91ec a4bd
00000100: c313 9abd ba2d c8bc 00cb a83d 1094 58bd
00000110: 077e 8abc 66a7 fc3b 8a9b 88bd 689c 81bd
00000120: 982d dd3c 0776 9b3d 122e c5bd 4aa8 c5bc
00000130: d812 ccbc b82f 81bc 6b49 b13d 6b23 383c
00000140: 4e7f 1dbd aea7 19bc 9370 30bc be8f c4bd
00000150: 661f 2fbc c391 a53c b024 263c bcfa 873c
00000160: 10bd 9cbd 2282 9dbc c253 6f3b c8e7 46bd
00000170: 0e91 21bd 3a26 3d3d 30d1 883d 2a46 88bd
00000180: 2d74 26bc 1020 45bd 0cc0 cbbd c0df 94bd
00000190: 6746 573d a009 57bd 8232 703d cbb3 02bd
000001a0: e791 53bd 3b4b 9bb9 aef4 803d bc9c a33d
000001b0: a6f4 e43d 555d 79bc 136f 6f3d d74b a6bd
000001c0: 5aa2 fcba 7bbf ec3b c6eb 533c 3f3f 3f3d
000001d0: 1106 633d d11c 8c3d c9e8 a33a b23f 62bd
000001e0: 9c91 65bd 91d8 70bc 55f7 6b3d b62f 363d
000001f0: eebb 9abd cab8 5f3d 38ed 743d f884 aebd
00000200: 7104 473c 7bd3 8abd 18dd a6bd d67f 7f3c
00000210: 36bb ecbc 1deb d53d 8b76 40bd 4ee1 3e3d
00000220: bd2d b7bc b6c1 50bd e418 edbb 07c0 3a3d
00000230: d4e1 f63c ab2e ec39 eaf4 c1bd 65b2 9cbc
00000240: 0adb 553d 5238 d1bc 0855 2d3d a7b7 c13d
00000250: b23d 92bd 8e0a c83d 8281 67bd 1644 223d
00000260: d168 72bb 8ed3 b33d a7e0 ba3c 3c2b 9bbc
00000270: 5a65 9dbb 70f2 af3c b989 18bd fcf3 8c3c
00000280: e1ad 5bbd cc31 2abc 5900 823b b915 0e3d
00000290: 5d2d 85bd 497c a93d 9f20 163d c5eb dabc
000002a0: f1ee 78bd ff33 e8bc 3f80 edbc d32c 1a3d
000002b0: 43fa 443b f204 783c c534 8ebd 48e2 3d3c
000002c0: 071e 9c3d 879e bb3d 6ee6 5bbd 64f9 873c
000002d0: 66ba c73c aeb8 a33d 7a43 c0bc e0f2 cb3d
000002e0: 2aa7 223a 7e60 bdbd 3839 c93d d27c e3bb
000002f0: 0eda 36bd 0e49 a4bd 03a3 c33d 3fb3 f5bc
00000300: a896 4fbd 0e06 c03d 001d ee3a 29c9 1d3d
00000310: 2934 243b 4dfd 863d 5619 7abd 2787 723d
00000320: c988 fd3d fbce 5ebd 703f 193e f375 143a
00000330: 6538 b33d 6c9a 4f3e b5cd ddbd f3ea 0cbe
00000340: d451 03be cbcc 413e d0a2 d0bd 186c adbc
00000350: 57df 043e fd39 97bc 03c0 233e 40d1 a3bd
00000360: 7c95 c63d 6e43 6fbd d66f bb3d 6583 a7bd
00000370: a082 14be 3f0e e3bc dfa2 8f3c 17c4 ab3d
00000380: 5d3f 9a3d 672a 683d 03b4 023e 9f86 12be
00000390: 9336 97bc 1c74 073e 5508 583d 0563 f9bc
000003a0: d67f 7c3d 65a2 f2bc 2444 233d d2ba 34bd
000003b0: 753a 04bd cd7a 5d3e 4d15 9ebc 458c f43d
000003c0: b36d a33c 81d5 0e3e 9b5b 333c c1eb e5bc
000003d0: d404 1b3e 973b d93d 77ed 9abd dd26 b43d
000003e0: 1ccb 9d3d 018b 1d3e c491 37bb f2f3 5ebd
000003f0: d71e 48bd 2a62 b6bd 8107 e4bd 6bce bb3d

bias f4 [100]
0.0037087218 -0.0764421 -0.017987885 -0.04871682 0.036550477 -0.05134311 0.07239083 -0.03677906
-0.07067585 -0.1112001 0.039166696 -0.05482632 -0.0004304269 -0.04586821 -0.041498084 0.010859757
0.081310645 -0.115795165 -0.03229066 0.056050412 0.013316714 -0.07522964 0.10045651 -0.0023295095
0.15798281 -0.0027141033 0.09253336 0.025417017 0.033006363 0.079649374 -0.002663004 -0.06977149
0.076170094 -0.036324486 -0.023670623 0.11602245 0.23961738 0.046795055 0.08831732 0.12703368
0.13223334 0.060119364 0.0029805477 0.02647617 0.20484422 -0.03779672 0.10719655 -0.04960377
-0.051998448 0.049504455 0.07508282 -0.09370705 0.16174151 0.060521986 0.11218732 -0.10115616
0.0355243 0.1116794 0.026239095 0.18843015 0.012163791 -0.08642543 0.023088837 0.06646451
0.10524592 0.12293794 -0.060051072 0.16910262 -0.05274141 -0.07009401 0.06225905 0.14478265
0.11200798 -0.03213197 -0.056955393 0.18794133 0.04816244 0.2298338 0.06293651 0.02538719
-0.029406765 0.051810842 -0.032907072 -0.0877954 0.01783673 -0.08722172 -0.013487361 -0.010212286
0.027732583 -0.14113148 -0.00010788554 0.102955855 0.08996702 0.09816172 -0.06418757 0.110301785
-0.02403537 0.052954927 -0.016429996 0.07841583
00000000: 070e 733b ad8d 9cbd 545b 93bc 4a8b 47bd
00000010: f4b5 153d 274d 52bd a541 943d a4a5 16bd
00000020: 80be 90bd e1bc e3bd 426d 203d 9091 60bd
00000030: ecaa e1b9 4ee0 3bbd e5f9 29bd 1fed 313c
00000040: 3286 a63d 0426 edbd 3643 04bd 1e95 653d
00000050: 592e 5a3c ff11 9abd 25bc cd3d afaa 18bb
00000060: 3fc6 213e 19df 31bb 2182 bd3d 5937 d03c
00000070: ae31 073d 361f a33d cb85 2ebb 5be4 8ebd
00000080: 11ff 9b3d fcc8 14bd e5e8 c1bc 2e9d ed3d
00000090: 425e 753e 2cac 3f3d b6df b43d 1e15 023e
000000a0: 2d68 073e b93f 763d 4b55 433b 8ee4 d83c
000000b0: afc2 513e bcd0 1abd dd89 db3d 532d 4bbd
000000c0: 53fc 54bd 2fc5 4a3d 06c5 993d 7be9 bfbd
000000d0: 919f 253e e7e5 773d 77c2 e53d f62a cfbd
000000e0: ee81 113d 2bb8 e43d 5ff3 d63c d5f3 403e
000000f0: a34a 473c d1ff b0bd cd24 bd3c 8c1e 883d
00000100: 2c8b d73d e3c6 fb3d 1df8 75bd 3d29 2d3e
00000110: 6007 58bd 738d 8fbd 5803 7f3d e741 143e
00000120: 7164 e53d d09c 03bd 0f4a 69bd b173 403e
00000130: fb45 453d 8d59 6b3e dbe4 803d ccf8 cf3c
00000140: 75e6 f0bc 9b37 543d 91c9 06bd 13ce b3bd
00000150: 561e 923c 4da1 b2bd 18fa 5cbc 6f51 27bc
00000160: 712f e33c c584 10be 9c40 e2b8 85da d23d
00000170: a140 b83d 0309 c93d c674 83bd e7e5 e13d
00000180: d3e5 c4bc 44e7 583d 3398 86bc 7b98 a03d

weight f4 [10, 100]
-0.012811792 0.1032587 -0.2751225 -0.023988206 -0.013335068 -0.26026708 -0.107393324 -0.122399084
0.055370584 0.065478615 -0.08561767 0.045059424 0.17384964 0.03667439 -0.15365471 -0.001548069
0.33678842 0.27502054 0.11879665 0.13619456 0.077999756 0.024162836 -0.18176754 0.14758703
0.015780041 0.040946882 0.14097975 -0.055392493 -0.09578414 0.13782543 0.030641994 -0.20187105
0.14505814 -0.068540156 0.012028658 0.14266752 -0.25857377 -0.046518873 0.08613254 -0.2412585
-0.267167 0.30179742 0.03624109 -0.17050368 0.2390403 -0.04599677 0.25806516 0.007973193
-0.055693906 0.07425475 0.22980858 -0.002791336 -0.16385204 -0.19743435 -0.1475849 -0.04566591
0.0014649669 -0.3590809 0.27359024 -0.28957814 0.07089369 0.052317847 0.27938682 -0.09448608
0.031062035 -0.23180106 0.09909449 -0.21563841 -0.1581692 -0.21801129 -0.08322185 -0.21639146
-0.106874645 0.06982303 -0.10367895 0.083653666 -0.22626755 -0.09141389 0.079668835 0.31851768
-0.039876174 0.29345897 0.075513445 -0.06262932 -0.088769525 -0.03849816 -0.026244795 -0.13587514
-0.0809192 -0.023543132 0.07993622 -0.14479992 -0.09478822 0.26700723 0.0005863696 0.0028317682
-0.0057226573 -0.06864488 -0.09003562 -0.16116674 -0.013918091 0.054832548 0.016738974 0.2769
-0.16252835 -0.111672215 -0.34760803 0.2776754 -0.077024505 -0.03471195 0.020949887 0.04133658
-0.20638333 0.01756239 0.07522898 -0.020907246 -0.11205089 -0.21741115 -0.24102291 -0.003908536
0.04195527 -0.04385817 0.18192591 -0.025225382 -0.12985547 0.024902077 -0.07887632 -0.035649173
-0.09257246 -0.2573371 -0.1226208 -0.23439385 -0.07956766 0.100992315 -0.1109509 -0.122777484
0.2156131 -0.26310465 -0.09336148 -0.17401455 0.19582936 -0.17491 0.12784706 -0.19391698
0.070998535 -0.16767453 -0.23443139 -0.17856073 0.014813143 -0.004714529 -0.15927836 -0.020668717
-0.109386936 0.18947689 -0.21321844 0.016335756 0.053376883 0.3171851 -0.16876405 0.5665795
-0.17776708 0.0018113197 0.00051067927 0.4310012 -0.08838131 0.079008564 0.016269775 0.053215448
0.087129734 -0.0061923107 0.02993938 0.16196856 0.060590025 -0.019720532 0.07832208 0.21036686
-0.065694936 -0.21477884 -0.026124755 -0.2653835 -0.07644954 -0.2993077 0.22188628 -0.034549132
0.006891027 0.056920685 -0.08883142 -0.058275275 0.25045958 0.039053615 -0.07162729 0.0384408
-0.0064108893 0.0867221 -0.1235939 -0.069565326 0.16456048 0.28760737 -0.033978395 -0.0031737902
0.00050886715 -0.05100917 -0.28830543 -0.122747585 -0.12523243 -0.0107196085 0.1008831 0.16985077
0.060360797 0.056493383 -0.07737443 -0.059011344 0.1289906 -0.050574776 -0.09154852 0.22941977
0.28325137 -0.08744846 0.109404065 0.004373576 0.20399313 0.02808327 0.20279987 0.3988747
-0.057258032 0.16227005 0.010527481 0.04420893 -0.35408458 -0.086534224 0.13833451 0.17476483
0.19494377 -0.026163397 0.029920341 -0.10560238 -0.065955296 -0.031163035 -0.026691938 -0.14942418
0.2543233 -0.19016825 -0.033425383 -0.14110188 0.2209948 0.060843468 0.06178145 0.3827542
-0.016128894 0.28210703 -0.025621371 0.06990627 0.16730186 -0.20545138 0.16799471 0.08829898
00000000: 8de8 51bc 4c79 d33d dbdc 8cbe ea82 c4bc
00000010: 547b 5abc ba41 85be 08f1 dbbd 5fac fabd
00000020: 44cc 623d a719 863d 5158 afbd 3b90 383d
00000030: a405 323e e337 163d a957 1dbe 93e8 caba
00000040: 886f ac3e 7ecf 8c3e a84b f33d 9676 0b3e
00000050: 56be 9f3d 24f1 c53c 4521 3abe 0e21 173e
00000060: 2545 813c ebb7 273d ff5c 103e 3de3 62bd
00000070: 7a2a c4bd 1c22 0d3e eb04 fb3c 49b7 4ebe
00000080: 1f8a 143e c85e 8cbd d913 453c 6f17 123e
00000090: c863 84be 938a 3ebd 4266 b03d 780c 77be
000000a0: 1dca 88be 3185 9a3e 8a71 143d 8498 2ebe
000000b0: fbc6 743e 1c67 3cbd 1e21 843e ffa1 023c
000000c0: 4b1f 64bd e012 983d f152 6b3e d9ee 36bb
000000d0: d4c8 27be 3b2c 4abe 7f20 17be 2d0c 3bbd
000000e0: 2204 c03a 74d9 b7be 0514 8c3e 9643 94be
000000f0: b630 913d 3d4b 563d ca0b 8f3e eb81 c1bd
00000100: cf75 fe3c 425d 6dbe 0df2 ca3d 51d0 5cbe
00000110: 1bf7 21be 5a3e 5fbe 3870 aabd b995 5dbe
00000120: 18e1 dabd 60ff 8e3d a155 d4bd 9d52 ab3d
00000130: aeb2 67be 3537 bbbd 6a29 a33d c014 a33e
00000140: 3355 23bd 4140 963e cba6 9a3d cd43 80bd
00000150: cccc b5bd 3fb0 1dbd 53ff d6bc da22 0bbe
00000160: f7b8 a5bd 87dd c0bc 9ab5 a33d 6e46 14be
00000170: 5420 c2bd 2cb5 883e 99b6 193a 3095 393b
00000180: 2185 bbbb b095 8cbd 9864 b8bd e508 25be
00000190: b408 64bc 1898 603d 2c20 893c d6c5 8d3e
000001a0: d56d 26be 67b4 e4bd aef9 b1be 782b 8e3e
000001b0: 06bf 9dbd 1e2e 0ebd 199f ab3c 8c50 293d
000001c0: 2756 53be 00df 8f3c a711 9a3d ac45 abbc
000001d0: f07a e5bd 07a1 5ebe b6ce 76be 2d13 80bb
000001e0: 4ad9 2b3d a0a4 33bd c94a 3a3e 76a5 cebc
000001f0: d5f8 04be 71ff cb3c e889 a1bd de04 12bd
00000200: a196 bdbd b0c1 83be 9d20 fbbd f104 70be
00000210: 5ff4 a2bd 0fd5 ce3d 3a3a e3bd c372 fbbd
00000220: aec9 5c3e a7b5 86be 4e34 bfbd df30 32be
00000230: 7e87 483e 9b1b 33be 57ea 023e 2c92 46be
00000240: ae67 913d dfb2 2bbe c80e 70be a0d8 36be
00000250: d3b2 723c 567c 9abb de19 23be 7151 a9bc
00000260: 4206 e0bd 3b06 423e ef55 5abe 90d2 853c
00000270: b8a1 5a3d 1666 a23e 7cd0 2cbe 5b0b 113f
00000280: 9308 36be ce69 ed3a 1bdf 053a 30ac dc3e
00000290: 4301 b5bd 3ecf a13d 3148 853c 71f8 593d
000002a0: 1371 b23d dee8 cabb 6e43 f53c 16db 253e
000002b0: 3f2d 783d f48c a1bc 5467 a03d 696a 573e
000002c0: 118b 86bd fcee 5bbe 9503 d6bc 59e0 87be
000002d0: 9491 9cbd dc3e 99be 2836 633e 6483 0dbd
000002e0: 20ce e13b aa25 693d 3fed b5bd 0eb2 6ebd
000002f0: 3d3c 803e aff6 1f3d 54b1 92bd 1a74 1d3d
00000300: 7012 d2bb 5b9b b13d cc1e fdbd 4478 8ebd
00000310: 8b82 283e 4641 933e ee2c 0bbd 5dff 4fbb
00000320: 7f65 053a feee 50bd c59c 93be 1663 fbbd
00000330: ee3c 00be 4ca1 2fbc cc9b ce3d 5ced 2d3e
00000340: e23c 773d 9b65 673d 7c76 9ebd e1b5 71bd
00000350: 1d16 043e 7f27 4fbd ca7d bbbd 04ed 6a3e
00000360: 5306 913e 2e18 b3bd 3d0f e03d 3750 8f3b
00000370: 93e3 503e e30e e63c c5aa 4f3e 4e39 cc3e
00000380: 6687 6abd 1f2a 263e 757b 2c3c 6c14 353d
00000390: 934a b5be db38 b1bd 90a7 0d3e 8df5 323e
000003a0: 579f 473e 9f54 d6bc 811b f53c 1046 d8bd
000003b0: 9213 87bd 9f49 ffbc 0da9 dabc a702 19be
000003c0: aa36 823e 77bb 42be 0ee9 08bd 037d 10be
000003d0: 764c 623e 0037 793d 8c0e 7d3d 5cf8 c33e
000003e0: be20 84bc 5570 903e e9e3 d1bc 052b 8f3d
000003f0: 2e51 2b3e d961 52be ce06 2c3e 18d6 b43d

bias f4 [10]
-0.19378856 0.21700524 0.009726547 -0.11584554 0.006894918 0.22474568 -0.10882757 0.114984445
-0.22620888 -0.023729874
00000000: 8270 46be 9f36 5e3e 185c 1f3c 6d40 edbd
00000010: c4ee e13b bb23 663e fde0 debd f77c eb3d
00000020: 4da3 67be 2765 c2bc
