artifacts/1/6db25525b2d1454295d1719b9a8ceb5a/artifacts/model/data/model.pth (torch, 362887 bytes, 6 tensors)

weight f4 [100, 784]
00000000: e354 08bd 49f9 013d a675 de3c 92ec 11bd
00000010: 780b db3b 7825 c5bb 6495 c0bb 35ed 85bc
00000020: 3405 613c 854a adbc 2082 563c acf4 933c
00000030: 8074 d03c ff7a 563c 76c7 10bd 2fca bdbc
00000040: d815 923c 40f1 f43b f53a e4bc e577 a8bc
00000050: 419e 093d ce23 c53c 1423 7fbc 8645 13bc
00000060: fc59 0bbd 8047 28ba d352 dcbc 4cad e1bc
00000070: f0f6 00bb 70b6 af3b 3ca2 6fbc f89a ad3c
00000080: 940b b2bc 91b8 043d 4384 c63c 5c62 fbbc
00000090: f120 20bc 8ee4 843a e0ce 8d3b 332e db3b
000000a0: 7fee 3f3c 6f72 8d3a 9db5 90bc 41d0 853c
000000b0: d7d4 0fbd b5a6 b2bc 622a 17bc 8ddd 90bc
000000c0: 790a 52bc 30c6 f1bc 4dc9 febb 3988 f83b
000000d0: ac99 bebc c03b f0ba 0070 d13c 809c 70bb
000000e0: 6019 823a 20eb 49bb 7fd2 ec3b ecfb b93c
000000f0: b37a 0a3d 929c b93c bd37 093d 0617 88bb
00000100: b43f 0dbd f999 a1bc e727 9a3c 50bb dcbb
00000110: 439e c3bc 51ca 04bd 0707 1ebd 2a38 0cbd
00000120: 82d3 34bc b9a8 633c c33d 633c 52c1 19bd
00000130: 84e8 aa3c 8583 efbc a314 07bc 4c2e 71bc
00000140: 855f e3bb 7448 e6bb fd44 03bd 059e fcbc
00000150: 3020 b7bb 8026 f239 afc4 84bc 65a1 5b3c
00000160: f492 05bd 813f 0dbb 83fd fa3c 913d 90bc
00000170: 5b76 d83c 05ce a23b 69e2 28bd 4e0b 693c
00000180: b763 2fbc 40e8 c2bc cda4 c13c 97d4 03bd
00000190: c31b 9c3a 176c 45bc 3d13 ac3c ad3a 153b
000001a0: e026 2f3c ec3e e83b aebd 2fbc 62df 06bc
000001b0: db60 f6bc f908 9e3c 3658 e63c 462f c83c
000001c0: a05f cebc 49d1 d03a 6981 cdbc fa2e 9fbc
000001d0: 7e54 a2bc 877a 523c e1c2 b6bc 38fd 50bb
000001e0: a4e9 72bb 89d2 213c 593b 2ebd 946f 1ebd
000001f0: e92c d2bc 4bdf d33c bf1e 61bc 7592 f93c
00000200: fa8b 8b3c 0e13 243a 76dc 273b 1a6e e6bb
00000210: 1cd1 3c3b 6630 64bc f0ae d1bb 13cd 4bbb
00000220: 6e2e 02bd 6991 9bbc 7d48 ee3c 3516 eebc
00000230: 5011 28bb 25b6 103d 8bc8 543c 4f19 8a3a
00000240: 01ca f7bc b67e b23c 300d c4bc fafa 89bc
00000250: 271d c0bc aa57 ccbc e938 eabc c7b2 af3c
00000260: 96db 643c 571f 4e3d d8d7 063d 0860 b2bb
00000270: e643 ce3c 678c a7bc f982 85ba 6ad5 843c
00000280: 1774 6a3b c4ea 5f3c 38b2 dabc 8f7b 33bc
00000290: 97e5 6f3c a9f5 0abd 3a1e d03c 09b8 f2bc
000002a0: 4009 013a 1009 c7bb 0674 98bc a6d6 f93b
000002b0: bb09 073d 6f5f 2bbc 6478 cebc 4a58 c6bc
000002c0: dfaa 39bd eb72 5e3c dc98 9dbb 3ce8 83bb
000002d0: a3cd 16bc 4230 073d 03d9 9a3c 0b59 053d
000002e0: be05 373d 15df c33c 544f 353c de88 a93a
000002f0: 2e76 a73c 439b 91bb b50e 45bd 1151 2ebd
00000300: f898 43bd c437 e23b 3a8b aebc f273 03bd
00000310: 3047 003d c5b0 bdbc 3773 47bb 33e3 7d3c
00000320: 0bc7 0e3c 7180 cebc 7405 d1bc 5d71 f43c
00000330: 8f64 bf3b 6d4c 7d3d c1ac db3c 4d10 c93c
00000340: 31f0 0839 6ca3 2ebc d86b 50bd f0b8 713b
00000350: 5b7e 173d 1004 0e3d d0c8 aa3b b410 93bc
00000360: d508 db3c 0499 48bd dca9 c9bc f2ba 5bbd
00000370: 96a9 26bd 0f38 5fbb 7b93 acbc f8ac 013c
00000380: d1b9 db3b 3d3b d5bc 7280 f13b 4ebc a53c
00000390: d119 d03c 4986 18ba 7c4b 83bc 8f8b c93c
000003a0: aaae 853d bd87 323d 8ee0 243d 7c08 c73c
000003b0: 154a 53bd 9877 52bd d027 9ebc 8e75 303c
000003c0: d185 203d b072 503d 8305 d03c 16fd c33c
000003d0: 5d88 9c3c 55ca c33b b0f2 9cbc 6724 5dbd
000003e0: 98c3 00bd e3bf 1fbd ffc2 09bd 1f98 fdbc
000003f0: c520 123d c7ef bf3c 4090 babc f850 a53c
-0.03328408 0.031731877 0.027155709 -0.035626 0.006684717 -0.0060164295 -0.0058771838 -0.01634846
0.013734151 -0.021153698 0.013092548 0.018061005 0.025446177 0.013090848 -0.03534647 -0.023167698
0.017832682 0.0074750483 -0.027860144 -0.020564983 0.03359819 0.024064925 -0.015572328 -0.008988744
-0.034021363 -0.0006419346 -0.026894962 -0.027548455 -0.0019678436 0.0053623244 -0.014626082 0.021192059
-0.021734037 0.03240258 0.02423299 -0.03068655 -0.009773479 0.0010138915 0.00432764 0.006688857
0.011714577 0.001079155 -0.017664725 0.016334655 -0.03511509 -0.021808008 -0.009226413 -0.017683769
-0.01281988 -0.029513448 -0.0077754618 0.0075845984 -0.023266636 -0.0018328354 0.025566101 -0.0036714375
0.0009925775 -0.0030810311 0.0072272415 0.022703134 0.03380842 0.022657666 0.03350042 -0.004153135
-0.03448458 -0.01972674 0.018817855 -0.0067361966 -0.023879176 -0.032419506 -0.03858092 -0.03423325
-0.0110367555 0.013895207 0.013869706 -0.03753788 0.020862825 -0.029237518 -0.008244666 -0.014720511
-0.006938877 -0.00702768 -0.032048214 -0.030837068 -0.005588554 0.00046186522 -0.016207067 0.013405179
-0.03261085 -0.0021552744 0.030638462 -0.017607482 0.026423624 0.004968407 -0.041231547 0.014223887
-0.010704926 -0.023792386 0.023638153 -0.032185163 0.0011910129 -0.012049696 0.021005267 0.002277057
0.010690421 0.007087579 -0.0107263755 -0.00823197 -0.030075481 0.019291388 0.028118234 0.024436604
-0.025192082 0.0015931512 -0.025086122 -0.01943158 -0.01981568 0.012846596 -0.022309722 -0.0031889211
-0.003706553 0.009876856 -0.042537067 -0.038680628 -0.02565618 0.02586331 -0.013740241 0.030465344
0.01703452 0.0006258943 0.0025613583 -0.007032168 0.0028811162 -0.013927555 -0.006399028 -0.0031097576
-0.03178256 -0.018990235 0.0290873 -0.029063324 -0.0025645085 0.035329957 0.012987266 0.0010536107
-0.03024769 0.021788936 -0.02393207 -0.016843308 -0.0234514 -0.024944145 -0.02859159 0.021447552
0.013968369 0.050322857 0.03292069 -0.0054435767 0.02517886 -0.020452691 -0.0010186128 0.016215045
0.0035774761 0.013666812 -0.02669631 -0.010954752 0.014642141 -0.033925686 0.025405038 -0.02962877
0.0004922338 -0.0060740784 -0.018610012 0.007624465 0.032968264 -0.010459765 -0.025203891 -0.024212021
-0.04532897 0.013577203 -0.004809482 -0.004025487 -0.009204301 0.033005007 0.018902307 0.03255562
0.04468321 0.023910085 0.011066277 0.0012934466 0.020442095 -0.0044435575 -0.04810973 -0.04255778
-0.047753304 0.0069036204 -0.021306623 -0.032092996 0.03131789 -0.02315558 -0.0030433664 0.015496063
0.008714448 -0.02520773 -0.025515296 0.029839212 0.005840845 0.061840463 0.026815774 0.024543906
0.00013059449 -0.01065908 -0.050884098 0.0036883913 0.036985736 0.034671843 0.005211927 -0.0179523
0.02673761 -0.048974052 -0.024617128 -0.05364508 -0.040689074 -0.0034060513 -0.021066418 0.007914774
0.0067055007 -0.026029224 0.007370048 0.020231392 0.025402935 -0.000581835 -0.016027205 0.02460268
0.06527455 0.04358648 0.040253215 0.024296038 -0.051584322 -0.051383585 -0.019306093 0.010770215
0.039190117 0.050890625 0.025393253 0.023924392 0.019107992 0.0059750476 -0.019158691 -0.053989794
-0.031436533 -0.039001357 -0.03363323 -0.030956326 0.035675783 0.023429764 -0.022773862 0.02018021

bias f4 [100]
00000000: b374 62bc ff17 07be fe23 8a3c 5448 c93c
00000010: a27b f43d 8bfa afbd f0aa a3bd e283 013d
00000020: e22a db3c 55f9 963c 9d9b 2c3d d0e9 423d
00000030: bd61 863d 006c 023d a17b 2a3b 4815 ca3d
00000040: 36ca 7e3d 0824 4b3c fff8 dfbc 2080 c93c
00000050: 2c24 a8bc f495 f23c 62b6 64bc 3123 893c
00000060: 986b c5bd deb0 623d d48a b8bd 67a6 8a3d
00000070: 2f3b c93c 5160 f13c 91ae 203c 4af2 1fbe
00000080: c99b 493b a688 273c 601d 0f3e 6403 623d
00000090: e76e faba d7be b03d d1ad c4bb 2077 af3d
000000a0: 56f1 af3c 5856 c03d f6dc 443d 28a6 9a3b
000000b0: f445 783d 3f9d e03d c5c8 333c abe7 8fbb
000000c0: 4647 803c 54b4 a5bc 83da 083e e5b0 b63c
000000d0: a508 7cbc 162f b43c 58db 91ba 675e 3bbc
000000e0: 87c6 063d ec61 38bc 6785 02bc 474c 25bd
000000f0: 124e cbbc daa4 e23c c876 213d 3fea 05bd
00000100: b167 a43d db5f 99bd d526 173c bf0b 9bbd
00000110: ac7e 3bbd 5e27 943d 5f4e 80bc 9d61 4a3d
00000120: e2e8 293c e538 3ebb 9bf7 d13c ffe7 3fbd
00000130: e948 b63d d1d2 a43c 25f4 793d 68d2 9fbc
00000140: 3c5e 813b 33c2 1c3d 7370 2bbd 7b63 c63d
00000150: d05b a53d b70c 75bc 6b2d 3c3d 748b 08bd
00000160: ccb3 99ba e314 7a3d 5158 b93d 6bb8 173d
00000170: e282 0a3d 1d4f cc3d 1b3c 17bc 9369 e93c
00000180: 947a 0dbd 0922 be3c 5d29 b7bb 8556 9cbd
-0.013821769 -0.13192748 0.016862866 0.024570622 0.119376436 -0.08592709 -0.07991588 0.031619914
0.026753847 0.018429438 0.042140592 0.047586262 0.06561611 0.031841278 0.002601363 0.0986734
0.062204562 0.012398727 -0.02734041 0.024597228 -0.02052506 0.029612519 -0.013959499 0.016740413
-0.096396625 0.055344455 -0.09010854 0.0677002 0.024564354 0.029464873 0.009807245 -0.1561977
0.0030763021 0.010225451 0.1397605 0.055179015 -0.0019106538 0.0863015 -0.006002166 0.08567643
0.021477383 0.09391469 0.048062287 0.0047195144 0.060613587 0.10967492 0.01097316 -0.0043916306
0.015658986 -0.020227589 0.13364606 0.022301147 -0.01538292 0.021995109 -0.0011127992 -0.0114360815
0.032904174 -0.011253815 -0.007966376 -0.040355947 -0.0248175 0.027666498 0.03941992 -0.032694098
0.0802759 -0.07488986 0.009225567 -0.075706 -0.0457751 0.07234071 -0.01566237 0.049409498
0.010370465 -0.002902561 0.025630763 -0.046852108 0.08900625 0.020120056 0.06102385 -0.01950951
0.003948001 0.03827114 -0.041855287 0.09686943 0.080741525 -0.014956645 0.04594175 -0.033336118
-0.0011726557 0.061055075 0.09050048 0.03704111 0.033816226 0.09976027 -0.009230639 0.028492725
-0.034540728 0.023209589 -0.0055896477 -0.0763369

weight f4 [100, 100]
00000000: 3c1f 5bbc b82b a6bd ccfa b5bd 983b 8ebd
00000010: e6e8 aebd 5c1b b83c b4b4 93bc 0d79 133d
00000020: 611a 163d 323d 093b e97c 3abd 9fbd 56bd
00000030: 36b2 b53d 2b4a c7bd b28e 2ebd b81f aa3d
00000040: 7be0 a13c 2fcb af3d 07b9 babd ba71 3ebd
00000050: f7b4 eb3c 1c04 c8bd e4d4 cd3d bad0 2a3c
00000060: 94db 123b 2bf1 e2bc 48d4 683d 095f f53b
00000070: 0e29 9cbd a549 453d 8589 bd3d c7d5 b33d
00000080: 9e10 353d 1164 b5bd 97c6 4e3d e7cd f23c
00000090: c5b3 c5bd 435b 11bd c5cf c0bd a69b 39bd
000000a0: 595c 0abd 657f 86bd 2cfb 153d 7bf7 09bd
000000b0: b6ed a8bd bf86 a6bd ed5b 14bd 4ece 033d
000000c0: 015f 8dbc 915d cb3b c204 4c3d 48cf b23d
000000d0: ed02 65bd 53f4 ca3d 65bc bc3d 5745 8b3d
000000e0: 5b49 833d a8f3 433d c394 babd daa7 853d
000000f0: 67b6 033a 85c0 c33c 3489 58bd d696 a4bd
00000100: 3613 99bd 3947 c7bc f253 a93d c8b1 58bd
00000110: 2ad0 8abc 6f7e 023c 0ec3 86bd 74d1 7ebd
00000120: e835 dd3c 1877 9c3d bd01 c5bd 54a0 c3bc
00000130: 17a7 c6bc 8645 7fbc 35c3 b13d 458c 3c3c
00000140: 9d98 1dbd 04c9 18bc 0d00 1fbc 8d8d c4bd
00000150: 426b 2ebc aa07 a73c 08e8 353c 9981 873c
00000160: 98f7 9abd edad 97bc 1289 813b b041 46bd
00000170: 77f3 20bd b89f 3e3d 77cf 883d 9403 88bd
00000180: f4dd 23bc 5e32 45bd c3a8 cbbd caa7 93bd
00000190: aa7f 5f3d 5098 60bd 6a1e 6d3d 0508 edbc
000001a0: 5ca0 65bd e540 0fbc ae1f 8b3d af5c bb3d
000001b0: 6a82 153e 18ed a9bc 4038 7b3d d19e 9ebd
000001c0: c1ee 423b 35c0 9c3c 30e4 3c3c 8a91 6a3d
000001d0: 008c 563d 16ae 8a3d 138a db3b 9caa 79bd
000001e0: c383 61bd 37f2 87bc ee25 543d aee9 183d
000001f0: 93d8 b0bd a5b8 2c3d 7dd1 533d 42a3 b0bd
00000200: 499f 613c cccc b0bd 185d a8bd 7135 583c
00000210: 4c6e 04bd 433c e03d fb44 67bd e853 883d
00000220: b56a b7bc a3fb 74bd cd23 073c dceb 4e3d
00000230: e097 db3c 57ca 86ba 1655 d3bd a43d b7bc
00000240: d43c 603d 5502 60bc 2aea 2c3d 2c75 cc3d
00000250: 3e96 97bd 314f e23d d233 6abd 3e97 223d
00000260: c316 7abb 9048 d73d c475 c23c 30ca b0bc
00000270: accc 9abb 720d dc3c f6ca 32bd 93bf 843c
00000280: ba8b 72bd 9225 2cba 33e2 a73b b003 f73c
00000290: 236d 8ebd 5a99 aa3d 4d18 0a3d cb92 e5bc
000002a0: af49 87bd 4473 12bd acce 19bd 2569 2f3d
000002b0: 4c23 213b 3418 923c 6049 92bd 2cee 3c3c
000002c0: c408 9b3d a498 b83d a65f 73bd e852 543c
000002d0: 3dc4 0e3d b2a0 9e3d 43c8 dfbc 6469 d33d
000002e0: e33f 123b efad ccbd 777f ca3d 1d98 33b9
000002f0: f242 00bd a543 b8bd 10c0 c73d 317f 09bd
00000300: 76af 48bd 67bb bc3d 81a3 173c 6e19 2b3d
00000310: fc76 0dbc d9dd 893d cc8e 7abd 4b37 863d
00000320: b920 0a3e 9508 33bc 87c9 113e e7f0 0b3c
00000330: 3361 913d 9f9c ac3e fbb6 6cbe 3edf 54be
00000340: 2cea 46be a44b 503e 6503 33be d07b 8dbc
00000350: 7a4a 223e 6c6a 8fbc c35a 453e 3e92 95bd
00000360: 344c f33d 5324 a8bd 4940 103e 0a32 10be
00000370: a16c 44be 6ac8 3abd 7d55 1b3d 91c9 043e
00000380: 71ee 1a3e 6474 b43d 022c 113e 3649 40be
00000390: ac9a 0cb9 a31b 0e3e 029f 653d 928f 09bd
000003a0: 13bf d03d 185d 0abd fa7b 763d 07a2 44bd
000003b0: 5be5 5cbd 5d3d 6b3e 5b51 a1bd 364d 4d3e
000003c0: 1b6e 0c3d 2561 f83d 001d 993c 4805 9ebc
000003d0: e97e 343e 33d9 de3d 96db 98bd f230 fb3d
000003e0: 6cde 563d 0e20 f43d 99c2 babb 72e0 2dbd
000003f0: a357 11be 54e3 29be 98b4 58be 80ae be3d
-0.013374146 -0.081138074 -0.08885726 -0.0694496 -0.085405156 0.022473983 -0.018030502 0.036004115
0.03664625 0.0020941016 -0.04552928 -0.05242693 0.08871882 -0.09730943 -0.042616554 0.08306831
0.019760361 0.08583676 -0.091173224 -0.046495177 0.028772814 -0.09766409 0.10050371 0.010425741
0.002240871 -0.027702888 0.056843072 0.0074881357 -0.07625018 0.048165936 0.092547454 0.08781009
0.0442053 -0.08856977 0.05048236 0.029639198 -0.09653429 -0.035487425 -0.09414629 -0.045314454
-0.033779476 -0.06567267 0.03661649 -0.03368328 -0.08248465 -0.081311695 -0.03622048 0.03217917
-0.017257215 0.0062062223 0.049809225 0.08730942 -0.055910993 0.099098824 0.09215621 0.06800335
0.06410476 0.04783979 -0.09110405 0.06526156 0.00050244335 0.023895511 -0.052865222 -0.08036582
-0.07474367 -0.024325954 0.082679644 -0.05290392 -0.016944963 0.007964714 -0.065801725 -0.06221147
0.027003244 0.07639903 -0.09619472 -0.023880161 -0.024249597 -0.0155805405 0.08679811 0.011508052
-0.03847562 -0.00932527 -0.009704602 -0.09597311 -0.010645689 0.020389397 0.011102684 0.01654129
-0.07566756 -0.018515551 0.0039531076 -0.04840249 -0.039294686 0.04653904 0.06680196 -0.066413075
-0.010001648 -0.048143737 -0.09944298 -0.072097376 0.05456511 -0.054832757 0.057890333 -0.028934488
-0.056061134 -0.008743499 0.06793152 0.09148537 0.1460053 -0.020742938 0.06133294 -0.077451356
0.002974436 0.01913462 0.0115290135 0.057267703 0.05237961 0.067714855 0.0066998093 -0.06095372
-0.0550573 -0.01659499 0.051793985 0.03733223 -0.08635058 0.04216828 0.051713455 -0.08624889
0.013770887 -0.08632812 -0.08220881 0.013196335 -0.03233175 0.10948994 -0.05646227 0.06656629
-0.022389749 -0.059810292 0.008248282 0.0505179 0.026805818 -0.0010283691 -0.10318963 -0.02236826
0.05474551 -0.013672431 0.042215504 0.09983286 -0.07401703 0.11050261 -0.057178326 0.039695017
-0.003816054 0.10511887 0.023737796 -0.021580786 -0.004724106 0.02686188 -0.04365059 0.016204631
-0.059215285 -0.0006566878 0.0051234006 0.030153126 -0.0695441 0.08330031 0.03371458 -0.028024098
-0.06605851 -0.035754457 -0.037550613 0.042824883 0.002458769 0.017833807 -0.071429014 0.011531394
0.07570031 0.09013489 -0.05941739 0.0129592195 0.034855116 0.07745494 -0.027317172 0.10322836
0.0022315911 -0.09994113 0.09887593 -0.00017127437 -0.031313844 -0.08997277 0.0975343 -0.033568565
-0.048995458 0.09215432 0.009255291 0.0417723 -0.008634325 0.06731767 -0.061171338 0.06553515
0.13489045 -0.010927339 0.14237033 0.008541322 0.070986174 0.33713242 -0.23116677 -0.20788285
-0.19425267 0.20341355 -0.17481764 -0.017270952 0.15848723 -0.0175068 0.19272904 -0.07303284
0.11879769 -0.08210053 0.14087023 -0.14081588 -0.19182064 -0.045601286 0.037923325 0.12967516
0.1513002 0.08811262 0.14176944 -0.18777928 -0.0001340906 0.1387773 0.056059845 -0.033584185
0.101926945 -0.033780187 0.060176827 -0.048006084 -0.053929668 0.22972627 -0.078768454 0.20048985
0.034284692 0.12127904 0.018690586 -0.019289628 0.17626537 0.10881271 -0.07463758 0.12265195
0.05245821 0.119201764 -0.0056994674 -0.042450376 -0.14193587 -0.16590625 -0.21162641 0.09310627

bias f4 [100]
00000000: 60ff 933b afbc 8cbd e665 35bb e170 b0bc
00000010: 429f ec3c 1306 08bd e538 e63d f676 a7bc
00000020: 9cb2 b5bd 8a27 d6bd 5a25 643d 0b18 66bd
00000030: 36d8 fe3c 4ee0 3bbd 750f 0abd 625d ae3c
00000040: d310 a83d b467 c2bd c7f8 22bd 1117 083d
00000050: c65d 183c 0dc6 98bd 20ff db3d 406c b23c
00000060: a266 223e 7c80 6fba 8df2 cf3d 740a bf3c
00000070: 1dab 353d 312c 9e3d 0ed4 243c 2ca7 b2bd
00000080: 79ae 843d a230 c1bc 9b45 ffbc 684c e83d
00000090: 9a9b 603e 28ad 8a3d 6fc9 b23d cf15 0b3e
000000a0: 25b2 3b3e 6117 a53d 4528 013c 1e30 d83d
000000b0: cc39 473e 63cc b73c 4bd1 de3d 872e 9ebd
000000c0: 1767 26bd 7735 8f3d 08de 863d 6d8a c3bd
000000d0: 266a 1a3e 2350 b33d 460a b23d f23e bfbd
000000e0: df04 2c3d 751f 1c3e 947b 1f3d c1f5 2b3e
000000f0: 7435 1f3d 5fa5 b1bd 2590 32bc de64 053d
00000100: e913 e83d f4ae 113e db91 e0bc aeff 3a3e
00000110: 4d02 82bc 1f80 8bbd 29be 7e3d cb63 1b3e
00000120: afb5 cd3d a353 febc c374 3bbd cfb8 233e
00000130: b735 eb3c 1382 5e3e bfa4 863d 945f 4f3c
00000140: 7e83 1abc 1aa3 3b3d b0d3 38bd 13ce b3bd
00000150: db5e c43c ecc9 9dbd 6a48 82bc 9a40 c4bc
00000160: edc6 293d cdc1 c9bd 70b4 9bbc e07f ae3d
00000170: 383c cd3d 6cc0 a23d 16d8 e2bc b1f0 b73d
00000180: a169 1ebd 50ff bc3d 1054 b3bc 3e03 a63d
0.004516527 -0.06871926 -0.0027679144 -0.0215382 0.028884534 -0.033208918 0.112413205 -0.020442467
-0.08871958 -0.1045676 0.055699684 -0.056175273 0.031108957 -0.04586821 -0.033706147 0.021284763
0.08206334 -0.09492436 -0.039788034 0.033225123 0.009299701 -0.0745965 0.107420206 0.021780133
0.15859464 -0.0009136272 0.10153685 0.023320414 0.04435264 0.077232726 0.010060323 -0.08723292
0.064785905 -0.02358276 -0.03116112 0.11342698 0.21934357 0.06771308 0.08729827 0.13582538
0.18329675 0.080611 0.007883136 0.105560526 0.19455642 0.022436326 0.10879763 -0.07723718
-0.040625658 0.069926195 0.06585318 -0.09547887 0.15079555 0.08755519 0.08693366 -0.09338178
0.041996833 0.15246375 0.038936213 0.16792966 0.038869336 -0.0867412 -0.010898625 0.032566898
0.113319226 0.14226896 -0.0274133 0.18261597 -0.015870238 -0.068115465 0.06219307 0.15174787
0.10044419 -0.03104574 -0.04576565 0.15988468 0.028712137 0.21729307 0.065743916 0.012657065
-0.009430764 0.045809843 -0.045123756 -0.0877954 0.023971012 -0.07704529 -0.01590367 -0.023956586
0.041449476 -0.09851418 -0.019006938 0.08520484 0.100212514 0.07946858 -0.027690928 0.08981455
-0.038674954 0.092283845 -0.02189067 0.08106087

weight f4 [10, 100]
00000000: 6e68 52bc 9e41 0c3e b929 90be c834 0e3d
00000010: 5319 abbc 6bca 8dbe 838e 05be 3090 b8bd
00000020: 0190 f23d 0b42 873d f0ac 12be da30 383d
00000030: 90c9 433e e337 163d 7fea 21be c1d0 c3ba
00000040: 79c8 b93e e1d1 ac3e 998f 2d3e 0e75 3e3e
00000050: 4fdd 163e e618 c53c 6642 8dbe 254d 793e
00000060: ff32 633d 8794 9a3d d037 783e 2857 cdbd
00000070: db2c f7bd 2d7a c73d 7dd4 edba 48d4 65be
00000080: 2f23 313e 45d2 d6bd e5a2 07bc 5ecd 133e
00000090: bebf c2be 026c 54bd ae71 b03d 5dc3 a4be
000000a0: 18d4 94be e819 c43e c895 293d 2886 5cbe
000000b0: 1314 663e b1fc 3fbd 09c4 9e3e 7ab0 38bd
000000c0: 6349 5bbd 57b8 a3bc 2a4d 8e3e 45a3 3bbb
000000d0: 2fd9 4cbe 8201 45be cf72 ffbd 049c 3cbd
000000e0: 8654 d639 d0ac d7be e52b 813e 16c8 afbe
000000f0: d1f9 223e 9100 563d c534 a03e 11bf febd
00000100: 6fb3 b23d bb54 91be 4c26 c03d 3ff3 5dbe
00000110: 7ea9 31be b0fa 83be d2a3 aabd 8067 3bbe
00000120: 11db 10be 609b 493d 2da4 bbbd 81b7 973d
00000130: c91c a8be d225 0bbe 80bf f63d 19ce c63e
00000140: 2c07 e33c 937d ab3e 767b 1a3e cd43 80bd
00000150: 83be 0fbe 2ff3 1ebb b482 cdbc 77af 45be
00000160: 8e3a f3bd c59a 643d 7aa0 693d 65dc 41be
00000170: 68d8 eebd aac3 963e 262d 5a3d 8c59 dd3c
00000180: a74e be3b 7b4d 80bd d78d e2bd 3aef 1dbe
00000190: 08d4 5abc a4f9 623d da13 05bc 5643 9e3e
000001a0: 1df4 3bbe fb56 25be 9639 e3be 28c1 9b3e
000001b0: ddf9 8fbd 7d13 2ebd 1c77 6d3c 3f18 2b3d
000001c0: d1ef 6bbe 00df 8f3c ec4e 8f3d 0576 cbbc
000001d0: 4c32 1abe 1404 92be 2fe8 78be ecc1 e83c
000001e0: 5925 113e fffc 36bd 5909 673e d76a 2cbd
000001f0: 5d23 25be 7dc1 8d3d e290 6fbd 11d8 32bd
00000200: cea4 dcbd c938 a9be fedf 0abe 81c8 74be
00000210: 1b7b dfbd b0a7 0a3e bb77 26be cc20 1cbe
00000220: d496 933e a793 8bbe eb67 bfbd f992 3fbe
00000230: 736f 3e3e ca0e 74be 77e6 643e 61c2 9dbe
00000240: 37fd 433e fb58 82be bd88 64be 2bdc 44be
00000250: 7020 143d 31b8 8abc 6b03 1dbe 6343 adbc
00000260: 7661 cfbd 6f56 3b3e dbf8 54be 0d78 893c
00000270: 21b7 ac3d f962 933e 1d3c 41be 3721 363f
00000280: 2988 6cbe c362 ed3a 7094 ad3d 85d2 113f
00000290: 2132 12bd cba5 873d 62ef adbb e149 583d
000002a0: 5dc5 aa3d cd2c bfbc 90eb f33c 518a 603e
000002b0: 5f49 893d 6bd2 c63c b2cc 063e 3ca4 a73e
000002c0: a5ba 2ebd 39eb 6fbe 703c cabc c5cc 85be
000002d0: 3961 edbd 6f2b a8be 1b68 983e 6483 0dbd
000002e0: ed0c 523c e7eb 6d3d 1205 b6bd f672 a4ba
000002f0: 3c83 9b3e aff3 f43c 94a8 a6bd d66c ca3d
00000300: bdd8 00bb f532 0b3e bbf8 26be 4eb6 8ebd
00000310: 88ba 303e c0a1 963e 4c75 3cbc 7ee7 043d
00000320: 6a79 c439 1673 a1bd 40ac d8be 1d81 f2bd
00000330: b5c4 d5bd eedf 72bd f64d 2e3e 72d2 af3e
00000340: 6102 953d a3c7 af3d 26fd cfbd 80ab 6abd
00000350: f1f5 3e3e 7f27 4fbd b1c0 5bbe 6517 843e
00000360: 9d75 cd3e ad08 cbbd f273 5b3e 8dd1 283d
00000370: 5762 8b3e eecc ce3c 2810 5e3e 6079 123f
00000380: 6b26 9dbd 24ca 473e 071e 3d3d 84f7 cd3d
00000390: fbc6 02bf 1ca7 09be a667 583e 828b 5e3e
000003a0: 37fd 813e e86e 42bd a009 2e3c a21c 1ebe
000003b0: e037 3ebe ea32 66bd 32c1 dcbc 29bf 3ebe
000003c0: 2c8b a93e d87b 8ebe 1c30 90bd c2ff 88be
000003d0: b3ae 863e 7364 ba3d b816 e83d ae7d 0b3f
000003e0: 1f81 dfbc 70b6 af3e ffc6 7c3c 504d 8f3d
000003f0: 7ea6 8e3e e6c5 a0be c117 983e 6b78 e63d
-0.012842281 0.13696906 -0.28156832 0.034718305 -0.020886099 -0.27693495 -0.13042645 -0.090118766
0.11843873 0.066043936 -0.14323783 0.044968463 0.19119859 0.03667439 -0.1581211 -0.0014939533
0.3628576 0.33753875 0.1694931 0.1859934 0.1473286 0.024059724 -0.2758972 0.24345835
0.055468556 0.075478606 0.24240041 -0.10026389 -0.120691024 0.097401 -0.0018144991 -0.2244426
0.17298578 -0.104893245 -0.008278583 0.1443381 -0.38036913 -0.051860817 0.08615433 -0.321803
-0.29068065 0.38301015 0.04140261 -0.21535552 0.22468595 -0.046871845 0.31008938 -0.045090176
-0.053536784 -0.019985361 0.27793247 -0.0028631252 -0.20004724 -0.19238856 -0.1247307 -0.046047226
0.00040880236 -0.42124033 0.252288 -0.3433234 0.1591561 0.052246634 0.3129026 -0.12438787
0.087256305 -0.28384957 0.093823045 -0.21674822 -0.17349812 -0.25777197 -0.083320275 -0.18301201
-0.14146067 0.049220443 -0.091621734 0.074080475 -0.3283446 -0.13588646 0.120482445 0.38829115
0.02771338 0.33494243 0.15086159 -0.06262932 -0.14037518 -0.0024253835 -0.025086738 -0.19305216
-0.11876403 0.055811662 0.057037808 -0.1893173 -0.1166237 0.29446155 0.053265713 0.027020238
0.005807716 -0.06264778 -0.1106221 -0.15423289 -0.013356216 0.055413857 -0.008122409 0.30910748
-0.1835484 -0.16146462 -0.44379872 0.30420804 -0.070300795 -0.042499054 0.01449373 0.04177117
-0.23040701 0.01756239 0.06997475 -0.02483655 -0.15058249 -0.28518736 -0.24307321 0.028412782
0.14174403 -0.04467487 0.2256216 -0.042094078 -0.16126771 0.069216706 -0.05848778 -0.04366309
-0.107736215 -0.33051136 -0.13562009 -0.23904611 -0.109121524 0.1354053 -0.16256611 -0.15246886
0.2882601 -0.27261087 -0.09345993 -0.1870841 0.18597202 -0.23833767 0.2235354 -0.30812362
0.19139563 -0.25458512 -0.22317787 -0.19224612 0.036163747 -0.016933532 -0.15333335 -0.021150297
-0.10126011 0.1829469 -0.20798056 0.016780877 0.084333666 0.28786448 -0.18870588 0.7114443
-0.23098816 0.0018111098 0.08475578 0.5696185 -0.035692338 0.066234194 -0.0053080777 0.05280483
0.08338425 -0.023336792 0.02977541 0.21927764 0.067034476 0.024270257 0.13164023 0.32742488
-0.042658467 -0.23429574 -0.024687022 -0.2613279 -0.115908094 -0.32845637 0.29766926 -0.034549132
0.012820465 0.058086302 -0.08887686 -0.0012546468 0.3037356 0.029901354 -0.081376225 0.0988404
-0.0019660436 0.13593657 -0.1630582 -0.069683656 0.17258656 0.2942028 -0.011502575 0.03244733
0.00037474494 -0.07883279 -0.42318916 -0.11841033 -0.104379095 -0.059295587 0.17021927 0.34340245
0.07275844 0.085829996 -0.10155706 -0.05729246 0.18648507 -0.050574776 -0.21460225 0.257991
0.40128794 -0.09913764 0.21430948 0.04121547 0.27223465 0.025244202 0.2168585 0.57216454
-0.07673343 0.19510704 0.046171214 0.100569755 -0.5108487 -0.13442653 0.21133289 0.21732906
0.253885 -0.04746905 0.010622412 -0.1544061 -0.18576002 -0.0562009 -0.026947591 -0.1862761
0.33113992 -0.2782886 -0.07040426 -0.26757628 0.2630516 0.091011904 0.11332458 0.54488647
-0.02728325 0.34318876 0.015428304 0.06997168 0.27861398 -0.31400985 0.29705623 0.11253437

bias f4 [10]
00000000: 8a27 66be 4956 6b3e 13ee 593c 2593 22be
00000010: 1c86 e5bc 55fe 693e 5254 c5bd db98 b03d
00000020: bcde 18be aa27 8c3b
-0.2247602 0.22982134 0.01330139 -0.15876444 -0.02801805 0.22850926 -0.096352234 0.08622905
-0.14928716 0.0042771893
