project/model.pt (torch, 360391 bytes, 6 tensors)

fc1.weight f4 [100, 784]
-0.00026738644 0.019158702 -0.02939447 -0.026283538 -0.013755513 0.009577051 -0.00070761517 0.028317485
-0.0031694286 0.009450451 -0.010793325 -0.007020192 -0.03441674 -0.024276204 -0.014691775 0.0013242546
0.014119115 0.021429386 -0.024212182 -0.015552245 0.012972042 0.029656712 -0.007350007 0.026725423
-0.0057565495 0.003779076 0.032338437 -0.033131085 -0.022483498 -0.009041617 -0.013921427 0.030857172
-0.023149917 -0.016447429 -0.026390364 -0.03696256 -0.024143266 0.029343735 0.014120009 0.0134850275
-0.0038026418 -0.022020297 0.0052230237 -0.03358672 -0.024553258 -0.018973308 0.020097416 0.017573627
-0.017706992 -0.001803749 0.022651661 0.035491552 0.0141743645 0.0048247464 0.023945943 -0.021028657
0.0066551454 -0.027689483 -0.024753315 -0.018453168 0.016106984 0.014297779 -0.02317663 0.004460695
0.0111690415 -0.009457367 -0.0051857466 -0.00027952623 0.0061032274 0.0131258955 -0.04534648 -0.027157381
0.003968881 0.018016914 0.016488163 0.018505009 -0.00023125301 -0.036710028 0.00049937266 -0.02344563
-0.033627775 0.031714216 0.027155709 -0.035626 0.006684717 -0.0060164295 -0.0058533475 -0.016387705
0.013606441 -0.019893672 0.010608664 0.0152218165 0.023704348 0.0119982045 -0.028452232 -0.009823364
0.028988997 0.0014676313 -0.037348047 -0.03035105 0.02147877 0.006209337 -0.03302224 -0.024350513
-0.046489142 -0.01626497 -0.03969623 -0.034130577 -0.0052524763 0.004900006 -0.014784983 0.021192059
-0.021733541 0.032407943 0.024591288 -0.02951371 -0.006829707 0.009150296 0.01870044 0.021660512
0.029683739 0.015653977 0.0018335341 0.03727393 -0.027368 -0.036997963 -0.039294973 -0.051427007
-0.051744167 -0.055283085 -0.0136943925 -0.015423454 -0.05434312 -0.033298176 -0.0020876576 -0.023299709
-0.002264686 -0.003466139 0.0072914637 0.022691926 0.03383022 0.02268057 0.03398673 0.0016868185
-0.018971592 0.011093771 0.059112467 0.027576575 -0.0059714788 -0.01886035 -0.018092897 0.011266153
0.023581484 0.025720837 -0.001222831 -0.043563023 0.01378019 -0.05409756 -0.035755657 -0.05024029
-0.042690724 -0.04655988 -0.06544084 -0.057322625 -0.016624913 -0.0014452008 -0.015988804 0.013434891
-0.032144945 -0.0023976527 0.032004226 -0.006163659 0.05163825 0.03732746 0.0024303526 0.04349544
0.011596879 0.02836935 0.090126395 0.036423918 0.060339287 0.065213986 0.099654905 0.06300508
0.06502119 0.032442525 -0.007608573 -0.045967177 -0.056191977 -0.013101799 -0.01750665 -0.013956843
-0.043410458 -0.0031900376 -0.025185332 -0.019611146 -0.02081239 0.012614785 -0.020759167 0.006663811
0.02558108 0.044439793 -0.0044058766 -0.021456165 -0.0029647718 0.059490673 0.029546151 0.07742165
0.086494476 0.09043535 0.09425379 0.06433056 0.062242504 0.0090764705 -0.019806042 -0.024373714
-0.039649405 -0.05393144 -0.010675214 -0.07523368 -0.028783692 0.028993662 0.012134763 0.000958908
-0.03135606 0.017180635 -0.025518378 -0.0065657115 0.008452699 0.008177097 0.00819194 0.035924014
0.03032751 0.052750107 0.04548598 -0.012355072 0.031060519 0.010282633 0.047137987 0.070894614
0.076286845 0.05113127 -0.006745025 -0.01693856 0.010021533 -0.039118335 0.022642309 -0.06622597
-0.029900907 -0.013384963 -0.019880468 0.004612164 0.029505648 -0.010983416 -0.02157813 -0.007118757
00000000: 0030 8cb9 b6f2 9c3c accc f0bc 9350 d7bc
00000010: ce5e 61bc 10e9 1c3c 407f 39ba 12fa e73c
00000020: 30b6 4fbb 10d6 1a3c 7cd6 30bc a409 e6bb
00000030: 91f8 0cbd e4de c6bc c5b5 70bc 9c92 ad3a
00000040: dc53 673c ae8c af3c a058 c6bc d8ce 7ebc
00000050: b088 543c a2f2 f23c 54d8 f0bb 46ef da3c
00000060: 70a1 bcbb 60aa 773b 4f75 043d 76b4 07bd
00000070: 502f b8bc 4a23 14bc b216 64bc 2ec8 fc3c
00000080: e5a4 bdbc c2bc 86bc 9b30 d8bc 0e66 17bd
00000090: 19c8 c5bc 4662 f03c 9c57 673c 4ef0 5c3c
000000a0: be35 79bb e963 b4bc e625 ab3b 3a92 09bd
000000b0: ea23 c9bc e96d 9bbc 56a3 a43c 91f6 8f3c
000000c0: 410e 91bc c66b ecba fa8f b93c 975f 113d
000000d0: 983b 683c e818 9e3b 482a c43c 4a44 acbc
000000e0: 6813 da3b 0ed5 e2bc 77c7 cabc 192b 97bc
000000f0: cbf2 833c 3b41 6a3c eadc bdbc 062b 923b
00000100: 5bfe 363c 12f3 1abc 32ed a9bb 608d 92b9
00000110: 95fd c73b ff0d 573c 3bbd 39bd 2879 debc
00000120: 630d 823b 3598 933c 2f12 873c d197 973c
00000130: 827c 72b9 415d 16bd 55e8 023a 0d11 c0bc
00000140: 47bd 09bd c4e6 013d a675 de3c 92ec 11bd
00000150: 780b db3b 7825 c5bb 70cd bfbb 823f 86bc
00000160: 8ded 5e3c 0ef8 a2bc f6cf 2d3c ed64 793c
00000170: 9f2f c23c 1e94 443c a814 e9bc 2df2 20bc
00000180: 557a ed3c 895d c03a 44fa 18bd c4a2 f8bc
00000190: 3ff4 af3c b277 cb3b 5442 07bd ba7a c7bc
000001a0: 666b 3ebd 1d3e 85bc 8498 22bd 81cc 0bbd
000001b0: f71c acbb 3b90 a03b b73c 72bc f89a ad3c
000001c0: 8a0a b2bc 31be 043d ab73 c93c bcc6 f1bc
000001d0: bccb dfbb 20eb 153c aa31 993c 6371 b13c
000001e0: 502b f33c c53c 803c 3253 f03a 8cac 183d
000001f0: db32 e0bc 2d8b 17bd c4f3 20bd 20a5 52bd
00000200: b1f1 53bd 8470 62bd 725e 60bc a8b2 7cbc
00000210: e496 5ebd ab63 08bd 15d1 08bb 08df bebc
00000220: 206b 14bb 2a28 63bb 3bed ee3b 6be4 b93c
00000230: 8f91 0a3d 9acc b93c ab35 0b3d 3d18 dd3a
00000240: 506a 9bbc a6c2 353c ea1f 723d 45e8 e13c
00000250: 65ac c3bb 0581 9abc 8e37 94bc ac95 383c
00000260: f52d c13c 81b4 d23c 6647 a0ba 246f 32bd
00000270: 4ec6 613c 6795 5dbd 8674 12bd c3c8 4dbd
00000280: 78dc 2ebd 93b5 3ebd d905 86bd 21cb 6abd
00000290: f830 88bc e46c bdba f4fa 82bc 041e 5c3c
000002a0: 6baa 03bd f021 1dbb dd16 033d 85f8 c9bb
000002b0: a182 533d aee4 183d 8d46 1f3b 4628 323d
000002c0: d600 3e3c d766 e83c 3094 b83d 3f31 153d
000002d0: 5426 773d e98e 853d df17 cc3d cf08 813d
000002e0: d429 853d 74e2 043d 5651 f9bb 1448 3cbd
000002f0: 8f29 66bd eea8 56bc 1b6a 8fbc 3eab 64bc
00000300: 2acf 31bd f30f 51bb 7851 cebc 8ea7 a0bc
00000310: bf7e aabc 3eae 4e3c 210f aabc 195c da3b
00000320: 6a8f d13c 8006 363d 2c5f 90bb d7c4 afbc
00000330: 9e4c 42bb 7eac 733d c50a f23c 3e8f 9e3d
00000340: 0424 b13d 2b36 b93d 2208 c13d bebf 833d
00000350: fff1 7e3d 7ab5 143c 4840 a2bc 62ab c7bc
00000360: 6a67 22bd 37e7 5cbd 18e7 2ebc 1e14 9abd
00000370: c7cb ebbc 1e84 ed3c e3d0 463c 3a5f 7b3a
00000380: 366f 00bd 67be 8c3c eb0b d1bc 2e25 d7bb
00000390: 307d 0a3c 3bf9 053c 7d37 063c 0f25 133d
000003a0: 6671 f83c 7f10 583d 824f 3a3d ee6c 4abc
000003b0: a172 fe3c 7d78 283c c313 413d 3231 913d
000003c0: 473c 9c3d 066f 513d 5f05 ddbb bcc2 8abc
000003d0: 5b31 243c 8c3a 20bd 5d7c b93c 7ba1 87bd
000003e0: bff2 f4bc 9b4c 5bbc 5ddc a2bc a321 973b
000003f0: d4b5 f13c c9f3 33bc 9ec4 b0bc 7644 e9bb

fc1.bias f4 [100]
-0.044185918 0.0075769997 -0.014844587 -0.13371715 -0.10220182 -0.037387274 -0.02643281 0.06578063
0.047409475 0.049972188 -0.030594174 0.10476864 0.0038541844 -0.05066836 -0.04528891 0.031538837
0.1225976 -0.0034836093 0.031564508 -0.040955383 0.11539097 -0.03844053 0.1418863 -0.08386985
0.07232566 0.02821733 -0.07840543 0.016263755 0.04126629 -0.0077518593 0.09062837 -0.01795405
0.044954363 -0.0192046 0.09023607 -0.033513043 0.09559015 0.008883048 0.09095509 -0.0013623982
0.05936567 -0.07391877 -0.0019135235 0.056230627 0.055831637 -0.011469233 0.049696773 -0.028303761
-0.009247586 0.10440862 0.013525342 0.024876248 0.033380803 0.028251613 0.081874676 -0.046724807
0.097807504 0.075512424 0.013859353 -0.0028240243 0.019191064 -0.030166127 0.0056696 0.07479504
0.07074066 0.06725139 -0.016944038 0.028436482 -0.032915004 0.07771406 -0.050560206 0.05087438
0.08573095 -0.067705356 -0.041604202 0.14384711 -0.0056882985 0.054573894 -0.10240773 0.03694561
0.002034083 -0.0035518354 0.044391304 -0.0030120702 0.11408786 -0.017218303 0.0057313535 -0.10080895
-0.012508222 -0.02113473 -0.0075342637 -0.09013967 0.00018547825 0.042636294 -0.025674269 0.0047089146
0.025640659 0.061358538 0.05638201 -0.007385436
00000000: 4bfc 34bd 7b48 f83b b636 73bc 26ed 08be
00000010: 304f d1bd 6623 19bd 9f89 d8bc ffb7 863d
00000020: 7030 423d a3af 4c3d a2a0 fabc f190 d63d
00000030: 7c96 7c3b a089 4fbd dd80 39bd de2e 013d
00000040: 7314 fb3d 444d 64bb c949 013d d5c0 27bd
00000050: 1a52 ec3d d173 1dbd a44a 113e f5c3 abbd
00000060: 7a1f 943d 0828 e73c 0793 a0bd 913b 853c
00000070: d706 293d 4f03 febb 5e9b b93d 5f14 93bc
00000080: 1122 383d f752 9dbc b0cd b83d f944 09bd
00000090: c5c4 c33d 348a 113c aa46 ba3d 7f92 b2ba
000000a0: 6b29 733d b962 97bd 32cf faba 1652 663d
000000b0: b7af 643d 73e9 3bbc d88e 4b3d 4add e7bc
000000c0: 3083 17bc 30d4 d53d 6599 5d3c 46c9 cb3c
000000d0: 4fba 083d ed6f e73c e9ad a73d 8362 3fbd
000000e0: 4d4f c83d 42a6 9a3d 5712 633c 4413 39bb
000000f0: 9436 9d3c f41e f7bc 0dc8 b93b 242e 993d
00000100: 7be0 903d 19bb 893d 39ce 8abc a0f3 e83c
00000110: e2d1 06bd 8d28 9f3d 3818 4fbd a761 503d
00000120: b593 af3d 1ba9 8abd 2b69 2abd a84c 133e
00000130: e864 babb e088 5f3d 25bb d1bd 4854 173d
00000140: 404e 053b e9c5 68bb a8d3 353d 2766 45bb
00000150: e5a6 e93d 660d 8dbc 14ce bb3b ec74 cebd
00000160: 49ef 4cbc be22 adbc fce1 f6bb 269b b8bd
00000170: f07c 4239 65a3 2e3d d852 d2bc 3d4d 9a3b
00000180: 5c0c d23c 1753 7b3d d3f0 663d 8701 f2bb

fc2.weight f4 [100, 100]
-0.09972743 0.04208985 -0.089347936 -0.19795983 0.0112028755 -0.03441425 0.005360989 -0.01054616
0.043176502 -0.043684162 -0.047051594 -0.06462219 0.022863394 -0.05745374 -0.023512203 0.078813374
0.090816714 0.0820677 0.09587754 -0.14899789 -0.14049442 0.13541207 0.13629356 -0.21401988
0.049538236 0.075596645 -0.022534352 0.06190843 0.06755545 -0.09457857 0.12600747 0.022038097
-0.15822445 -0.129295 0.082558386 0.055045184 0.2240466 0.049727257 0.0005975527 0.018522298
-0.040513214 -0.20148547 -0.09831691 -0.14863777 0.09026954 -0.027805367 -0.0665462 -0.116576806
-0.069641136 0.11941411 0.029964516 0.019290773 0.013679466 -0.05325545 -0.02304284 -0.10230193
0.16124369 -0.16026357 0.03579056 -0.068581946 -0.066211656 -0.111895435 0.02886243 0.09453679
0.02472834 0.029394666 0.035373118 -0.0726291 -0.19909944 0.15341851 0.03346013 0.07311217
0.043924488 0.06606531 -0.028878901 0.1742937 -0.06543624 -0.051666602 -0.13985376 0.06296487
-0.0071971896 -0.05802288 -0.082259804 -0.06760251 -0.041077394 -0.015904265 -0.0066970186 0.021302225
0.037271414 -0.0017127616 -0.1139412 -0.038066942 0.073880464 -0.15711811 0.011723483 0.08853048
0.07684967 0.11652405 -0.027468197 -0.10762509 0.0796678 -0.1966967 0.13485079 0.044301584
0.009594299 -0.051616453 0.057652347 0.015552422 -0.0012130068 0.039280422 0.10739611 0.19200277
0.02934594 -0.092584446 0.07281248 0.019442791 -0.018165655 -0.036416706 -0.065792106 -0.058010958
0.05304459 -0.1696907 -0.0068753636 -0.05638578 -0.04215436 -0.1502088 -0.042551555 0.114588
0.014601602 0.17266938 0.08686558 0.20836228 0.010903347 0.09582675 0.16900474 0.109680526
0.0006793379 0.018666869 0.007300784 0.11764912 -0.047110993 0.0689409 -0.050348893 -0.039682902
-0.101020284 -0.00032703974 0.09965493 -0.020149726 0.026298294 0.014904246 -0.117504776 -0.07418028
0.0076093446 0.1487739 -0.1968615 -0.027466815 -0.0005126538 0.0905234 0.1177751 -0.010705835
-0.027637562 -0.052038684 -0.01544722 -0.09976274 0.080801696 0.07687788 -0.016796684 0.063552946
-0.014690738 0.011093251 0.033401918 -0.0028091432 -0.008168425 -0.030954504 0.2113514 -0.064811766
-0.024336565 -0.05558997 -0.07689959 -0.11376836 0.061479244 -0.07701207 0.055680197 -0.068734735
-0.047290783 0.01927026 0.09018619 0.20023882 0.08723843 -0.009462495 0.065074906 -0.1540874
0.005894712 0.07647268 -0.007885398 0.03371577 0.062307358 0.13856715 0.06571943 -0.054607358
-0.08712626 -0.011101043 0.077282034 0.05397997 -0.062905975 0.102418564 0.050194856 -0.06783567
0.009251023 -0.048373833 -0.07343185 0.00776936 -0.029778386 0.107361235 -0.07775386 0.0427407
-0.033073127 -0.06511534 -0.008248345 0.028154932 0.06948629 -0.02516873 -0.020047547 -0.031676475
0.039903365 -0.041415486 0.062561944 0.08704451 -0.06329634 0.084112324 -0.07936153 -0.005633281
0.07354861 0.13396391 0.023938473 -0.03146747 -0.0032591396 0.022664458 -0.041460793 0.0026963882
-0.05487998 0.004112078 0.002010741 0.095365204 -0.07023227 0.06875361 0.03297474 -0.03335115
-0.047619045 -0.028657643 -0.050647937 0.06881599 -0.008006549 0.0048382864 -0.08771583 0.027457384
00000000: e53d ccbd 6866 2c3d 0dfc b6bd fbb5 4abe
00000010: 448c 373c f5f5 0cbd 3cab af3b cdc9 2cbc
00000020: d8d9 303d 2aee 32bd 2cb9 40bd a458 84bd
00000030: 034c bb3c 9d54 6bbd aa9c c0bc e868 a13d
00000040: 1dfe b93d 1c13 a83d 725b c43d e792 18be
00000050: c5dd 0fbe 76a9 0a3e 8a90 0b3e 0728 5bbe
00000060: 9be8 4a3d 6ad2 9a3d f699 b8bc b293 7d3d
00000070: 835a 8a3d 69b2 c1bd 1a08 013e 3d89 b43c
00000080: 9705 22be e965 04be 5f14 a93d 0f77 613d
00000090: 796c 653e cfae 4b3d 15a5 1c3a 13bc 973c
000000a0: 2ff1 25bd 3552 4ebe 605a c9bd 8034 18be
000000b0: 3ddf b83d 15c8 e3bc 6049 88bd d2bf eebd
000000c0: 03a0 8ebd 638f f43d 2578 f53c af07 9e3c
000000d0: d71f 603c 6322 5abd 57c4 bcbc ad83 d1bd
000000e0: 111d 253e 221c 24be 1f99 123d b174 8cbd
000000f0: fa99 87bd 6f29 e5bd e770 ec3c 819c c13d
00000100: 1693 ca3c 15cd f03c 67e3 103d 91be 94bd
00000110: b9e0 4bbe be19 1d3e 7d0d 093d d5bb 953d
00000120: 2aea 333d 404d 873d 7293 ecbc 0c7a 323e
00000130: 6f03 86bd 5ca0 53bd d335 0fbe baf3 803d
00000140: 67d6 ebbb 66a9 6dbd d477 a8bd 2f73 8abd
00000150: c540 28bd a949 82bc aa72 dbbb 0182 ae3c
00000160: e9a9 183d be7e e0ba 015a e9bd 15ec 1bbd
00000170: a44e 973d 92e3 20be da13 403c 784f b53d
00000180: 5c63 9d3d 29a4 ee3d fc04 e1bc 8b6a dcbd
00000190: df28 a33d dc6a 49be 5316 0a3e 9475 353d
000001a0: 6831 1d3c c66b 53bd de24 6c3d 96cf 7e3c
000001b0: c1fd 9eba 82e4 203d 7ef2 db3d 609c 443e
000001c0: e666 f03c ea9c bdbd b61e 953d 7d46 9f3c
000001d0: 24d0 94bc af29 15bd 03be 86bd e69c 6dbd
000001e0: 4945 593d 66c3 2dbe bb4a e1bb c7f4 66bd
000001f0: 0daa 2cbd 56d0 19be 8a4a 2ebd 1dad ea3d
00000200: 8f3b 6f3c 3ed0 303e 95e6 b13d ec5c 553e
00000210: f4a3 323c d140 c43d 940f 2d3e 2fa0 e03d
00000220: 9815 323a 43eb 983c 6a3b ef3b 06f2 f03d
00000230: 75f7 40bd e330 8d3d a43a 4ebd 8a8a 22bd
00000240: b9e3 cebd 8876 abb9 e217 cc3d 0a11 a5bc
00000250: 856f d73c f030 743c 58a6 f0bd d5eb 97bd
00000260: cf57 f93b 2f58 183e 1096 49be 1602 e1bc
00000270: 9d63 06ba 5564 b93d 1234 f13d 8767 2fbc
00000280: 2b68 e2bc 8426 55bd 5616 7dbc 6850 ccbd
00000290: 5c7b a53d 2672 9d3d 3399 89bc 0c28 823d
000002a0: 6cb1 70bc 78c0 353c 73d0 083d 9a19 38bb
000002b0: dcd4 05bc 4d94 fdbc 806c 583e 08bc 84bd
000002c0: 7a5d c7bc 4fb2 63bd 887d 9dbd 63ff e8bd
000002d0: a9d1 7b3d 81b8 9dbd eb10 643d ccc4 8cbd
000002e0: fbb3 41bd aadc 9d3c 8ab3 b83d 680b 4d3e
000002f0: 10aa b23d 9508 1bbc fe45 853d 16c9 1dbe
00000300: 6e28 c13b b59d 9c3d c231 01bc 8c19 0a3d
00000310: 0036 7f3d 8ce4 0d3e e997 863d f7ab 5fbd
00000320: 416f b2bd 26e1 35bc 0b46 9e3d 1a1a 5d3d
00000330: d9d4 80bd d3c0 d13d 1f99 4d3d 6eed 8abd
00000340: 9a91 173c a423 46bd 7063 96bd 1e96 fe3b
00000350: cdf1 f3bc 35e0 db3d 6a3d 9fbd df10 2f3d
00000360: b077 07bd 315b 85bd 1124 07bc 2ca5 e63c
00000370: d44e 8e3d a72e cebc c13a a4bc 31bf 01bd
00000380: b671 233d 49a3 29bd 7a20 803d 6444 b23d
00000390: 83a1 81bd 1543 ac3d 4c88 a2bd 6397 b8bb
000003a0: a7a0 963d d62d 093e 9e1a c43c 09e4 00bd
000003b0: 4a97 55bb d0aa b93c cbd2 29bd e3b5 303b
000003c0: d4c9 60bd 9cbe 863b a3c6 033b d54e c33d
000003d0: f0d5 8fbd b1ce 8c3d 8510 073d 379b 08bd
000003e0: 300c 43bd 6fc3 eabc 3674 4fbd 66ef 8c3d
000003f0: e72d 03bc 7d8a 9e3b 5ba4 b3bd 4fee e03c

fc2.bias f4 [100]
0.0038396218 0.19531825 -0.0015527015 -0.08204442 0.09560859 0.15971436 -0.019878551 -0.08667896
-0.0060808435 -0.039686687 -0.057825036 0.14094724 0.0970985 -0.0530985 0.040542554 0.18318242
0.076684736 0.10561657 0.1032919 0.12413673 -0.03327855 0.012942452 0.044211417 0.037883993
0.12910242 0.04443417 0.12214682 0.095587805 0.08121903 0.022753974 0.11558586 0.10549246
-0.041336514 0.062678196 -0.059474785 -0.000588554 0.0049149785 -0.03899197 0.009219073 0.049044374
0.17018463 0.063406624 0.14979663 0.009265434 -0.103557155 -0.044689476 -0.07088759 -0.004806703
0.06769402 -0.008116521 0.0563017 -0.1542382 -0.03261596 -0.0073615313 0.040552698 0.10869805
0.065091304 0.021027947 0.13105313 0.092659615 -0.052782074 0.07244023 0.06035212 -0.06005849
0.030325921 0.065495506 0.18060534 -0.08213451 0.0940475 0.19332747 0.01464674 -0.09839846
-0.055467024 0.047483407 0.056775987 -0.0066186367 -0.027365265 0.04144492 -0.06739374 -0.027334131
0.015119651 -0.073499486 -0.05191678 -0.03387534 0.10205058 -0.022878418 0.1041629 -0.009216564
-0.06620592 -0.098296545 0.044826705 -0.045161102 0.071879536 -0.046047293 0.007402039 0.020249836
0.10977784 -0.07405731 -0.019751363 0.08316519
00000000: 2aa2 7b3b 8201 483e 0484 cbba e806 a8bd
00000010: 70ce c33d 298c 233e 58d8 a2bc bd84 b1bd
00000020: d041 c7bb 828e 22bd f2d9 6cbd 7954 103e
00000030: 94db c63d d07d 59bd f30f 263d 2c94 3b3e
00000040: e30c 9d3d 804d d83d b48a d33d 663b fe3d
00000050: 174f 08bd 940c 543c 0817 353d 3f2c 1b3d
00000060: 6d33 043e 9b00 363d 1d28 fa3d 8ac3 c33d
00000070: 2a56 a63d 8b66 ba3c 48b8 ec3d 6e0c d83d
00000080: 7a50 29bd 6d5d 803d d59b 73bd 3149 1aba
00000090: d40d a13b 0bb6 1fbd 980b 173c c1e2 483d
000000a0: e144 2e3e 55db 813d 4a64 193e 0cce 173c
000000b0: c615 d4bd 500c 37bd 832d 91bd 8c81 9dbb
000000c0: 2aa3 8a3d 28fb 04bc 9d9c 663d 9ef0 1dbe
000000d0: 5098 05bd 0039 f1bb 961a 263d 159d de3d
000000e0: 974e 853d cd42 ac3c cb32 063e 53c4 bd3d
000000f0: 0432 58bd 8b5b 943d c933 773d e4ff 75bd
00000100: 116e f83c 8222 863d 9bf0 383e 2336 a8bd
00000110: fa9b c03d a3f7 453e e1f8 6f3c 2285 c9bd
00000120: 6431 63bd f67d 423d f08d 683d 26e1 d8bb
00000130: 1f2d e0bc 26c2 293d bb05 8abd d4eb dfbc
00000140: 6ab8 773c e686 96bd b1a6 54bd dec0 0abd
00000150: e5ff d03d 856b bbbc 5c53 d53d 1201 17bc
00000160: f896 87bd b34f c9bd 359c 373d d9fa 38bd
00000170: 9435 933d 169c 3cbd ce8c f23b fce2 a53c
00000180: 34d3 e03d 5cab 97bd 9ccd a1bc 8352 aa3d

fc3.weight f4 [10, 100]
-0.08920931 -0.27038717 0.04409305 0.057294883 0.45185086 0.06996534 0.3208969 0.1736694
-0.12129631 0.3631484 0.045869578 -0.30348235 -0.18221842 -0.052540764 -0.021363564 -0.01801824
0.44639573 0.01786196 0.38253 -0.015458928 0.49057004 0.012965578 -0.004458622 0.24950418
-0.14735487 -0.0658168 -0.11709088 -0.3076561 -0.062411956 -0.06592685 -0.27488136 -0.3575034
0.16936189 0.1571929 0.036673784 -0.3359272 -0.107898206 0.15079442 -0.06159044 0.2730434
0.030739862 -0.32674828 -0.19641061 -0.030630922 0.21944737 0.031082813 -0.056499206 0.046919428
-0.048318803 -0.04832848 0.13919403 0.27838907 0.060424063 -0.10955693 -0.1331785 0.2959661
-0.14705567 0.076655544 -0.11094342 0.074815944 0.05618638 -0.016741049 -0.3772087 -0.08783366
-0.17028679 -0.12814145 -0.11269272 -0.03933661 0.13414308 -0.3037789 -0.06970282 0.050324522
0.28358936 0.03420817 -0.046442915 -0.12197049 -0.06521658 -0.02937815 -0.08812792 0.04806262
-0.04480382 0.11940984 -0.23247339 -0.00489621 -0.13785937 -0.14181185 -0.059724122 0.0066531
0.044177856 0.066031426 -0.19587483 0.44732457 -0.075260416 0.036661126 -0.31126755 0.032861706
-0.07485797 0.115444064 0.17347537 0.13278456 0.10038822 0.25883403 -0.0051430706 0.02164943
-0.049427167 0.16039763 0.14589804 -0.14432855 -0.05367272 0.0081458865 -0.03731292 -0.21196505
0.24106862 -0.06175248 0.022839451 0.09577944 -0.36705127 -0.028032023 0.22157095 -0.18151449
-0.27554166 0.11053517 0.057277847 -0.34175497 0.48087445 0.023107946 0.4287812 0.03880857
-0.055300433 -0.06981225 0.31993854 -0.07041604 -0.10541603 -0.14125313 -0.006783275 -0.28206524
-0.039111048 -0.12614952 0.31632444 -0.3113557 -0.18644542 0.37638584 0.32445085 0.026861941
-0.050037287 -0.15495831 0.095051266 -0.16529611 -0.20533001 -0.08443437 -0.34979102 -0.256526
-0.012582208 0.030709889 -0.113621615 0.1026026 -0.13059603 0.027652496 0.44381472 0.3238294
-0.036164254 0.20930322 0.48776913 -0.05601362 0.10418525 -0.16873585 -0.1277873 -0.021328706
-0.08279858 -0.17592816 -0.009088339 -0.056032266 -0.2291801 0.2383761 0.0016698105 0.1670644
0.00831126 0.048694152 -0.27246624 -0.056381077 0.13006163 0.20779552 -0.003798931 0.044558387
-0.14571723 0.08748881 -0.30824733 0.18889779 -0.07173357 -0.038439166 0.15624052 0.12593429
-0.11435907 0.017571233 0.094826184 0.06380952 0.08081093 -0.05751042 -0.23071133 0.04400045
0.17052256 -0.16689624 0.14554915 -0.0037577467 -0.23124427 -0.1059497 0.17655969 -0.28807968
-0.026957896 -0.19610886 -0.03397538 -0.4212802 0.42372555 0.13160038 -0.09645125 -0.08363104
0.121178396 0.08732438 -0.22694233 -0.024750063 0.32667524 0.008322403 0.064304814 -0.28943187
0.34302968 -0.17337207 0.12655419 -0.43552172 0.011437286 0.32177398 -0.28850746 -0.069696866
-0.44911784 0.5126423 -0.0495838 -0.0179573 0.4363396 0.48154393 0.23331553 0.34621093
-0.38384563 0.19429913 0.011111857 0.092173554 0.041993003 0.11205179 0.051184952 0.062318016
0.07558477 -0.048445374 0.14602688 0.5474818 -0.02118862 -0.0010220464 0.1321121 0.4361092
00000000: 5fb3 b6bd 3070 8abe ea9a 343d 0aae 6a3d
00000010: ff58 e73e fd49 8f3d 994c a43e 64d6 313e
00000020: 336a f8bd 96ee b93e bde1 3b3d 0a62 9bbe
00000030: 7797 3abe fc34 57bd a402 afbc fd9a 93bc
00000040: fb8d e43e 3f53 923c f9da c33e 7247 7dbc
00000050: ff2b fb3e 936d 543c a219 92bb 067e 7f3e
00000060: 32e4 16be f5ca 86bd 58cd efbd 1a85 9dbe
00000070: aea3 7fbd a804 87bd 40bd 8cbe b00a b7be
00000080: 346d 2d3e 2df7 203e 4037 163d a6fe abbe
00000090: bcf9 dcbd da69 1a3e 4246 7cbd 58cc 8b3e
000000a0: 2ad2 fb3c 8d4b a7be dd1f 49be b3ed fabc
000000b0: d0b6 603e 62a1 fe3c b66b 67bd 962e 403d
000000c0: f0e9 45bd 16f4 45bd e188 0e3e 0389 8e3e
000000d0: 397f 773d 625f e0bd f25f 08be de88 973e
000000e0: c395 16be 95fd 9c3d 4e36 e3bd 1a39 993d
000000f0: b123 663d 8624 89bc 8021 c1be 22e2 b3bd
00000100: a95f 2ebe 8337 03be 71cb e6bd 6d1f 21bd
00000110: ce5c 093e e888 9bbe 5ac0 8ebd 1621 4e3d
00000120: a032 913e de1d 0c3d ed3a 3ebd aacb f9bd
00000130: 4590 85bd 72aa f0bc 697c b4bd 4fdd 443d
00000140: 3684 37bd 258d f43d 810d 6ebe 6370 a0bb
00000150: 022b 0dbe 2037 11be 48a1 74bd 3f02 da3b
00000160: d7f3 343d 7c3b 873d 6993 48be ba07 e53e
00000170: 2222 9abd fa29 163d 765e 9fbe ff99 063d
00000180: 234f 99bd f06d ec3d 87a3 313e adf8 073e
00000190: 5798 cd3d e585 843e 3487 a8bb 255a b13c
000001a0: 2474 4abd 473f 243e 4c66 153e ddca 13be
000001b0: edd7 5bbd 5376 053c 6fd5 18bd 5e0d 59be
000001c0: b1da 763e 2bf0 7cbd cd19 bb3c 0328 c43d
000001d0: 25ee bbbe 6aa3 e5bc 7fe3 623e efde 39be
000001e0: cc13 8dbe 4360 e23d 2d9c 6a3d 82fa aebe
000001f0: 2d35 f63e e04c bd3c 3689 db3e bcf5 1e3d
00000200: b582 62bd baf9 8ebd fcce a33e 4936 90bd
00000210: 5ce4 d7bd a9a4 10be 3c46 debb db6a 90be
00000220: e832 20bd 572d 01be 47f5 a13e 046a 9fbe
00000230: 8ceb 3ebe a5b5 c03e 6c1e a63e 930d dc3c
00000240: e6f3 4cbd 64ad 1ebe 3daa c23d 6243 29be
00000250: 0842 52be edeb acbd cf17 b3be 6057 83be
00000260: 9b25 4ebc 4e93 fb3c 73b2 e8bd 5021 d23d
00000270: f7ba 05be 7d87 e23c af3b e33e f8cc a53e
00000280: f820 14bd 9553 563e e0bc f93e 8a6e 65bd
00000290: 145f d53d 17c9 2cbe adda 02be 8ab9 aebc
000002a0: 4d92 a9bd 8326 34be 42e7 14bc 1782 65bd
000002b0: 30ae 6abe dd18 743e 8bdd da3a ee12 2b3e
000002c0: f32b 083c 8573 473d b280 8bbe d8ef 66bd
000002d0: e02e 053e 59c8 543e 7cf7 78bb db82 363d
000002e0: e636 15be 552d b33d 98d2 9dbe 6c6e 413e
000002f0: 0de9 92bd 6372 1dbd 84fd 1f3e ebf4 003e
00000300: 1735 eabd 8cf1 8f3c 3b34 c23d 91ae 823d
00000310: 3380 a53d 0c90 6bbd 973f 6cbe d139 343d
00000320: 779d 2e3e d9e6 2abe d60a 153e 8744 76bb
00000330: 4ccb 6cbe 28fc d8bd 10cc 343e 2e7f 93be
00000340: ced6 dcbc c3d0 48be c529 0bbd 0ab2 d7be
00000350: 8ef2 d83e 40c2 063e 3c88 c5bd c046 abbd
00000360: 612c f83d 20d7 b23d 9263 68be a5c0 cabc
00000370: fa41 a73e b05a 083c 3eb2 833d 6a30 94be
00000380: 96a1 af3e 7388 31be 6c97 013e b4fc debe
00000390: 7463 3b3c 8fbf a43e 40b7 93be 3bbd 8ebd
000003a0: c6f2 e5be 873c 033f 6218 4bbd 301b 93bc
000003b0: e767 df3e ed8c f63e 44ea 6e3e 8f42 b13e
000003c0: 6a87 c4be 5af6 463e 820e 363c 7dc5 bc3d
000003d0: db00 2c3d 697b e53d 50a7 513d 2d41 7f3d
000003e0: 30cc 9a3d a86e 46bd 1288 153e c427 0c3f
000003f0: c293 adbc 30f6 85ba 6548 073e b449 df3e

fc3.bias f4 [10]
-0.22895265 0.30218917 0.10684729 -0.18041289 0.13149238 0.29495978 0.029311681 -0.0060958485
-0.20699927 0.02074366
00000000: 9072 6abe 8ab8 9a3e c1d2 da3d 28be 38be
00000010: f0a5 063e f804 973e 0d1f f03c afbf c7bb
00000020: 9ef7 53be 9cee a93c
