artifacts/1/e0ef53619e774f03a93e15252a3ae1a4/artifacts/model/data/model.pth (torch, 362823 bytes, 6 tensors)

weight f4 [100, 784]
000000 45 63 51 bc d0 25 96 bc 6c 9d 81 3b 7e ee 10 3a
       -0.012780015 -0.018328577 0.0039555337 0.0005528702
000010 2c 2c ca bb 83 76 0d 3c c2 24 11 3c c4 36 ca 3b
       -0.0061698165 0.008634212 0.008858861 0.0061710794
000020 1a fe 67 bc 3e c4 03 bc 71 59 5b bc 80 d0 7f 3c
       -0.014159704 -0.008042393 -0.013388024 0.015613675
000030 d9 36 0c be c6 8f 0d be 19 80 2f bd c0 f9 2a bc
       -0.13692798 -0.13824376 -0.042846773 -0.010435522
000040 32 01 15 bc 4b 80 13 3c 6b db 5b 3c 27 74 6f bc
       -0.009094523 0.009002755 0.013419013 -0.014615095
000050 04 40 78 bc 7d 4c 9b 3c c2 dc 59 3c ca 9f 9f 3c
       -0.015151981 0.01895737 0.013297262 0.019485373
000060 eb ee 17 bc eb b5 7a 3c 8d fb 09 bb cb 07 31 bc
       -0.009273271 0.015302162 -0.0021054477 -0.010805081
000070 ec 19 af 3b de 04 f9 bb 37 ca 87 bc ac 87 99 bc
       0.0053436663 -0.007599457 -0.016575916 -0.018741451
000080 d0 c8 b7 3a b2 77 55 bd 76 f4 97 bd d5 7b 82 bd
       0.0014021639 -0.052116103 -0.07419674 -0.06371275
000090 c9 26 48 bd dc 4b db bc b9 3a 51 bd 61 68 a2 3d
       -0.048865113 -0.026769571 -0.051081393 0.07930065
0000a0 18 3c 7a bd c5 db e3 bd 65 5a 10 bc 67 f2 4e be
       -0.061092466 -0.11125902 -0.008810614 -0.20209657
0000b0 3e b8 7d be 7d d4 85 be ba 6e 6c be ed 06 4b be
       -0.24777314 -0.26138678 -0.23089114 -0.1982686
0000c0 b2 eb 85 be 08 72 68 be b2 5e 1a be a8 76 15 be
       -0.26156384 -0.2269975 -0.15075186 -0.14596045
0000d0 56 ef 97 bc d4 e9 85 3c 4d b7 a2 3c ea ad f2 3b
       -0.018546741 0.01634685 0.019862795 0.007405986
0000e0 17 ce 23 bc 37 8c 3a 3c fd 0a 4f be 5c a6 25 be
       -0.009997866 0.011385969 -0.20219035 -0.16176742
0000f0 5d 68 42 be 7c f7 84 bd 9d c1 72 bd 85 41 c4 bd
       -0.18985124 -0.064925164 -0.059266675 -0.09582809
000100 7a aa e2 bd 0f f2 a9 be 7c 52 00 bf 7f 10 15 bf
       -0.11067672 -0.3319249 -0.5012586 -0.58228296
000110 95 41 0a bf d0 a3 07 bf 09 54 fe be bf 8a a2 be
       -0.5400632 -0.52984333 -0.4967349 -0.3174648
000120 22 9e b1 bc b9 76 80 bd c8 f0 ef be 23 5b 10 bf
       -0.021681849 -0.062726445 -0.4686339 -0.56389064
000130 e6 0f 31 bf 36 96 da be 23 4b 38 be cf dc 92 be
       -0.69164884 -0.42692727 -0.17997412 -0.2868409
000140 90 62 d9 bd 30 fd fc 3c 22 3b 73 bc 9c 17 05 bb
       -0.106145024 0.030882448 -0.014845641 -0.0020308262
000150 7b cf 06 bc 6a 7f 6f 3c 66 53 da bd 46 ea 10 be
       -0.008228178 0.01461778 -0.10660438 -0.14151868
000160 c0 f4 1d be 40 b4 47 be 63 84 be be ab 89 14 bf
       -0.15425396 -0.19502354 -0.37210378 -0.58022565
000170 44 68 14 bf ab 5d c9 be 5b 08 b3 be 21 5b 16 bd
       -0.57971597 -0.39329275 -0.34967312 -0.036708
000180 32 ce d8 bd 61 36 18 bf f0 0f 90 be 42 d6 16 3e
       -0.10586204 -0.59457976 -0.2813716 0.1473017
000190 9c c7 2b be 51 75 b8 3d b6 29 87 3e 94 8f 31 3e
       -0.16775364 0.09006751 0.2639901 0.17339927
0001a0 97 61 22 3e 92 2a c7 3d 9d e4 60 3c e0 e3 93 be
       0.1585754 0.097249165 0.013726381 -0.28884792
0001b0 99 00 13 be bf 5f 66 3d 4c 11 a4 3d af b5 84 bb
       -0.14355697 0.056243654 0.080111116 -0.0040499787
0001c0 a3 2d 54 3a 6d 55 ac bb c1 78 e6 bc 85 e9 14 3e
       0.00080939586 -0.005259207 -0.028133752 0.14542206
0001d0 e1 db f4 bd 12 b9 6b be 5d 66 fe be a2 95 11 bf
       -0.11956001 -0.23019817 -0.49687472 -0.56868947
0001e0 d6 34 f7 be ff d7 3c bf 15 90 4d bf d7 8b 24 bf
       -0.48282498 -0.73767084 -0.80297977 -0.6427588
0001f0 2f bf 1d bf 23 cf 03 bf e5 5e d2 be 4f 6a 35 bd
       -0.6161985 -0.5148794 -0.41088024 -0.044290837
000200 2a 98 16 be 67 67 2f be 8c 92 18 3e e7 7b cb bd
       -0.14706483 -0.17129289 0.14899653 -0.09935742
000210 aa d5 a5 bd 32 f4 1b 3e a3 fc 21 3e 50 73 4c 3d
       -0.08097394 0.15229872 0.1581903 0.049914658
000220 76 2e e6 3d 8f 42 5e bc 36 21 1c 3e f0 b1 d3 bd
       0.112393305 -0.0135656735 0.15247044 -0.10336673
000230 ef 5d f8 3b 72 07 5f 3b 90 e0 e6 bd 22 f3 4f be
       0.007579557 0.0034031537 -0.11273301 -0.20307592
000240 e1 5b 05 bf cb cb e2 be 57 18 61 be 53 82 40 be
       -0.5209332 -0.44296107 -0.21981941 -0.18799715
000250 ea 1b 7d be 87 98 0c be cb de ca be 8d a7 24 be
       -0.2471768 -0.1373006 -0.39623103 -0.1607954
000260 e6 e8 61 bd 22 f4 74 be 75 6d 91 be 3f 12 8a be
       -0.05515375 -0.23921254 -0.28403822 -0.26967046
000270 3e 94 d4 bd b7 cb c2 bd 3d dc ec bd d5 e4 97 3c
       -0.103798375 -0.09511512 -0.115654446 0.018541733
000280 c4 55 d9 3d 27 97 af bd 07 26 09 bd 10 f2 1b 3c
       0.106120616 -0.08573752 -0.03348353 0.009518161
000290 08 53 0a 3e e4 cc 84 bc da b5 5a 3e 77 b1 af 3e
       0.13508236 -0.01621098 0.21358433 0.34315082
0002a0 b3 25 09 bc 55 60 94 bc be ec ac 3e 2a 4f b7 bd
       -0.008370805 -0.018112341 0.3377437 -0.08950646
0002b0 c4 9f 32 be 95 fa a1 3d c3 99 8a 3d a1 28 08 be
       -0.17443758 0.07909123 0.06767609 -0.13296749
0002c0 1a 29 0e be f4 1b e9 3d 1a 2d dd 3d 7d 06 01 bc
       -0.13882867 0.11382285 0.10799618 -0.007875082
0002d0 c1 06 43 bd 2d b4 c8 bc 4d f6 78 bc 31 d0 6b 3d
       -0.047613863 -0.024499977 -0.015195441 0.057571594
0002e0 b7 84 4e bc 7a 3f 43 3c 93 73 2e 3c 46 0f 7f 3c
       -0.012604884 0.011916989 0.010647672 0.015567606
0002f0 41 fc d4 3d f7 c8 ad bd dc c3 12 be 2e d0 a4 bd
       0.10399676 -0.084855966 -0.14332527 -0.080475196
000300 c3 bd c0 3d bf 7a a1 bb 78 ad d2 b9 63 67 0d 3e
       0.09411194 -0.0049279626 -0.00040183566 0.1380897
000310 a2 06 6f 3c c5 d7 63 bc b7 52 69 3e 21 3e f5 bc
       0.014588984 -0.013906424 0.2278546 -0.029936852
000320 ec 88 f7 3d c5 29 ad bd 90 ac f1 3c 43 66 3d be
       0.12086663 -0.084552325 0.02950123 -0.18496041
000330 75 e7 b0 3d 5e 95 cd 3d 84 e6 5a 3e 8e dc ec 3d
       0.08637897 0.10038255 0.21376997 0.11565505
000340 a5 25 81 3d f4 28 f5 3d 43 d2 ab 3d a3 33 ce 3d
       0.06306008 0.11970702 0.083897136 0.10068443
000350 f9 a9 a9 3d ef 6c 86 3d 82 51 87 bd 09 ef 2d bd
       0.08284373 0.06563746 -0.06607343 -0.04246429
000360 8a 1c b6 bc ea 81 5f be f5 e2 73 be e1 73 b5 bd
       -0.022230405 -0.21826902 -0.23817046 -0.08859993
000370 e6 64 cd 3c 78 90 7c 3d 7c 0e 11 bd 34 36 5b 3c
       0.025072526 0.061661214 -0.035414204 0.013379622
000380 90 95 cf be c7 52 8e be 62 35 75 3e a1 c6 fc 3c
       -0.40543795 -0.2779753 0.23946145 0.030856432
000390 6f 93 53 3e 10 42 ce bd 6c b0 50 be ad d2 35 be
       0.2066171 -0.10071194 -0.203798 -0.17756148
0003a0 13 94 99 bc d7 16 1d bd e9 dd 02 bd 88 8d 07 3e
       -0.018747365 -0.03835186 -0.03194991 0.13237584
0003b0 b9 3a 83 3d 48 6e bc bc 5a 83 05 3d 26 5d c6 3d
       0.06407685 -0.023001805 0.03259597 0.096857354
0003c0 23 f1 84 3e 33 6c 59 3e b8 f9 8c 3d d1 3f ad 3c
       0.25965223 0.21232681 0.068835676 0.021148594
0003d0 93 f9 d4 3c ab bd ba 3c e6 3c a4 bd f4 92 35 3d
       0.025997913 0.022795519 -0.08019428 0.0443296
0003e0 9e c5 86 3e 86 a7 6b 3e 3d 88 4f be ed f3 7e bd
       0.26322645 0.23013124 -0.20266815 -0.062244345
0003f0 8f 06 f7 3c 06 92 ef 3d 1b cb 6c 3e 75 02 9a bd
       0.030154495 0.11697774 0.23124354 -0.0752

bias f4 [100]
000000 d9 0e 5c 3e 81 9c 80 bd f5 fb 04 3e 7b ae 4f 3e
       0.21490039 -0.06279851 0.12986739 0.20281403
000010 a6 51 fe bd 03 6e 2f bd 4b 75 48 bc 2b ae bb 3c
       -0.12417917 -0.042829525 -0.012234996 0.022910198
000020 32 ef 80 bc 09 35 63 3c 4c 41 84 bc 1b 83 9e 3d
       -0.015739057 0.013867625 -0.016144417 0.0773985
000030 37 b0 75 bd 82 cb a4 bd d0 51 09 bd c3 45 07 3d
       -0.059982505 -0.080466285 -0.033525288 0.033025514
000040 81 47 88 be 15 3b be 3d 27 a7 ad bd 8d 6c 40 be
       -0.26617053 0.09288613 -0.084791474 -0.18791409
000050 11 64 a3 3d b8 5d 8b 3e d3 b9 c4 bd 04 55 43 3d
       0.079780705 0.2721994 -0.09605756 0.0476885
000060 93 29 0a 3e 05 37 26 be 24 14 4d 3d 38 a8 31 3d
       0.13492422 -0.16231926 0.050068036 0.043373317
000070 59 f2 c2 3d 1a 4d 71 3d 3a 44 81 bc 76 2d 11 3e
       0.095188804 0.05891142 -0.015779603 0.14177498
000080 42 63 5e 3d 21 cd ab bd 92 f8 da 3c 58 f5 6c bd
       0.05429388 -0.083887346 0.026729856 -0.057851166
000090 3c e9 f2 bd e5 1d 15 be 12 64 c6 3b ba 32 16 be
       -0.11860892 -0.14562185 0.00605441 -0.14667788
0000a0 86 f1 fa 3d 7c 80 dd 3d cb 30 71 bd bc 56 6c 3e
       0.12253098 0.10815522 -0.058884423 0.23079962
0000b0 ea 0b 72 3c e1 40 b6 3d 11 ae 59 bc fd a3 92 be
       0.014773348 0.088990934 -0.01328613 -0.28640738
0000c0 dd be b0 bb d7 90 24 be dc da 36 3e d1 df 33 bd
       -0.0053938464 -0.16070877 0.17856926 -0.04391462
0000d0 2a fd cb 3c 7b 3c 40 3c fd 80 6a 3e e9 2f b2 bd
       0.024900991 0.01173317 0.22900768 -0.087005444
0000e0 dd ec e7 bd a0 96 97 bd 82 4b 08 3e 77 89 21 3c
       -0.11324475 -0.07401776 0.13310054 0.009859434
0000f0 ac 05 71 be 67 66 c3 bd aa 7c 89 bd a6 70 ab 3a
       -0.2353732 -0.09541016 -0.06713231 0.0013079836
000100 05 e1 09 3c eb b3 19 be 8a 64 fe bd 0c 44 34 3e
       0.008415465 -0.1501004 -0.1242152 0.17604083
000110 38 a4 7c 3e d8 a3 1d 3e 27 f5 b8 bd 0f 4a c2 bd
       0.2467202 0.15394533 -0.09031134 -0.09486782
000120 47 d5 9d bc 63 0a 7e bd 7d ab 66 3d f8 b6 c3 be
       -0.019266738 -0.062021624 0.056315888 -0.38225532
000130 3e 04 8e 39 89 24 ab 3c 3a 3c 85 3e 5a fd cc bd
       0.0002708751 0.020891445 0.26022512 -0.100092605
000140 4f 53 03 3c d6 78 0d 3e a3 b9 2e bd dc 19 dd bd
       0.008015468 0.13815627 -0.042657506 -0.10795948
000150 2e 3f 97 3d db fd ce bc cc f7 0a be d6 0e ce bd
       0.073850974 -0.025267532 -0.1357109 -0.100614235
000160 ef 2e d7 bd 8b 99 1d bd d1 87 55 3c 03 5e 0f bd
       -0.10506999 -0.038476508 0.013032869 -0.035001766
000170 b9 b7 6d 3d 2c 27 c1 3c a5 0f b2 bd 81 c7 79 bb
       0.05803654 0.023578249 -0.0869439 -0.0038113298
000180 91 cd fa 3b 2a 7d b0 bd 20 ca 59 bc 48 c8 2a 3e
       0.0076539 -0.08617623 -0.013292819 0.16677964

weight f4 [100, 100]
000000 81 9a 8a 3d f9 c2 4a 3e de 4d 14 be 1d 84 a3 3d
       0.067677505 0.19800939 -0.14482829 0.07984183
000010 ad 25 34 3e e3 25 95 bd 18 0d 51 be 12 ef a6 be
       0.17592497 -0.07282617 -0.20415151 -0.3260427
000020 b2 9d b5 3d 09 0a 17 3e 45 19 35 bd 3f e4 07 3d
       0.088679686 0.14749922 -0.044213552 0.033176657
000030 f5 c4 f8 bc 9d ee b2 be 6d 6e 91 bc 31 ca f6 3c
       -0.030367354 -0.34947672 -0.01775285 0.03012571
000040 09 2e ea bc f8 73 1c 3e eb 4c 41 3e a5 e1 17 be
       -0.028586404 0.15278614 0.18876998 -0.1483217
000050 7f ed fc 3d eb 88 29 3e cd e3 75 3c e8 c7 b7 3b
       0.12349986 0.16556136 0.015007925 0.0056085475
000060 c4 e5 a9 3d d2 7f 13 3e 7b 1d 41 bd 83 7b a4 3c
       0.082957774 0.14404228 -0.047147255 0.020078426
000070 6b 1e 20 3d a8 2c c3 bd ea 63 3d 3e 14 72 89 be
       0.03909151 -0.09530002 0.18495145 -0.26844847
000080 7c 87 d1 be 63 d3 58 be 53 91 54 3e c9 4f f5 3d
       -0.4092368 -0.21174388 0.20758562 0.119781084
000090 fb c5 20 3e e3 8a 5d bc 7b 4a 1d bd 44 87 3f be
       0.15700524 -0.013521883 -0.03840111 -0.18703943
0000a0 c9 9d 8d be 8a 32 9f be 1a 76 25 3e b6 0c 5e be
       -0.27659443 -0.31093246 0.16158333 -0.21684536
0000b0 e7 b6 55 3e 29 f7 ae 3e 5e e2 06 3e ea 51 28 3e
       0.20870553 0.34172943 0.1317229 0.16437498
0000c0 e1 98 7b 3d 42 7c a1 bb a2 e0 93 3e d2 90 6b bc
       0.061425094 -0.0049281428 0.2888232 -0.01437779
0000d0 65 5a a6 be 59 0d c2 3b 23 c1 72 3e d9 6f 53 3d
       -0.3249084 0.0059220013 0.23706488 0.051620338
0000e0 6f 4a cc bd 8f dd ad 3e c0 e3 a6 3d a7 ba 9c be
       -0.099751346 0.33958098 0.081489086 -0.30611154
0000f0 52 fb b2 3c 9a f4 3e be 80 c0 fd 3d bb b2 7d be
       0.021848354 -0.18647996 0.12390232 -0.24775212
000100 71 15 51 be 22 5f 55 3e 05 20 2f 3d 13 cb 84 bd
       -0.20418335 0.20837072 0.042755146 -0.06484046
000110 e1 3a cb bd 31 6c 80 bd e2 ea 36 3d c7 e9 20 bd
       -0.0992334 -0.06270636 0.044657595 -0.039285447
000120 a4 a3 c8 39 cd 05 ab 3e 10 49 13 bd 1e 36 fd bd
       0.00038268894 0.33402863 -0.03595835 -0.12363838
000130 4a 49 72 3d be 18 12 3e 6c 1b c8 3b 4c 56 2c 3c
       0.059151925 0.14267251 0.0061067846 0.010518622
000140 60 02 9d 3e 89 6e 0d be 2d 54 1f be 3c 25 5a 3e
       0.30665874 -0.13811697 -0.15559454 0.21303266
000150 49 47 03 bf 2e f8 31 3e 1d cf 18 3d 54 c6 bf bc
       -0.5128065 0.1737983 0.037306894 -0.02341
000160 fa 35 19 3d 98 e6 6c bd 88 df 40 3e ba 32 96 3d
       0.03740499 -0.0578371 0.1883527 0.07333894
000170 5c 95 87 be c1 ce 4c bc 50 47 9f 3e a3 21 09 bf
       -0.2648114 -0.012500466 0.31109095 -0.5356695
000180 9f 68 1e bd af 24 fb 3d 8a 7f 94 bb 93 df 40 3d
       -0.038673993 0.12262856 -0.0045318054 0.047088217
000190 b5 cc 46 be 2d 2d 71 3d a3 fe 81 3d 1b c2 92 3e
       -0.19414027 0.058880974 0.06347396 0.28663716
0001a0 c3 bf 18 3e e6 72 44 be 46 19 c7 3d 56 4f f6 bd
       0.14916901 -0.19184455 0.097216174 -0.12026851
0001b0 75 c7 5c 3e 49 b9 5b bc e7 08 63 bd 33 06 3d be
       0.21560462 -0.013410875 -0.05542841 -0.18459396
0001c0 04 a2 8f bb 70 13 12 3f 90 32 3a 3e 7c 21 f7 3d
       -0.0043833274 0.5706091 0.1818335 0.120669335
0001d0 f3 4a 13 3d 11 63 5a 3d 88 86 a6 bd 9c 06 b6 bd
       0.03596015 0.053317133 -0.081311285 -0.088879794
0001e0 1d ed 84 3e 49 af 87 be ca 42 56 3e f9 37 8f bd
       0.25962153 -0.2650092 0.20923916 -0.06993098
0001f0 61 90 de 3e 58 cd 91 3e 0b e6 d9 be 62 26 0a 3d
       0.43469527 0.28476977 -0.4255832 0.03372801
000200 5b b2 d3 3d 93 8e 09 bd a1 98 9d be 70 5c 9b 3d
       0.10336753 -0.033583235 -0.3078051 0.075859904
000210 06 44 4d 3e e2 2b e1 bb 72 80 71 be 20 ed e9 3a
       0.2004548 -0.0068716863 -0.23584154 0.0017847158
000220 e4 6d a2 bc ff 66 dc 3d e7 b2 ee 3c 78 72 93 3e
       -0.01982779 0.107618324 0.029138042 0.2879827
000230 ed 09 59 3d 81 b6 80 3e 8a eb 05 bf a4 c8 d5 bc
       0.05298798 0.2513924 -0.5231253 -0.02609665
000240 28 fb 45 be c9 cf ff bd f5 4e 1a 3b 50 c7 89 3d
       -0.1933409 -0.12490804 0.0023545597 0.06727469
000250 14 0f 94 bd c3 02 79 3b 58 05 2b 3d a5 65 a0 bd
       -0.072294384 0.003799603 0.041753143 -0.07831887
000260 1e 96 43 3d 1e f4 dc be 11 03 a3 be 1a 32 81 3e
       0.047750585 -0.43154997 -0.31838277 0.25233537
000270 93 94 a5 bd 74 22 f2 bd 47 d7 3c be 77 76 01 be
       -0.08084979 -0.11822978 -0.18441497 -0.12642847
000280 50 9c 92 3d 5d 28 ee 3d dd db 75 be 90 78 c6 be
       0.071587205 0.116287924 -0.24009652 -0.38763857
000290 2b 74 28 bc 4e 49 4a 3e 24 ca 0d 3e 80 ab dc 3d
       -0.010281603 0.19754526 0.13846642 0.107748985
0002a0 be 60 3e 3e 12 93 39 3e c6 24 00 3e 41 cc 09 bf
       0.18591592 0.18122509 0.12514028 -0.5382729
0002b0 c2 73 90 3d 15 5e f2 bc a9 83 99 3d cb e3 19 3c
       0.07053329 -0.029585877 0.07495815 0.009392689
0002c0 d4 e7 92 bd 99 33 cd 3d 8b a2 d1 3b 82 bf d2 bc
       -0.07173124 0.10019607 0.0063975505 -0.025726084
0002d0 4f 6e 91 be 03 03 b2 bd b7 6d 86 3d 6a cf 64 3e
       -0.2840447 -0.08691981 0.06563895 0.22344747
0002e0 2c 9c 7b 3e 95 16 6e be 01 62 a3 be 23 84 4a 3e
       0.24571294 -0.23250802 -0.3191071 0.19776969
0002f0 bf d8 25 be 14 e0 e2 3e a5 4d 7d 3d 1f 7c 63 be
       -0.16195963 0.44311583 0.061841626 -0.22215317
000300 e5 98 db 3d 96 00 3e bf d7 2e bf 3d d9 55 93 3e
       0.10722522 -0.74219644 0.09335106 0.28776434
000310 41 ec 05 3e 9f 0f 67 be d9 80 44 bd c3 30 da 3b
       0.13078405 -0.22564553 -0.04797444 0.006658645
000320 8b b5 b7 3c 48 b8 02 3e a9 2c 70 3d fe 1c 77 3c
       0.022425434 0.1276561 0.05863634 0.015082596
000330 7b 05 ae 3d 86 13 3f be a2 a2 5e 3b d6 b4 cb bd
       0.08497139 -0.18659791 0.0033971448 -0.09946601
000340 4d f6 9d 3d be 3e e3 3d e1 d4 94 37 1c c1 c9 3e
       0.07712994 0.110959515 1.7742104e-05 0.39405143
000350 8a b1 88 bd dd cb f4 bd 2a 2f 34 bc 4f 97 e3 3d
       -0.06674488 -0.11952946 -0.010997573 0.11112844
000360 76 e9 50 3c 85 88 10 3d 5f 8f 65 3d ac 98 ef 3d
       0.012750974 0.035286445 0.056044932 0.11699042
000370 a3 1b a6 3e ff 2e 2e bd 3f 76 67 3e d5 66 02 be
       0.3244296 -0.042525288 0.22603701 -0.1273454
000380 fa 6d 98 3d 66 e7 29 3e 3d d9 d6 bd 83 d2 a5 3d
       0.07442851 0.16592178 -0.10490654 0.080967925
000390 1e ab 00 3e 8e 03 ae 3e 85 cb 9c 3e 67 44 61 bd
       0.12565276 0.33987087 0.30624023 -0.054996874
0003a0 ef e9 14 be 35 e4 c8 3c 2a 83 3a 3e 11 c4 17 bb
       -0.14542364 0.02452288 0.18214098 -0.0023157636
0003b0 ad a0 a7 bd 4d d6 8f 3d 6b c3 18 3e 56 f1 ef 3b
       -0.08184943 0.070232965 0.14918296 0.0073224707
0003c0 10 5e 1d bc 8e 30 41 3e 85 43 82 3d db 1e cb 3d
       -0.009604946 0.18866178 0.063605346 0.099179946
0003d0 7f 7a 83 3c 8a 5f b9 3e e6 48 32 3e b3 40 b2 bd
       0.016049622 0.36205703 0.17410621 -0.08703747
0003e0 62 0e 45 3e 83 7e a4 3e 9e d8 0f be 32 cf 0f bd
       0.19243768 0.3212777 -0.14047477 -0.035109706
0003f0 68 3d be be 54 23 15 bd 29 47 52 bd d8 5f 33 be
       -0.37156224 -0.036410645 -0.051337395 -0.1751703

bias f4 [100]
000000 ed f4 2d bd 51 a0 80 3e d7 c8 27 3e e5 80 fe 3d
       -0.042469908 0.25122312 0.16385208 0.124269284
000010 47 cc 73 bd 3d da 01 be 39 1d 3b 3e 23 9d 82 3e
       -0.059520986 -0.12680908 0.18272866 0.2551051
000020 70 dc e7 3d 60 3d 41 bd 6e b4 44 3e ac 36 1e 3e
       0.11321342 -0.047177672 0.19209453 0.15450543
000030 15 6e fe 3c 48 aa c7 3d a0 5a 93 3d 6d 47 17 be
       0.03105835 0.097492754 0.0719502 -0.1477334
000040 50 55 47 3d 48 5c 12 3e 43 a6 a4 3c 0c 44 1d be
       0.048665345 0.14293015 0.020098811 -0.15357989
000050 4c 43 d0 bd 64 f4 64 3d 51 ce 56 3e 55 4f fa bd
       -0.10169086 0.05589713 0.20977141 -0.12222163
000060 4c 5e 70 3e 8b 74 94 3e 21 da 94 bc 99 96 70 bd
       0.23473471 0.28995165 -0.018170418 -0.05873737
000070 c7 58 09 bd af 69 df 3d b7 b1 68 3e b8 39 5e bd
       -0.03353193 0.109088294 0.22724043 -0.054254264
000080 9e b8 ca 3d d8 b8 6a 3e 2d 26 c3 bd 44 97 51 bd
       0.09898494 0.22922075 -0.09528766 -0.05116965
000090 9c e9 3c 3e 24 a2 d8 3d 44 c5 c9 bd 62 d1 32 be
       0.1844849 0.10577801 -0.098520786 -0.17462686
0000a0 2a 68 81 bd d0 09 2d be 93 77 23 3d e5 7a 3c be
       -0.06318696 -0.16898274 0.039908957 -0.18406256
0000b0 31 eb eb 3b c4 61 c2 3c ed b0 8b 3d a3 a2 24 bd
       0.007199668 0.023728259 0.06820855 -0.040194165
0000c0 39 e4 98 bc d3 b0 ef bd cd a1 07 bd 45 40 fa 3c
       -0.018663513 -0.117036484 -0.03311329 0.030548224
0000d0 80 04 b2 bc 95 41 37 3e 29 b9 92 3d cf c6 48 3e
       -0.021730661 0.17896111 0.07164223 0.1960709
0000e0 39 af 56 bd 4b 5b 38 3e d2 d6 6f 3e e1 90 7d 3d
       -0.0524132 0.18003576 0.23421791 0.061905745
0000f0 bd d3 d8 bd 2b 82 11 3e 2d b0 8e 3e 71 e5 67 3d
       -0.10587261 0.14209811 0.27868786 0.056615297
000100 1f 1e 8d 3e 00 ac 2b 3e c2 5d e3 bd d2 b6 22 bd
       0.27562043 0.16764832 -0.11101867 -0.039725132
000110 bd 38 2e 3e b8 f5 1c be 62 d3 a3 3e c2 c2 83 3e
       0.17013831 -0.1532811 0.3199721 0.25734526
000120 40 75 75 3d fc 0c b9 3d 76 d5 24 3e 00 5e a9 3c
       0.05992627 0.0903568 0.16097054 0.020674706
000130 67 a1 b9 3d a4 21 82 bd cb 06 0d 3e 82 09 37 bd
       0.09063988 -0.06354073 0.13772123 -0.0446868
000140 14 d2 1c be 34 81 4c 3d 5c 8a d0 3d f5 83 35 3e
       -0.15314513 0.049927905 0.1018264 0.17726119
000150 90 44 a0 3e cc 44 6b 3c 96 73 00 3e 91 86 6a 3e
       0.3130231 0.014359664 0.12544093 0.22902896
000160 86 5a b0 bc 3e 6b ac bd 6a ae b9 3d de 40 d2 bc
       -0.02152754 -0.08418892 0.0906647 -0.025665697
000170 c3 05 82 3e 94 c6 c2 bc a7 88 83 bc 0a 14 3b 3e
       0.2539502 -0.02377633 -0.016056372 0.18269363
000180 41 57 94 3d da 21 9e 3d 84 e5 0d 3e 83 c5 82 3d
       0.07243205 0.077213004 0.13857085 0.063853286

weight f4 [10, 100]
000000 b3 6e 1a bd f5 a0 8c 3e 1e a2 0c be 1c 54 06 bf
       -0.037703227 0.2746655 -0.13733718 -0.5247209
000010 5f 90 18 3e 52 a0 12 bf ac 06 43 be 1e cd e2 be
       0.14898823 -0.5727588 -0.19045514 -0.44297117
000020 42 32 84 3e 1a 7b 95 bd fe dd aa 3c 1d 8c 13 be
       0.25819594 -0.072988704 0.020857807 -0.14408918
000030 12 29 09 bd d5 93 42 bf 28 85 c9 be dc 8a db bc
       -0.033486433 -0.76006824 -0.39359403 -0.026799612
000040 8e 50 58 3e 14 b6 17 3d 5b a8 0c 3d fa 86 b4 3d
       0.21124479 0.037038878 0.034340244 0.08814807
000050 9f 2b 49 bc 48 0e 3d 3e 7d 05 21 3d 8b 33 a8 3e
       -0.0122784665 0.18462479 0.039311875 0.32851824
000060 16 dc 06 bd f3 81 a4 be 1a 46 d9 3d 5f 58 6b 3e
       -0.032924734 -0.32130393 0.10609074 0.2298293
000070 e3 32 a6 3c 38 68 0d bc e7 2e 14 3e 0f d8 42 be
       0.020287937 -0.008630805 0.14471017 -0.19027732
000080 f6 bd 60 be ee fc 8b 3d 16 0f 5e be 52 f0 98 bc
       -0.21947464 0.06835352 -0.21685442 -0.018669281
000090 de bd 5c 3d 7e e9 04 bf b3 00 88 3e 0a 0d 0b bd
       0.05389201 -0.5191878 0.26563033 -0.033947982
0000a0 5a fb 15 bd 2a 5e c8 bd d9 b5 53 3e da c2 c4 3d
       -0.03661666 -0.09783585 0.20674838 0.096074775
0000b0 0b 92 b2 3c e2 50 cd bd c8 48 1c bf 19 5d 81 be
       0.021798154 -0.10025193 -0.61048555 -0.2526634
0000c0 95 64 93 3d 20 54 09 bf 32 4a 4e be ce 29 24 3e
       0.07196919 -0.5364399 -0.20145491 0.16031572
0000d0 c6 5e a2 be 9f 27 d6 bc 99 94 aa be 0e 25 ba 3d
       -0.3171293 -0.02614194 -0.33316496 0.09089099
0000e0 e5 15 24 bf 8d bf 20 be 8a 7a 36 3e cf 38 1a be
       -0.6409591 -0.15698071 0.17820182 -0.15060733
0000f0 fa 17 50 be 4b 44 15 bf 23 37 c4 bd 5d dc 01 bf
       -0.20321646 -0.5830733 -0.09580829 -0.5072687
000100 9e 20 0f 3e 1a 6b 2d bd 92 80 e7 be 9a b7 d9 be
       0.13977286 -0.042338468 -0.4521528 -0.4252289
000110 b7 ed 96 3d f8 43 29 bf 88 36 9a bd c8 6b 89 3e
       0.07369559 -0.6611934 -0.07529932 0.26840043
000120 a2 ca 5f be 35 a9 73 be c5 7d 0e bd f8 86 fd 3d
       -0.21854642 -0.23795016 -0.034787912 0.12379259
000130 67 48 5c bf 35 e0 2c bc 83 de 42 3e 80 c9 16 3e
       -0.8604798 -0.010551502 0.19030194 0.14725304
000140 36 2c 6b 3e f8 4d 8c 3d 7d 63 b8 3e 3d 60 4e be
       0.22966084 0.06850809 0.36013404 -0.201539
000150 83 95 62 3e 69 94 85 bd d5 cd cc be 36 f7 af be
       0.22127347 -0.065224476 -0.40000787 -0.34368294
000160 cf b9 5f be 46 9e 8d 3c 28 5f ea 3d d5 b3 c8 be
       -0.21848224 0.017287385 0.11443931 -0.391997
000170 01 09 26 be 25 13 42 bc 99 f9 b3 3e e6 a4 3e 3d
       -0.16214372 -0.011845385 0.35151365 0.04654398
000180 b3 24 2b bf 18 27 11 3d e3 f1 d9 be 64 ab 88 3d
       -0.66852874 0.035437673 -0.42567357 0.06673315
000190 11 52 82 3d 3c 48 9a 3e 6e 25 a9 3d b0 ca 3b bf
       0.06363309 0.30133235 0.08259092 -0.7335615
0001a0 56 7f 61 3e 33 98 b4 3e 2b a4 59 3d 90 85 68 3d
       0.22021231 0.3527237 0.05313508 0.056768
0001b0 e7 a9 5e bd b7 29 f3 bc b8 88 9f be 79 c0 48 3e
       -0.05436125 -0.029682977 -0.31158996 0.19604672
0001c0 7c 2c 05 bf 29 71 e7 3d 9d d4 c4 3d 9c 34 d3 3d
       -0.52021 0.113008805 0.09610865 0.10312769
0001d0 26 a4 28 bd 79 08 f9 bd c8 92 e2 be a8 8c 9f 3c
       -0.04117217 -0.12159819 -0.4425261 0.01947625
0001e0 79 20 ef 3c 84 5e 18 bc 30 6c 0f bf e6 10 dd 3d
       0.029190289 -0.009299878 -0.56024456 0.10794239
0001f0 02 b8 05 be 33 9c 85 be 73 31 7c bd 6d f3 1c 3e
       -0.13058475 -0.26095733 -0.061570596 0.15327235
000200 b1 43 59 bc 84 b7 ae be 4f e1 19 bf b5 30 ae 3b
       -0.013260768 -0.34124386 -0.6010942 0.005315865
000210 b9 cd 6a 3c 6b 82 ab be a5 bd fc be 8d fc 52 3c
       0.014331275 -0.3349794 -0.49363437 0.012877596
000220 93 05 39 bf a6 5d 3e 3e 4f ee 89 bd 35 f1 10 3e
       -0.7227413 0.18590412 -0.06734907 0.14154513
000230 d4 9e 60 bc 03 da 79 bd 6e 59 02 bf 74 df 07 be
       -0.013709743 -0.060998928 -0.5091771 -0.13268834
000240 ce f2 5d bf 13 74 39 3e 87 88 f3 3d fb 97 10 be
       -0.86698616 0.18110685 0.11891275 -0.14120476
000250 f7 1e a0 3c e0 f3 ae 3e 97 74 62 be e0 32 99 3e
       0.019546015 0.34170437 -0.22114788 0.29921627
000260 68 3d 17 3e 5b 10 05 bf f7 2e 31 3e d8 d4 79 be
       0.14769518 -0.5197808 0.17303072 -0.243976
000270 e2 ba 23 3d b4 37 db 3e 72 3b ab be e2 b7 5f 3d
       0.039973147 0.42815936 -0.3344379 0.054618724
000280 90 21 a7 3e 17 dc ec bd 1e bd a2 bd e7 f9 a3 3d
       0.32642794 -0.11565416 -0.079462275 0.080066495
000290 05 97 b6 be c3 c7 20 be 49 5c 07 3e 6b d2 9a 3d
       -0.35662094 -0.15701203 0.13218798 0.07559665
0002a0 0b c3 0b 3e e4 fe 59 3e a6 51 2c bf 45 8f 8d be
       0.13648622 0.2128864 -0.67312086 -0.27648368
0002b0 5d d0 90 3b 02 f6 1c 3e b9 a4 11 bf 4f 80 43 3e
       0.00441937 0.1532822 -0.5689197 0.19091915
0002c0 e3 64 c5 3d cb 80 ea bd 55 d4 04 bf d4 f7 4f bf
       0.09638383 -0.114503466 -0.5188649 -0.8123753
0002d0 73 8b 0f bf 14 c7 e8 3e 14 b8 0b bf c8 47 b6 3d
       -0.5607216 0.45464385 -0.54577756 0.0890041
0002e0 65 f3 6e 3e 6a c3 9c 3d bf e1 30 bb 4a 96 ec 3d
       0.23335035 0.0765446 -0.0026990024 0.11552103
0002f0 4d 0d 2a be 76 c3 92 bd 9d 8b 5b be 68 5d 00 3e
       -0.16606636 -0.071661875 -0.21439977 0.12535632
000300 06 96 22 bf 2e 14 ab 3e 92 c3 69 3c 14 0b a0 3d
       -0.6351017 0.33413833 0.014267819 0.07814613
000310 18 ed cc 3e c7 f6 32 bf 62 37 b5 bd 1d f4 fe bd
       0.40024638 -0.699078 -0.08848454 -0.12448905
000320 76 02 e9 be d9 07 91 be 82 cb a3 be 9a 39 c7 3d
       -0.4550969 -0.283263 -0.31991202 0.097277835
000330 cb db c0 3d 9e 4c 50 3e 74 1d 10 3e 1f 61 b7 bd
       0.09416922 0.20341727 0.14073735 -0.08954071
000340 f3 37 6d be b6 3f 07 3c c5 98 ad 3d 8a 6d 08 bf
       -0.23165874 0.008254936 0.08476404 -0.53292143
000350 c2 26 26 be 68 d6 f3 be a9 51 86 bd 3b b7 8e be
       -0.16225722 -0.47624516 -0.06558544 -0.2787417
000360 02 cf cc 3e 6f b4 12 bf 1d d6 2a 3d 54 d5 e4 3d
       0.40001684 -0.5730657 0.0417081 0.111735016
000370 3f a2 fe 3c 22 f7 92 be 64 b7 66 3c 79 ec 9d 3d
       0.031083224 -0.28704172 0.01408181 0.07711119
000380 8a a1 61 3c 68 df c1 bd 6e b0 77 3d 1d 79 82 be
       0.013771424 -0.094664395 0.06047099 -0.25483027
000390 54 7e b8 3c ea 85 14 3e 43 22 6d 3d a6 da 43 be
       0.022521175 0.14504209 0.057894003 -0.19126377
0003a0 ed de b7 3d a9 77 35 be 50 5b 36 3e bf a3 be 3c
       0.089780666 -0.17721428 0.1780827 0.02327144
0003b0 35 c0 c2 be b2 6f 61 be c0 ec 3f be 3b 8a 75 3e
       -0.38037267 -0.22015265 -0.18742657 0.23978512
0003c0 9f 87 07 3d 48 81 b6 3c 6b ab 21 3e 85 33 47 3e
       0.033088323 0.022278443 0.15788047 0.19453247
0003d0 8e 3c b6 3c a4 f5 3e bb d9 91 3f bf 5a 44 e8 3d
       0.022245672 -0.0029138112 -0.7483192 0.11341162
0003e0 21 1a 9f 3c 62 f3 64 3e 52 d4 87 3d 39 64 26 3e
       0.019421639 0.22358468 0.06632294 0.1624917
0003f0 c4 f4 9c bd ee 73 b2 3d cc b1 69 be c5 67 03 3d
       -0.07663873 0.08713518 -0.2282173 0.032081384

bias f4 [10]
000000 bd 10 cd bd 42 b1 1b be 85 46 bb bd f6 02 9d bb
       -0.10012958 -0.15204337 -0.0914431 -0.0047916127
000010 de a2 3f 3d 6b 51 37 bd 1c 75 89 bd 1a f5 07 be
       0.04678618 -0.04475538 -0.0671179 -0.13277093
000020 bd 40 c0 3e a1 af 10 3d
       0.3754939 0.035323743
