artifacts/1/29b181f069ae442091e5be37b611d02c/artifacts/model/data/model.pth (torch, 362823 bytes, 6 tensors)

weight f4 [100, 784]
0	0xbcba58ca	-0.022747416
1	0xbb839893	-0.004015991
2	0xbce9defc	-0.02854871
3	0xbd0cbb1e	-0.034358136
4	0xb90fba4a	-0.00013706941
5	0x3a024e00	0.00049707294
6	0xbbd1854a	-0.006394063
7	0xbcf4d2b8	-0.029885635
8	0x3cb39cec	0.021925412
9	0xbc80fa5c	-0.01574438
10	0xbc5a81bc	-0.013336595
11	0x3c72adfc	0.014811989
12	0xbdbc5ac7	-0.09197002
13	0xbdffe502	-0.12494852
14	0xbd0e4f24	-0.034743443
15	0xbbe85581	-0.007090271
16	0xbb92f993	-0.004485318
17	0xbd087bb5	-0.0333211
18	0xbc368c4e	-0.01114185
19	0x3cdf78ce	0.027279284
20	0xbbf59a6e	-0.007495216
21	0x3c116faa	0.00887672
22	0xbbe08eae	-0.0068529462
23	0xbc23b20e	-0.009991182
24	0x3d03468d	0.032049704
25	0xbd079165	-0.033097643
26	0x3c89831c	0.01678615
27	0xbcbcb9ba	-0.02303778
28	0xbd112726	-0.035437725
29	0x3d0d9942	0.034569986
30	0x3b036093	0.0020046576
31	0xbcf8302a	-0.030296404
32	0x3cb8169a	0.022471715
33	0x3c938fb5	0.01801286
34	0xbd36bf6d	-0.04461615
35	0xbc8a4a0f	-0.016881017
36	0xbdca3c20	-0.09874749
37	0xbd95c9b7	-0.07313865
38	0xbd093861	-0.033501033
39	0x3d831ec7	0.06402355
40	0x3dd606bd	0.10450504
41	0xbca620ed	-0.020279372
42	0xbe653d33	-0.22386627
43	0xbeeea55c	-0.46610534
44	0xbf144052	-0.57910645
45	0xbf745993	-0.9544918
46	0xbfab455a	-1.338054
47	0x3efe6f16	0.49694127
48	0x3eebf943	0.4608861
49	0x3e7fd360	0.24982977
50	0xbe1248f6	-0.14285645
51	0x3d0d615a	0.03451667
52	0x3cf25eac	0.029586159
53	0xbc802383	-0.015641933
54	0x3c7f80f3	0.015594709
55	0x3ca7e263	0.020493692
56	0x3cc76007	0.024337782
57	0xbcec7bd8	-0.028867647
58	0x3cdad331	0.026712032
59	0xbe8f5003	-0.27990732
60	0xbe86ff34	-0.2636658
61	0x3c2afcea	0.010436276
62	0xbd97f2de	-0.0741937
63	0xbedb71c4	-0.42860234
64	0xbe71605b	-0.23571913
65	0xbf3cd342	-0.73759854
66	0xbf523742	-0.82115567
67	0xbf86775d	-1.0505177
68	0xbf4cfc32	-0.8007232
69	0xbe319931	-0.17343594
70	0xbe1c68e0	-0.15274382
71	0xbe77f1aa	-0.24213281
72	0xbf7f4cf1	-0.9972678
73	0xbfaf3bf2	-1.3690169
74	0xbf7f9b46	-0.99846303
75	0xbef6b118	-0.48181987
76	0xbdc47719	-0.095930286
77	0xbe905e6b	-0.28197035
78	0xbf60f8aa	-0.8787943
79	0xbefadea2	-0.4899798
80	0xbf1d6d94	-0.6149533
81	0xbf139271	-0.57645327
82	0xbab59e01	-0.0013856293
83	0xbb883a25	-0.004157322
84	0x3cb8af1a	0.022544432
85	0xbc8d97a3	-0.01728422
86	0x3cee343e	0.029077645
87	0xbe841408	-0.25796533
88	0xbe640154	-0.22266132
89	0xbd57c535	-0.052678306
90	0xbdd64865	-0.10463027
91	0xbfd280f3	-1.6445602
92	0xbfb20a59	-1.3909408
93	0xbf9937ff	-1.1970214
94	0xbf80ef23	-1.0072979
95	0xbdd15043	-0.10220387
96	0x3ea983e1	0.33108428
97	0x3deadce2	0.11467911
98	0xbe958be9	-0.29208305
99	0xbf60fa5a	-0.87882006
100	0xbfda8989	-1.7073222
101	0xbfa660f2	-1.2998335
102	0xbe0ee1eb	-0.13953368
103	0xbf51cf12	-0.8195659
104	0xbefbc981	-0.49177173
105	0x3d1db147	0.038499143
106	0x3f579ec6	0.84226644
107	0x3f45a7fd	0.77209455
108	0xbebbf136	-0.36707467
109	0xbf0a8a77	-0.5411753
110	0xbd063e02	-0.03277398
111	0xbc0fad65	-0.008769368
112	0x3cdd3d65	0.027006814
113	0xbc628aaa	-0.013827005
114	0xbc4d1733	-0.012517738
115	0x3dc7798d	0.09739981
116	0x3e3d1ce3	0.1846805
117	0x3ee57756	0.4481761
118	0xbe443a24	-0.19162804
119	0xbfdb2419	-1.7120391
120	0xbfc65fff	-1.5498046
121	0xbf53c3da	-0.8272072
122	0xbf4cc35a	-0.7998558
123	0xbf095042	-0.5363809
124	0xbee83ce4	-0.45358956
125	0xbfca230b	-1.5791944
126	0xbfd09b2d	-1.6297356
127	0xbfe99e19	-1.8251373
128	0xc0029e19	-2.0408995
129	0xbfbbc71b	-1.4670137
130	0xbfb833b7	-1.4390782
131	0xbe6af052	-0.22943237
132	0xbf23b3d1	-0.63946253
133	0xbfb66ec7	-1.4252557
134	0xbefbb3c3	-0.49160585
135	0x3f517bcb	0.8182952
136	0xbeb09080	-0.34485245
137	0xbefe49d7	-0.4966571
138	0xbf63ed5c	-0.89034057
139	0xbe83d0fb	-0.25745377
140	0xbc828173	-0.015930867
141	0xbc2e3c8e	-0.010634555
142	0x3bc57893	0.0060263365
143	0xbe58ed8a	-0.21184364
144	0x3f0bfc6c	0.5468204
145	0x3efe9a0b	0.497269
146	0xbee59366	-0.4483902
147	0xbfc62296	-1.5479305
148	0xbfc3417e	-1.5254362
149	0xbf8da5aa	-1.1066182
150	0xbfda3fb1	-1.7050687
151	0xbfea85cd	-1.8322083
152	0xbfd2b68e	-1.6461961
153	0xbf8afa5f	-1.0857657
154	0xbff15bfe	-1.8856199
155	0xc01ad94c	-2.4195127
156	0xc01bbd5b	-2.4334323
157	0xc0093dac	-2.1443892
158	0xbfc1f661	-1.5153314
159	0xbfc150c3	-1.5102772
160	0xbf90d3e8	-1.1314669
161	0xbf409d42	-0.75239956
162	0xbf35c7a7	-0.7100777
163	0xbfc81e0d	-1.5634171
164	0xbfab35ac	-1.3375754
165	0xbe02ca83	-0.12772565
166	0xbe675d57	-0.225942
167	0x3c920f2c	0.0178295
168	0x3d0cd422	0.034381993
169	0xbbe3c381	-0.006950796
170	0x3e76e227	0.24109708
171	0x3fc7dbb1	1.561392
172	0x3e77a699	0.24184646
173	0xbf3151cb	-0.6926543
174	0xc0066b8f	-2.1003149
175	0xc032aa2b	-2.7916362
176	0xbe9c3369	-0.30507973
177	0xbf2551ab	-0.6457774
178	0xc0171b0b	-2.3610256
179	0xbfd1c3c9	-1.6387874
180	0xc02565d5	-2.5843403
181	0xbf95d444	-1.1705403
182	0xbf8eda80	-1.1160431
183	0xc03f7de0	-2.9920578
184	0xc01ccc59	-2.4499724
185	0xc024608e	-2.5683932
186	0xc0240375	-2.562711
187	0xbf973191	-1.1812001
188	0xbf10dedb	-0.5659005
189	0x3f3c0ecd	0.73460084
190	0xbde9e31f	-0.11420273
191	0xbf6055b9	-0.876308
192	0xbe8e55b6	-0.27799767
193	0x3ec43fd6	0.38329953
194	0x3e26738d	0.16255017
195	0xbce7695f	-0.028248487
196	0x3e58ee4d	0.21184655
197	0x401b61a3	2.4278343
198	0x3e8a9197	0.270642
199	0x3fb0c935	1.3811404
200	0x3f13c808	0.577271
201	0xbfb89cad	-1.4422814
202	0xbfa10e70	-1.2582531
203	0xbfac0b94	-1.3441033
204	0xbf22bef2	-0.6357261
205	0xbff51879	-1.9148093
206	0xc0265cec	-2.5994215
207	0xc04fa73d	-3.2445824
208	0xc0286715	-2.6312916
209	0xc01b7e90	-2.4295998
210	0xc00979aa	-2.1480508
211	0xc0397836	-2.897962
212	0xbfacd82d	-1.3503472
213	0xc017b202	-2.3702397
214	0xbfe2f8e9	-1.7732211
215	0xc0022b17	-2.03388
216	0xbff1cf78	-1.889144
217	0xbfba405e	-1.4550893
218	0xbfe470b9	-1.78469
219	0xbfb2bd6c	-1.3964057
220	0xbfbe88d6	-1.4885509
221	0xbf37f997	-0.7186522
222	0xbea8ec59	-0.3299282
223	0x3e9364a5	0.28787723
224	0xbe01afdb	-0.1266474
225	0x3fb237b0	1.3923244
226	0xbdbd8d39	-0.09255452
227	0x3f29e3ce	0.6636323
228	0x3f46e9ae	0.77700317
229	0xbef71331	-0.4825683
230	0xbe46a2d1	-0.19398047
231	0xbf4e206b	-0.80518216
232	0xbfc33c8e	-1.5252855
233	0xbfeaf033	-1.8354553
234	0xbfa1f766	-1.2653625
235	0xbff2fbba	-1.8983071
236	0xbf9af1ca	-1.2105038
237	0xbfa63992	-1.2986319
238	0xc009a3da	-2.1506257
239	0xbff283fa	-1.8946526
240	0xbf5b4bf2	-0.8566276
241	0xbf81320d	-1.0093399
242	0xbf77fb25	-0.9686759
243	0xbf219667	-0.6312012
244	0xbf98b341	-1.1929704
245	0xbfa5254d	-1.2902008
246	0xbfddffa8	-1.7343645
247	0xbf81ec65	-1.0150267
248	0xbf226a4f	-0.63443464
249	0xbfe0531e	-1.7525365
250	0xbf819c2c	-1.0125785
251	0x3f0f5c08	0.55999804
252	0x3f18a087	0.59619945
253	0x3f724344	0.9463389
254	0xbd17b2f9	-0.037035916
255	0x3f50e25d	0.815954

bias f4 [100]
0	0x3f51723f	0.8181495
1	0x3ea2a68b	0.31767687
2	0xbd244053	-0.040100407
3	0xbef83b2c	-0.48482645
4	0xbd5a2fbc	-0.05326818
5	0xbd304ddb	-0.043043
6	0x3e842c2e	0.25814956
7	0xbfb77625	-1.433293
8	0x3dea3e1a	0.11437626
9	0xbf0d7d63	-0.5526945
10	0x3f490f24	0.7853873
11	0xbd23a46f	-0.039951738
12	0x3e778f7e	0.24175832
13	0xbe5eed16	-0.21770129
14	0xbe9a5095	-0.30139604
15	0xbf89f87f	-1.077896
16	0xbf57ec65	-0.84345084
17	0xbe89afc5	-0.26891914
18	0xbd06eabd	-0.032938708
19	0x3e06c46e	0.1316087
20	0xbfd35dc6	-1.6512992
21	0xbd622894	-0.05521448
22	0x3d398387	0.04529145
23	0xbfab1971	-1.3367139
24	0xbf803105	-1.001496
25	0x3ebbc5f1	0.36674455
26	0xbffda1d0	-1.9815006
27	0xbe5ecc88	-0.2175771
28	0xbf0c79b8	-0.5487323
29	0xbdc13d75	-0.0943555
30	0xbefb7008	-0.4910891
31	0xbec128e6	-0.37726516
32	0xbea76624	-0.32695115
33	0xbd1c05c2	-0.03809143
34	0xbf32a099	-0.697763
35	0x3eba5e16	0.36399907
36	0xc0222379	-2.533415
37	0xbf48bc1d	-0.7841204
38	0xbd707cb4	-0.058712676
39	0xbed6de6f	-0.41966578
40	0xbe823494	-0.2543074
41	0xbe204c86	-0.15654191
42	0xbe22a037	-0.1588143
43	0xbfbd38f0	-1.4783001
44	0xbefedf22	-0.49779612
45	0xbfbfa78b	-1.4973005
46	0xbf80e876	-1.0070941
47	0xbda7e56e	-0.08198057
48	0xbf31a471	-0.6939154
49	0x3f42cac1	0.7609063
50	0xbe06ea71	-0.1317537
51	0x3db85968	0.09001428
52	0x3dc7e72f	0.09760892
53	0xbf119652	-0.56869996
54	0x3f2255f5	0.6341241
55	0xbd4c5358	-0.04988417
56	0xbe815a95	-0.2526442
57	0xbf2a3823	-0.6649191
58	0xbf5878ee	-0.84559524
59	0xbf2a0e2f	-0.6642789
60	0x3eb9e6c5	0.36308876
61	0xbccc9866	-0.024975013
62	0x3ac7683d	0.001521356
63	0x3f358786	0.7090992
64	0xbe8aa48f	-0.27078673
65	0x3df2be10	0.11852658
66	0xbd4d6bc5	-0.050151605
67	0xbd911861	-0.07084728
68	0xbef86238	-0.48512435
69	0xbd348161	-0.044068698
70	0xbeeebd33	-0.46628723
71	0xbd31f299	-0.04344425
72	0xbdba5fd0	-0.09100306
73	0xbd9fe99d	-0.0780823
74	0xbf104b60	-0.56365013
75	0x3e8071cb	0.25086817
76	0x3f07a9c2	0.52993405
77	0x3f2ed292	0.68290055
78	0xbe8b06ec	-0.27153718
79	0xbe4e7740	-0.20162678
80	0xbcfea61d	-0.031085068
81	0xbedb5e5f	-0.42845437
82	0xbdaebf10	-0.08532536
83	0xbe95e2bf	-0.29274556
84	0x3ae36f56	0.0017351906
85	0xbfc03c4e	-1.5018404
86	0xbf053e4b	-0.52048177
87	0x3f30ff94	0.6913998
88	0xbd8d2c53	-0.0689322
89	0xbe9159e6	-0.283889
90	0x3e93fccb	0.28903803
91	0xbdcccff6	-0.10000603
92	0xbf5e2f9a	-0.86791384
93	0xbe2891e5	-0.16461904
94	0x3e82c80c	0.2554325
95	0xbd8f84b7	-0.07007735
96	0xbdca308d	-0.098725416
97	0xbdb02ec8	-0.08602673
98	0xbef5cc9b	-0.48007664
99	0xbfadc36f	-1.3575267

weight f4 [100, 100]
0	0xbf8408f2	-1.031523
1	0xbfaf572e	-1.369848
2	0x3de91acd	0.11382065
3	0xbf3d4554	-0.7393391
4	0x3d685f55	0.05673154
5	0x3cf35925	0.029705593
6	0xbeb97baa	-0.3622716
7	0xbe2a2a35	-0.16617663
8	0x3cca6364	0.024705596
9	0x3e233b92	0.15940693
10	0x3f277c8c	0.6542442
11	0xbdb016d7	-0.08598106
12	0x3fa01591	1.2506582
13	0xbf52eb98	-0.8239074
14	0xbf1789d0	-0.5919466
15	0xbef22d54	-0.47300208
16	0xbfa779cf	-1.3084048
17	0xbd90e3b4	-0.07074681
18	0x3e5c9cc1	0.21544172
19	0xbebf9d0e	-0.3742451
20	0x3dc38d61	0.0954845
21	0xbd23eb3b	-0.040019255
22	0x3f590e58	0.8478751
23	0xbf054eaf	-0.52073187
24	0x3d50d35b	0.050982814
25	0xbf2b9e2c	-0.67038226
26	0xbe9ccf9f	-0.30627152
27	0x3fc76147	1.5576562
28	0xbf0e4812	-0.5557872
29	0x3d89e9d1	0.0673405
30	0x3e6a3436	0.2287148
31	0xbf87f76b	-1.0622381
32	0x3f8eb671	1.1149427
33	0x3d38ad2f	0.045087036
34	0xbf96b7dc	-1.177486
35	0x3f06ec7b	0.5270459
36	0x3ebbb48d	0.36661187
37	0xbf16d6e1	-0.5892163
38	0xbe12cc5f	-0.14335774
39	0xbe3c402e	-0.18383858
40	0xbf2a6d10	-0.66572666
41	0xbe923479	-0.28555658
42	0x3f3c9303	0.7366182
43	0xbff5943f	-1.9185866
44	0xbee898d2	-0.45429093
45	0x3e07b065	0.13250883
46	0xbf0cbe1e	-0.54977596
47	0x3dada209	0.084781714
48	0x3d2ccb4e	0.042186074
49	0x3f8e5f50	1.1122837
50	0x3c93ea48	0.01805605
51	0x3eab51a3	0.3346072
52	0xbf218e2e	-0.63107574
53	0x3e9fef8e	0.31237453
54	0x3f259a26	0.64688337
55	0x3dccda3d	0.10002563
56	0xbf318a84	-0.69351983
57	0xbeea8883	-0.45807275
58	0xbf09fef3	-0.53904647
59	0x3f9a534a	1.2056668
60	0xbf472f79	-0.7780681
61	0x3cb84c07	0.02249719
62	0x3d51485c	0.051094398
63	0x3e27f8fc	0.16403574
64	0xc008dec8	-2.1385975
65	0xbf5fe882	-0.87464154
66	0x3e00717e	0.12543294
67	0x3e1cd6c9	0.15316309
68	0x3f915057	1.1352643
69	0x3e20cce2	0.15703157
70	0xbf9ec850	-1.240488
71	0xbfb0544b	-1.3775724
72	0x3e90d88a	0.28290206
73	0xbdba4bc0	-0.090964794
74	0xbfb212fb	-1.3912042
75	0xbe8214c2	-0.25406462
76	0xbe5dcffe	-0.21661374
77	0x3eeb4ed6	0.45958585
78	0x3f364cf2	0.7121116
79	0x3e3d0d1e	0.18462035
80	0xbf054845	-0.520634
81	0x3e075f8e	0.13220045
82	0xbc8e9114	-0.017403163
83	0x3f0c3e1f	0.5478229
84	0xbe7fb622	-0.24971822
85	0x3e18789e	0.14889762
86	0xbd1dc153	-0.038514446
87	0x3f6dade5	0.92843467
88	0xbcd70b50	-0.026250511
89	0xbd93c2de	-0.07214902
90	0xbf9856d3	-1.1901497
91	0x3f3784d8	0.7168708
92	0xbe185925	-0.14877756
93	0xbf84105f	-1.0317496
94	0xbcd54078	-0.026031718
95	0x3cdde7a1	0.027087988
96	0xbf824e00	-1.0180054
97	0x3dfa1a80	0.12212086
98	0xbeef0c13	-0.466889
99	0x3e5de0b6	0.21667752
100	0x3e9a0f82	0.30089957
101	0xbf817349	-1.0113307
102	0x3e15d8e1	0.14633514
103	0xbdb1b0f1	-0.08676327
104	0x3c8129b9	0.015766965
105	0x3d0162a8	0.031588227
106	0xbf953ea6	-1.1659744
107	0x3dc30009	0.09521491
108	0xbecf64d3	-0.4050661
109	0x3e671cef	0.22569631
110	0x3c812394	0.015764035
111	0xbcf005f1	-0.029299708
112	0xbe6314c0	-0.22175884
113	0xbe84328a	-0.25819808
114	0xbe9b4019	-0.3032234
115	0xbe85777f	-0.2606773
116	0xbf15f5ef	-0.5857839
117	0xbd0fb676	-0.035086118
118	0xbe9e88b7	-0.3096368
119	0xbf90c053	-1.1308693
120	0xbede2017	-0.43383858
121	0xbf05a698	-0.52207327
122	0xbf2fda88	-0.6869283
123	0xbe3b4d44	-0.18291193
124	0x3df87789	0.121321745
125	0x3b103fb2	0.0022010622
126	0xbf1f8cef	-0.6232442
127	0x3dcd99a3	0.100390695
128	0x3bcd1a59	0.0062592444
129	0xbd092911	-0.03348643
130	0xbe385c54	-0.1800397
131	0x3dcd3e14	0.10021606
132	0xbef1404f	-0.47119376
133	0x3dc9379b	0.09825059
134	0x3d13d6c0	0.036093473
135	0xbe9fb535	-0.31192937
136	0xbe7d662d	-0.24746008
137	0xbe012024	-0.12609917
138	0x3af2f0eb	0.0018534934
139	0x3e5cfb02	0.21580127
140	0xbee4fa11	-0.44722036
141	0x3e6d80e5	0.231937
142	0xbd59fe83	-0.053221237
143	0xbf0ffe9f	-0.56247896
144	0xbf58ae94	-0.84641385
145	0xbf790372	-0.9727088
146	0x3e663af3	0.22483425
147	0xbd0a86ce	-0.033819966
148	0xbf36e6a5	-0.71445686
149	0xbf7abc19	-0.97943264
150	0x3e1f6cb3	0.15568809
151	0xbe6338cb	-0.22189634
152	0xbf45939b	-0.77178353
153	0xbf136e8a	-0.57590544
154	0xbfc5e205	-1.5459601
155	0xbc45b048	-0.0120659545
156	0xbfb52eff	-1.4154967
157	0xbe9a6ea2	-0.3016253
158	0x3d585946	0.052819513
159	0x3e8933ce	0.26797336
160	0xbe6bef8c	-0.23040599
161	0x3d86eed4	0.065885216
162	0xbdafcb60	-0.085837126
163	0xbff27d2d	-1.8944451
164	0xbefe97fb	-0.49725327
165	0xbf66e4a0	-0.90192604
166	0x3bd478d8	0.0064841323
167	0x3dedf07c	0.116181344
168	0xbf239eb2	-0.63914025
169	0xbce1cf16	-0.027564567
170	0xbf0ccf39	-0.55003697
171	0xbf212237	-0.6294283
172	0xbd565417	-0.052326288
173	0x3e39214a	0.18079105
174	0x3e6bd239	0.23029412
175	0xbf466219	-0.77493435
176	0xbf24d4a6	-0.64386976
177	0xbf1d6f16	-0.6149763
178	0xbeb4b77a	-0.35296232
179	0xbd43cc30	-0.04780215
180	0xbed89e94	-0.42308486
181	0xbdaedbdd	-0.08538029
182	0xbd95d9df	-0.07316946
183	0xbefad4b3	-0.48990402
184	0xba5c10ea	-0.00083948544
185	0xbee4f196	-0.44715565
186	0xbfae883a	-1.3635323
187	0xbefb1147	-0.4903662
188	0xbdc7cd1e	-0.0975592
189	0x3dc5d18c	0.096591085
190	0xbe6da39b	-0.23206942
191	0x3ea49b6c	0.32149827
192	0xbf10f498	-0.5662322
193	0x3f14233c	0.57866263
194	0xbf0e4701	-0.55577093
195	0x3d994599	0.07483978
196	0x3ca37a28	0.01995571
197	0xbe1432d7	-0.14472519
198	0x3e1b8abc	0.15189642
199	0xbf183532	-0.5945617
200	0x3f3d0561	0.7383633
201	0xbe252c3d	-0.16130157
202	0x3d3b6ac8	0.04575613
203	0x3ecc9273	0.39955482
204	0xbda3c2c5	-0.07996134
205	0xbe23015b	-0.15918486
206	0x3f0cd978	0.5501933
207	0xbf3cd7aa	-0.7376658
208	0xbf510086	-0.81641424
209	0x3cbf3ed2	0.023345385
210	0x3f926af6	1.1438892
211	0xbe190eda	-0.14947072
212	0xbf8bc49b	-1.0919374
213	0xbf64ba6c	-0.8934696
214	0x3f181af0	0.59416103
215	0xbdd02e7f	-0.101651184
216	0x3d9bc524	0.07605961
217	0xbca534b1	-0.020166727
218	0xbfb1f009	-1.3901378
219	0xbf11135b	-0.5667016
220	0xbeedcbf5	-0.4644467
221	0x3f837989	1.0271465
222	0xbef75885	-0.48309723
223	0x3f0aab72	0.54167855
224	0xbf8909b8	-1.0706091
225	0xbf07c313	-0.53032035
226	0x3c7d0f23	0.015445503
227	0x3ee870e7	0.45398638
228	0x3f50c21f	0.81546205
229	0xbe8bdab7	-0.27315304
230	0xbebedb19	-0.37276533
231	0x3cee7c2d	0.029111946
232	0xbf71470b	-0.9424903
233	0xbdefb3e7	-0.117042355
234	0x3f3923a3	0.7232
235	0xbe6a99a4	-0.22910172
236	0x3f5cd798	0.8626647
237	0x3bd96682	0.0066345343
238	0x3dbdc493	0.09266009
239	0x3f2ce62b	0.6753871
240	0xbf50d886	-0.8158039
241	0x3eb014ef	0.3439097
242	0x3e738172	0.23779848
243	0xbf85f3f2	-1.0465071
244	0xbcb01f4f	-0.021499304
245	0xbfa95264	-1.3228269
246	0x3e267e6b	0.16259162
247	0xbdecb116	-0.11557214
248	0xbf1f05ae	-0.6211804
249	0xbd9bb714	-0.07603279
250	0xbd6352ac	-0.055498764
251	0x3d63945d	0.055561412
252	0xbf99c55d	-1.2013355
253	0xbe502fc4	-0.20330721
254	0xbf3361f5	-0.70071346
255	0xbc62d88b	-0.013845573

bias f4 [100]
0	0xc00557a3	-2.083474
1	0xbf89da6c	-1.0769782
2	0xbfae6160	-1.3623466
3	0xbf38b612	-0.7215282
4	0xbf9b53f8	-1.2135
5	0xc00f7ce6	-2.2419982
6	0xbd7d96da	-0.06191144
7	0xbf929643	-1.1452106
8	0xc008dfc6	-2.138658
9	0xbfbf2a92	-1.4934866
10	0xbfd70232	-1.6797545
11	0xbfa67ca7	-1.3006791
12	0xbfb23de6	-1.392514
13	0xbf67bea5	-0.90525275
14	0xbfca91cf	-1.5825747
15	0xbf5d28fd	-0.8639067
16	0xbfa49570	-1.2858105
17	0xbf813126	-1.0093124
18	0xbfef1183	-1.8677219
19	0xbf97e09b	-1.1865419
20	0xbf898818	-1.0744658
21	0xbff6238e	-1.92296
22	0x3f85c68b	1.0451216
23	0xbec93abe	-0.3930263
24	0xbe0e2a30	-0.13883281
25	0xbf6a166f	-0.9144048
26	0xbed50466	-0.41604918
27	0xbee4fb5a	-0.44723016
28	0xbf16c122	-0.5888845
29	0xbf94ce22	-1.1625407
30	0x404a29de	3.1588054
31	0xbfa62c60	-1.2982292
32	0x3ed8168b	0.422047
33	0xbf986a2f	-1.1907405
34	0xbffe8dc6	-1.9887016
35	0xbf8275a9	-1.0192157
36	0xbfbae5a8	-1.4601336
37	0xbf7a643a	-0.97809184
38	0xbfa8d47f	-1.3189849
39	0xbf5c2671	-0.85996157
40	0xbf956b67	-1.1673402
41	0xbec470b5	-0.3836724
42	0xbf4bc909	-0.7960363
43	0xbf845334	-1.0337892
44	0xbf3f1347	-0.7463879
45	0xbfa8eb3f	-1.3196791
46	0xbed69367	-0.41909334
47	0xbf71a52c	-0.9439266
48	0xbec8489d	-0.391179
49	0xbf2814a3	-0.6565649
50	0xbf90db5f	-1.1316947
51	0x3f1cdb02	0.6127168
52	0xbf265bd1	-0.6498385
53	0xbf8eb047	-1.1147546
54	0xbf859cae	-1.043844
55	0x3c7da6ef	0.015481695
56	0xbfaeb05a	-1.3647568
57	0xbf08f4e9	-0.53498703
58	0xbfaacf0e	-1.3344438
59	0xbfebfd91	-1.8436757
60	0xbf63a6ca	-0.88926375
61	0xbf63d667	-0.88999027
62	0xbf8c0775	-1.0939776
63	0xbf803f96	-1.0019405
64	0xc009e5c0	-2.1546478
65	0xbf3109b5	-0.69155437
66	0xbf9f7855	-1.2458597
67	0xbf28290d	-0.6568764
68	0xbfa31f72	-1.2743971
69	0xbf20a9cf	-0.6275911
70	0xbe429c9b	-0.19005053
71	0xbfb3d51c	-1.4049411
72	0xbee648ca	-0.4497741
73	0x3fa3a2f2	1.2784102
74	0xbfa678a4	-1.3005567
75	0xbfeb10fc	-1.8364558
76	0x3eb52b16	0.35384434
77	0xbf8c5821	-1.0964395
78	0xbe7d5269	-0.24738468
79	0xbf991fec	-1.1962867
80	0xbfa74334	-1.3067384
81	0xbfec1d5a	-1.8446457
82	0xbfe2c2d1	-1.7715703
83	0xbf92da26	-1.1472824
84	0xbf8b3c9b	-1.087787
85	0xbed35d2f	-0.4128203
86	0xbf630c25	-0.88690406
87	0xbeec1d8d	-0.46116295
88	0xbfdb87e2	-1.7150843
89	0xbe2bf330	-0.16791987
90	0xbfa6d71e	-1.3034399
91	0xbff984d9	-1.9493667
92	0xbfbbde23	-1.4677166
93	0xbf2876c9	-0.6580625
94	0xbf98857b	-1.1915735
95	0xbf65c198	-0.89748526
96	0x3fa46692	1.2843802
97	0xbf6233d3	-0.8836033
98	0xbf107b82	-0.5643846
99	0x3eaa00da	0.33203775

weight f4 [10, 100]
0	0xbe8eb183	-0.27869806
1	0x3da2620d	0.07928858
2	0xbee5693c	-0.4480685
3	0x3dcc2634	0.09968224
4	0x3eb1ecd6	0.34751004
5	0xbf70a32c	-0.9399898
6	0xbd87cb94	-0.06630626
7	0x3eb20d22	0.34775645
8	0xbea78202	-0.32716376
9	0x3f008d58	0.50215673
10	0xbea12536	-0.31473702
11	0xbe893bac	-0.2680334
12	0xbde00a31	-0.10939444
13	0xbdb2f11d	-0.08737395
14	0x3af36513	0.0018569551
15	0xbd7c2190	-0.061555445
16	0xbed6591b	-0.41864857
17	0xbf01f073	-0.5075752
18	0xbd57f74d	-0.05272608
19	0xbe831ef0	-0.2560954
20	0x3e90edaf	0.28306338
21	0xbeccf352	-0.4002939
22	0xbdecbfb8	-0.11560005
23	0xbdc73760	-0.09727359
24	0xbdb4c06a	-0.088257626
25	0x3d563f09	0.05230621
26	0x3d083fea	0.03326408
27	0x3d5c1c2c	0.053737804
28	0xbefc6b11	-0.49300435
29	0xbe26480d	-0.16238423
30	0x3c808af4	0.015691258
31	0x3e17da60	0.14829397
32	0x3e8b19fb	0.2716826
33	0xbd9578c9	-0.072984286
34	0xbe6cb26f	-0.23114942
35	0xbc2d0461	-0.010560126
36	0xbeb0f6ba	-0.34563237
37	0xbe575bd7	-0.21031128
38	0xbecca943	-0.39972886
39	0xbdcec5cc	-0.100963205
40	0x3ece06e1	0.40239623
41	0xbef01c82	-0.4689675
42	0xbe1a1c0f	-0.15049766
43	0xbec2261f	-0.3791971
44	0xbe60b19c	-0.21942753
45	0xbd82302b	-0.063568436
46	0xbed6f809	-0.4198611
47	0xbece126b	-0.40248427
48	0x3b8cf41b	0.0043015606
49	0xbe0cb278	-0.13739955
50	0xbe5973de	-0.21235606
51	0x3edae7b9	0.42754915
52	0xbdbb8746	-0.09156661
53	0x3e9432fa	0.28945142
54	0xbe2c3e2d	-0.16820593
55	0x3e2fcabe	0.17167184
56	0xbdd2f5b1	-0.10300768
57	0xbf274611	-0.6534129
58	0xbf217b66	-0.63078916
59	0xbe6796a8	-0.22616065
60	0xbee6c724	-0.45073807
61	0x3dead93e	0.11467217
62	0x3e84555d	0.25846377
63	0x3e901dea	0.28147823
64	0xbf25b6c8	-0.6473203
65	0xbe773d80	-0.24144554
66	0xbe80a7e9	-0.25128105
67	0x3d41fd34	0.047360614
68	0xbe880fab	-0.26574454
69	0x3e5b894c	0.21439093
70	0xbd5ccf03	-0.05390836
71	0x3dd651be	0.1046481
72	0xbe88eab7	-0.26741573
73	0xbe3770a9	-0.1791407
74	0xbe889c93	-0.26681957
75	0xbf765415	-0.9622205
76	0xbdddd417	-0.108314686
77	0xbe78e789	-0.24307074
78	0x3d6deacb	0.058085244
79	0xbe0f7120	-0.14007998
80	0xbd191aa8	-0.037378937
81	0xbf27e281	-0.6557999
82	0x3e984147	0.29737303
83	0x3d361e40	0.044462442
84	0x3e6ca931	0.23111416
85	0xbeba31f9	-0.3636625
86	0x3d41d1f6	0.047319375
87	0x3c4f6c72	0.012660133
88	0xbd042a98	-0.032267183
89	0xb91644cc	-0.00014330744
90	0xbf20838a	-0.6270071
91	0xbe8778b0	-0.26459265
92	0xbe130fb3	-0.14361458
93	0x3da42b95	0.08016125
94	0xbeac90fd	-0.33704367
95	0xbd26c3d7	-0.04071411
96	0xbda1640d	-0.07880411
97	0x3d9f650f	0.07782947
98	0x3e16bc43	0.14720254
99	0xbe8f526f	-0.2799258
100	0x3edef774	0.43548167
101	0x3e76c227	0.240975
102	0xbefe9860	-0.49725628
103	0xbf8f29d9	-1.1184646
104	0xbe992148	-0.29908204
105	0xbcc3ebd9	-0.023916172
106	0xbd705371	-0.058673326
107	0xbe890ac9	-0.2676604
108	0x3ebf405d	0.37353793
109	0xbdda0846	-0.10646109
110	0x3ec125be	0.37724108
111	0xbf4a1831	-0.78943163
112	0xbf111716	-0.5667585
113	0x3f041268	0.51590586
114	0xbe33e7e0	-0.17568922
115	0x3f2cd3a9	0.6751047
116	0xbe3bcc25	-0.18339594
117	0xbe0195fb	-0.1265487
118	0x3eae75f9	0.3407438
119	0xbe95c23e	-0.29249758
120	0xbf631f3a	-0.8871952
121	0xbe8b62b8	-0.27223754
122	0xbe0985e1	-0.13429977
123	0xbbf6a5b0	-0.0075270757
124	0xbde2d6fd	-0.11076162
125	0x3de1f820	0.11033654
126	0xbeca82af	-0.3955283
127	0xbc0ab593	-0.008466142
128	0xbde0afbd	-0.109710194
129	0xbdba11f1	-0.09085453
130	0x3e5994c9	0.21248163
131	0xbdb8e044	-0.0902715
132	0xbef62245	-0.4807302
133	0xbe5c93ef	-0.21540807
134	0x3c737d48	0.014861412
135	0xbef20557	-0.472697
136	0x3e75ae1d	0.239922
137	0xbe17ec6c	-0.14836282
138	0xbd3f218c	-0.046662852
139	0xbed76251	-0.42067197
140	0xbfac6a69	-1.3469974
141	0xbec9749e	-0.39346784
142	0xbf68dfc6	-0.9096645
143	0xbda49063	-0.08035352
144	0xbf3ba6a5	-0.73301154
145	0xbefee236	-0.4978196
146	0xbe91743c	-0.28408992
147	0xbed0e4a5	-0.40799442
148	0xbf15008e	-0.5820397
149	0xbe038d66	-0.12846908
150	0xbe7b2730	-0.24526668
151	0x3e66f7ac	0.22555417
152	0xbe1bee99	-0.15227737
153	0x3f01466f	0.504981
154	0xbf5dc286	-0.86624944
155	0xbe9dd105	-0.30823532
156	0xbeca5862	-0.39520556
157	0x3e116fe2	0.14202836
158	0xbdd9a5d8	-0.10627335
159	0x3d979e6c	0.074032634
160	0xbf00ef33	-0.5036499
161	0xbeec5e81	-0.4616585
162	0x3c99b205	0.018761644
163	0xbe919d8d	-0.28440514
164	0x3ed81e49	0.42210606
165	0x3e40bfa7	0.1882311
166	0xbdd79ccd	-0.10527954
167	0xbe8bee64	-0.27330315
168	0x3dbedc8d	0.093194105
169	0x3d5d5ea2	0.054045327
170	0xbd8e9d1e	-0.069635615
171	0xbc968848	-0.01837553
172	0xbe148274	-0.14502889
173	0xbe007e30	-0.12548137
174	0x3e3fe842	0.18740943
175	0x3e91cba0	0.28475666
176	0xbd81c99d	-0.06337283
177	0x3d6a03ab	0.057132404
178	0xbeb4f31e	-0.35341734
179	0xbf188464	-0.5957701
180	0xbe176106	-0.14783105
181	0x3d76fbf8	0.06029889
182	0xbee30aa3	-0.44344053
183	0x3ecfbe9c	0.4057511
184	0xbd83bd9d	-0.0643265
185	0xbe868b2f	-0.26278064
186	0xbca58c22	-0.020208422
187	0xbca1ce73	-0.019751763
188	0xbee4fdbc	-0.44724834
189	0x3e172c5c	0.14763016
190	0xbd0b8489	-0.034061942
191	0x3e81a6d0	0.2532258
192	0xbe4392b4	-0.19098932
193	0xbe65dd42	-0.22447684
194	0xbf579569	-0.84212357
195	0xbd648f06	-0.05580046
196	0xbe8bbb04	-0.2729112
197	0xbe85223d	-0.26002684
198	0xbf1657a3	-0.58727473
199	0xbe2cf0ea	-0.16888776
200	0xbe50efa3	-0.20403914
201	0xbc111a43	-0.008856359
202	0xbe8d37b3	-0.27581558
203	0xbebe0f4d	-0.3712105
204	0xbd12b056	-0.0358127
205	0xbd9e35c8	-0.07725102
206	0x3ced4e22	0.02896792
207	0xbd1eafa9	-0.03874174
208	0xbde9d34a	-0.11417253
209	0xbcfbe238	-0.030747518
210	0xbd38df95	-0.0451351
211	0xbe842e74	-0.2581669
212	0xbdf80d7c	-0.12111947
213	0xbbea5bb6	-0.007152046
214	0x3c8a1ce1	0.016859474
215	0xbeea0860	-0.45709515
216	0xbe347442	-0.17622474
217	0x3cf20dcc	0.029547594
218	0xbe75b740	-0.23995686
219	0xbcce0529	-0.025148945
220	0x3da09eba	0.07842775
221	0x3e7b0451	0.24513365
222	0xbe312274	-0.17298299
223	0x3e91bd66	0.28464812
224	0x3d35832c	0.04431455
225	0x3d9e3632	0.07725181
226	0x3d56fa9b	0.05248509
227	0xbdcac66e	-0.09901129
228	0xbeb1593c	-0.34638393
229	0x3dec4664	0.115368634
230	0xbe562a07	-0.2091447
231	0x3ec9204a	0.39282447
232	0xbe8bfd8a	-0.27341872
233	0xbd184357	-0.037173595
234	0xbeeb247c	-0.45926273
235	0xbc9e3b42	-0.019315366
236	0xbecaf49e	-0.39639753
237	0xbe0a2a06	-0.13492593
238	0x3ea555bd	0.32291976
239	0xbe79cc3f	-0.2439432
240	0xbd277dec	-0.040891573
241	0x39627352	0.00021596
242	0xbe090f0b	-0.13384645
243	0x3ec512d2	0.3849092
244	0x3f0c9c89	0.54926354
245	0x3dca3061	0.09872509
246	0x3e58c70c	0.2116968
247	0xbf412f6a	-0.75462973
248	0xbe931b15	-0.287316
249	0xbd42b4b6	-0.04753562
250	0xbe98a0cb	-0.29810175
251	0xbd2f543d	-0.042804945
252	0xbe3e0d73	-0.18559818
253	0xbe7ad0dd	-0.24493738
254	0xbe736c11	-0.23771693
255	0xbe437c0e	-0.19090292

bias f4 [10]
0	0xbea74ab1	-0.32674173
1	0xbfd0e9e1	-1.6321374
2	0x3e9182cc	0.28420103
3	0x3f0b3d43	0.5439035
4	0xbef2c153	-0.4741312
5	0x3ec819a5	0.39082065
6	0xbfa12ea9	-1.2592365
7	0xbf171688	-0.59018755
8	0x3fb4c1c1	1.4121629
9	0x3f012592	0.5044795
