artifacts/1/5243aebfa45b48caa23e6c7139ba2cee/artifacts/model/data/model.pth (torch, 362823 bytes, 6 tensors)

weight f4 [100, 784]
0	0xbd0854e3	-0.03328408
1	0x3d01f948	0.031731874
2	0x3cde75a5	0.027155707
3	0xbd11ec92	-0.035626
4	0x3bdb0b77	0.0066847163
5	0xbbc52577	-0.006016429
6	0xbbc09565	-0.005877184
7	0xbc85ed35	-0.01634846
8	0x3c610533	0.01373415
9	0xbcad4a85	-0.021153698
10	0x3c568221	0.013092549
11	0x3c93f4ac	0.018061005
12	0x3cd0e1ae	0.025498237
13	0x3c585926	0.013204848
14	0xbd10c775	-0.035346467
15	0xbcbdca2f	-0.023167698
16	0x3c9215d7	0.01783268
17	0x3bf4f141	0.007475049
18	0xbce43af5	-0.027860144
19	0xbca877e5	-0.020564983
20	0x3d099e42	0.033598192
21	0x3cc523ce	0.024064925
22	0xbc7f2313	-0.015572327
23	0xbc134585	-0.008988743
24	0xbd0b59fc	-0.034021363
25	0xba28476e	-0.0006419335
26	0xbcdc52d3	-0.026894962
27	0xbce1ad4c	-0.027548455
28	0xbb00f6ee	-0.0019678432
29	0x3bafb66e	0.0053623235
30	0xbc6fa23c	-0.014626082
31	0x3cad9af7	0.021192057
32	0xbcb20b94	-0.021734037
33	0x3d04b892	0.032402582
34	0x3cc6844f	0.024233012
35	0xbcfb396b	-0.030667027
36	0xbc1dc67c	-0.009629842
37	0x3a9172a1	0.0011096784
38	0x3b93af29	0.0045069647
39	0x3bec4b44	0.007211121
40	0x3c48cb92	0.012255566
41	0x3a9ce6a1	0.0011970588
42	0xbc90fe29	-0.017699318
43	0x3c86f69b	0.016475013
44	0xbd0e25ce	-0.034704022
45	0xbcb08674	-0.021548487
46	0xbc1682e5	-0.009186481
47	0xbc905fc4	-0.01762379
48	0xbc50f004	-0.012752537
49	0xbcf1a4a0	-0.029497445
50	0xbbfe6e27	-0.007764596
51	0x3bf88f8c	0.0075854715
52	0xbcbe99ac	-0.023266636
53	0xbaf03bb8	-0.0018328344
54	0x3cd17001	0.025566103
55	0xbb709c81	-0.0036714377
56	0x3a82196e	0.0009925792
57	0xbb49eb25	-0.0030810323
58	0x3becd282	0.007227243
59	0x3cb9fbeb	0.022703132
60	0x3d0a7aa9	0.033808384
61	0x3cb9a5ae	0.02266201
62	0x3d095443	0.033527624
63	0xbb7fac66	-0.003901267
64	0xbd0b9960	-0.034081817
65	0xbc9f5fb4	-0.019454814
66	0x3ca3abd4	0.019979395
67	0xbbac2b75	-0.005254204
68	0xbcbd7436	-0.023126703
69	0xbd01ab07	-0.031657245
70	0xbd184607	-0.03717616
71	0xbd093f9a	-0.03350792
72	0xbc283954	-0.010267574
73	0x3c890566	0.016726207
74	0x3c867a78	0.01641582
75	0xbd1618fd	-0.036644924
76	0x3cacae8d	0.021079326
77	0xbceccdf6	-0.028906804
78	0xbc056997	-0.00814285
79	0xbc70d6b7	-0.0146996295
80	0xbbe33fa4	-0.006935077
81	0xbbe6432d	-0.007027051
82	0xbd0344fd	-0.032048214
83	0xbcfc9e05	-0.030837068
84	0xbbb7202e	-0.005588553
85	0x39f2264a	0.00046186364
86	0xbc84eb22	-0.016225401
87	0x3c5c0124	0.013428006
88	0xbd041855	-0.032249767
89	0xbb147063	-0.0022649996
90	0x3cfb1e4f	0.0306541
91	0xbc8a742a	-0.016901094
92	0x3ce6d2b8	0.02817665
93	0x3bf219ca	0.007388328
94	0xbd1fc905	-0.039010067
95	0x3c854947	0.016270293
96	0xbc011e07	-0.007880694
97	0xbc9cf087	-0.019157661
98	0x3cdef67e	0.027217146
99	0xbcf3b829	-0.0297509
100	0x3b63358c	0.0034669368
101	0xbc169241	-0.009190143
102	0x3cb50206	0.022095691
103	0x3bba3171	0.0056821634
104	0x3c5f900b	0.013645182
105	0x3c145233	0.009052801
106	0xbc326d79	-0.010890358
107	0xbc0d7dfb	-0.008635993
108	0xbcf677a1	-0.03008634
109	0x3c9debee	0.01927754
110	0x3ce7768f	0.028254775
111	0x3cc82f45	0.024436602
112	0xbcce5fa1	-0.025192084
113	0x3ad0cf73	0.0015930965
114	0xbcce1fba	-0.025161613
115	0xbca02eb9	-0.01955353
116	0xbca5b7f2	-0.020229314
117	0x3c5459ee	0.012960894
118	0xbcadca6a	-0.021214683
119	0xba8b7779	-0.0010640464
120	0x3ac14431	0.0014745054
121	0x3cadc4ae	0.021211948
122	0xbcf54396	-0.029939454
123	0xbcdad6d5	-0.026713768
124	0xbc952770	-0.018207282
125	0x3d028499	0.031864736
126	0xbc069492	-0.008214133
127	0x3cf80b68	0.030278876
128	0x3c3e3fa0	0.011611849
129	0xba969b6a	-0.0011490409
130	0xbb9d00d5	-0.004791359
131	0xbc3c1e11	-0.011481778
132	0x3a1bf4c0	0.00059492514
133	0xbc722525	-0.014779364
134	0xbbbb33bd	-0.005712955
135	0x3a2d801f	0.0006618518
136	0xbceea8dc	-0.029133253
137	0xbc9bfebe	-0.019042369
138	0x3cebd532	0.028788183
139	0xbcedbf78	-0.029021963
140	0xbb28114a	-0.002564507
141	0x3d10b625	0.035329957
142	0x3c54687f	0.012964367
143	0x3ab951e7	0.0014138789
144	0xbcf12149	-0.029434817
145	0x3caff44b	0.021478793
146	0xbcb912a1	-0.02259189
147	0xbc2facec	-0.01072238
148	0xbc7da6e3	-0.015481683
149	0xbc3dc9aa	-0.011583725
150	0xbc06d64a	-0.008229801
151	0x3ce6c224	0.028168745
152	0x3c357c96	0.011077067
153	0x3d34bcfb	0.04412554
154	0x3d034408	0.0320473
155	0xbc531975	-0.012884487
156	0x3c94f0dd	0.018181259
157	0xbd094525	-0.033513207
158	0xbcce14c8	-0.025156394
159	0xba168855	-0.0005742361
160	0xbb117232	-0.002219331
161	0x3c517d17	0.012786171
162	0xbcc534d3	-0.02407304
163	0xbc1487b8	-0.009065561
164	0x3c752df0	0.014964566
165	0xbd11dc9f	-0.03561079
166	0x3cd02776	0.025409441
167	0xbcf249d6	-0.029576223
168	0x3a010925	0.0004922322
169	0xbbc6f471	-0.00607162
170	0xbc98e36b	-0.018663129
171	0x3bd08515	0.006363521
172	0x3d0549b9	0.03254101
173	0xbbe0404b	-0.006843602
174	0xbc9a8499	-0.018862056
175	0xbc819b6b	-0.01582118
176	0xbd1ab420	-0.037769437
177	0x3c909b20	0.017652094
178	0xbc1b5fb2	-0.009483265
179	0xbc72eb96	-0.014826676
180	0xbc37337a	-0.011181707
181	0x3d0de719	0.03464422
182	0x3d03ab29	0.032145653
183	0x3d33f3df	0.043933745
184	0x3d053899	0.03252468
185	0xbaaa0455	-0.0012971262
186	0xbbfad8c9	-0.0076552373
187	0x3a8c2bd9	0.001069422
188	0x3caa4a5b	0.020787409
189	0x39965b00	0.0002867803
190	0xbd0bd40a	-0.034137763
191	0xbd0cebff	-0.03440475
192	0xbd390c0b	-0.0451775
193	0x3b5aa7d2	0.003336419
194	0xbcaf2b9f	-0.021383105
195	0xbd037b80	-0.0321002
196	0x3d004724	0.031317845
197	0xbcbdb213	-0.023156201
198	0xbb63126b	-0.003464843
199	0x3c5f6487	0.013634807
200	0x3bfad8d9	0.007655245
201	0xbc8c957c	-0.017161123
202	0xbcb47a79	-0.022031056
203	0x3cff08a9	0.03113206
204	0x3c0fa263	0.008766743
205	0x3d343a2a	0.044000782
206	0x3b62a4d4	0.0034583108
207	0x3c82091d	0.015873486
208	0xbb0d8112	-0.0021591824
209	0x3b921224	0.004457729
210	0xbc74bf69	-0.014938214
211	0x3cfd3c26	0.03091247
212	0x3d07dd11	0.03316981
213	0x3c9d89b7	0.019230707
214	0x3b21999d	0.002465821
215	0xbc8a98b1	-0.016918512
216	0x3ce67fc0	0.028137088
217	0xbd115f9b	-0.035491567
218	0xbb95d47d	-0.0045724497
219	0xbd209826	-0.0392076
220	0xbd261181	-0.040544037
221	0xbbafd783	-0.005366267
222	0xbcaaf3f6	-0.020868283
223	0x3c025ea1	0.007957132
224	0x3be296c3	0.006914945
225	0xbcd74bb9	-0.026281225
226	0x3be67bf1	0.007033818
227	0x3ca1a68b	0.019732734
228	0x3ccece5d	0.025244886
229	0x3bd99aba	0.0066407593
230	0xbc93ed5c	-0.018057518
231	0x3baa1477	0.005190428
232	0x3cd93eaa	0.026519138
233	0x3acb6bcf	0.00155198
234	0x3c959155	0.018257776
235	0x3c92500e	0.017860439
236	0xbced6d08	-0.028982654
237	0xbc039642	-0.00803143
238	0x3ca90d5e	0.020636257
239	0x3cabbb64	0.020963378
240	0x3ca775e7	0.020441962
241	0x3cc8acfb	0.024496546
242	0xbb9caad0	-0.0047811046
243	0x3c4ec569	0.012620308
244	0x3cc8f68f	0.02453163
245	0x3caab62a	0.020838816
246	0xbb20391e	-0.0024448107
247	0xbd156aec	-0.03647892
248	0xbcade009	-0.021224992
249	0xbd1326c2	-0.035925634
250	0xbd0898f3	-0.03334899
251	0xbcfdba79	-0.030972706
252	0x3d120d2f	0.035657104
253	0x3cbd5c7d	0.02311539
254	0xbcbe6117	-0.023239655
255	0x3ca1d3e3	0.019754356

bias f4 [100]
0	0xbba5040a	-0.005035882
1	0xbd10a2d9	-0.035311554
2	0xbd1c6217	-0.038179483
3	0x3c9f0dd2	0.01941577
4	0x3d56e27c	0.052462086
5	0x3c2a0973	0.010378229
6	0xbd5b704d	-0.053573895
7	0x3d387f36	0.045043193
8	0x3b5e5175	0.0033923064
9	0x3d44eb9b	0.048076253
10	0x3ce56c09	0.028005617
11	0xbd0f2d74	-0.034955457
12	0x3ca05f78	0.019576773
13	0x3d499058	0.049209923
14	0xbd86db90	-0.06584847
15	0x3e0cbb34	0.13743287
16	0x3cf3382f	0.029689876
17	0x3c229a10	0.009924427
18	0xbc7708c7	-0.015077776
19	0x3c806d47	0.015677107
20	0xbd18989b	-0.03725491
21	0x3cd303a5	0.025758574
22	0xbd9399aa	-0.072070435
23	0x3d3975d2	0.045278378
24	0xbcc64287	-0.024201645
25	0x3d2e05cf	0.04248601
26	0xbdc28c4f	-0.09499418
27	0x3d38c3f8	0.045108765
28	0x3b8e7c30	0.0043483004
29	0xbcabac62	-0.020956222
30	0x3d44a830	0.04801196
31	0xbdab5751	-0.08366264
32	0x3c9816fc	0.018565647
33	0x3ca65b0b	0.020307085
34	0x3e0950cd	0.1340973
35	0x3da19c5e	0.07891153
36	0x3bc5dd38	0.006038334
37	0x3d74ab10	0.05973345
38	0x3d3b1f35	0.04568406
39	0x3da3bf3e	0.07995461
40	0x3bb9edfb	0.0056741214
41	0x3d99af9e	0.075041994
42	0x3ba147c7	0.0049218866
43	0x3a923c91	0.0011156966
44	0x3ddce578	0.10785955
45	0x3e212060	0.15735006
46	0x3c1e0a67	0.009646035
47	0x3c6fd72f	0.014638706
48	0x3d5e1e43	0.05422808
49	0x3bfef028	0.0077800937
50	0x3e15f787	0.14645205
51	0x3d486b78	0.048930615
52	0x3d2542fc	0.040347084
53	0x3b626829	0.0034546948
54	0x3d0d251e	0.034459226
55	0xbc79cf32	-0.015247153
56	0x3cff0bb0	0.031133503
57	0xbba3197a	-0.0049774023
58	0xbcbd28bb	-0.02309071
59	0xbcff008c	-0.03112819
60	0xbcf7d0e7	-0.03025098
61	0xb9f6af28	-0.00047051278
62	0x3d225aa4	0.039637223
63	0xbd31dc6c	-0.0434231
64	0x3c952229	0.018204765
65	0xbdd0184f	-0.101608865
66	0xbd7a0c03	-0.06104661
67	0xbd119b68	-0.035548598
68	0xbd2fe45e	-0.042942397
69	0x3c0f76b8	0.008756332
70	0xbd5afa49	-0.053461347
71	0x3c0ddad5	0.008658131
72	0xbabce334	-0.0014410974
73	0xbbaa69fd	-0.005200623
74	0x3c90444f	0.017610697
75	0xbc73c3e4	-0.014878247
76	0x3d486164	0.048921004
77	0xba70436c	-0.000916532
78	0x3d0718e6	0.03298273
79	0xbc0aae48	-0.008464403
80	0xbb0737a1	-0.0020632523
81	0x3b6d5bf6	0.0036218143
82	0x3d17b084	0.037033573
83	0x3dc30510	0.0952245
84	0x3d96f537	0.0737099
85	0xbd04b627	-0.032400277
86	0x3d088db0	0.03333825
87	0xbcde89a1	-0.027165236
88	0x3cd8850c	0.02643063
89	0xbc0aed3f	-0.008479415
90	0x3d35c06f	0.044372972
91	0x3c473882	0.012159469
92	0x3d6ca543	0.057774793
93	0x3d9828ef	0.074296825
94	0x3d7b2ec5	0.0613239
95	0x3d1cf0fe	0.038315766
96	0xbcbaec06	-0.022817623
97	0xbcbcc5dd	-0.023043567
98	0xbcf9b813	-0.030483281
99	0xbd0c5514	-0.034260824

weight f4 [100, 100]
0	0xbc5a1543	-0.013310733
1	0xbda6bc4e	-0.08141385
2	0xbdb61ce4	-0.08892229
3	0xbd90be5d	-0.07067559
4	0xbdaea479	-0.085274644
5	0x3cb81ba0	0.02247411
6	0xbc92c900	-0.01791811
7	0x3d0e8a51	0.034799878
8	0x3d177ac7	0.036982324
9	0x3af18fb7	0.0018429671
10	0xbd3ad467	-0.04561272
11	0xbd58bace	-0.052912526
12	0x3db3a37f	0.08771419
13	0xbdc7abe1	-0.0974958
14	0xbd2e2d3b	-0.042523604
15	0x3da99fb3	0.08282413
16	0x3c9b2533	0.018938636
17	0x3daf9895	0.085740246
18	0xbdbaa6c2	-0.09113838
19	0xbd3e8dbb	-0.046521883
20	0x3ce92b3f	0.028463004
21	0xbdc817de	-0.09770177
22	0x3dcc3504	0.099710494
23	0x3c290df7	0.010318271
24	0x3afe157d	0.0019385066
25	0xbce5b3b9	-0.0280398
26	0x3d68c468	0.056827933
27	0x3bf66b03	0.007520081
28	0xbd9c1286	-0.076207206
29	0x3d4097f1	0.047019903
30	0x3dbc8470	0.09204948
31	0x3db32d58	0.08748883
32	0x3d328110	0.043580115
33	0xbdb677f3	-0.08909597
34	0x3d4a6e44	0.049421564
35	0x3cf31ceb	0.029676875
36	0xbdc5d058	-0.09658879
37	0xbd11e588	-0.03561929
38	0xbdc0c49f	-0.094125025
39	0xbd3a2b23	-0.045451295
40	0xbd0b0eb5	-0.033949573
41	0xbd86f126	-0.06588964
42	0x3d14179e	0.036155336
43	0xbd0ba547	-0.034093168
44	0xbda8d614	-0.08243957
45	0xbda65c76	-0.08123104
46	0xbd147d09	-0.036252055
47	0x3d03eda9	0.032209072
48	0xbc8f7966	-0.017513942
49	0x3bcb8be8	0.0062117465
50	0x3d4a885d	0.049446452
51	0x3db1c7d8	0.08680695
52	0xbd6730e2	-0.056443103
53	0x3dcb38cd	0.09922943
54	0x3dbb77bf	0.09153699
55	0x3d8b7a93	0.068104886
56	0x3d8342fe	0.06409262
57	0x3d440320	0.047854543
58	0xbdbaa00d	-0.091125585
59	0x3d84f8ae	0.064927444
60	0x3a2710fe	0.00063730765
61	0x3cc5b489	0.024133937
62	0xbd58be19	-0.052915666
63	0xbda4ec90	-0.08052933
64	0xbd9a13c2	-0.075233
65	0xbcc82d92	-0.024435792
66	0x3da8cb04	0.08241847
67	0xbd58940f	-0.052875575
68	0xbc8a7e01	-0.016905786
69	0x3bfca76e	0.007710389
70	0xbd889b84	-0.06670287
71	0xbd819c69	-0.06328661
72	0x3cdd2d94	0.026999272
73	0x3d9b7606	0.075908706
74	0xbdc52e11	-0.09627927
75	0xbcc5a859	-0.024128126
76	0xbccc12d1	-0.024911316
77	0xbc812fab	-0.0157698
78	0x3db1496e	0.08656584
79	0x3c382369	0.011238911
80	0xbd1d7f4e	-0.038451485
81	0xbc19a7b1	-0.00937836
82	0xbc307062	-0.010768982
83	0xbdc48fbe	-0.09597729
84	0xbc2f1f62	-0.010688635
85	0x3ca591c5	0.02021111
86	0x3c2624af	0.010140582
87	0x3c87fabb	0.01659905
88	0xbd9cbd11	-0.07653249
89	0xbc9d8212	-0.019227061
90	0x3b6f549e	0.0036518942
91	0xbd46e7be	-0.04856085
92	0xbd219118	-0.039445013
93	0x3d3d261a	0.046178915
94	0x3d88d130	0.06680524
95	0xbd884629	-0.06654007
96	0xbc26744c	-0.010159563
97	0xbd452010	-0.04812628
98	0xbdcbc00b	-0.09948739
99	0xbd94dfc1	-0.0726924
100	0x3d5772a5	0.052599568
101	0xbd572c8e	-0.052532725
102	0x3d7092c5	0.05873372
103	0xbd029c13	-0.031887125
104	0xbd537d6c	-0.051633283
105	0xb989b2c9	-0.00026263882
106	0x3d80e51b	0.062936984
107	0x3da39d9c	0.07989046
108	0x3de4e80e	0.111770734
109	0xbc77e9c8	-0.015131421
110	0x3d6faf7f	0.058516975
111	0xbda6580c	-0.08122262
112	0xbaf770cd	-0.0018878222
113	0x3bebc021	0.0071945344
114	0x3c557e77	0.01303064
115	0x3d3f5a7a	0.046717145
116	0x3d635e58	0.055509895
117	0x3d8c1763	0.06840398
118	0x3aa61b8f	0.0012673008
119	0xbd61f988	-0.055169612
120	0xbd657bbb	-0.0560262
121	0xbc71d56e	-0.014760358
122	0x3d6b9dbe	0.05752348
123	0x3d367dbe	0.04455351
124	0xbd9aaf25	-0.075529374
125	0x3d5f9e7f	0.054594513
126	0x3d750c40	0.059826136
127	0xbdaed2a8	-0.08536273
128	0x3c469539	0.012120538
129	0xbd8ad5e9	-0.067790814
130	0xbda6d134	-0.08145371
131	0x3c8004b9	0.015627252
132	0xbced3605	-0.028956423
133	0x3dd5de4e	0.10442792
134	0xbd407d2a	-0.046994366
135	0x3d3ec8e2	0.046578296
136	0xbcb72ce1	-0.022360267
137	0xbd508fa4	-0.050918236
138	0xbbeafe3f	-0.007171422
139	0x3d3b1f5f	0.045684215
140	0x3cf6d701	0.030131819
141	0x39f3f91d	0.00046534176
142	0xbdc1ff6f	-0.09472548
143	0xbc9cb78c	-0.01913049
144	0x3d55ebb1	0.052226726
145	0xbcd06477	-0.02543853
146	0x3d2d5543	0.04231764
147	0x3dc1b0e6	0.09457569
148	0xbd922053	-0.071350716
149	0x3dc830cf	0.097749345
150	0xbd6791c5	-0.0565355
151	0x3d220b24	0.039561406
152	0xbb74622b	-0.0037289958
153	0x3db3e041	0.087830074
154	0x3cbaf9a5	0.022824118
155	0xbc9b53d6	-0.018960875
156	0xbb9d9e43	-0.004810126
157	0x3cafef7d	0.021476502
158	0xbd188e26	-0.03724494
159	0x3c8ce540	0.017199159
160	0xbd5b6831	-0.05356616
161	0xbc29f46e	-0.010373218
162	0x3b85171b	0.0040615923
163	0x3d0e0f90	0.03468281
164	0xbd850d89	-0.06496722
165	0x3da96d0e	0.08272754
166	0x3d161abb	0.036646586
167	0xbcda8781	-0.026675941
168	0xbd78fb5e	-0.060786597
169	0xbce7b1d8	-0.028283045
170	0xbcee54f4	-0.029093243
171	0x3d19d24b	0.037554067
172	0x3b45433f	0.0030099896
173	0x3c78151a	0.01514175
174	0xbd8e3079	-0.06942839
175	0x3c3e213f	0.011604606
176	0x3d9c268b	0.07624539
177	0x3dbb9721	0.09159685
178	0xbd5ba3d9	-0.053623054
179	0x3c87b3eb	0.016565284
180	0x3cc7807c	0.024353258
181	0x3da3b38e	0.07993232
182	0xbcc07d01	-0.023497107
183	0x3dcbf6c4	0.09959176
184	0x3a11dc28	0.0005564117
185	0xbdbd4f24	-0.092436105
186	0x3dc92a49	0.098225184
187	0xbbe3d374	-0.0069526974
188	0xbd369584	-0.044576183
189	0xbda4888c	-0.08033857
190	0x3dc3b120	0.09555268
191	0xbcf53a4b	-0.029935023
192	0xbd4f68df	-0.050637122
193	0x3dc010c3	0.09378197
194	0x3af4f61e	0.0018689071
195	0x3d1e0e49	0.038587842
196	0x3b220fc5	0.0024728638
197	0x3d86e9e0	0.06587577
198	0xbd79e801	-0.06101227
199	0x3d729656	0.059225403
200	0x3dfd7d56	0.123774216
201	0xbd5f05e6	-0.054448985
202	0x3e193165	0.14960249
203	0x3a47d658	0.0007623187
204	0x3db3713f	0.08761834
205	0x3e4f8917	0.2026714
206	0xbdddb0bf	-0.10824727
207	0xbe0cf5c0	-0.13765621
208	0xbe031339	-0.12800302
209	0x3e41ce33	0.18926315
210	0xbdd0aa40	-0.101887226
211	0xbcaae86e	-0.020862784
212	0x3e04c61c	0.12966198
213	0xbc964fb1	-0.018348547
214	0x3e23b739	0.15987863
215	0xbda3c39a	-0.079962924
216	0x3dc67d17	0.09691828
217	0xbd6f443e	-0.05841469
218	0x3dbb89e3	0.09157159
219	0xbda7ce60	-0.0819366
220	0xbe148355	-0.14503224
221	0xbce29698	-0.0276597
222	0x3c8ff5f2	0.01757333
223	0x3dabd45a	0.08390112
224	0x3d9a2a69	0.0752762
225	0x3d68766c	0.05675356
226	0x3e02cc51	0.12773253
227	0xbe125fe7	-0.14294396
228	0xbc96b36d	-0.018396104
229	0x3e078c99	0.13237227
230	0x3d5861a2	0.052827485
231	0xbcfa9eb1	-0.030593248
232	0x3d7cd0b1	0.06172246
233	0xbcf1ef13	-0.029532945
234	0x3d236531	0.039891426
235	0xbd336feb	-0.043807905
236	0xbd043db7	-0.03228542
237	0x3e5d7bab	0.21629207
238	0xbc9e128c	-0.019295953
239	0x3df4e408	0.11957556
240	0x3ca472c7	0.020074261
241	0x3e0ec790	0.13943315
242	0x3c31e066	0.010856723
243	0xbce5b90b	-0.028042337
244	0x3e1b365c	0.15157455
245	0x3dd95b4d	0.10613117
246	0xbd9af1f3	-0.075656794
247	0x3db4318e	0.08798514
248	0x3d9dd5e6	0.077068135
249	0x3e1dc0c6	0.15405568
250	0xbb337140	-0.0027380735
251	0xbd5e6ebd	-0.054304827
252	0xbd488153	-0.04895146
253	0xbdb60329	-0.088873215
254	0xbde3ffa6	-0.111327454
255	0x3dbbc580	0.091685295

bias f4 [100]
0	0x3b730e9b	0.0037087563
1	0xbd9c8cb9	-0.07644028
2	0xbc93771e	-0.018001135
3	0xbd477a4e	-0.048700623
4	0x3d15aa6d	0.036539484
5	0xbd523acb	-0.0513256
6	0x3d944807	0.072403006
7	0xbd16b280	-0.036791325
8	0xbd90b334	-0.0706543
9	0xbde3b9f8	-0.11119455
10	0x3d20963f	0.039205786
11	0xbd608cdd	-0.054821838
12	0xb9f4f855	-0.00046724328
13	0xbd3be04b	-0.0458682
14	0xbd2a2f00	-0.04154873
15	0x3c307fd2	0.010772662
16	0x3da68ee0	0.0813272
17	0xbded0f28	-0.115751565
18	0xbd0404b2	-0.03223104
19	0x3d655153	0.05598576
20	0x3c5a4700	0.013322592
21	0xbd9a1231	-0.07523001
22	0x3dcdc004	0.1004639
23	0xbb158f39	-0.0022820963
24	0x3e21ac8f	0.15788482
25	0xbb35d748	-0.0027746726
26	0x3dbd80a9	0.092530556
27	0x3ccf59fb	0.02531146
28	0x3d0731ef	0.033006605
29	0x3da2fe60	0.079586744
30	0xbb2b5928	-0.002614567
31	0xbd8ec60d	-0.06971369
32	0x3d9c1bce	0.07622491
33	0xbd14a1cb	-0.03628711
34	0xbcc29eda	-0.023757387
35	0x3dedea5f	0.11616968
36	0x3e751e6d	0.23937388
37	0x3d3fadda	0.046796657
38	0x3db4dc4e	0.08831082
39	0x3e021e20	0.12706804
40	0x3e076605	0.13222511
41	0x3d764ec1	0.0601337
42	0x3b40e479	0.0029433055
43	0x3cd90c82	0.026495222
44	0x3e520ff4	0.20513898
45	0xbd1aac07	-0.037761714
46	0x3ddb6129	0.10711891
47	0xbd4b1427	-0.049579766
48	0xbd54fb70	-0.051997602
49	0x3d4b8ada	0.049692966
50	0x3d999155	0.07498423
51	0xbdbfe984	-0.093707114
52	0x3e25b7c6	0.16183385
53	0x3d7799ec	0.060449526
54	0x3de5eea8	0.11227161
55	0xbdcf2fe3	-0.101165555
56	0x3d115730	0.03548354
57	0x3de4b897	0.1116802
58	0x3cd5b83c	0.026088826
59	0x3e40f22d	0.18842383
60	0x3c486092	0.012230055
61	0xbdb0fa5a	-0.08641501
62	0x3cbd7502	0.023127083
63	0x3d888e57	0.06667774
64	0x3dd7836b	0.10523113
65	0x3dfbcd70	0.122950435
66	0xbd7605d2	-0.060064144
67	0x3e2d2271	0.1690767
68	0xbd57f7eb	-0.052726667
69	0xbd8f722a	-0.07004197
70	0x3d7f034a	0.062258996
71	0x3e144278	0.14478481
72	0x3de49bf0	0.11162555
73	0xbd03f354	-0.032214478
74	0xbd695730	-0.056967914
75	0x3e408ce0	0.1880374
76	0x3d4586eb	0.04822437
77	0x3e6b7feb	0.22998016
78	0x3d80861d	0.0627558
79	0x3cd0af29	0.025474148
80	0xbcf0cbe5	-0.0293941
81	0x3d541da5	0.051786084
82	0xbd07676e	-0.033057623
83	0xbdb3ce13	-0.0877954
84	0x3c93aeeb	0.018027743
85	0xbdb291ef	-0.08719241
86	0xbc5ceff9	-0.013484948
87	0xbc2714f4	-0.010197867
88	0x3ce37887	0.027767433
89	0xbe108274	-0.14112264
90	0xb90306e4	-0.000124957
91	0x3dd2dc4e	0.10295926
92	0x3db83150	0.089937806
93	0x3dc8e5ef	0.09809481
94	0xbd835fcc	-0.06414756
95	0x3de1e7fd	0.110305764
96	0xbcc50489	-0.024050014
97	0x3d5a1631	0.05324382
98	0xbc86c60d	-0.01645186
99	0x3da079fd	0.078357674

weight f4 [10, 100]
0	0xbc51e893	-0.012811798
1	0x3dd357af	0.10319459
2	0xbe8cd133	-0.27503356
3	0xbcc4931b	-0.023995927
4	0xbc593c19	-0.013258957
5	0xbe85567b	-0.26042542
6	0xbddc298a	-0.107501104
7	0xbdfaba9d	-0.12242625
8	0x3d62bd1e	0.055356137
9	0x3d8619d9	0.06547899
10	0xbdaf7fd3	-0.085693024
11	0x3d388dac	0.045056984
12	0x3e320882	0.17386058
13	0x3d1637e4	0.036674395
14	0xbe1d51c3	-0.15363221
15	0xbac7014b	-0.001518288
16	0x3eac78f9	0.33686045
17	0x3e8ccb38	0.27498794
18	0x3df36574	0.11884585
19	0x3e0b9798	0.13632047
20	0x3d9f7b67	0.07787209
21	0x3cc5f0e5	0.024162719
22	0xbe3a45c2	-0.18190673
23	0x3e1725cc	0.14760512
24	0x3c80db63	0.015729612
25	0x3d27cf10	0.040968955
26	0x3e107bfd	0.14109798
27	0xbd62df54	-0.055388764
28	0xbdc47923	-0.095934175
29	0x3e0d32c4	0.13788897
30	0x3cfa4de5	0.030554721
31	0xbe4ed898	-0.20199811
32	0x3e148fa7	0.14507924
33	0xbd8c525c	-0.06851646
34	0x3c45434e	0.0120399725
35	0x3e120f08	0.14263546
36	0xbe846fa3	-0.25866422
37	0xbd3f3045	-0.046676893
38	0x3db06676	0.08613293
39	0xbe772c4d	-0.24137993
40	0xbe88cc5d	-0.26718417
41	0x3e9a8550	0.30179834
42	0x3d146f83	0.03623916
43	0xbe2ea0c5	-0.17053516
44	0x3e74d720	0.23910189
45	0xbd3c6845	-0.045997877
46	0x3e841af1	0.25801805
47	0x3c028a9a	0.0079676155
48	0xbd6423cc	-0.0556982
49	0x3d98417d	0.07434366
50	0x3e6b70f3	0.22992305
51	0xbb36eedd	-0.002791337
52	0xbe27c5af	-0.16384004
53	0xbe4a47ba	-0.19753924
54	0xbe175f58	-0.14782465
55	0xbd3b0c58	-0.04566607
56	0x3ac1aeec	0.0014776862
57	0xbeb7e9e0	-0.3592062
58	0x3e8c1f7d	0.27367774
59	0xbe944665	-0.28959957
60	0x3d911883	0.07084753
61	0x3d564b20	0.05231774
62	0x3e8f1e68	0.27952886
63	0xbdc16afc	-0.09444234
64	0x3cfe6f2f	0.031058876
65	0xbe6d61c6	-0.23181829
66	0x3dcb03f9	0.09912867
67	0xbe5cd6e4	-0.2156635
68	0xbe221c18	-0.1583103
69	0xbe5f3da0	-0.21800852
70	0xbdaa7038	-0.08322185
71	0xbe5d71ff	-0.21625517
72	0xbdda6e62	-0.10665585
73	0x3d8f054b	0.069834314
74	0xbdd48d63	-0.1037853
75	0x3dab6b24	0.08370045
76	0xbe67eb80	-0.2264843
77	0xbdbb7c78	-0.091546
78	0x3da333d7	0.07968872
79	0x3ea322a8	0.31862378
80	0xbd232081	-0.03982592
81	0x3e964e30	0.29356527
82	0x3d9a99da	0.07548876
83	0xbd8043cd	-0.06262932
84	0xbdb602f8	-0.08887285
85	0xbd1dd7ae	-0.038535766
86	0xbcd706e6	-0.026248407
87	0xbe0b2e60	-0.1359191
88	0xbda5b014	-0.08090225
89	0xbcc15f6f	-0.023605077
90	0x3da3e24e	0.080021486
91	0xbe14454d	-0.14479561
92	0xbdc20186	-0.09472947
93	0x3e88bce9	0.26706627
94	0x39e57a8b	0.00043769585
95	0x3b3bcf99	0.0028657673
96	0xbbbbf252	-0.005735674
97	0xbd8ca3cb	-0.068671785
98	0xbdb87714	-0.09007087
99	0xbe251d2f	-0.16124414
100	0xbc640a81	-0.01391852
101	0x3d60993a	0.05483363
102	0x3c893140	0.016747117
103	0x3e8dc6d2	0.2769075
104	0xbe26779a	-0.16256562
105	0xbde49aae	-0.11162315
106	0xbeb1ed3d	-0.3475131
107	0x3e8e2ebf	0.2777004
108	0xbd9dbff2	-0.07702626
109	0xbd0e005b	-0.034668308
110	0x3caae126	0.020859312
111	0x3d2947f2	0.041328378
112	0xbe5340c2	-0.20630172
113	0x3c8fdf01	0.017562391
114	0x3d9a1bcb	0.07524832
115	0xbcaab9e6	-0.020840596
116	0xbde56445	-0.112007655
117	0xbe5e9549	-0.21736635
118	0xbe76db7a	-0.24107161
119	0xbb753657	-0.0037416422
120	0x3d2b7107	0.04185584
121	0xbd33a45e	-0.043857925
122	0x3e3a54dd	0.18196435
123	0xbcce156f	-0.025156705
124	0xbe050331	-0.12989499
125	0x3ccc639b	0.02494984
126	0xbda19056	-0.07888858
127	0xbd120eae	-0.03565853
128	0xbdbdaca9	-0.09261448
129	0xbe83caa6	-0.25740546
130	0xbdfbb596	-0.12290494
131	0xbe6ffd92	-0.23436573
132	0xbda2f8d2	-0.07957615
133	0x3dcecaac	0.1009725
134	0xbde346c7	-0.11097484
135	0xbdfbb97e	-0.12291239
136	0x3e5cd799	0.21566619
137	0xbe86b6f7	-0.26311466
138	0xbdbf33d7	-0.093360595
139	0xbe323c6c	-0.17405862
140	0x3e489f83	0.19592099
141	0xbe3322a8	-0.17493689
142	0x3e02e16f	0.12781309
143	0xbe4680a0	-0.19385004
144	0x3d917116	0.071016476
145	0xbe2ba806	-0.16763315
146	0xbe6ffaa2	-0.23435453
147	0xbe36b108	-0.1784097
148	0x3c73de31	0.0148845175
149	0xbb98b3d8	-0.004660111
150	0xbe231361	-0.15925361
151	0xbca95233	-0.020669078
152	0xbde0322e	-0.10947071
153	0x3e420808	0.18948376
154	0xbe5a5a36	-0.21323475
155	0x3c85eeb1	0.016349168
156	0x3d5ab387	0.053393867
157	0x3ea260d8	0.3171451
158	0xbe2cb4c5	-0.16865833
159	0x3f11104b	0.56665486
160	0xbe361002	-0.17779544
161	0x3aed69c1	0.0018113182
162	0x3a0ead56	0.0005442699
163	0x3edcb3bf	0.43105885
164	0xbdb4d30e	-0.08829318
165	0x3da1f68a	0.07908352
166	0x3c85e4c5	0.016344437
167	0x3d59e688	0.053198367
168	0x3db27257	0.08713215
169	0xbbc988df	-0.0061503495
170	0x3cf54374	0.02993939
171	0x3e25e182	0.16199306
172	0x3d781597	0.060567465
173	0xbca16741	-0.019702556
174	0x3da05b1e	0.07829879
175	0x3e575901	0.21030046
176	0xbd8678f7	-0.06566041
177	0xbe5c04cd	-0.21486206
178	0xbcd59f37	-0.026076896
179	0xbe87d63e	-0.2653064
180	0xbd9c5ceb	-0.0763491
181	0xbe9937f4	-0.299255
182	0x3e6342c4	0.22193438
183	0xbd0d8363	-0.03454913
184	0x3be31919	0.006930482
185	0x3d693799	0.056937788
186	0xbdb5ed3f	-0.08883142
187	0xbd6e5fe7	-0.05819693
188	0x3e8041c3	0.25050172
189	0x3d201264	0.03908004
190	0xbd92f92b	-0.07176431
191	0x3d1d640a	0.038425483
192	0xbbd23bd7	-0.006415825
193	0x3db1b496	0.08677022
194	0xbdfcf6e9	-0.12351782
195	0xbd8e7553	-0.069559716
196	0x3e288c96	0.1645988
197	0x3e93328c	0.28749502
198	0xbd0ad7f2	-0.033897348
199	0xbb4ce225	-0.0031262722
200	0x3a0560e2	0.0005087984
201	0xbd50e382	-0.05099822
202	0xbe93a639	-0.28837755
203	0xbdfb671d	-0.12275527
204	0xbe001177	-0.12506662
205	0xbc2fb59a	-0.0107244495
206	0x3dcef0da	0.101045325
207	0x3e2dfd7a	0.16991225
208	0x3d77152e	0.060322933
209	0x3d66ef7f	0.056380745
210	0xbd9de072	-0.07708825
211	0xbd71b484	-0.059010044
212	0x3e041df6	0.12902054
213	0xbd4f277f	-0.050574776
214	0xbdbb0a0d	-0.091327764
215	0x3e6b0d7b	0.22954361
216	0x3e90e2dd	0.28298083
217	0xbdb33634	-0.08750573
218	0x3de064ed	0.1095675
219	0x3b84226a	0.004032423
220	0x3e50e2af	0.20398973
221	0x3ce60bb4	0.028081752
222	0x3e4f9c3a	0.2027444
223	0x3ecc3994	0.3988768
224	0xbd6ac6fa	-0.057318665
225	0x3e262d25	0.16228159
226	0x3c2bba36	0.010481408
227	0x3d354875	0.044258554
228	0xbeb54595	-0.3540465
229	0xbdb1168e	-0.0864688
230	0x3e0d80f7	0.13818727
231	0x3e331caa	0.17491403
232	0x3e47b145	0.19501217
233	0xbcd66e91	-0.026175769
234	0x3cf53d3e	0.02993643
235	0xbdd881f9	-0.10571665
236	0xbd8740dc	-0.06604168
237	0xbcfdf487	-0.031000389
238	0xbcdaa9ca	-0.02669229
239	0xbe18ed31	-0.14934231
240	0x3e822b88	0.25423837
241	0xbe42c56e	-0.19020626
242	0xbd094939	-0.033517096
243	0xbe1070bc	-0.14105505
244	0x3e621667	0.22078858
245	0x3d799b35	0.060939033
246	0x3d7c8dfe	0.06165885
247	0x3ec403dd	0.38284197
248	0xbc843362	-0.016137782
249	0x3e906b59	0.282069
250	0xbcd0c62d	-0.025485123
251	0x3d8f2af3	0.06990614
252	0x3e2b3c66	0.16722259
253	0xbe525561	-0.20540382
254	0x3e2c24b5	0.16810878
255	0x3db4c727	0.08827048

bias f4 [10]
0	0xbe466df1	-0.19377877
1	0x3e5e315f	0.21698521
2	0x3c1fa7dd	0.009744612
3	0xbded2f54	-0.11581293
4	0x3be31522	0.0069300095
5	0x3e661737	0.22469793
6	0xbddebcf0	-0.10875881
7	0x3deb62f1	0.11493481
8	0xbe67af7d	-0.22625537
9	0xbcc26329	-0.023728924
