artifacts/1/282ca2419aca490aa71c63b37fc3edde/artifacts/model/data/model.pth (torch, 362823 bytes, 6 tensors)

weight f4 [100, 784]
00000000: f3bc 7fbc 21f0 3b3c ae9f bfbc 7744 a0bc
00000010: 11b2 fbbc 25e4 793b cef8 03bd 5aa0 af3c
00000020: 819e e6bc 937c 66ba 8a98 a8bb 9317 873c
00000030: eab0 25bc 1133 f2bc 4a79 c83b 8f22 0b3d
00000040: 3eea ac3c 755d 84bc 4e42 0ebd c5b8 443c
00000050: 80b9 0bbd 53b1 f73c 634c a6bc 2ed9 4b3c
00000060: 65a6 0fbd fa57 91bc 90c0 a7bc 3ed6 f43c
00000070: 0110 43ba 5343 cfbc 853f 92bc e74f 9abc
00000080: 45d2 bdbc b5b0 edbc 7c1b 0abd a5ed d4bc
00000090: 3fb5 7a3c 50e3 b9bb 3b98 d03a de1f e5bc
000000a0: c19e c23c 89c7 d63c b75c 523b 5a72 a7b7
000000b0: a3b0 ce3c f9f4 e43c 6b17 80bc ccf7 613b
000000c0: 06b2 fdbc c714 52bc 9a69 c7bc d0db a8bc
000000d0: 81e1 7fbc cad4 fdbc 5ea5 dc3c 4ac9 a33b
000000e0: aad7 8f3c fe08 cbbc bc58 54bc b7cc 46bb
000000f0: 3d37 413c ee7f f13c 97dd bfbc 1247 39bc
00000100: da37 09bd de76 05bc 18da cbbc dab5 b23b
00000110: adb6 03bd 20d5 fabc 6d7a be3b 2b14 adbc
00000120: 39de 64bc 387c d6bc 1800 d5bc acd4 09bd
00000130: ef99 023d fd7a 0fbd 3c87 c8bc 6526 b1bb
00000140: 1811 be3c 6804 12bd 839c a6bc 00f0 9dbb
00000150: a531 35bc 9a28 e33c 6e28 8ebc 5ea7 f2bc
00000160: 829f f23b 433d 493a 76d9 e1bc b7cf ee3c
00000170: 3a78 d83b 3cf7 a8bc 09fa cb3c c4f1 db3c
00000180: cc1a 42bc a2ed bfbc 82dc a93b 5cbf 5abc
00000190: c3eb 303c e57e adbb e682 f53c 66cd be3c
000001a0: 4d23 1e3c 590e 1bbb 9ec7 efbc 7b4f 0fbd
000001b0: 0a92 e1bc ed12 e63c 9507 8c3c 012c f4b9
000001c0: 83bd 0b3d a02d 243c 615a bc3c a1ac 63bc
000001d0: 0575 d5bb fcf3 0d3d a7e5 b33c e6c9 e1bc
000001e0: 4fd5 9d3b 2a07 88bc fac3 443c a386 aabc
000001f0: 5b1f bdbc d22f 403c 7f59 82bc e89b 35b9
00000200: f27a 98bc 1ed8 bb3c e58a c53c 8fc4 d3bc
00000210: e888 0f3d 2835 0c3d 4042 52bb a410 773c
00000220: fa8c c8bc 276d 43bb f930 34bc c5d2 9e3c
00000230: aefc 9dbb 255c 613c acb8 5ebb bf3c 22bc
00000240: d47f af39 ffe0 c9bc b449 3f3b 9ffe c4bc
00000250: d2d1 8d3c a70a 22bc 2c51 c1bb cb1d 0a3d
00000260: cfd6 323c 4b74 ddbc bbb2 1cba 3bbb 43bc
00000270: cd75 cd3b b975 6bbc 9275 743c 0452 bf3c
00000280: 2597 443b e651 463c bbf5 b1bb aea6 adbc
00000290: fe67 f63c bb1e 93bc aebe 7b3c 2896 e0bc
000002a0: f093 9cbc d31f 78bc e59c f3b9 68b6 ca3b
000002b0: bd70 103b 3e07 7ebc dea2 a43c 8cd3 c13c
000002c0: b2fc 0c3d 6943 f93c 398c 12bc 2eec adbb
000002d0: e67d cabc ab29 aebc 8980 cebc d69a a63c
000002e0: 7921 8ebc 4c99 6abc 4abe ab3c 7dda 01bc
000002f0: de85 a93c c7ed 89bc b0e2 bc3c 4148 f5bc
00000300: ef65 8cbc ebaa f33c 4b14 e73c bc3d 4c3c
00000310: d12a c3bc 9fff 823b 4f65 083d 47af dfba
00000320: 20db 113d fc40 36bc 3e24 0dbd d4ef 133c
00000330: f418 393c fec5 f9bc 06eb 4a3c c706 923c
00000340: 5104 023d e2f5 683c 067f a7bb c595 a3bb
00000350: f59a 04bd 8677 f1bc 8d94 023d 5bd6 6d3c
00000360: d40f 9b3b 0cc4 f03b b904 113c 7539 ed3c
00000370: 9071 8ebc 9e73 78bc 1644 0f3d bc8d 05bc
00000380: eeb3 663c 80a0 37bb 9d6c 903c 45f8 3b3c
00000390: 69f1 583c 6340 c2bc f5a4 753b ec67 2c3c
000003a0: 222c 71ba 9228 803c 4017 c13b 3293 b3bc
000003b0: 47e8 59bc 1857 91bc 08cc 063d c09d 0b3c
000003c0: 815d 063c 5f07 ab3c 8e69 0ebc a5d7 8cbc
000003d0: 78ff cfbc 41d3 f5bc 01ba 62bc 184f 563c
000003e0: 9160 eebb 5fb4 5dbb f280 c3bc 4f68 38bb
000003f0: ec38 aebc 872c 9f3c 49a3 3abc 0afd 06bd
-0.015609014 0.011470825 -0.02339157 -0.019563897 -0.030724557 0.003813037 -0.0322197 0.021438766
-0.028151752 -0.0008792367 -0.005145137 0.016490733 -0.01011298 -0.029565366 0.0061179744 0.033968505
0.02110779 -0.016157845 -0.0347312 0.012006943 -0.034112453 0.030235922 -0.020300096 0.012441916
-0.035070796 -0.017742146 -0.020477563 0.029887315 -0.00074410444 -0.025300657 -0.017852554 -0.018836929
-0.023171553 -0.029014925 -0.033717617 -0.025992224 0.0153020015 -0.0056728497 0.0015914509 -0.027969297
0.02375734 0.026218193 0.003209872 -1.99612e-05 0.025230711 0.027948843 -0.015636167 0.0034479974
-0.030968677 -0.0128223365 -0.024342347 -0.020612627 -0.015617729 -0.030985255 0.026934322 0.0049983608
0.017558891 -0.024784561 -0.012960609 -0.0030334422 0.011792955 0.029479947 -0.023421092 -0.011308448
-0.03350053 -0.008146016 -0.024884269 0.0054538073 -0.032156635 -0.030619204 0.005812934 -0.02112778
-0.013968998 -0.026182279 -0.026001021 -0.033650085 0.031885084 -0.0350294 -0.024478547 -0.0054061883
0.02320151 -0.035648733 -0.020338302 -0.00481987 -0.011059199 0.027729321 -0.017353263 -0.029620823
0.0074042687 0.000767667 -0.027569514 0.02915178 0.006606129 -0.020625703 0.0248995 0.026848681
-0.011847209 -0.023428742 0.0051837573 -0.013351288 0.0107983975 -0.005294668 0.029969644 0.023291301
0.009651971 -0.0023659675 -0.02926999 -0.034987908 -0.027535457 0.028085196 0.01709346 -0.00046572092
0.03411628 0.0100206435 0.022992315 -0.013896138 -0.006514194 0.03465651 0.021960093 -0.027562093
0.004816688 -0.016604979 0.012009615 -0.020816153 -0.02308624 0.011730151 -0.015911816 -0.00017319585
-0.018613312 0.022930201 0.024114082 -0.025850562 0.035042673 0.03423038 -0.0032082945 0.015079651
-0.024481285 -0.0029819699 -0.010998004 0.019387612 -0.0048213815 0.013754879 -0.0033984585 -0.009902178
0.0003347384 -0.02464342 0.0029188218 -0.024047194 0.017311964 -0.009890235 -0.005899569 0.03371982
0.010915472 -0.027032992 -0.00059775606 -0.011946495 0.0062701465 -0.014371329 0.014920609 0.023354538
0.0029997316 0.012104487 -0.0054309047 -0.021197643 0.030078884 -0.01795899 0.015365286 -0.02741535
-0.01911351 -0.015144306 -0.00046465467 0.0061862953 0.0022039854 -0.015504656 0.020097192 0.023660444
0.034420677 0.030427651 -0.0089445645 -0.005307696 -0.024718236 -0.021260103 -0.025207775 0.020337503
-0.017349945 -0.014318775 0.02096476 -0.007925627 0.020693716 -0.016837014 0.023057312 -0.02994168
-0.01713845 0.029744586 0.028207919 0.0124658905 -0.023824127 0.0039977576 0.03329974 -0.0017065787
0.035609365 -0.011123892 -0.03445839 0.009029347 0.011297453 -0.030489918 0.0123851355 0.017825497
0.031742398 0.014218779 -0.005111578 -0.004992219 -0.03237434 -0.029475939 0.03187995 0.014516438
0.0047321115 0.0073475894 0.008851224 0.028958062 -0.017388135 -0.015164284 0.03497704 -0.008151468
0.0140809845 -0.002801925 0.017629916 0.011472766 0.01324115 -0.023712343 0.0037482355 0.010522824
-0.0009199997 0.015644345 0.005892664 -0.021920774 -0.013300008 -0.017741725 0.032909423 0.008521497
0.008201004 0.020877538 -0.008692158 -0.017192671 -0.025390372 -0.03000796 -0.013838292 0.013080381
-0.007274695 -0.0033829433 -0.023865197 -0.0028138345 -0.021267377 0.019430412 -0.011391469 -0.03295616

bias f4 [100]
00000000: bb30 cabc 2cdc 6a3c ea56 7f3c 3225 323d
00000010: daa0 c93c a142 35bd 31fe 053d f4c8 57bc
00000020: 26f2 0e3d d237 343d b441 a6bc 7628 633c
00000030: c55c 59b9 4a0d ba3c c80e 903d 4519 313d
00000040: f4f9 e63c 10eb f5bc 208f 003e e01a 8f3c
00000050: fad5 693d 6c93 023d 9322 e93c 2cb1 083d
00000060: 6687 ab3d 6ebe 223c 3328 7fbd 3935 3c3d
00000070: a060 703b af13 983d 1276 b63b 5d29 943d
00000080: 2f83 823d c15c dc3d f6fa 5f3c 728d cc3a
00000090: 4ef7 063d ae62 45bc 3217 813d 0db9 5a3d
000000a0: 376b 25bc b1a3 823d da5f 0b3e 0289 8b3d
000000b0: 3464 633c e2f9 b83b f1f6 133d 6212 f6bc
000000c0: 742b 8c3d 8f0c c43c c411 a03d aba5 c73c
000000d0: 0399 623d 4697 8abc 287f 0b3d 0060 c13c
000000e0: 7e27 72bc 59aa e2bc 472d b23d d959 1e3b
000000f0: 4e54 763d 0f3f f03c 0e17 ad3d c7df 263d
00000100: 7594 e5bc 122f 663d 9fd2 a13b d5fc 80bc
00000110: f7db bfbc fb2f dd3d 367b 22bd 82ed 04bd
00000120: 5e19 df3c 7c8d 43bb 55e8 113c 5347 e6ba
00000130: da51 b73d 7330 4fbc a409 2a3d 0073 0fbc
00000140: 6e42 0abd 2a25 383b 687b 943c a305 1cbd
00000150: e58f dd3d faa6 4c3c 7f67 d2ba f8f1 d2bc
00000160: 79cf 583c 57de 3c3d 7ce0 72bc 3074 5b3d
00000170: 4f8a 89bc 3ade dabc 42a4 ef3c 39a8 f03c
00000180: adac 4cbc 5f03 573b 328a adbc 444a 483d
-0.02468144 0.01433472 0.015584687 0.043492503 0.024612833 -0.044252995 0.03271312 -0.01317047
0.0348989 0.043998547 -0.020295002 0.013864627 -0.00020729292 0.022711415 0.07034069 0.04323699
0.028195359 -0.030019313 0.12554598 0.01746887 0.05708883 0.031878874 0.02845887 0.03337209
0.083754346 0.009933097 -0.062294196 0.045949195 0.0036678687 0.07425629 0.0055682743 0.07234452
0.063726775 0.10759879 0.013670674 0.0015606119 0.032950692 -0.012047453 0.06303252 0.053399134
-0.010096363 0.06378878 0.13610783 0.068132415 0.013878871 0.0056450227 0.036124174 -0.030038062
0.068442255 0.02393177 0.078158885 0.024370989 0.055321705 -0.016917836 0.034056813 0.023605347
-0.0147799235 -0.027669119 0.08700042 0.002416244 0.060138993 0.029326944 0.08451663 0.040740754
-0.028024891 0.056197233 0.004938438 -0.01574556 -0.023420317 0.10800167 -0.039668284 -0.032453068
0.027233776 -0.002983897 0.00890549 -0.0017568864 0.08951159 -0.012645829 0.0415131 -0.0087554455
-0.03375476 0.0028098323 0.018125251 -0.038091313 0.10818461 0.012490982 -0.0016052573 -0.025750145
0.013233059 0.046110477 -0.014824029 0.053577602 -0.016789583 -0.026717294 0.029253129 0.02937709
-0.012492341 0.0032808406 -0.02118406 0.04889895

weight f4 [100, 100]
00000000: b361 36bd a909 2a3d ad47 33bd be31 70bd
00000010: 5964 3e3d 6e10 2e3d 24e4 0ebc 3c02 49bc
00000020: 2891 0bbc c05e 573d 3d7f 37bd 4bb4 e03c
00000030: 5a1a c23d 2471 153d bf14 3bbd 236b 76bb
00000040: 532a 9f3d c5bf b3bd b227 8e3c 1711 c3bd
00000050: 600b a2bc ff3b a2bd e6d2 76bc 242a cb3d
00000060: 1353 cb3d 15f5 ac3c 20d7 93bc 88f4 5cbd
00000070: d630 dcbd 8830 ccbd 4282 a63d 1d5f d6bb
00000080: eb43 8e3c 3953 5abc 1b0a 0bbe c63e c83d
00000090: d160 313d 1600 c6bd 8e00 073e 5fa9 f53d
000000a0: 72e1 3e3d dab6 203e 4c79 b83d dbcb 80bd
000000b0: 6189 93bd 503a 383d 67c8 ec3b a432 c7bd
000000c0: 470c 353d a30c 9cbc d4a0 b83d 5d8f 863c
000000d0: 42b3 74bc ba16 f93b baff 14bd 5fb1 b9bd
000000e0: e25e b2bc f87c 523d 232e c73d 9c9a 793d
000000f0: 8b4b 11bd 42bf c13d 2c4c 9b3d b6b3 563d
00000100: 5dc1 22bd 399b debc fe76 533c 118e 18bd
00000110: 9144 293d d428 cabd c9d8 79bd 2dff 293d
00000120: e917 673d 6fcb 22bd 6569 b4bd 5ebd 2a3b
00000130: 98d5 08bc 5c7c 10bd 548c a339 67f7 c13c
00000140: 9905 913d 09da ea3b e7f7 7abd 7150 323d
00000150: 7a84 9dbd 5552 60bd 543e a03c c77c 4ebd
00000160: 3c17 80bd 98fd 9d3c f611 c93d 2d86 8fbd
00000170: d3f5 25bd 3d7e 18bd 4703 3d3c 1c25 913d
00000180: a563 6ebd e0d2 7fbc 72e5 ed3b 1991 a8bc
00000190: 85ca f43c 3178 54bd 2ac0 983d 75a6 8ebd
000001a0: 3d4d 983c 9381 d63d 2a26 cf3d 8a99 283b
000001b0: 116a 9f3d 9d2e a53d 10ae 40bd c78c 263d
000001c0: 5251 95bd 6194 8fbd 9355 f4bd 3a33 a3bd
000001d0: cbdd 883d 8162 423b 707d 9cbd 3858 4e3d
000001e0: e793 9c3d 2988 dc39 5c40 093e 2671 e6bc
000001f0: 0b2f a53d 183e d0bd 651a 77bd a17f dabd
00000200: 2f90 09be af99 a6bb 21d3 153e a679 60bd
00000210: 1642 4e3a 6d83 6a3c 90a3 fabd 9453 a7bd
00000220: 30ec 44bd a96d 55bd ef27 013e 4657 a53d
00000230: 7658 953d 2d0a c73b dcf2 04bd bb08 98bc
00000240: ef6b c03d ae85 80bd c586 b9bc b359 ed3c
00000250: bb70 47bd b50f c0bc 1131 ffbc 4ca5 3d3d
00000260: 7dc4 893d eaff 6fbc 3b41 b6bd 1a12 513d
00000270: c2e3 c33d 8ae3 803d 0200 a63c 2f42 9ebc
00000280: b008 b23d 884e da3d ef84 703d 908c cabd
00000290: 3d79 8b3d 01c5 823b f995 903d 687e 213d
000002a0: 4749 b43d 9f0c e2bd d440 633d 2e75 93bd
000002b0: e7db f33d ecd4 633d 933f 0abe ea45 c73d
000002c0: 274c bcbd 72c4 883d de46 4b3d 00c6 ccbd
000002d0: b3ad fa3d 634a 223d abac cd3d 390e 163e
000002e0: 7041 e13d d03e 0cbe 58f6 a73d 7b77 ee3d
000002f0: 56c0 863d 8844 c03c 5bcc 98bd 8178 c43c
00000300: 19b9 c43d bc8e e6bd b576 623d 1ccd 6939
00000310: 0da5 9e3d f469 af3d e3be 593b 9a40 d23d
00000320: 1a18 aeba 1fb0 cabd e692 a93d 86c1 64bd
00000330: db2b 78bd e31a 633d 8874 933d cd5e 12bc
00000340: 8b36 803b 0f9b 343d df43 793a 8f84 9abd
00000350: 10b3 db3d 9c46 ddbc 9517 75bd 7da3 f43d
00000360: 4c9b f73d 52af 78bd e03c 81bc 080e c8bb
00000370: 5614 063e d715 b73d 8095 c03d f068 b5bd
00000380: 712d 0c3e b77b 6e3d 5afb 863d 23ae 2c3e
00000390: 3c93 18bd 97b6 243d 3508 28bd 0f52 c93d
000003a0: 0104 c23d 8a43 37bd 3d9e 913d 23cc c2bd
000003b0: 2812 173e ebb6 3e3c 48ee bfbd db6d 72bc
000003c0: 0f08 f6bc 61b5 b1bd 827b 1bbd 9660 aabd
000003d0: cf46 683d eee3 5cbc a45d 1abd 8639 80bd
000003e0: a8ca b83d 3b20 52bd 69f9 29bd 45c2 30bc
000003f0: 8c0a a33d 85eb 473d d92a cb3d c6dc 2f3e
-0.044526767 0.04151312 -0.043769527 -0.058641188 0.046482418 0.042496137 -0.008721385 -0.012268599
-0.008518495 0.052580595 -0.04479908 0.02742972 0.094776824 0.036484852 -0.045674082 -0.003760048
0.077717446 -0.087768115 0.017352913 -0.09524744 -0.019780815 -0.079215996 -0.015064931 0.09920147
0.099279545 0.021112958 -0.018046916 -0.05394414 -0.10751502 -0.09970194 0.081303135 -0.0065421
0.01736637 -0.013325506 -0.13578074 0.09777598 0.043305222 -0.09667985 0.13183805 0.119951956
0.04660172 0.15694752 0.090075105 -0.06288882 -0.07203937 0.044977486 0.0072260383 -0.09726456
0.04420116 -0.019048994 0.090150505 0.016425783 -0.0149353165 0.007601586 -0.036376692 -0.09067034
-0.02177376 0.05138871 0.09725597 0.060938463 -0.035472434 0.09460308 0.07582888 0.05241748
-0.039735187 -0.027173625 0.012906788 -0.03724486 0.041325156 -0.098710686 -0.060997758 0.04150312
0.056419287 -0.03974479 -0.08809165 0.0026052813 -0.008351706 -0.03527485 0.00031194335 0.023677541
0.07081146 0.007167105 -0.061271574 0.043533746 -0.076912835 -0.054766018 0.01956097 -0.050411966
-0.062544316 0.019285962 0.09817879 -0.07008014 -0.04051764 -0.037229765 0.011536426 0.07087156
-0.058200497 -0.015614241 0.007260018 -0.020577 0.029881725 -0.051872436 0.074585274 -0.06965343
0.018591518 0.10473933 0.10114701 0.0025726282 0.077839024 0.080655314 -0.047041 0.0406616
-0.07290901 -0.07010723 -0.119303845 -0.07968755 0.06682929 0.0029660764 -0.07641113 0.0503771
0.07645398 0.00042063117 0.13403457 -0.028130125 0.08065613 -0.101680934 -0.060327906 -0.106688745
-0.13433908 -0.0050842385 0.1463132 -0.054803513 0.0007868124 0.014313561 -0.12238228 -0.08170238
-0.04807681 -0.052106533 0.1261289 0.08073287 0.07292263 0.006074211 -0.03245817 -0.01855885
0.09395587 -0.062754974 -0.022647271 0.028973436 -0.048691493 -0.02344499 -0.031151326 0.046300218
0.0672693 -0.014648417 -0.088991605 0.051042654 0.09564926 0.062934 0.020263676 -0.019318668
0.08693063 0.1065951 0.058720525 -0.098900914 0.06810234 0.00399077 0.07059855 0.03942719
0.08803039 -0.110375635 0.055481747 -0.072000846 0.119071774 0.05562298 -0.13500814 0.09730132
-0.091942124 0.06678094 0.04962813 -0.09998703 0.12240162 0.039621722 0.100426994 0.14653863
0.10998809 -0.13695836 0.08201283 0.11643883 0.06579654 0.023470178 -0.07460853 0.023983242
0.09605617 -0.11257693 0.05528899 0.00022297021 0.07746325 0.08565131 0.003322535 0.10266228
-0.0013282329 -0.09896874 0.08279972 -0.05584862 -0.0605887 0.055445563 0.07199961 -0.008933735
0.003912752 0.044093188 0.000950871 -0.07544815 0.10727513 -0.027011208 -0.059836943 0.119452454
0.120901674 -0.060714073 -0.015776098 -0.0061051883 0.13093695 0.089397125 0.09403515 -0.08857906
0.1368921 0.058223452 0.0659091 0.16863303 -0.03724979 0.040213194 -0.04102345 0.098301046
0.0947342 -0.044742145 0.0711026 -0.09511592 0.1475302 0.011640291 -0.093716204 -0.014796699
-0.03003314 -0.086771734 -0.037959583 -0.083192036 0.056708153 -0.013482077 -0.03768696 -0.06260972
0.090230286 -0.05130027 -0.04149762 -0.010788505 0.07960996 0.048808593 0.09920282 0.17174062

bias f4 [100]
00000000: ed56 3c3b d4e5 b2bd c877 1ebd e620 263e
00000010: 504d 8c3d 92c1 2b3e a65b 65bd d2e1 0abd
00000020: a3e9 64bd 7093 e9bd 674a 8ebd 4fee 123d
00000030: bbe6 853d 9eb4 043d 8424 19bd 8513 b63d
00000040: be7c 803d 969b 1a3d b2cb 7a3d c8e5 a7bd
00000050: e09d e0bc 0fcc 90bd 7784 00bc fbca 853d
00000060: 3be0 cebd 5ac4 b13c 78a2 b43c 52d1 1f3e
00000070: 833e 8bbd 84cd cb3d ac3a 3a3d 7909 c2bd
00000080: 8dfd 9cbd f540 1c3e 14c3 8b3d 332a 45bd
00000090: 67f3 b73d dc75 08bd 3aa8 9f3b 9585 2bbc
000000a0: 32b6 2e3e 05fc 66bc f931 adbd 9c52 a13d
000000b0: a8a9 513d 04d5 81bc d127 083e 629c 083d
000000c0: 9edb 5c3d 5ab2 2e3d 8c5c c3bd e018 a1bc
000000d0: 2980 c8bd 37b3 c0bd 6e21 163d 3cbc 803d
000000e0: 4817 e43c fbbe a63d fcdf 023e 1276 133c
000000f0: 82ba b33d 0592 c33d c170 90bd b53c 3fbd
00000100: 156b 073e fe1b cb3d f266 333e 2217 153e
00000110: e713 173c 9acd ccbd 7a11 e6bc fa9b 1fbd
00000120: 0540 d13d e43c 0cbd 22ab 613d 57d8 d63d
00000130: 34cc cdbd ef0b b43c cc24 88b8 3a05 063d
00000140: 27eb e3bd 9ec2 553d 384a abbd 3c8f d13d
00000150: 65f0 a83c 2b4c 89bd 826f 2d3e 21ec b5bc
00000160: efac bfbc 749e 0e3e 80af 8ebd 5e89 c5bc
00000170: dc22 8fbd b92e 3e3d d378 22bd 4b16 243e
00000180: 30a9 0c3e 4bf7 cebc 5c84 a2bd a46b 263e
0.0028738335 -0.087352425 -0.03868845 0.16223487 0.06850684 0.1677306 -0.055995606 -0.033906765
-0.055886876 -0.114050746 -0.06947785 0.0358718 0.06538149 0.032398812 -0.03738834 0.08890442
0.06273793 0.037746035 0.061229415 -0.08198124 -0.02741903 -0.07070171 -0.007844082 0.06532856
-0.10101362 0.021700073 0.022050127 0.15607193 -0.067990325 0.09951308 0.04546611 -0.09474463
-0.076655485 0.15259154 0.068243176 -0.048135947 0.08981972 -0.033315524 0.004872349 -0.01046886
0.1706169 -0.014098172 -0.08456797 0.078770846 0.051187187 -0.015848644 0.13296439 0.033352263
0.05392038 0.042650558 -0.09539136 -0.019665182 -0.097900696 -0.094091825 0.036652975 0.06285903
0.027843133 0.081418954 0.12780756 0.009000318 0.08775808 0.095493354 -0.07052756 -0.046688754
0.13224442 0.099174485 0.1751974 0.14559606 0.009221054 -0.10000153 -0.028084505 -0.03896711
0.10217289 -0.034237757 0.055094846 0.10490482 -0.10048714 0.021978347 -6.491839e-05 0.03271983
-0.11128836 0.052187555 -0.083637655 0.10232398 0.020622442 -0.06703981 0.16937068 -0.022207322
-0.02339789 0.13927633 -0.06967068 -0.024113353 -0.06989071 0.046431277 -0.03966601 0.16024129
0.13736415 -0.025264403 -0.07935402 0.16251999

weight f4 [10, 100]
00000000: 2c6f ec3d 5720 a23e 326d a63c 3800 233e
00000010: 2801 063e 436b 2fbe a3d1 c63d 06b9 6e3d
00000020: d4c8 a13d 702e 233d 57f9 28bd 74d1 6dbd
00000030: 6f94 44be ba2f 46bd 2d8b 53bd b919 c13e
00000040: 678e 573e ccfd 54be a7cc abbd 5764 b73d
00000050: 38b7 febd 5d37 f8bc 484c 40bd db4c 6cbd
00000060: 9e4e c83c d635 6c3e dab5 82be 377c 263e
00000070: 4119 763e 4451 e8bd e325 803d f16a c63d
00000080: 9831 7f3d 4a8e 3bbd 5c6e 563e f174 13bc
00000090: 09e2 da3d f74e 0ebe e350 923b 5c43 b93a
000000a0: b865 5a3d 79ab 063d 3291 9f3d 9b4b 20be
000000b0: 7485 883d a789 45bd 98f0 323d 4d85 543e
000000c0: f4b1 733e 2916 a3bd c9f5 90bd 5864 cd3d
000000d0: bdf8 54bd a5b7 99bd a128 4fbe 34f3 42be
000000e0: 8702 5b3e 1e94 653d 8866 42be d27b 64be
000000f0: 55c7 3abe 673f 86bd c65e 39be a842 42bd
00000100: 2ffd 57be fcc6 a7be e7a2 b73d 4633 6b3c
00000110: 530e b6bd 6c97 57bd f889 37bd 35f4 0dbe
00000120: 4e52 4ebe 3891 c1bd 246f 913e b526 073c
00000130: 4a38 0d3d 167c be3e 033c 92bd c802 1c3d
00000140: f818 a63d 64e1 66bd 0ee6 9d3d 044a c4bd
00000150: 5afc ff3d ee3b 363e d9be ddbd 26f7 61be
00000160: 7dc1 9a3d cc8c d8bb 0711 f7bd b9d8 9dbd
00000170: 982e a33e 67d9 bebd 6050 1dbe 0f6e 103e
00000180: db6a 7dbe 9450 31bc 9076 5f3d e2db 27bd
00000190: bd61 f9bc 8607 493c b541 1b3d 45d8 61be
000001a0: 0139 af3d 4228 b33e a1b5 d9bd 4c2a 16bd
000001b0: ec69 91bd 909a 25bd 107f c6bd 54db 48be
000001c0: b2d5 61be 95df 08bd b7fd b6bd 7e4e 28be
000001d0: f3e0 923c 5b83 4ebd bba0 acbd b739 46bd
000001e0: fe38 523e fe64 d6bd 2185 553e 62cf 00be
000001f0: 979a ac3c ef22 85be 0cea 3d3e a038 1f3e
00000200: 8201 b23d b593 36be 8899 2dbe 4887 853d
00000210: 2b14 abbd 4a22 acbd 4cfa b2be 98b5 973d
00000220: 809b 79be 131d 0fbd 56c0 8b3e 133a 26be
00000230: 8148 9e3e e98b e93d e6ad 55bd 37dd 96bd
00000240: 4e32 4bbd 31d8 863c 92ad ee3d 3733 27be
00000250: 3fd0 bcbd e398 863d 9b49 60bd afbd 12be
00000260: cdc6 113d 9098 6f3d f38e 153e 5993 f6bd
00000270: f698 40be e452 c93d d0af 13be 23b8 cbbd
00000280: f9a6 4c3e 9763 c03d f750 3dbe 03d4 beba
00000290: 54ae 9ebd 543a b23e 3f8b 15be 3882 6b3c
000002a0: 0d2a 293d 3ab9 b33d 6d0d 1d3e f63f 9dbb
000002b0: 10f0 29be f24b 22bb 32ef 4cbe dd90 8b3d
000002c0: 9cf2 163b afda 96be 54ce bdbd 5b86 59bd
000002d0: 01f6 b8bd 3846 a2bd d096 cd3b 7c48 99bd
000002e0: c7d7 93bd 6d5c 81bd 9730 203e c9b9 193e
000002f0: 1000 953d f6a5 d63e 0d9e b33e fd07 22bd
00000300: 6f7e 943c 3948 a03e c3f7 463e eaba 74bd
00000310: b133 483d e2ad c93d 374f 83bd e30b a0bd
00000320: 3f68 78bd e0e7 cdbd e57a f9bc 2a87 8b3e
00000330: 2827 3fbc 851f c23e ad81 13bc 1186 b8bd
00000340: 0a97 763d d98e bc3d defa 9dbd ab21 763e
00000350: f919 0fbe 8a7a 663c f247 34ba 4147 353d
00000360: f4c3 bfbd a2f5 4c3e 904f 9abc 8960 b0bd
00000370: d24f 03bb ad94 f5bd 9c37 21bd a839 53be
00000380: 573f 57be b92c 6e3e f59f 163e 1f2e 85be
00000390: 5657 89bc 95f5 52bd 4ded 173e 465d 823d
000003a0: 4d42 913d c11e e5bd e4d5 913e fd26 7b3b
000003b0: 3953 813e 4808 0bbd 9485 8b3e f583 313e
000003c0: 4174 80be 5456 2fbd ce6a a83c bfb1 bfbd
000003d0: 7bd0 5dbc 45d8 3fbd b8a2 4e3e 6ce7 31be
000003e0: ee25 c43d 8d47 64bd 4d38 913d f3fd 0b3d
000003f0: b855 403c ae53 893b 6813 7dbe 5725 41be
0.11544642 0.31665298 0.02031574 0.15918052 0.13086379 -0.17130761 0.09707954 0.05828192
0.07899633 0.039839208 -0.041253414 -0.05806108 -0.19197248 -0.04838536 -0.0516464 0.37714937
0.21050416 -0.20799941 -0.08388644 0.08954685 -0.1243729 -0.030299837 -0.046947747 -0.057690483
0.02445155 0.23067412 -0.25529367 0.16258322 0.24033071 -0.11343625 0.06257226 0.09688366
0.062303156 -0.045789994 0.20940536 -0.009000049 0.10687644 -0.1389731 0.004465209 0.0014134455
0.053319663 0.032878373 0.07791366 -0.15653841 0.06666079 -0.04822698 0.04368648 0.20753975
0.23798352 -0.07963211 -0.0707813 0.10028905 -0.051995028 -0.075057305 -0.20230342 -0.19038087
0.21387683 0.05604946 -0.18984425 -0.22312859 -0.18240102 -0.06555062 -0.1810256 -0.04742685
-0.21092676 -0.32769 0.08966618 0.014355486 -0.08889451 -0.05263464 -0.04480931 -0.13862689
-0.20148584 -0.094515264 0.28405106 0.008248975 0.03447751 0.37204045 -0.071403526 0.03808859
0.08110231 -0.056367293 0.07709895 -0.0958443 0.12499304 0.17796299 -0.10827417 -0.22066936
0.07556436 -0.006608581 -0.120637946 -0.07707352 0.31871486 -0.0931881 -0.15362692 0.14104484
-0.24747793 -0.010822434 0.05455643 -0.04098118 -0.030442113 0.01226986 0.03790446 -0.22055157
0.085557945 0.34991652 -0.10630346 -0.03666143 -0.07100281 -0.040430605 -0.09692204 -0.19614917
-0.22054175 -0.03341635 -0.08935111 -0.16436192 0.01792953 -0.05041824 -0.084290944 -0.048394885
0.20529553 -0.104684815 0.20851566 -0.1257911 0.021069808 -0.26003215 0.18546313 0.15548944
0.08691694 -0.17829783 -0.16953099 0.065199435 -0.08353456 -0.084049776 -0.34956586 0.07407683
-0.24375725 -0.034939837 0.27295178 -0.16233091 0.3091469 0.11403639 -0.052167796 -0.07366412
-0.04960852 0.01646051 0.116542 -0.1632813 -0.09219407 0.065721296 -0.054757696 -0.14330171
0.03558998 0.058495104 0.14605312 -0.12039823 -0.1880835 0.09830263 -0.14422536 -0.09947231
0.1998557 0.09393995 -0.18487917 -0.0014559034 -0.07748094 0.34810126 -0.146039 0.014374308
0.04129987 0.087755635 0.15337153 -0.0047988845 -0.16595483 -0.0024764505 -0.20013121 0.0681474
0.002303279 -0.29463717 -0.092678696 -0.053106647 -0.090312965 -0.079235494 0.0062740818 -0.074845284
-0.07218891 -0.06316457 0.15643536 0.15012278 0.072754025 0.41923493 0.3508152 -0.0395584
0.018126694 0.31305102 0.19430451 -0.059748568 0.04887742 0.09847619 -0.064115934 -0.07814767
-0.06064629 -0.10053992 -0.030454108 0.2725156 -0.01166705 0.37914672 -0.009003085 -0.09009946
0.060202636 0.092069335 -0.07713865 0.24036281 -0.13974752 0.0140673015 -0.0006877176 0.044257406
-0.09363547 0.20015576 -0.018836766 -0.086121626 -0.002003659 -0.11991248 -0.039359674 -0.20627463
-0.21020256 0.23259248 0.14709456 -0.2601175 -0.016765278 -0.051503737 0.14836617 0.06365447
0.07092724 -0.111875065 0.28483498 0.00383228 0.25258806 -0.033943444 0.2725035 0.17335494
-0.25088695 -0.04280694 0.020558741 -0.09360074 -0.013538475 -0.04683711 0.2017926 -0.17373437
0.09577547 -0.0557323 0.07090817 0.03417773 0.011739187 0.0041908836 -0.24714434 -0.188619

bias f4 [10]
00000000: 9af7 b7bd 0608 ef3d 673c f3bc 28c1 473c
00000010: db4a 6a3c 8931 263e fff2 253d b583 8d3c
00000020: f537 9ebe 40ce 023c
-0.08982773 0.11671452 -0.029691888 0.012192048 0.0143000735 0.16229834 0.040514942 0.017274717
-0.30902067 0.007983744
