result/data/model.pth (torch, 362823 bytes, 6 tensors)

weight f4 [100, 784]
00000000: 42f9 81bc 8867 babc 36e9 a03b 6ced 333a
00000010: 9efd fabb f79e 2f3c d130 343c c20a fb3b
00000020: de00 90bc b995 23bc ff27 88bc b4ca 9e3c
00000030: 562d f4bd c2c6 d0bd d4e0 59bd 9642 54bc
00000040: c0fb 38bc 181e 373c 9678 883c 8ba2 94bc
00000050: b618 9abc efcb c03c d43b 873c 152b c63c
00000060: ca9e 3cbc e09f 9b3c 224d 2bbb efc6 5bbc
00000070: ab61 d93b b092 1abc cd93 a8bc 3f9a bebc
00000080: b029 e43a 9b81 84bd caa3 bcbd 2bfb a1bd
00000090: 3a5f 78bd 0f07 08bd a7f5 80bd ebc2 b43d
000000a0: 3eef 523b 121d d0bc 0778 583d 66d8 4ebe
000000b0: 6d90 7bbe 055e 8abe 5243 89be 8864 79be
000000c0: 9194 a5be f61f 90be 22c5 20be 6e06 16be
000000d0: 4e9f bcbc a93f a63c 6b01 ca3c 88a3 163c
000000e0: f35b 4bbc 0998 673c cffb 48be 2437 6dbe
000000f0: 1190 87be a212 a5bd 54a7 96bd d84f b6bd
00000100: c774 d7bd 0e9f bbbe 34ce 10bf 8f31 08bf
00000110: 8281 dcbe 2d61 b7be c034 b7be 6246 8dbe
00000120: d691 b6bd 67b6 a4bd 110a f9be 33fa 11bf
00000130: d4d0 27bf b31c fdbe 304e 87be 0043 9abe
00000140: cca8 04be 7f69 203d 47fb 96bc a13a 25bb
00000150: 4b5d 27bc 94a9 943c eb9b ebbd 0444 5dbe
00000160: ffa0 63be b0c4 4cbe 9a1b e1be 53ff 2bbf
00000170: 5caa 37bf dab2 03bf 755d cdbe bb95 8abd
00000180: f5e6 cbbd dba0 2dbf 7fba c4be 9394 9f3d
00000190: f014 29be 9552 033e 7a3c 913e 3618 1a3e
000001a0: 9d43 a43d 7189 9c3d 46e0 e03d f476 83be
000001b0: 8074 0cbe 53f9 8e3d f8aa ca3d 11c1 a4bb
000001c0: 5eb4 833a 09f2 d5bb 9224 88bd 82b1 083e
000001d0: 0aef d6bb 09b4 5dbe 0405 14bf a02a 2cbf
000001e0: 9d16 1fbf 2102 3abf c681 44bf ef59 17bf
000001f0: 6065 20bf a359 03bf 98f9 dabe 11f0 0fbc
00000200: bcff e5bd 22aa 13be 2dd6 2a3e af81 fbbd
00000210: c453 13be 84db d63d 48ec 533d 1220 a1bd
00000220: 48a7 cb3d c5e3 283b aae9 c23d aa48 02be
00000230: 402b 1a3c 0e71 8a3b 9f39 25be 68ac 70be
00000240: 4b3c e4be 713e d6be 3af0 8ebe af51 32be
00000250: e9bb 49be d1cc b1bd d9bb c6be b1f4 80be
00000260: 2cd0 24be 39c0 49be 12b8 6cbe 0074 9ebe
00000270: f3e2 27be f00e 11be 4a52 e4bd 6be1 0fbd
00000280: cb83 9dba d736 37be 7960 a4bd 9482 87bc
00000290: a4bd 083e 8088 333d 8c79 463d 618d b63e
000002a0: 4a43 2abc 8234 b8bc 3e19 883e 6418 76bd
000002b0: 40dc dfbd 0d61 033c e238 3a3c 07a4 1ebe
000002c0: 3022 1fbe f897 d93d 7c62 f53d 3284 f1bc
000002d0: 8aef 0dbd c452 34bd f592 20bd f02d 52bb
000002e0: 5eb6 b9bd 682e f2bc f439 17bd 3d9b 853c
000002f0: 8038 d13d 86e4 1dbd c85d a5bd 648f e3bd
00000300: 92c1 ea3d 1aec 0c3d 4622 a53d 9032 2a3e
00000310: b75e 943c 7712 90bc 30c2 e13d 93e6 153d
00000320: 67dd 373e cb34 03be 34e9 cb3c d959 1ebe
00000330: 4724 c53d 3989 fe3d efcb 503e 4180 a33d
00000340: 62e0 803c 11f4 a43d 58bb 933d 76f1 2d3d
00000350: 13f7 153d e300 5c3d 96eb 3fbd d9cf ccba
00000360: 58d2 573d 4aea 0fbe feee 2fbe 52df 48bd
00000370: 9614 8e3d 9a7c c63d cde2 aa3d 55fa 163c
00000380: 7bef e0be 5fb5 89be 0919 933d 16ac a63d
00000390: 0385 643e f79d ecbd 7867 51be 7102 2ebe
000003a0: db4a 663d c391 2b3c 125b 05bd 7803 f93d
000003b0: a22b 9d3c 5cb8 8bbd 2975 c43c a72b cc3d
000003c0: 8f37 7b3e 9c2e 663e 64dd b73d b317 093c
000003d0: 24cb a43d e79e a43d 72a8 edbb f284 083d
000003e0: c2b2 6d3e c46c 7e3e 654e 15be 94ee aebd
000003f0: cb55 193d a5db 133e 50c4 2a3e 529a 8bbd
-0.015865926 -0.022754446 0.0049106134 0.0006863687 -0.007659628 0.0107190525 0.010997967 0.0076611945
-0.017578539 -0.009984427 -0.016620634 0.019383766 -0.1192271 -0.1019416 -0.05319293 -0.012955328
-0.011290491 0.0111766085 0.016659062 -0.018143913 -0.018810611 0.023534743 0.01650802 0.024190465
-0.011512468 0.018997133 -0.0026138504 -0.013414129 0.0066339574 -0.009434387 -0.02057829 -0.02326691
0.0017407443 -0.06470033 -0.09210928 -0.079092346 -0.06063769 -0.033209857 -0.062968545 0.0882624
0.0032186056 -0.025404487 0.052848842 -0.20199737 -0.24566813 -0.27024856 -0.26809174 -0.24354756
-0.3233991 -0.28149384 -0.157002 -0.1465089 -0.023025181 0.020294027 0.02465888 0.009194262
-0.012412059 0.014135369 -0.19627307 -0.23165566 -0.264771 -0.080601946 -0.07356134 -0.08901948
-0.105203204 -0.36644787 -0.5656464 -0.5320062 -0.43067557 -0.35816327 -0.35782433 -0.2759276
-0.08914535 -0.08042603 -0.48640493 -0.570224 -0.6555302 -0.49435958 -0.2642684 -0.30129242
-0.12955016 0.03916311 -0.018430365 -0.0025211948 -0.010215114 0.018147267 -0.11504348 -0.21607977
-0.22229384 -0.19996905 -0.4396637 -0.6718647 -0.7174432 -0.5144478 -0.40110365 -0.0676684
-0.09956161 -0.6782357 -0.38423535 0.0779201 -0.16511893 0.12824471 0.28366452 0.15048298
0.08020709 0.07643402 0.10980277 -0.25676692 -0.13716316 0.069811486 0.09895891 -0.005027898
0.001004826 -0.006529097 -0.066476 0.13348964 -0.0065592574 -0.21650709 -0.57820153 -0.6725254
-0.6214388 -0.726595 -0.7676052 -0.591216 -0.62654686 -0.5130865 -0.4276855 -0.008785264
-0.11230418 -0.1442037 0.16683264 -0.122805946 -0.14387423 0.10491088 0.051739007 -0.07867445
0.09944016 0.0025770527 0.09517224 -0.12723032 0.009409726 0.004224903 -0.16135262 -0.23503268
-0.4457725 -0.41844514 -0.27917653 -0.17413972 -0.19700588 -0.08681644 -0.3881519 -0.25186685
-0.16095036 -0.19702233 -0.23117092 -0.30947876 -0.16395168 -0.14165854 -0.11148508 -0.035127085
-0.0012017427 -0.17892013 -0.08026213 -0.016541757 0.13353592 0.04383135 0.04845576 0.3565474
-0.0103920195 -0.022485975 0.26581758 -0.060081854 -0.10930681 0.008018744 0.011366101 -0.15492259
-0.15540385 0.10624689 0.11981675 -0.029481981 -0.03465227 -0.044024244 -0.03920265 -0.0032070838
-0.09067987 -0.029563144 -0.036920503 0.016309375 0.10215855 -0.038548015 -0.08074528 -0.11111334
0.11462702 0.03440485 0.08063178 0.1662085 0.01811157 -0.01758693 0.110233665 0.036596846
0.17955552 -0.12813108 0.024891473 -0.15463962 0.0962606 0.12428517 0.20390294 0.07983447
0.015731994 0.080543645 0.07213467 0.042466603 0.03661258 0.053711783 -0.04685553 -0.0015625908
0.052690834 -0.14054218 -0.17181012 -0.0490411 0.0693752 0.096917346 0.0834404 0.009214957
-0.4393271 -0.26896188 0.071825095 0.081382915 0.22316365 -0.11553567 -0.20449626 -0.16993119
0.05622373 0.010471764 -0.032557555 0.12158865 0.019185845 -0.06822273 0.023981648 0.099692635
0.24532913 0.22478718 0.08977774 0.008367467 0.080465585 0.08038121 -0.0072527463 0.03332991
0.23212722 0.24846178 -0.14580686 -0.08541599 0.037435334 0.14439256 0.1667645 -0.06816544

bias f4 [100]
00000000: 2fa4 613e 6eec 31bd 851d 153e 19eb 623e
00000010: 85d2 1fbe c95a 10bd 502a a63c e60e 513d
00000020: 905c 25bd 6b47 86bc 9730 a4bc 69f4 b43d
00000030: c8cd 023b 8c7c 81bd 26ee 0ebd fdaa 283d
00000040: fa12 89be e642 9a3d d64a a1bd 4aa7 2ebe
00000050: 8e21 9d3d 2096 923e 8a4a 32bd cece 4c3d
00000060: ca77 fc3d 36d7 36be 43e9 993d feb1 273d
00000070: ae40 b73d 1200 a93d 6c54 24bb 6bf2 073e
00000080: 00bd 1f3d 02da 8fbd 34e0 093c 1e9d 7bbd
00000090: ff98 fdbd 4d76 c7bd 0f93 8f3d b093 0fbe
000000a0: 2ac0 0c3e f0ae 043e 3f4b 97bd 409d 423e
000000b0: c655 57bc 5493 d23d fa25 8cbc 54e5 4fbe
000000c0: e3e9 babc 5769 1dbe 11d7 373e 31c0 7dbd
000000d0: ad5d 8c3c fb46 233c 68c9 3e3e 4ff6 40bd
000000e0: a577 fdbd 59c7 28bd 7abd f23d fe1c 723b
000000f0: e68d 4ebe 1773 60bd 0262 96bd dfce a1bc
00000100: 0b03 ac3c a9f9 02be b5e8 f0bd bd08 203e
00000110: 9a8b 573e e0a2 1f3e 01c6 98bd a617 97bd
00000120: 0e67 083c 5992 bebd 2876 c83d a7b7 a4be
00000130: af97 123d f4de 4c3d 116c 873e 0bf4 acbd
00000140: 7628 48bc 4a95 123e d157 57bd eb3b ffbd
00000150: 8a38 f73d 77b5 893b e2da 0bbe 1c56 c1bd
00000160: e90b d2bd 6eb6 6abd fc64 573a b934 1ebc
00000170: ead8 1f3d 17a8 1c3d b642 b0bd 9b48 bb3b
00000180: 040c a0b9 4363 b5bd 3830 87bc 055b 183e
0.22035287 -0.043438368 0.14562042 0.22159995 -0.1560765 -0.03524283 0.020283848 0.0510396
-0.040371478 -0.016391477 -0.0200427 0.0883568 0.001995908 -0.063225836 -0.034895085 0.041178692
-0.2677229 0.07532291 -0.07875602 -0.17056003 0.07672416 0.2863016 -0.043528117 0.05000191
0.123275355 -0.17855534 0.07515194 0.04094123 0.089478835 0.082519665 -0.0025074733 0.13276069
0.038998604 -0.070240036 0.008415271 -0.061429136 -0.12382697 -0.09739361 0.07010471 -0.14021182
0.1374518 0.12957358 -0.07387399 0.19005299 -0.013143009 0.10282007 -0.017107952 -0.20302325
-0.022816604 -0.15372215 0.17953135 -0.061950866 0.017134512 0.0099656535 0.18631518 -0.0471099
-0.12376336 -0.041205738 0.11852546 0.003694355 -0.20171317 -0.05479726 -0.07342912 -0.019751964
0.020997545 -0.1279055 -0.11763135 0.15628333 0.21049348 0.15589476 -0.07459641 -0.073775575
0.008325351 -0.09305257 0.097881615 -0.32171366 0.035789188 0.050017312 0.26449636 -0.08444985
-0.012216678 0.14314762 -0.052573983 -0.124626 0.12071331 0.0042025405 -0.13657716 -0.09440252
-0.10256178 -0.057302885 0.0008216647 -0.009656125 0.039025225 0.03824624 -0.08606474 0.0057154424
-0.0003052653 -0.08856823 -0.016502485 0.14878471

weight f4 [100, 100]
00000000: 1776 853c bd22 593e 3b60 f2bd a98c 573d
00000010: 7584 103e 1436 34be 4472 24be 646e a9be
00000020: c149 f43d 7bca 2a3e acd3 60bd 9f38 76bd
00000030: 5162 c8bd 2b6e b1be 53bd 223d 07ff c7ba
00000040: b24f 0d3c 4e58 293e 097d 373e 3ad0 01be
00000050: 9d09 ed3d c2ef 023e 44d0 2c3d 16bc 8dbd
00000060: ea7e ca3d 89b0 7f3e c2aa b0bd 30e5 ec3c
00000070: 6242 9f3d 6610 14be 0bc8 4b3e 79b9 63be
00000080: 47bf a3be 881a 4dbe 425a 723e d9d3 f63d
00000090: 58e7 ff3d 31d1 463c 3fc8 1bbd 63ad 10be
000000a0: 187c 9cbe d9a7 a3be d9ce 133e 3ba8 53be
000000b0: ec27 633e e69c a93e 45e4 153e b5b0 083e
000000c0: 0cdb c53d ec03 c93a 4287 b33e 61fb 32bc
000000d0: 5150 9ebe 1962 d9ba 1202 5a3e a813 c33d
000000e0: 20f4 12be 3f65 c53e e8b9 303d d29e b7be
000000f0: 1601 ac3d 2388 51be 51c6 4e3e 6d1d a1be
00000100: 890d 27be f942 7b3e 3417 8a3b 4645 96bd
00000110: dee5 97bd fe97 3ebd 4467 673d c44d 313b
00000120: 1273 343d 2c00 913e 8dc6 8abd 42c3 babd
00000130: e564 dd3c eabf 133e 4c77 863c 4d54 c7bb
00000140: dc03 8e3e 82a1 64be 8912 0ebe 9e51 f03d
00000150: 6e4e eabe d3c0 203e b042 aa3d ed89 383d
00000160: e329 e73c 22fe 0a3d 36d3 403e bb30 bc3d
00000170: 1042 95be 6b44 4d3d 0997 8c3e 97f7 fcbe
00000180: 5941 78bd cc66 2f3e 705b b8bb f049 7d3b
00000190: 4dff 0bbe 5d5e 943b f54e 0a3d db3e 9b3e
000001a0: 6996 243e 7de8 35be 478f 9e3d c943 adbd
000001b0: fb61 333e af07 aabc 05ed 8cbd ae36 1cbe
000001c0: 0ad7 7e3c 9a58 1a3f 1553 a43d 72e2 ff3d
000001d0: 878d ba3d cb12 8a3d c592 f2bd b21e cfbd
000001e0: 68a2 433e 1ea7 61be 25e9 4c3e b7a0 503d
000001f0: 3b0a df3e 4583 903e 66c4 afbe 3d3d a43b
00000200: a44b 123e 5f62 e2bc 8c89 71be 1a73 133e
00000210: d9ab 303e 3585 96bb d621 54be 2f85 69bc
00000220: 67d8 c1bc f562 5d3d 2bd2 1a3d e8cb b93e
00000230: 6837 453d 6206 963e 17f8 dabe 6374 cdbd
00000240: ece4 5cbe 81d7 efbd e939 56bd aab8 203d
00000250: e8b5 3abd 409f cabb 7b7e 0d3c f74f 80bd
00000260: 6bf9 f8bc facd dabe 753b bebe 6775 573e
00000270: 58a3 eabd 8bbe 3bbd 6f1e 7cbe 8b64 3fbe
00000280: 61d1 813d 5a15 883d bf21 89be eb4b c1be
00000290: 4ac4 79bb 022a a43d 4afe 3a3e 7f0d 383e
000002a0: a88e 243e 212a 2d3e c706 003e 8a72 09bf
000002b0: d185 523c 04d5 a5bc ad34 c33d addf 143d
000002c0: 56bd 97bd 26c6 9f3c f6d9 0b3d 9431 023d
000002d0: 904a afbe 1520 2fbd 9128 723d 6300 483e
000002e0: 2888 af3e 616c 8dbe ad1e b6be 40ce 543e
000002f0: 43e7 33be 492c e83e de0c 4abd 589a acbe
00000300: 370b 023e 7eb6 3dbf 417e a53d ed67 953e
00000310: 2093 263e f6c8 56be bdf3 73bd 7cfc f03c
00000320: 0f5c a5bb 7e66 173e 00d4 d13d 2dea c83d
00000330: f3cc 093d cc1d 56be 78c7 72bc 273c c3bd
00000340: c558 57bc b5de 223e 07c5 b837 7f02 cc3e
00000350: cf7a 85bd 32fb c4bd 672c a1bd 2873 a03d
00000360: 5010 5a3c 95b4 423d fc4d 143c 340c 0b3e
00000370: 1bc2 a73e 991a 1fbd 1adf 013e 4abb 35be
00000380: a2e5 903d 014b d93d ca9d 43be 8ed7 093d
00000390: d367 653c da4c bb3e 58e9 8b3e 1b34 a5bd
000003a0: d865 c5bd c91a 0dbd f4d6 533e 9060 513c
000003b0: d65f 67bd aefd f53c bae8 143e cdad b93d
000003c0: 55bc cabd 6f6a 233e 6e60 ab3d 62a6 0c3e
000003d0: 8c38 aa3c a1d4 c03e 9243 293e 1944 a9bd
000003e0: f640 363e d6a9 a83e 97f1 21be 6c2a 79bd
000003f0: 7aba a7be 31cc a8bd 6a86 cebd ca02 10be
0.016291661 0.21204658 -0.11834761 0.05262438 0.14113028 -0.17598754 -0.16059214 -0.33092034
0.1192813 0.16678803 -0.054889366 -0.06011259 -0.09784377 -0.34654364 0.039731335 -0.0015258499
0.008624958 0.16537592 0.17918791 -0.12677088 0.11574099 0.12786773 0.042190805 -0.0692064
0.09887488 0.24969687 -0.086263195 0.028917879 0.077763334 -0.1445938 0.19900529 -0.22238721
-0.3198187 -0.20029652 0.23667243 0.120521255 0.12495297 0.012134836 -0.038032766 -0.14128642
-0.30563426 -0.31963995 0.14434375 -0.20669644 0.22183198 0.33127517 0.14637859 0.13348658
0.096609205 0.0015336252 0.3506413 -0.010924191 -0.30920652 -0.0016585022 0.21289852 0.095252335
-0.14350939 0.38553807 0.043146044 -0.35863358 0.083986446 -0.20462088 0.20192839 -0.31467763
-0.16313757 0.24537267 0.004214192 -0.073374316 -0.074168906 -0.04653167 0.056494966 0.0027054409
0.044055052 0.28320444 -0.06776152 -0.09119274 0.02702565 0.14428678 0.016414307 -0.0060830475
0.2773732 -0.22327235 -0.13874258 0.11734317 -0.45762962 0.15698557 0.08313501 0.04505341
0.028218215 0.033933766 0.1883057 0.09188982 -0.29151964 0.050114077 0.2745898 -0.49407646
-0.060609195 0.17129058 -0.0056261346 0.0038648807 -0.13671608 0.0045278505 0.033766706 0.30321392
0.16073002 -0.17764468 0.07742172 -0.084601946 0.17517845 -0.020755617 -0.068811454 -0.15255234
0.015554199 0.60291445 0.08023659 0.12494363 0.091090254 0.06741866 -0.118444 -0.101132765
0.19104922 -0.22036406 0.20010813 0.05093452 0.43562493 0.2822515 -0.34329528 0.005012183
0.14286667 -0.027634798 -0.23587626 0.14399377 0.17253055 -0.0045935162 -0.20716032 -0.014252945
-0.023662759 0.05404945 0.037798088 0.3628838 0.048148543 0.29301745 -0.42767403 -0.10031965
-0.21571702 -0.11711026 -0.05230132 0.03923861 -0.045583636 -0.006183535 0.008636112 -0.06265252
-0.03039237 -0.42735273 -0.37154737 0.21040879 -0.114569366 -0.045836013 -0.24620984 -0.18690698
0.06338764 0.066446975 -0.2678356 -0.37753233 -0.0038111382 0.08015825 0.18261066 0.17973898
0.16070044 0.16910602 0.12502585 -0.536904 0.012849287 -0.020243175 0.095315315 0.036346126
-0.0740916 0.019503664 0.03414341 0.031785563 -0.34236574 -0.042755205 0.05912072 0.19531398
0.34283566 -0.2762175 -0.3557028 0.20781803 -0.17568688 0.45346287 -0.049328677 -0.33711505
0.1269959 -0.74106586 0.08080722 0.29180852 0.16267061 -0.20975098 -0.05955862 0.029417269
-0.0050463746 0.14785191 0.10245514 0.098102905 0.03364272 -0.20909804 -0.014818065 -0.095329575
-0.013143723 0.15905268 2.2026257e-05 0.39845654 -0.065175645 -0.09618224 -0.07869797 0.07834464
0.013309553 0.047535498 0.009051796 0.13578874 0.32765278 -0.038843725 0.12682763 -0.17747226
0.07075049 0.10610009 -0.1910316 0.033652835 0.014001804 0.3658207 0.27326465 -0.08066579
-0.09638566 -0.034449372 0.20687467 0.01277937 -0.05648788 0.03002819 0.14541903 0.09066353
-0.09899203 0.1595857 0.08368002 0.13735345 0.020778917 0.37662223 0.16529682 -0.08264942
0.17798218 0.32942075 -0.15814815 -0.060831472 -0.32759458 -0.082420714 -0.10084231 -0.14063564

bias f4 [100]
00000000: c124 46bd de55 843e d61a 303e 5037 e53d
00000010: 71fb 34bd 2286 e8bd 4be1 283e 79cf 843e
00000020: b1a2 d33d 7be6 6fbd 4e39 563e 92c3 bf3d
00000030: 2f78 3fbc f290 b33d 717d 913d 809c e2bd
00000040: 1fcc c53d 6a1c cd3d 92a3 033d 2c8a 27be
00000050: da3e d2bd 9579 483d fa76 543e 35c7 f4bd
00000060: 092d 4f3e 3a6c 9c3e 7fdc 46bd 4321 1fbd
00000070: 7581 2abd ba5e 003e 5922 563e 5d56 1d3a
00000080: fb67 c83d b8e3 583e 356a 3ebd 3d16 7cbd
00000090: b82d 323e 30b4 843d f1c0 e1bd 38b4 33be
000000a0: 0fa7 a0bd c76c 2dbe 8317 2d3d 289d 3bbe
000000b0: 37d6 0b3c 202c 5bbc 26b1 983d 523e d7bd
000000c0: 57e9 f73b 2396 f4bd 0a34 6cbc c8f7 2b3d
000000d0: e29c 693c 1c84 353e 7371 103d bd2e 383e
000000e0: 500c 4fbd f90e 533e 6124 503e ddeb 993d
000000f0: 1cb7 d9bd da2c 0c3e c3f4 713e 5ff2 d83d
00000100: 98e1 853e 2033 2c3e b679 babd 9606 60bd
00000110: 0112 333e 72c4 febd 4679 a23e 6cdf 7e3e
00000120: 729c fd3c aa44 9b3d d01f 2f3e 191d c83c
00000130: d6b2 7e3d 897f c7bc 1894 183e 4f00 e8bc
00000140: 4862 fabd 3dea 333d 173b b63d d314 263e
00000150: 4d5c 933e e527 cb3c 1eec eb3d 9313 643e
00000160: 37cc 3dbd 398a 97bd 0251 4e3d d38d 23ba
00000170: 4c0e 663e 888e 1ebd e8da 04bd 429e 153e
00000180: 646d 3d3d 516a 983d e503 113e 8617 653d
-0.048374895 0.2584676 0.17197737 0.11192191 -0.044185106 -0.11353709 0.16492192 0.2593954
0.10333765 -0.058569413 0.20920298 0.09363474 -0.011686369 0.087678805 0.07104004 -0.11065006
0.09658074 0.10015185 0.032138415 -0.16361302 -0.10265894 0.048944075 0.20748511 -0.11952058
0.20232023 0.3055132 -0.048550125 -0.03885008 -0.041627366 0.12536135 0.2091154 0.0006001944
0.09785458 0.21180618 -0.046488006 -0.061544646 0.17400253 0.064796805 -0.11023129 -0.17549217
-0.07844364 -0.16936027 0.04225875 -0.18321669 0.0085349595 -0.013377219 0.074556634 -0.105099335
0.007565658 -0.11942699 -0.014416704 0.04198435 0.014258595 0.17726177 0.035264444 0.17986579
-0.05054885 0.2061118 0.20326377 0.075156905 -0.106306285 0.13688985 0.23628525 0.105931036
0.26148677 0.16816378 -0.09105246 -0.05469378 0.17487337 -0.12439813 0.3173315 0.24889916
0.030958388 0.07581456 0.1710198 0.024427937 0.06218227 -0.024352806 0.14900243 -0.02832046
-0.12225777 0.04392456 0.08897989 0.16218881 0.28781357 0.024799297 0.11519645 0.22273092
-0.046337333 -0.07399411 0.050370224 -0.000623909 0.22466391 -0.038710147 -0.032435328 0.14611152
0.0462469 0.07442153 0.14161642 0.055930637

weight f4 [10, 100]
00000000: 5e6d 65bd e9c1 813e b656 8ebd 8797 f7be
00000010: 74fc 293e 6ad4 dbbe ec00 35be 94b9 c2be
00000020: 0ac1 8c3e 2f93 b9bd b4e2 1f3d f683 11be
00000030: 9e07 83bd a765 31bf 97be bfbe 1723 f8bc
00000040: 3af8 5f3e a642 a23d d2fa 333d c92c 023d
00000050: ffc1 833b ace8 183e b216 873d 5a81 943e
00000060: a89b 883c 5920 91be 1e07 803d 63af 693e
00000070: 3b54 ce3c 5ec3 a5bc 7cba 0a3e b742 30be
00000080: fe1c 49be d136 cc3d 713b 21be 8dba bdbc
00000090: aea3 813d ec6e f7be 0271 8b3e afdc 9bbd
000000a0: d832 3abd 24ff bcbd 7b36 533e 4b0e fd3d
000000b0: b5dd 47bd 7c53 deb8 6583 1abf 713f 2dbe
000000c0: 2a20 a73d 9f6c 0dbf 0473 3fbe eb82 423e
000000d0: d501 8fbe 61e6 21bd d25a 91be ff7d ca3d
000000e0: 586d 20bf 256e 62bd 70c5 353e 0bab 1abe
000000f0: f65b 56be 3d63 0fbf 2357 3bbd 8d6a 08bf
00000100: 23de 013e 9200 3cbd f551 ddbe 6053 c2be
00000110: 8815 0d3e 26b3 1dbf dcdf e8bd 220a 8b3e
00000120: a02a 53be 523f 80be 807a 15bd 427a 073e
00000130: d3a8 5abf 6769 8dbd 4ba0 463e 6285 103e
00000140: 0e0e c93d fc31 f43d abc9 ba3e 441c c2bd
00000150: 2b95 523e e509 6abd d2d5 babe 6829 b9be
00000160: 4937 07be ce0d 353d af84 f33d 10a9 babe
00000170: 2d45 16be b6f4 a23d b255 ab3e 8ab2 bf3d
00000180: ef09 2abf 8799 8c3d f91d bfbe 823d 3d3d
00000190: 7f87 813d 39d1 a33e d1f5 2b3d 9ae3 18bf
000001a0: 7dd4 773e b27c b93e c0dd 4b3d a51b b43d
000001b0: 4527 4cbd 7ff0 16bd e2a4 7abe d013 503e
000001c0: 65bd ecbe 163e a03d f6a5 a83d 6a0f 443d
000001d0: 7af3 febc c2ba b8bd cde8 ccbe 977e 5a3d
000001e0: ae6e 143d 242e 9e3d fd04 0dbf c9ee 1d3e
000001f0: 3464 24be e777 81be a9e2 61bd b69d 053e
00000200: 8fdc 86bc 38b6 9ebe 29db 22bf 02a4 7a3d
00000210: 1d70 8cbb 0774 b8be f5d3 d9be 93f7 823c
00000220: fa9b 37bf 8c8d 2b3e 0951 10bd e0e3 df3d
00000230: 786d 8bbc acde 07bc ec1f c2be d196 01be
00000240: 6e69 4ebf 0e32 363e d538 843d 39ad 0dbe
00000250: 3960 d4bc 140b b53e 9560 70be aae7 9a3e
00000260: 11d9 f83d d9cd dabe 0fe1 263e fcdf 8abe
00000270: 2ab4 4d3d f331 f73e 4804 8fbe d131 6b3d
00000280: 3a6c ad3e 1797 07be 99a8 c1bd eb31 4d3d
00000290: e18e c4be 185c 1bbe 1e4b 0d3e c29b c73d
000002a0: 2031 1e3e 6923 5f3e 5dc8 13bf e402 a0be
000002b0: c1fa 24bc c5b8 1c3e d973 f8be e118 453e
000002c0: 586e fe3d 93cb b8bd 79e9 febe c990 5bbf
000002d0: e9e2 fcbe fca5 ef3e d65c 17bf 89ee bf3d
000002e0: 7c9f 723e fb15 4b3d 0187 fcbd 50ae 9e3d
000002f0: b76e 92be c359 dcbd 4808 78be f2ed fa3d
00000300: a2a3 16bf d55f bd3e 7289 7b3d 33ce 8e3d
00000310: fc48 cf3e 3171 19bf 9d75 b5bd 5e01 08be
00000320: 3221 febe a841 9bbe fb27 88be 2037 4f3d
00000330: 80e5 803d 507b 8b3e 77a3 0f3e d910 ecbd
00000340: 1390 4ebe 77e8 273c 00b0 733d b1f7 0cbf
00000350: 7586 2fbe c77a cdbe 1645 4cbd e1ff 27be
00000360: 3eef b03e 606d 19bf e0eb a93d 6ff9 d63d
00000370: cd3d 1e3d 823e 47be 9d61 b2bc 14f0 c73d
00000380: bdb1 1cbc 1c17 bcbd 70b8 2a3d 80f3 80be
00000390: e410 e53c 89cd 153e c745 ed3d 37e0 f6bc
000003a0: 69b0 e33d 8f86 25be 58d3 203e bdae ec3c
000003b0: 19f4 d1be 6bf0 4ebe 65a5 64be 2aa3 9a3e
000003c0: 0b41 283d cdf5 8c3c 1c5a 423e e0b2 573e
000003d0: 9f09 de3b 009d de3b eaee 36bf eb52 0d3e
000003e0: 7aff c8b8 259d 813e eeb1 703d a43c 473e
000003f0: 05e3 bfbd 35f3 543d dc4c 85be ac1a ad3c
-0.056012504 0.25343254 -0.069501325 -0.48357794 0.1660021 -0.42935497 -0.17676133 -0.3803221
0.27491027 -0.09061276 0.03903456 -0.14210495 -0.06397937 -0.69295734 -0.37450096 -0.03029017
0.21872035 0.079228684 0.043940373 0.03178099 0.004020929 0.14932507 0.06596126 0.29004937
0.016675785 -0.28344992 0.062513575 0.22820811 0.025186649 -0.02023476 0.135477 -0.1721295
-0.19639966 0.09971393 -0.15745331 -0.023160243 0.063300475 -0.48326814 0.27234656 -0.076104514
-0.045458645 -0.09228352 0.20626251 0.12356242 -0.04879542 -0.00010601335 -0.6035674 -0.16918732
0.08160432 -0.5524387 -0.18696219 0.18995254 -0.27931085 -0.039526347 -0.28389603 0.09887313
-0.62666845 -0.055280823 0.17751098 -0.1510431 -0.20933518 -0.560108 -0.045737397 -0.53287584
0.12682395 -0.04589898 -0.4322659 -0.37954235 0.13777745 -0.61601484 -0.11370823 0.27156168
-0.20621729 -0.2504831 -0.03649378 0.13230231 -0.85413855 -0.069048695 0.19397084 0.14113382
0.09817134 0.11923596 0.36481985 -0.094780475 0.20564716 -0.057138342 -0.36491257 -0.36164403
-0.13204683 0.04420262 0.11890542 -0.3645711 -0.14674826 0.07956831 0.33463818 0.093602255
-0.6642141 0.068652205 -0.37327555 0.046201237 0.06324672 0.31995562 0.041982476 -0.5972229
0.24202152 0.36227947 0.049772024 0.08794335 -0.049842138 -0.03685045 -0.2447696 0.20320058
-0.46238247 0.07824342 0.082347795 0.047866262 -0.031121958 -0.09019996 -0.40021363 0.05334338
0.036238365 0.077236444 -0.55085737 0.1542312 -0.1605385 -0.2528679 -0.0551478 0.13048443
-0.016462592 -0.30998397 -0.6361566 0.061191566 -0.004285826 -0.36026022 -0.42544523 0.015987193
-0.71722376 0.16753215 -0.03523353 0.109321356 -0.017019972 -0.008292835 -0.3791498 -0.12655188
-0.8062962 0.17792532 0.06456152 -0.1383561 -0.025924789 0.35360014 -0.23474343 0.3025487
0.12150777 -0.42735174 0.1629679 -0.27124012 0.050220646 0.48280296 -0.27932954 0.057420556
0.33871633 -0.1324123 -0.094559856 0.050096434 -0.38390258 -0.1517185 0.13798186 0.09746505
0.15448427 0.21790852 -0.57727605 -0.31252205 -0.01006955 0.15304859 -0.48525885 0.19247772
0.1242339 -0.09023204 -0.497875 -0.857678 -0.4939187 0.46806324 -0.5912603 0.09371669
0.23693651 0.04958151 -0.123304375 0.07748091 -0.28600094 -0.10759308 -0.24221909 0.12252416
-0.58843434 0.36987177 0.061410375 0.06972923 0.4048537 -0.5993834 -0.088603236 -0.13281772
-0.496347 -0.3032353 -0.26593003 0.05058968 0.06293774 0.27242517 0.140272 -0.11526651
-0.20172147 0.010248295 0.05949402 -0.5506545 -0.17141135 -0.40132734 -0.049870573 -0.16406204
0.34557527 -0.5993252 0.08296943 0.104967944 0.038633157 -0.19457439 -0.021775061 0.09762588
-0.0095638605 -0.09184095 0.0416798 -0.25185776 0.027962156 0.14629187 0.115855746 -0.03013621
0.11117632 -0.16164611 0.15705621 0.028891915 -0.41006544 -0.202089 -0.22328718 0.3020261
0.041077655 0.01720705 0.18979686 0.21064329 0.0067760493 0.006793618 -0.71458304 0.13801162
-9.5843294e-05 0.25315204 0.058763437 0.19456726 -0.093694724 0.051989753 -0.26035202 0.021130882

bias f4 [10]
00000000: d7ed a6bd 1165 20be f320 54bd a0ee 0c3b
00000010: 6f83 3b3d 2103 2dbd d5be 85bd 2a96 19be
00000020: adb9 b33e 645f 2a3d
-0.08150833 -0.15663554 -0.051789235 0.0021504536 0.04577964 -0.042239312 -0.06530539 -0.1499869
0.35102597 0.041594878
