model_mlflow/data/model.pth (torch, 362823 bytes, 6 tensors)

weight f4 [100, 784]
00000000: d729 3fbc e52c d3bb 0c8f 933c 45ca 93bc
00000010: db85 0a3d 9304 cdba 5c5d a53c 931c 8e39
00000020: eaa0 71bc e78e 05bd ace5 c23c 3cc0 70bc
00000030: 054e cbbc 9c9d 4c3c f54e 68bc 6b18 4bbb
00000040: 2e72 d83b 4a48 303c 173d 58bc 1774 523c
00000050: 88a3 f8bc d1af e53c 4b1a 0dbd 0c8a 81bc
00000060: 9379 65bc ccbb 903c b0c1 043d 2f29 00bd
00000070: e735 bd3c 809e 113c a86f eebc be3b aa3c
00000080: c676 cc3c 7731 ca3b 5d6e b73c 91d8 083c
00000090: c8d0 10bc 05ab 5f3c 882b 06bd 0af1 8ebc
000000a0: 395c 96bb fb83 08bc 103a 43bc 1a75 ee3c
000000b0: b86c 003d 3b6e 213c e457 813c d190 dd3c
000000c0: e193 00bd 7cb4 c5bc f095 2ebb fc8b 43bb
000000d0: 4309 9f3c 1c8a 8a3c e13d d43c 2770 0e3d
000000e0: a5e8 86bb 81bf 30bc 8a35 6f3c 089d dcbc
000000f0: 30a9 cabc 87b0 cc3a e521 0bbc 3e95 853c
00000100: 576e 783c 423b 45bc 0246 8bba 7e88 873c
00000110: 5b9f e9bb fb1f 82bb 53d0 adbc fd8a 143c
00000120: 49e6 343d c3a8 c73c f732 eabc 8cc6 8bbc
00000130: 713a a13c c1b4 663c f472 c1b9 e66e 30bb
00000140: 0c96 563b 1492 dcbc 4eb6 11bc 0a6e b3bb
00000150: 1c4f ebbc 602a a6bc c93b f5bc 4696 0abd
00000160: afbe c93c fe08 dfbc 1878 cdbc 4f4f 98bb
00000170: 4e27 e13c befd 0d3d 9fa9 2c3b e70c edbb
00000180: 7cb2 333d f13c 3fba 0af0 293a 9fad f53c
00000190: ed03 033d bf8a 7f3c 4de5 f73c e0f4 a2bc
000001a0: 2399 d2bb 567e 633a 0c03 ac3c d45a 93ba
000001b0: 2bba f8bc 5d2e 163c 452c c0b9 2e2d c63c
000001c0: c5d0 513c 41ba 3fbc 52ed b2bc 6b83 0dbd
000001d0: 2a55 9abc aa88 2f3d 7bf8 5b3b 6562 3e3d
000001e0: aac9 a1bb 3515 5b3c 17fe d93c 5eb4 2f3d
000001f0: 410b c63c e447 593d cf19 a43c 7baa 87bb
00000200: b450 223d e39a 983c 4e3f 97bc 4b5f e93c
00000210: 8f1f 233d 16ab 463c f618 143d bb13 94bc
00000220: 8216 063d bb36 cdbb 63bc d73c b89d fa3c
00000230: 1712 4e3c 9530 ecbc 3422 dcbc 286c 8fbc
00000240: dd0f 9fbc 6da6 1cbc fac4 db3c 4088 573c
00000250: 522c ef3c 34ad e53b ea0a 5d3b ca64 39bc
00000260: f8d1 353c a8ca 8ebd ff0f 62bc 7271 383d
00000270: 1e16 663d d68f 1e3d 24d5 403d 22c5 8d3d
00000280: 0e3b 8c3d b13d 5d3d 418c 0d3c fe64 023c
00000290: 4907 cdbb bd6f 063d c7e0 8fbc bb00 5a3c
000002a0: ae9f 05bd 9606 563c c92e f4bc dcb4 5ebc
000002b0: 5351 cb3c 8336 0a3d a513 eeb9 5eb9 4f3d
000002c0: 1f83 bbbb f1ae 8dbc bf7b 51bd 2949 39bd
000002d0: d9ab 8cbc df00 2ebd e361 08bd 64c5 393c
000002e0: a766 12bd b39f 23bd 5bca 843c 9a9a 1f3d
000002f0: 0feb 283d 0513 913c d5a8 463d add9 873d
00000300: 0ee9 003c a304 72bb 12ce b53c ae16 07bd
00000310: 76a4 b8bc 5eb8 e8bc ac66 763c 4df4 6f3c
00000320: 6003 82ba 6cdd ff3b a004 bdbc 1d19 083d
00000330: 5997 e33c 0e08 8ebc 05dd 54bd e8d8 04bd
00000340: f1e2 b3bc f14d ffbc d004 53bd 64f7 b4ba
00000350: 4ce4 0abd 761d 5b3c 8e6b 99bc d0c3 6f3a
00000360: 0f87 153d 174e 063d ba24 213c 92ff 9ebc
00000370: 5366 363c f406 fb3b d083 133c 4f3f a3bc
00000380: 87c3 b93c 2106 583c 0d67 0d3d b6d6 553c
00000390: 174b de3c d227 bc3c f5e7 6d3c ec91 24bc
000003a0: b851 72bc bca5 0fbd 4e1b 49bd e090 39bc
000003b0: e0f2 6fbb a325 82bc 54fb 53bd 33f7 ffbc
000003c0: dab5 33bd c267 8a3c ab56 203d 725c 923c
000003d0: 3869 18bb 55b1 853c 6ee8 04bd 401d 07bd
000003e0: d4e3 53bd 352c e43c 0fa2 0f3c c1a6 0d3c
000003f0: d202 0cbd 6647 5cbc d6c1 6fba 4a8c b1bc
-0.01166769 -0.006444561 0.018012546 -0.018040786 0.03381906 -0.0015641622 0.020186119 0.0002710564
-0.014747838 -0.032606985 0.023791157 -0.01469427 -0.024817476 0.012488749 -0.014178981 -0.0030989896
0.006605408 0.010759423 -0.013198159 0.012845061 -0.030351415 0.028037937 -0.034448903 -0.015812896
-0.014006036 0.017667674 0.032411277 -0.031289276 0.023096992 0.008887887 -0.029105976 0.02078044
0.02495898 0.0061704475 0.022391493 0.008352415 -0.00883884 0.013651614 -0.03275636 -0.01744892
-0.0045886305 -0.008332248 -0.011915699 0.029108573 0.031353682 0.009852941 0.01578898 0.027046593
-0.03139103 -0.024133913 -0.0026639663 -0.0029838076 0.019413596 0.016911559 0.025908412 0.034774926
-0.004117089 -0.010787846 0.014600167 -0.026930347 -0.024738878 0.0015616574 -0.008491968 0.016306516
0.015163026 -0.012038054 -0.0010625722 0.016544577 -0.0071295924 -0.0039710975 -0.0212175 0.0090663405
0.04416493 0.024372464 -0.028588755 -0.017062448 0.019681187 0.014081181 -0.00036897475 -0.002692157
0.0032743244 -0.026925124 -0.0088935625 -0.005475764 -0.028724246 -0.020283878 -0.029935734 -0.03383472
0.024627058 -0.027225967 -0.02508168 -0.004648126 0.027484562 0.034665816 0.002634622 -0.007234204
0.043871388 -0.0007295153 0.0006482607 0.029990016 0.031986166 0.0155970445 0.030260706 -0.019892156
-0.0064269467 0.00086781883 0.020997547 -0.0011242279 -0.03036221 0.009166327 -0.00036654077 0.024191465
0.012806122 -0.011702121 -0.021841679 -0.034549158 -0.018839438 0.042854942 0.0033564854 0.046480555
-0.0049373703 0.013371755 0.026610417 0.04289662 0.024175288 0.053047076 0.020031838 -0.004140196
0.039627746 0.018628543 -0.018462803 0.028487822 0.03982502 0.012125751 0.036156617 -0.018075814
0.03273631 -0.006262628 0.026334947 0.030592784 0.012577555 -0.02883176 -0.026871778 -0.017507628
-0.019416744 -0.009561163 0.026827324 0.013155043 0.029195938 0.007009173 0.003372843 -0.011315534
0.011097424 -0.06972247 -0.013797759 0.045030065 0.056173436 0.03871139 0.047078267 0.06922366
0.06847201 0.05401391 0.008639396 0.007958649 -0.006256972 0.032821406 -0.017563237 0.013305838
-0.032622986 0.013063094 -0.029807465 -0.013592925 0.024819052 0.033743393 -0.00045409534 0.05071389
-0.005722418 -0.017295333 -0.051143404 -0.045235787 -0.017171787 -0.0424813 -0.033296477 0.0113385655
-0.03574243 -0.039947223 0.016209772 0.0389658 0.041239794 0.017709265 0.048500855 0.06633315
0.007868065 -0.0036929033 0.022192989 -0.032980613 -0.022539359 -0.028408226 0.015039127 0.014645648
-0.0009919219 0.007808378 -0.023073494 0.033227075 0.02778213 -0.017337825 -0.051968593 -0.03243342
-0.0219588 -0.031165095 -0.05151826 -0.0013806638 -0.033909127 0.013373723 -0.018728044 0.0009146305
0.036505755 0.032789316 0.009835416 -0.019408975 0.011132794 0.007660741 0.0090035945 -0.019927649
0.022676243 0.013185055 0.034522105 0.013051679 0.027135415 0.022968207 0.014520635 -0.010044556
-0.014789991 -0.035070166 -0.049098305 -0.011326045 -0.003661327 -0.015887087 -0.051753357 -0.031245803
-0.0438746 0.016895179 0.039145153 0.017866347 -0.0023256075 0.01631991 -0.032448225 -0.03298688
-0.051730946 0.02785311 0.008766665 0.008645714 -0.034182377 -0.013444757 -0.000914601 -0.02167334

bias f4 [100]
00000000: 793e a63d 6846 85bc c7c7 dd3c 2e3e 343b
00000010: ce3b 3d3d 080a f7bc 0f50 023e 705f 683c
00000020: a7b7 013d 0538 713c b827 cb3c 56b3 223d
00000030: 3625 d63d 869e a43d 9853 d8bc f32d d73d
00000040: a4fb 19bd 4fbf 9bbd 56b0 9dbd b40b 953d
00000050: 8839 bf3d 8659 c9bb 95a9 a43c 6ad8 4f3d
00000060: 5de8 a83d cf24 a13d 95f1 543d f2b6 973b
00000070: 6f42 9d3c cc48 09bd ac5c c4bd 601a e8bc
00000080: 9887 513d 5d62 3abc 94b5 bcbc 8572 8a3d
00000090: 7bfb 9e3d b188 253c 84f7 273b 8dec a13d
000000a0: d355 26bc de03 2fbc e048 1f3e ae09 553d
000000b0: 0254 983d b40d 793c 1b8a 5fbd 63c4 6cbd
000000c0: f98e 833d b590 cf3d 8ace 243b f8d2 4a3d
000000d0: 8732 b73d f8ef a23d ef04 63bc 2841 2e3d
000000e0: d126 bebc 808b 87bc 4bc2 83bd a70b 453d
000000f0: 332d d4bb c3e0 1f3c d093 7abc 1b92 803c
00000100: 3777 883c 25ad bc3d 5bae debd fa33 8a3d
00000110: 873e 5b3d e9d1 b83d 6747 083d 170a 9b3c
00000120: 86c0 3d3d 9ea7 563d 05d8 913d 87d9 923c
00000130: ddce 2d3c 2a05 aa3a db1c e4bc 330c 30bd
00000140: 8b15 43bb ca7c 503d fc4f b5bc 0ec5 763d
00000150: ede4 bc3d 4ab6 dbbd 16ff 9e3c 8796 fbbc
00000160: 8149 053e 76ef 6f3c a2e5 923c 19bb ab3c
00000170: 67b9 7c3c 2a98 6abd 3468 3bbd 754f 923c
00000180: af9f 0abc 3ac0 953c 71f1 023d 2152 09bc
0.081173845 -0.016268924 0.0270728 0.0027502882 0.046199612 -0.03015615 0.12725852 0.01418291
0.031669285 0.014722829 0.024799213 0.03972181 0.10456316 0.080380484 -0.026407048 0.10506811
-0.0375935 -0.076048486 -0.07699649 0.07277623 0.09337145 -0.006144705 0.020100394 0.050743498
0.08247445 0.07868349 0.051988203 0.004629963 0.019196717 -0.03351669 -0.09587988 -0.02833289
0.051154703 -0.011375991 -0.023035802 0.06760124 0.0776281 0.010103391 0.0025629709 0.079064466
-0.010152298 -0.010682074 0.15555143 0.052011184 0.07437898 0.015201021 -0.054575067 -0.057804476
0.06423754 0.101350226 0.002514752 0.0495176 0.08945184 0.07955927 -0.013856157 0.042542607
-0.023211868 -0.016546011 -0.06433543 0.048106816 -0.0064751147 0.009758177 -0.01529403 0.015694669
0.016658409 0.09212712 -0.108730994 0.06748195 0.053526428 0.09024412 0.03327122 0.01892571
0.046326183 0.052405946 0.071212806 0.01792599 0.010608402 0.001297151 -0.02784579 -0.042980384
-0.002976748 0.050900258 -0.022132866 0.06024652 0.09223352 -0.10728128 0.019408744 -0.030711425
0.13016321 0.014644494 0.017931763 0.020963239 0.015425063 -0.05727402 -0.045753673 0.017860154
-0.008460923 0.018280137 0.031968538 -0.008381397

weight f4 [100, 100]
00000000: caff 943d dad8 a23d 1b9f f73b c9ed d9bd
00000010: e99d bc3d 2693 f9bd 34e5 8abe 455a c3bc
00000020: 769d 353d f82c e43c 0b9e 163e f874 9bbd
00000030: 7534 303e 7470 b7bd 5ecf fbbd 7ff8 5c3e
00000040: 9bbc a43e e0ee 1ebc fc77 eabd 0477 42be
00000050: 9602 cb3d 79b2 143e 66a9 113e ad5d e2bd
00000060: 4cb5 2dbd f5d4 b2bd 7e38 38be ae21 013e
00000070: 6c01 253e 9eb6 8c3e feb5 40be dcea 623b
00000080: 2d16 f6bd da46 6a3d e90f c83d 6d65 643c
00000090: 437a c6bd d748 2d3e a5e2 01be 4d65 69bd
000000a0: 0f7d ffbc 819c a43d 9685 873e 10c8 253e
000000b0: 1a83 79be b920 023e f462 51bd 928f 283e
000000c0: 5987 6f3d 6752 cd3d 8bae 1b3d 08b7 31bd
000000d0: f545 b93c c7df b2bc 0d5f b1bd d100 11bd
000000e0: bb09 063d 5aec 5abe 55bc 85bd 8035 f03d
000000f0: 078d 693d f227 2f3e 78ba bebd 6710 023e
00000100: 696a 6bbd 319a 0f3e cb4e 8abe 68da 003e
00000110: 265d 483e ad4d c1bd 2cfd 2dbe 90a6 a53c
00000120: 877e 0c3e 42e3 52bd 8aec 5bba a821 88bd
00000130: 9549 ed3c dd62 63bd a486 0cbd aa8e 12bd
00000140: 03a2 dcbc 5de2 04bd bc31 6c3c 71d3 cf3d
00000150: 1bd4 223d ea48 c7bd 5765 7d3e fb04 62bd
00000160: fca3 babd 7643 843d ed20 07be 2cd4 5e3d
00000170: 70e6 183d 29ee 1a3e f631 5f39 8a90 cbbd
00000180: ed2a 09be c579 173e edd7 ac3c 7499 98bc
00000190: 00c9 05be 6bb4 55bd c79b 3bbc 7a8f 0dbd
000001a0: 72a6 4fbc e877 f03d 38ac 03bc aa0d 5c3d
000001b0: f5c3 eabd e637 16be 1c4a c03d 2ed3 ecbd
000001c0: 3f00 8b3d 6bce 23bd c762 253d dfa2 6abc
000001d0: 443d 1eba 2c2d 183e 8f9b 3a3d f75d 393e
000001e0: 7ff1 39be ab4d a1bd 052b 143e 108d e5bd
000001f0: c08a b8bd d49c e6bd 8685 6e3e 9673 9d3c
00000200: bd09 38bd 3232 bdbd 9a75 603e d46b a6bd
00000210: 1fdc c13d 5850 b13d 44d2 95bb 4041 3d3c
00000220: f861 b2bd c222 183e 3b55 6e3d 8e89 b5bd
00000230: 52e6 5cbd d05b 0d3d ba79 a7bd acc5 29bd
00000240: 2955 ee3c 8675 3d3d 8d2e ba3d da75 5d3d
00000250: f6ca 93bd 72fe fabd d0af e53d cb59 313d
00000260: 7f64 823d 3e65 15be d502 9c3d bbec a3bd
00000270: 8545 513d 0969 8e3d fe15 bc3d a96d cdbb
00000280: 7e6c 153d bc21 093e 2d3b a83d 1517 3a3d
00000290: a6cb 223e b2e5 223e c44f 8c3d 9b7b ea3c
000002a0: f7a4 9dbd 733b 1fbd 7a96 1e3d 11f5 f5bc
000002b0: f852 15be 9936 bfbd b22c ebbd 9040 0cbe
000002c0: 361f bd3c 1446 ee3d e072 fa3c 90cc a1bc
000002d0: 64fd 6b3d 6880 c93d f2aa 993d 6e90 c1bc
000002e0: 55c4 b43c 3579 d13d 6163 8f3c 15a1 413d
000002f0: 4f21 4fbe 37c7 f73d 55e4 c3bd dc79 63bd
00000300: 9645 e83c 42c3 bd3c 1a47 cdbd 7ba8 113e
00000310: 46c0 413d a333 98bc 9259 9ebc 5472 4e3e
00000320: ee49 a63c dfd3 f2bc a0ee dcbd c8b8 1a3d
00000330: 3475 edbc 8157 3d3d 09e6 783e 260f 95bd
00000340: a713 f83b bc20 133e 3860 293e 07d0 013d
00000350: f77d d53d ddd0 da3d c9f6 913c a6b4 b7bd
00000360: 687c 19be a8e4 91bd 30b3 31bd 9523 f13d
00000370: 25a5 2b3c 6320 2cbe babc 85bd 87cf ba3a
00000380: 6a59 ba3c 836c e5bc 96fe 07bc 4e44 80bc
00000390: 12ae 8fbd f64e a93d 28d3 1dbd 94d2 98bc
000003a0: d050 f13d c92b 10be 28c1 00be c977 d33c
000003b0: b12a cf3d 9082 42be fede f8bd 2104 b73d
000003c0: 5a3d e5bd 3e30 893d afd6 c23d 6427 8ebd
000003d0: 1299 b6bb a40a d43c 1579 7d3d 74e2 1f3e
000003e0: a3eb 2b3e 9308 d83d 22e5 cabd a90f 093d
000003f0: 8a15 a8bd 702a 233d b21f 3e3c 7d3d dc3d
0.072753504 0.079515174 0.0075568086 -0.10641057 0.092098065 -0.121862695 -0.27127993 -0.023846755
0.04433962 0.027853474 0.14708726 -0.075906694 0.17207511 -0.089569956 -0.122954115 0.21579169
0.32175145 -0.009700507 -0.114486665 -0.18990713 0.099126026 0.14521207 0.14224777 -0.110530235
-0.042409226 -0.087320246 -0.179903 0.12610504 0.16113824 0.27483076 -0.18819425 0.003462485
-0.120159484 0.057196476 0.097686596 0.013940197 -0.09691288 0.16922317 -0.12684114 -0.056981374
-0.031187562 0.08037663 0.26469105 0.16189599 -0.24366418 0.12707795 -0.05111976 0.16461018
0.058478687 0.100254826 0.038008254 -0.043387443 0.022616366 -0.021835221 -0.086607076 -0.03540117
0.032724123 -0.21379223 -0.06530062 0.11728954 0.05701926 0.17105082 -0.0931291 0.1270157
-0.057474528 0.14023663 -0.2701324 0.12583315 0.19566783 -0.094386436 -0.16991109 0.020221025
0.13720141 -0.05148626 -0.0008389434 -0.066470444 0.02896575 -0.055514205 -0.03430809 -0.035780586
-0.026932722 -0.03244244 0.0144161545 0.10147751 0.03975306 -0.09730704 0.2474569 -0.05518053
-0.09113309 0.0645818 -0.13196154 0.05440156 0.037329137 0.15129913 0.00021285549 -0.09939678
-0.13395281 0.14792545 0.021099055 -0.01862786 -0.13064957 -0.052174013 -0.011450714 -0.034560658
-0.012673961 0.1174162 -0.008036666 0.05372397 -0.11463157 -0.14669761 0.09389135 -0.11563717
0.06787156 -0.039991777 0.040377405 -0.014321058 -0.0006036351 0.14860982 0.04555851 0.18102251
-0.1815853 -0.07876142 0.14469536 -0.11208546 -0.090108395 -0.11260381 0.23293123 0.019220155
-0.044931162 -0.092380896 0.21919861 -0.08126035 0.09465813 0.086579025 -0.0045721848 0.011551201
-0.08710092 0.14857009 0.05818675 -0.08864127 -0.053930588 0.034511387 -0.081775144 -0.04144828
0.029093342 0.046254657 0.0909091 0.05406747 -0.07216446 -0.12255563 0.11215174 0.043298524
0.06366824 -0.14589402 0.07617728 -0.08004137 0.05109169 0.069536276 0.09183882 -0.006269176
0.03648042 0.13391775 0.08214412 0.04543217 0.15897998 0.15907934 0.068511516 0.028623393
-0.0769748 -0.038875055 0.038717724 -0.030024083 -0.14582431 -0.093365856 -0.11483134 -0.13696504
0.023086172 0.1163446 0.030572355 -0.019750863 0.0576147 0.09838945 0.07503308 -0.02362844
0.022066275 0.102281965 0.017503442 0.04727276 -0.2022755 0.12098544 -0.09565035 -0.055536136
0.028353494 0.023164395 -0.10023327 0.14224426 0.047302507 -0.01857931 -0.01932982 0.201608
0.020298924 -0.029642044 -0.107877016 0.037773877 -0.02898655 0.04622603 0.24306501 -0.0727828
0.007570702 0.14367956 0.16540611 0.03169253 0.104244165 0.10684369 0.017817872 -0.08970003
-0.14988863 -0.07123691 -0.043383777 0.11774365 0.010476385 -0.1680923 -0.06530137 0.0014252522
0.022747714 -0.028005844 -0.008300444 -0.01565757 -0.07015623 0.08267014 -0.038531452 -0.018655099
0.11782992 -0.14079203 -0.12573683 0.025813954 0.101155646 -0.18995118 -0.121519074 0.089363344
-0.111933425 0.066986546 0.09513604 -0.06941107 -0.0055724466 0.02588398 0.06188305 0.15613729
0.16789107 0.105485104 -0.09906985 0.0334622 -0.08207233 0.039835393 0.011604236 0.107539155

bias f4 [100]
00000000: af44 d03d 4f54 1ebc 1539 fa3c 3db6 fb3d
00000010: 47e0 ab3d 1754 efbc 1484 4e3b b175 f73c
00000020: 8253 973d e5f6 d8bd 218a a73d ed79 56bd
00000030: 1200 c1bd b7d2 63bd 5e56 bd3d 3382 5d3e
00000040: ec39 043e d608 54bd a7f2 a5bb aa52 d0bc
00000050: c9e4 43bd 16a8 943d 8f12 cf3d ad55 8a3d
00000060: 1c54 a03d 93a5 083d 22cd 873c 516a 02be
00000070: fe19 8f3d 78e2 e93b e636 bb3d 5c98 debc
00000080: 4fb0 333e 4f86 a6bd c2b0 abbc 662b 893c
00000090: b753 41bd 2721 4b3d 6d2d aa3d e3cf 203c
000000a0: c4a5 db3b b9fe 953d 57b1 103e d745 983c
000000b0: f24e ff3d aa24 ee3c 2dfa 883d 23c5 843d
000000c0: 67cb 043d 1024 7cbd 4f40 d03d 429f 623d
000000d0: 4d07 333d 8d78 fcbb 952a f63d e0a1 fdb8
000000e0: 3c81 96bd d585 303e 7e07 423c 2d47 44bd
000000f0: 84a8 89bd d9cb a23d 8ce4 113e 4310 833d
00000100: 6e4a f33c 99f7 8b3d d439 b6bc 907b 87bd
00000110: 4af2 c9bc d5de 13bd b83e b0bc 725b 5b3d
00000120: 3a47 203e c620 393e 866c 4abb 4d5b e33d
00000130: 1b75 6dbb b4f7 c93c f3cb ce3d aa8a c33d
00000140: 5bb8 65bd 0c4a 3bbc 4a1d 6d3d cc72 27bd
00000150: 9710 f53d 3138 8bbd 8210 97bb 6257 00bd
00000160: 2a9f 033e 4615 ae3a 7c1a b53d 4031 2bbd
00000170: 10a7 e33d 9286 b03c 1730 763c 8b59 f43d
00000180: 2b89 033d f8db 20bd cf69 67bd b79c 7e3d
0.1016935 -0.009663655 0.030544797 0.122906186 0.08392387 -0.029214902 0.003151183 0.030207487
0.07388975 -0.105939664 0.08180643 -0.05236237 -0.094238415 -0.055620875 0.09244989 0.21631698
0.1291272 -0.05176624 -0.005064327 -0.025430042 -0.04782561 0.07258622 0.10110962 0.067546226
0.078285426 0.03336103 0.016577307 -0.12735869 0.069873795 0.007137593 0.091413304 -0.02717226
0.17547725 -0.08131086 -0.020958308 0.016744327 -0.047198977 0.049592163 0.083094455 0.009815189
0.0067031104 0.07323975 0.1413015 0.01858799 0.124662295 0.029070217 0.06688342 0.06482913
0.032420542 -0.06155783 0.10168516 0.05532766 0.043708134 -0.0077048005 0.12019841 -0.00012094132
-0.07348868 0.17238553 0.011842607 -0.04791944 -0.06721595 0.07949037 0.1424734 0.06399586
0.029698577 0.06834335 -0.022244371 -0.066153646 -0.024651665 -0.03610118 -0.021514282 0.053554006
0.15652171 0.18078908 -0.003088744 0.111013986 -0.003623313 0.024654247 0.10097494 0.095479324
-0.05608402 -0.011431228 0.05788926 -0.040880963 0.11966055 -0.06797827 -0.004610122 -0.031333335
0.12853685 0.0013281486 0.08842942 -0.041795015 0.11115849 0.021548543 0.015026114 0.119311415
0.032113235 -0.03927228 -0.05649739 0.062161174

weight f4 [10, 100]
00000000: 1032 623e 8e16 953e acbf 2fbd 46a6 73bd
00000010: 45b6 6cbe 7463 803d 2f26 ea3c e5e8 92bd
00000020: 4e15 d6bd 699b 0bbe ccac 5ebd 35df b2bd
00000030: 8378 72bd 28e6 77bd 553e 333e a460 0bbf
00000040: 6ac3 22be bed1 f33e 3c17 213e 238c 56bd
00000050: dd3a 6abd c73b b4bc 6996 a1be 1db7 a33d
00000060: 2ec9 e33b 2cb9 b9bd bb97 56bd 6fd5 913e
00000070: 9334 b8bc f84e 0b3d 5b99 833e 8885 ce3d
00000080: 25d5 4dbe 1f93 2fbe 5692 f33d 395b 7abe
00000090: a7d2 9e3d 9c93 653e 8ced c63d bf11 e7bc
000000a0: 11f4 813c cc44 9fbe 9bd2 713e ea30 b43d
000000b0: d0b8 28be e944 993e 61da 113e b150 4a3e
000000c0: 57cd a73e 6f73 a93c 63ad 73be fefd c8bd
000000d0: 81e4 b2bd 381c 8bbe 503f 9fbe 728f 16bc
000000e0: e547 cabc 4675 18be ee79 49be c843 e3bd
000000f0: 75b3 6dbb 8602 20be 0e88 eb3d 4d61 d9be
00000100: 0e8a 893c 40f5 8cbc 1163 fd3d 9919 4ebe
00000110: 74c0 2bbd 4fc6 293f 201b 19be 07e4 c6bd
00000120: 3816 723d 35c4 aebe 54fe c93d ea5f 96be
00000130: 1924 32be 9edd 853b a674 d93e 535a 803d
00000140: dbb3 a7bd 4a07 d7bd 77fe 8e3d 8389 17be
00000150: 1478 4dbe d043 133e 045e 5f3e 2bd0 6fbd
00000160: 2ced 05bd ff99 bebd c3d0 b0bd 7b7c d9bc
00000170: 9dd1 dcbd 8339 45bd 0e03 cd3c 4df1 62be
00000180: b1ec 6c3c e3e6 5f3e 90a2 25bc b814 08bd
00000190: d705 3ebd a8e1 8cbe 2737 52bc 4f65 49be
000001a0: c94a 023e 2b8c 86bd c047 313e 1654 83be
000001b0: c266 383e 1142 abbe bb8a b43d 8750 16ba
000001c0: 0771 203d 6173 7abd 31ef f73c 441b a53e
000001d0: 792c 0fbe 813d a7be ec74 e4bd 22d0 30bd
000001e0: ce7f 953d a3bf 6c3e 5c4e b73d c6f8 3b3e
000001f0: a4c8 3ebe 6eaf 3abd 96c0 aa3d 3d90 a3be
00000200: 45d0 3cbe d358 5dbd 89cb 233e 9c57 f3bd
00000210: acae 6c3e d989 0cbe 0ae4 0cbe ff0b 65bc
00000220: ee33 693d 5d69 b4be 02f9 6abd d7a2 1d3c
00000230: ec14 683d 961d 493e 468f 173e 3798 aabd
00000240: 2f7d 183e b163 bcbe 3618 23be 6f1d 133e
00000250: f2f2 a53d 6a66 c93c a8f1 ef3d 7b57 87be
00000260: a9c9 883d 2b3d 6a3e 688a ffbd 908b 70be
00000270: 74b8 89bb 69ba 053e 7271 67be d67e 8b3e
00000280: 721a 28bd 4873 d83e a772 24be 9a06 af3e
00000290: 4393 8bbe 5d2f 363e b20c 51be 8a48 9a3d
000002a0: 46d4 aa3d c2f5 bfbe d431 973b 3840 5ebd
000002b0: 6bfb 82be 1648 293e 094e 9dbe 3184 c63e
000002c0: e9e9 8e3e c17c ab3e 93e5 eebd 44ed 83be
000002d0: 3197 3e3d f826 e4bd a911 6f3e 08e8 bebd
000002e0: aabc c0bb 5498 bf3d 0cd3 49be 25f5 c13b
000002f0: 0bd4 dd3e 279c 1d3e 855e 9abd 5c5c 133d
00000300: 3958 91be 4fc0 d4bd 9d6a 37bd cd41 833e
00000310: e31f fbbe 90d4 7d3e 19ed 513c 556d 8b3b
00000320: e917 84bd fb5a 79bd 0711 e5bd b42a 71be
00000330: bb6c b1be bbd3 393e a4ed b83d 8bce 263d
00000340: dd42 b03e 7b76 443e 9736 183e 7979 a7bc
00000350: 8f41 ad3d 9832 9b3d 78c1 86be f882 efbe
00000360: 6fc4 f5be 9629 be3e ef30 973d d2d5 7fbc
00000370: de90 603d cee4 9e3e 3641 743d 48d8 153e
00000380: 7755 ae3e 6ed2 d13e e364 5fbd 2b0b a63e
00000390: fe7b 52be 28da 96bd 1c5a ef3d d0cd 48bd
000003a0: 18ec ea3d 28ca 063e e53f 9b3d 3f33 c0bd
000003b0: b055 073c 481a 903d 7eac 9a3e d39e 2bbd
000003c0: 8b6e b33d 25d2 90be 7c26 143c cd90 b03a
000003d0: e0b9 ef3d b56d 9e3e aee7 c3be 2c67 8a3e
000003e0: b015 9b3e 0779 f5bd 12c4 903e e6af 7dbd
000003f0: bec5 7d3e a7e7 3a3e f5d5 d63e c981 9a3e
0.2208941 0.2911877 -0.042907402 -0.059484743 -0.23116405 0.06268969 0.02858266 -0.07173327
-0.10453282 -0.13633503 -0.05436401 -0.087339796 -0.05919696 -0.06052223 0.17504247 -0.54444337
-0.15894857 0.47620958 0.1573152 -0.05237974 -0.057185043 -0.02200116 -0.31560066 0.079939105
0.0069514727 -0.09068522 -0.052390795 0.2848315 -0.022486007 0.034010857 0.25702938 0.10084063
-0.2010084 -0.17145966 0.11893146 -0.24448861 0.077550225 0.2241959 0.09713277 -0.028206704
0.01586345 -0.31107175 0.23615496 0.08798392 -0.1647675 0.29935387 0.14243461 0.19757344
0.3277385 0.020684926 -0.2379661 -0.0981407 -0.0873499 -0.27169967 -0.3110299 -0.009189473
-0.024692485 -0.14888486 -0.19675419 -0.110969126 -0.0036270295 -0.15625963 0.1150056 -0.42457047
0.016789462 -0.017206788 0.12372411 -0.20126952 -0.041931584 0.6631822 -0.14951754 -0.097114615
0.05910322 -0.3413407 0.09862962 -0.29370052 -0.17396583 0.0040852567 0.42471808 0.06267228
-0.081886016 -0.10499437 0.06982129 -0.1479855 -0.20065337 0.14381337 0.21813208 -0.058548134
-0.032696888 -0.09306716 -0.08633568 -0.026548615 -0.10782168 -0.04815055 0.02502587 -0.22162361
0.0144607285 0.2186542 -0.010109559 -0.033222884 -0.046392288 -0.27515912 -0.012830532 -0.19667552
0.12723841 -0.06569704 0.17312527 -0.2565009 0.18007949 -0.33448842 0.08815523 -0.00057340454
0.03917029 -0.06114519 0.030265423 0.32247365 -0.13981809 -0.3266411 -0.111551136 -0.04316724
0.072997674 0.23119979 0.08950493 0.18356618 -0.18631226 -0.04557746 0.08337514 -0.31945983
-0.18438824 -0.054039788 0.15995611 -0.118819445 0.23113507 -0.1372446 -0.13758865 -0.013979911
0.05693429 -0.35236636 -0.05736638 0.009621344 0.056660578 0.19640192 0.14800748 -0.08329814
0.14891504 -0.36794809 -0.15927204 0.14366697 0.08102979 0.024584968 0.11716014 -0.2643393
0.066790886 0.22874896 -0.12477571 -0.23490739 -0.0042028967 0.13059391 -0.2260187 0.27245206
-0.041040845 0.42275453 -0.16059361 0.34184724 -0.2726079 0.17791505 -0.20414999 0.07533367
0.08341269 -0.37492186 0.0046140943 -0.054260463 -0.25582442 0.16531405 -0.307236 0.3877273
0.27912834 0.33493617 -0.116648816 -0.25766957 0.046530906 -0.11140245 0.2334658 -0.093216
-0.0058818655 0.09355226 -0.19709414 0.005919116 0.43325838 0.15391599 -0.075375594 0.035976753
-0.2838762 -0.103882425 -0.04477941 0.2563614 -0.49047765 0.24788117 0.012812876 0.0042549768
-0.06449873 -0.06087778 -0.11184888 -0.23551446 -0.34653267 0.18147175 0.09029701 0.04072432
0.34426013 0.19185822 0.14864574 -0.020443665 0.0845977 0.07578009 -0.2631948 -0.4677961
-0.4800143 0.37141103 0.0738238 -0.015614944 0.054825656 0.3103394 0.059632502 0.14633286
0.3404958 0.40980858 -0.054539572 0.32430395 -0.20555112 -0.07365829 0.11687109 -0.049024403
0.114708126 0.13163054 0.07580546 -0.093847744 0.008260176 0.07036263 0.30209726 -0.041899513
0.08761319 -0.28285328 0.0090423785 0.0013470888 0.11705375 0.30943075 -0.38262695 0.2703184
0.30289984 -0.11985975 0.2827459 -0.061935328 0.24782464 0.18252431 0.4196011 0.30177143

bias f4 [10]
00000000: d531 c4bd 765b 913e 27ee 38bd 44c7 a5bd
00000010: 0b00 f93d 7174 883e 11b8 8dbd 0fc7 fb3d
00000020: 23f0 61be 034c acbd
-0.09579817 0.28390092 -0.045148995 -0.080946475 0.12158211 0.26651338 -0.069198735 0.12293827
-0.22064261 -0.084129356
