mlruns/2/6e48294b50834cd183e96a6cf055507c/artifacts/model/data/model.pth (torch, 362839 bytes, 6 tensors)

weight f4 [100, 784]
00000000: e354 08bd 49f9 013d a675 de3c 92ec 11bd
00000010: 780b db3b 7825 c5bb 6495 c0bb 35ed 85bc
00000020: 3405 613c 854a adbc 2082 563c acf4 933c
00000030: ee2f d13c b4a5 593c 45ca 10bd 6bca bdbc
00000040: d815 923c 40f1 f43b f53a e4bc e577 a8bc
00000050: 419e 093d ce23 c53c 1423 7fbc 8645 13bc
00000060: fc59 0bbd 8047 28ba d352 dcbc 4cad e1bc
00000070: f0f6 00bb 70b6 af3b 3ca2 6fbc f89a ad3c
00000080: 090b b2bc 09ba 043d c95d c73c 1054 f9bc
00000090: 3ffc 17bc 79a2 a83a 9d92 9a3b 0e5d fb3b
000000a0: 98f7 533c bbab cb3a 9752 90bc c3ec 873c
000000b0: 696e 0dbd 065f afbc d66e 15bc d8b1 8fbc
000000c0: 9614 4fbc b2da f0bc e2e5 fbbb d542 f93b
000000d0: ac99 bebc c03b f0ba 0070 d13c 809c 70bb
000000e0: 6019 823a 20eb 49bb 03d4 ec3b 43ff b93c
000000f0: 4080 0a3d daae b93c 19d7 093d bccf 5fbb
00000100: bd98 08bd 868c 99bc 6543 af3c c7b1 63bb
00000110: cfbd aebc 63ad f8bc 7f9c 13bd 896c 05bd
00000120: c857 1bbc 5e98 8e3c 662b 8c3c 24f4 13bd
00000130: c18b ae3c 15a5 eabc 29df 02bc 5318 70bc
00000140: 9c0f e3bb 811f e6bb fd44 03bd 059e fcbc
00000150: 3020 b7bb 8026 f239 57ea 84bc df1f 5c3c
00000160: 66ea 03bd 4409 10bb 047c fe3c 3ef6 80bc
00000170: 1121 f43c 81f0 1a3c e4a6 15bd cff1 9a3c
00000180: c593 cbbb a611 93bc 7579 df3c bc45 f6bc
00000190: 16d7 173b 8862 29bc 5658 af3c 784f c43b
000001a0: b1a3 683c f8ef 213c 80ed 2abc 82ac 09bc
000001b0: 1dfb f4bc b123 9e3c 9fe5 e73c 462f c83c
000001c0: a05f cebc 10e1 d03a f92a cebc 1b74 a0bc
000001d0: c403 a7bc 78b2 5b3c 76f3 a1bc 7f78 483a
000001e0: 133c 633b 492c ca3c e9d9 d1bc a527 b5bc
000001f0: 6062 8cbc a8c7 f13c e7a8 38bc dfca e23c
00000200: c4ea fc3b a00c 48bb fa6a ebbb f70f 5abc
00000210: f261 21ba d3f4 63bc 2a25 a3bb ae1e 813a
00000220: 4dc7 efbc 6f55 9bbc faf1 eb3c d6ae edbc
00000230: 5011 28bb 25b6 103d 34f9 533c 674f c23a
00000240: e68a eebc 42a7 b63c 161f a4bc 886f c0bb
00000250: d9eb 15bc f1af 8bbb 849e 31b9 3e83 013d
00000260: 25cc 053c 1c2d 183d 2535 c83c b1c8 b4bc
00000270: fd95 333c d24f 15bd 7d3e dbbc e6ff e1ba
00000280: 3ed3 ebba f632 5a3c 64d4 c1bc 27c4 15bc
00000290: c6a6 6b3c 9d0d 12bd 408d d03c a944 f2bc
000002a0: 4009 013a 33f5 c6bb 1171 99bc 01a5 ca3b
000002b0: 6544 073d 111e 93bb d1da 66bc 8a1b 12bc
000002c0: cfee 03bd 13e9 a03c 86dc 37bc f61f 8dbc
000002d0: 3c04 47bc 34d4 033d 5efc 013d 7b05 2d3d
000002e0: e93e e23c fb79 96bb 21ed 0bbc 3d64 813b
000002f0: 28cc a53c 4835 09bb 915a 0bbd abf0 09bd
00000300: 7055 36bd 0724 5a3b cca1 adbc 6ff9 02bd
00000310: aa46 003d bcb8 bdbc cb92 71bb 37c7 523c
00000320: ff3a e93b 1002 7cbc 2ca3 a2bc c6f6 0a3d
00000330: 2ea0 233c ff6d 1a3d 2e7e 15bb 713e 953c
00000340: 831a 753b ce34 5e3c 57b0 90bb 2eb5 113d
00000350: f9ca 0d3d 7e82 983c a58b 923b e456 7ebc
00000360: 7766 d53c 8fcc 10bd 164f 69bb 34b8 12bd
00000370: 3533 19bd 3216 66bb 2246 a8bc 1425 043c
00000380: 6126 e43b c81b d8bc 8c2a dd3b af78 9b3c
00000390: 32d5 be3c 7783 d43b dc13 99bc 39ea a43a
000003a0: ab24 923c 5cfe 01bc b3f2 8c3c 12a9 ca3c
000003b0: 0412 74bc 409a 143c 76d5 013d 8254 cc3c
000003c0: d74a b83c 8715 bd3c 1482 1fbc c759 533c
000003d0: f2ed dc3c e8bc c53c 7289 f23a 3829 d8bc
000003e0: c9c8 3bbc d873 00bd 82af 04bd 654b fdbc
000003f0: b403 123d 871e bc3c 3177 c1bc 8509 9a3c
-0.03328408 0.031731877 0.027155709 -0.035626 0.006684717 -0.0060164295 -0.0058771838 -0.01634846
0.013734151 -0.021153698 0.013092548 0.018061005 0.02553555 0.013284136 -0.03534915 -0.02316781
0.017832682 0.0074750483 -0.027860144 -0.020564983 0.03359819 0.024064925 -0.015572328 -0.008988744
-0.034021363 -0.0006419346 -0.026894962 -0.027548455 -0.0019678436 0.0053623244 -0.014626082 0.021192059
-0.021733778 0.03240398 0.024336712 -0.030435592 -0.009276449 0.0012865803 0.0047171847 0.007671005
0.012937449 0.001553885 -0.017617507 0.016592389 -0.034529123 -0.021407615 -0.009120664 -0.017540857
-0.012639185 -0.029401157 -0.0076873163 0.007606844 -0.023266636 -0.0018328354 0.025566101 -0.0036714375
0.0009925775 -0.0030810311 0.007227422 0.022704726 0.033813715 0.022666384 0.0336524 -0.003415092
-0.033348788 -0.018743765 0.02139444 -0.0034743415 -0.021330742 -0.030356115 -0.03603792 -0.03257421
-0.009481378 0.017406639 0.017110538 -0.036121503 0.021306874 -0.02864317 -0.007987776 -0.014654237
-0.006929351 -0.0070227985 -0.032048214 -0.030837068 -0.005588554 0.00046186522 -0.016225023 0.013435333
-0.03220596 -0.002197818 0.031064995 -0.015742417 0.029800924 0.009456755 -0.036536112 0.018914131
-0.006212684 -0.017952751 0.027279595 -0.030062549 0.0023168973 -0.010338433 0.021404427 0.0059909187
0.014199183 0.009883873 -0.010432601 -0.0084029455 -0.029904896 0.019304128 0.028307734 0.024436604
-0.025192082 0.0015936214 -0.025166975 -0.019586613 -0.020387538 0.0134092495 -0.019769412 0.000764735
0.0034673258 0.02467932 -0.025616603 -0.02211363 -0.017136753 0.029514149 -0.011270738 0.027684627
0.007718416 -0.0030525103 -0.0071843835 -0.01330947 -0.00061562576 -0.013913351 -0.0049787955 0.0009851062
-0.029269839 -0.018961636 0.028801907 -0.029014032 -0.0025645085 0.035329957 0.012937833 0.0014824689
-0.029118966 0.022296552 -0.020034354 -0.0058726706 -0.009150469 -0.004262917 -0.00016939087 0.031619303
0.008166348 0.037152395 0.024439404 -0.022068353 0.010961053 -0.036453076 -0.026763195 -0.0017242401
-0.0017992032 0.013317814 -0.023660846 -0.009141005 0.014383024 -0.035657514 0.025457978 -0.029573755
0.0004922338 -0.0060717105 -0.018730672 0.006184221 0.03302421 -0.004489668 -0.014090256 -0.008917699
-0.032210167 0.019642388 -0.0112220105 -0.017227154 -0.012147006 0.032184795 0.031734817 0.042241555
0.027617889 -0.004592178 -0.008540423 0.003948717 0.02023895 -0.00209363 -0.034021918 -0.033676784
-0.044515073 0.0033285634 -0.021195315 -0.03197616 0.03131739 -0.023159377 -0.0036861177 0.012864879
0.0071176286 -0.015381351 -0.019853197 0.033926748 0.00998692 0.037702557 -0.0022810805 0.018218251
0.0037399835 0.013562394 -0.0044155526 0.035573177 0.034617398 0.018616911 0.0044722133 -0.015523646
0.026049836 -0.035351332 -0.0035600117 -0.0358202 -0.03740235 -0.0035108444 -0.020541254 0.008065481
0.006962583 -0.026380435 0.0067494567 0.018978445 0.023295019 0.0064853984 -0.018686228 0.0012582011
0.01783975 -0.007934179 0.017205572 0.024738822 -0.014896873 0.009069979 0.031697713 0.02494264
0.022496624 0.023081554 -0.009735603 0.012899823 0.02696893 0.02413793 0.0018504097 -0.026386842
-0.011461445 -0.031360477 -0.03239394 -0.03091974 0.035648063 0.022963775 -0.023616405 0.018803367

bias f4 [100]
00000000: 7ccf 653c 9616 1ebb 98d3 48bc ba7f a53c
00000010: 1a91 103d 2550 d03c bdc2 0bbd c42f 013d
00000020: 47d2 823b fdd1 603d b13b b33c 3054 e6bc
00000030: 1c3c c63a a109 3d3d 6fc2 26bd a803 fb3d
00000040: 5c9a a73c 64c0 aa3b cf3e 95bc a483 133d
00000050: 07b0 c7bc 0475 9c3c 4abd 74bd 0b59 583d
00000060: fd3d 81bb 2bc1 2d3d 6531 9dbd fc52 213d
00000070: 4a22 a83b 0b60 9fbc 9ede 323d 625e 67bd
00000080: 78e1 ad3c 6eef b13c 62ca ea3d 90b6 8d3d
00000090: e6d5 443a 40db 7a3d 438b 583d c962 843d
000000a0: fe85 12bb 7839 953d def3 de3b 40d4 09bb
000000b0: 8287 a53d d0fb 123e ab50 2b3c 3a55 823c
000000c0: 1d06 793d 584c 9aba b5af fa3d e783 5a3d
000000d0: b18e c13c f587 583b 360e 113d bb10 03bc
000000e0: 396f e83c aa68 1e3c 4428 cfbc 4dc3 00bc
000000f0: dc05 debc 92a4 1abc 8850 253d 9868 23bd
00000100: 37d0 653c 095e 86bd abed 79bd 5c38 4bbc
00000110: 111e debc 109d 393c 115c 28bd 0cbf 293c
00000120: e9d7 f5bb fbcb fd3b 36c1 633c f11e 343c
00000130: da19 243d 2b95 0dbb fb57 113d c86c 8bbb
00000140: 79c9 10bb 9987 f9ba 168d 3d3d 0055 a63d
00000150: 158b 823d 227a 6bbc 9a2b ff3c b7e5 83bc
00000160: 0653 703c 02c7 97ba 630e 2e3d 77ca 873c
00000170: 7970 6d3d 3d96 7f3d a7f1 453d 3607 2a3d
00000180: a362 7fbb 7a56 a2bc 0769 cdbc 8294 07bd
0.014026519 -0.002412235 -0.012257479 0.020202506 0.03529463 0.02542884 -0.034121264 0.031539693
0.003992352 0.05488776 0.021879049 -0.028116316 0.0015124115 0.04615176 -0.04071277 0.12256557
0.020459346 0.005210923 -0.018218426 0.036014214 -0.024375929 0.019098766 -0.059750833 0.052819293
-0.003944157 0.042420547 -0.07675437 0.03938578 0.0051310407 -0.019454977 0.043669336 -0.056486495
0.021225676 0.021720614 0.11464383 0.06919587 0.000750868 0.06124425 0.052867185 0.06464154
-0.0022357698 0.07286352 0.0068039736 -0.0021031052 0.08082487 0.14353871 0.010456244 0.01590978
0.060796846 -0.001177202 0.12240545 0.053348448 0.02362761 0.003304002 0.035413943 -0.007999594
0.028373348 0.009668509 -0.025287755 -0.007859063 -0.027102403 -0.009438651 0.040360004 -0.03989467
0.014026693 -0.065609045 -0.061017673 -0.012403574 -0.027113946 0.0113289505 -0.041103426 0.0103604905
-0.007502545 0.0077452636 0.013901046 0.010993705 0.040063716 -0.0021603804 0.035484295 -0.004254911
-0.0022092743 -0.0019037604 0.04627713 0.08121681 0.06374184 -0.01437238 0.03114872 -0.016100748
0.014668232 -0.0011579695 0.04249419 0.016576035 0.05796859 0.062399138 0.04832616 0.041510783
-0.0038968704 -0.019816626 -0.025074495 -0.033100612

weight f4 [100, 100]
00000000: e7a7 58bc 36c2 a6bd 7c1c b6bd 44b3 90bd
00000010: 3ba7 aebd 1020 b83c ceb1 92bc 58a5 0e3d
00000020: 61a0 173d 1c6a ef3a e29f 3abd 6b70 58bd
00000030: 739e b33d 118f c7bd 3c0d 2ebd c0e9 a93d
00000040: 9850 9b3c 7499 af3d 55a2 babd 9f68 3ebd
00000050: d788 e93c 7f15 c8bd 3133 cc3d 4844 283c
00000060: c4d7 023b 3b52 e5bc a7ed 683d 4747 f73b
00000070: df0b 9cbd a6aa 403d 879d bc3d 2130 b33d
00000080: 56b9 323d 1f76 b6bd b6df 4a3d a81a f43c
00000090: d8d1 c5bd bc13 12bd 18b5 c0bd c2ed 39bd
000000a0: 63e1 0abd 2dca 86bd e815 143d 6f63 0bbd
000000b0: aecd a8bd 933d a6bd e377 14bd 0f02 043d
000000c0: ea69 8fbc cdd0 cc3b 79de 4a3d 14fe b13d
000000d0: 2833 67bd 8136 cb3d 4d60 bb3d 647c 8b3d
000000e0: 134c 833d 1035 443d 079f babd 42f1 843d
000000f0: 81e0 233a a4cf c53c d8b2 58bd f5d9 a4bd
00000100: 8aec 99bd a1f6 c7bc 75d8 a83d 9d5c 58bd
00000110: 347c 8abc 03af fe3b a0a2 88bd 777c 81bd
00000120: 2938 dd3c 4384 9b3d b62b c5bd 839f c5bc
00000130: 9f70 ccbc 284b 81bc 9325 b13d cc40 383c
00000140: b37a 1dbd c778 19bc a232 30bc ba7d c4bd
00000150: 1149 2ebc b8b8 a53c 3fca 253c 7a08 883c
00000160: a4c3 9cbd 02e4 9cbc d458 6f3b e40a 47bd
00000170: 8289 21bd 2762 3d3d 5708 893d a144 88bd
00000180: ce39 26bc 9e21 45bd 8dc5 cbbd 0bdf 94bd
00000190: 3284 4e3d 1d23 54bd d4cd 683d e782 28bd
000001a0: 3af1 53bd 09e5 773a 325f 723d 96e2 9e3d
000001b0: d810 c23d 63af bcbc 3a7c 6a3d 7765 b2bd
000001c0: e41a 20bb 10e3 2a3c 3268 233c 558b 1d3d
000001d0: c220 633d 5dab 8d3d 69c1 14bb e218 5fbd
000001e0: 7aa8 5fbd 250d 50bc b567 803d 50ee 283d
000001f0: 22b5 9abd dfef 6e3d fda3 5c3d d5ab a7bd
00000200: 3501 4b3c ce97 80bd 4da8 a8bd ee82 923c
00000210: 9daf febc 55b8 c33d 4f45 3abd c287 fa3c
00000220: a8c0 b6bc 85cb 70bd f517 a4bc 5c3c 193d
00000230: f155 073d f650 19bc 2b38 bfbd 9ea6 88bc
00000240: a39a 3c3d 2b33 36bd 4d66 2d3d 6a7a bc3d
00000250: 55af 93bd ac9a a73d 177d 84bd e5ed e33c
00000260: 6d18 86bb 0d16 a63d de6c c63c 52f5 a7bc
00000270: ceaa 90bb ad7e 9f3c f4ee 13bd e164 7c3c
00000280: 1bae 6bbd 982a 80bc dc7c c13a 9dda 103d
00000290: b5a1 74bd cccd aa3d 347c 0a3d 8a88 fdbc
000002a0: a0dc 72bd fde1 e4bc fd10 f9bc 6797 2b3d
000002b0: cda1 453b 333c a33c aaf4 8fbd 8418 923c
000002c0: fc8e 9a3d 3416 ba3d a4f3 5cbd 83de 8f3c
000002d0: 46ba b23c 286e a43d be16 afbc e94d c83d
000002e0: 3c5c 16bc 1c2c bdbd c0e7 c23d 158c 0bbc
000002f0: 9e8c 3abd 7cde 8ebd 0bb5 c33d ec24 02bd
00000300: dd66 5cbd d5c8 c53d 27dd f5bb 74fb 183d
00000310: 9d2a 8c3b a232 8b3d 8469 88bd 5423 723d
00000320: 4f25 ff3d f41f 6bbd a490 153e fa10 85bb
00000330: 9d94 bf3d 2722 2f3e 3bd5 a1bd 205c f1bd
00000340: 2f76 ebbd 260f 353e c560 bcbd 1bf7 dcbc
00000350: 34cd d63d 554b afbc c5e7 213e a496 99bd
00000360: 5261 c83d 0e2a 5fbd 2818 943d ce8b 92bd
00000370: 02cc 0fbe 5290 cdbc 30cb a53b 8337 943d
00000380: 00b2 9a3d a425 5b3d 57b2 fc3d 6607 0dbe
00000390: 4fdc 9fbc ceff 013e 9bbc 5b3d c889 e2bc
000003a0: 2689 523d f074 efbc d844 083d 9440 4fbd
000003b0: 3845 f9bc 05ee 4f3e a5c3 39bc 25a3 e83d
000003c0: b577 5b3c 7a0c 113e 1d00 223c 82f1 f2bc
000003d0: ef1d 173e b493 ce3d 17cd 9bbd cc86 9f3d
000003e0: 8a24 bd3d 0f52 273e e25e 23bc ad05 87bd
000003f0: c280 d7bc 2035 9dbd ff17 c2bd 96fb c23d
-0.013223625 -0.081425115 -0.08892152 -0.07065442 -0.085279904 0.022476226 -0.01790705 0.034825653
0.037018184 0.0018265876 -0.045562632 -0.052841585 0.08770456 -0.097440846 -0.04249309 0.082965374
0.018959329 0.08574191 -0.09112994 -0.046486493 0.028507633 -0.09769725 0.099707015 0.010270186
0.0019965032 -0.027993312 0.056867268 0.0075463387 -0.07619452 0.047037743 0.092097335 0.08749414
0.04363378 -0.089092486 0.049529754 0.029797867 -0.09659165 -0.03566335 -0.09409541 -0.04539276
-0.03390635 -0.06581531 0.036153704 -0.034030374 -0.08242355 -0.08117213 -0.036247145 0.032228526
-0.017506558 0.006250477 0.049528573 0.0869104 -0.05644527 0.09922505 0.09149227 0.06810835
0.064109944 0.047902167 -0.09112363 0.06491329 0.000625141 0.024146862 -0.052904934 -0.080493845
-0.07515819 -0.024409594 0.08244411 -0.052822698 -0.016904928 0.007772328 -0.06671643 -0.06322568
0.027004318 0.07593586 -0.09627478 -0.024123913 -0.024956046 -0.015782908 0.08649745 0.0112459175
-0.038447093 -0.0093671745 -0.010754259 -0.09594293 -0.010637538 0.020229682 0.01011902 0.016605604
-0.07654503 -0.019151691 0.0036521452 -0.04859437 -0.03943778 0.046236183 0.06691044 -0.06653715
-0.010145618 -0.048127763 -0.09949789 -0.072691046 0.05041904 -0.0517913 0.056836918 -0.041140463
-0.051743723 0.0009456431 0.059172817 0.077580616 0.09475869 -0.02303285 0.057247378 -0.08710759
-0.002443009 0.0104301125 0.009973573 0.038462956 0.055451162 0.069174506 -0.002269829 -0.05446709
-0.05460403 -0.012698446 0.062697805 0.041242898 -0.075540796 0.058334228 0.05386733 -0.08187071
0.0123904245 -0.062789544 -0.08235226 0.017884698 -0.031089598 0.09556643 -0.045476254 0.030582312
-0.022308663 -0.05878784 -0.020030955 0.03741108 0.033040944 -0.0093576815 -0.09336885 -0.016681012
0.04604591 -0.04448239 0.04233389 0.09203036 -0.07211176 0.08183798 -0.064691715 0.027823398
-0.0040922672 0.081096746 0.024221834 -0.02050272 -0.0044148928 0.019469583 -0.036116555 0.015404911
-0.057539087 -0.01564531 0.0014761942 0.035364736 -0.05972453 0.08340034 0.033809856 -0.030948896
-0.059292436 -0.02793979 -0.030403608 0.041892435 0.0030156255 0.019926166 -0.07029088 0.017833956
0.07546803 0.09086266 -0.05394329 0.017562157 0.021817338 0.08028823 -0.021373149 0.09780485
-0.009177264 -0.09236929 0.09516859 -0.008517285 -0.04554426 -0.06976029 0.095560156 -0.031773493
-0.053809036 0.09657446 -0.00750317 0.03734918 0.004277541 0.06796767 -0.066607505 0.059115723
0.12458288 -0.05740352 0.14605957 -0.0040608617 0.093545176 0.17102872 -0.079019986 -0.117851496
-0.11497151 0.1768156 -0.09198145 -0.026973298 0.10488358 -0.021398226 0.1581107 -0.074994355
0.097841874 -0.054483466 0.0723117 -0.07155572 -0.14042667 -0.025093231 0.005059622 0.072371505
0.07553482 0.053502694 0.12338703 -0.13772354 -0.019514231 0.12695238 0.053646665 -0.02765359
0.051400326 -0.029230565 0.03326878 -0.050598696 -0.030428514 0.20305641 -0.011338149 0.11359242
0.01339524 0.14164916 0.009887722 -0.029656176 0.14757513 0.10086766 -0.07607477 0.07789382
0.09235485 0.16339897 -0.009971352 -0.065928794 -0.026306514 -0.076761484 -0.09477233 0.095206425

bias f4 [100]
00000000: 6a3f 843b 1af8 a6bd bded e5bc b4d1 26bd
00000010: fc35 2c3d 05a8 2ebd 86d7 803d 46f6 f3bc
00000020: 4b9d 76bd 83cb e7bd 2695 013d 219f 5abd
00000030: 1ad6 3f39 67c8 3bbd eb7e c6bc af64 8939
00000040: ccbf 9c3d 77cf c7bd b923 b4bc 8fc1 863d
00000050: eb6e 023c 6007 9abd 7c71 b03d 0c9b a73b
00000060: 2d3e 143e d4f4 243c 077c 9f3d 839a de3c
00000070: f09e 0f3d e6d0 973d ed75 0e3c 13fe 79bd
00000080: 3e38 953d 0e8d 28bd 5642 c1bc 972f c73d
00000090: df32 5c3e 3d11 1b3d 58b7 b63d d215 ef3d
000000a0: 4f19 f03d b52e 7e3d d7d6 2f3b 741e 7e3c
000000b0: dfd4 433e 6a2b 27bd a0e5 c93d 6111 49bd
000000c0: 5cfc 5ebd 9369 103d f93c 843d acd1 bfbd
000000d0: d559 173e a450 583d 9144 c83d 9faa cdbd
000000e0: 30bd f23c aa31 f23d 7cf3 a03c 9037 333e
000000f0: 2f80 6f3c 9dd7 b0bd c330 d23c 55ee 833d
00000100: c444 d23d 1375 e13d 21fa 6cbd a81c 193e
00000110: 28b0 6ebd 24e9 66bd 2703 7e3d 7d0d 0e3e
00000120: dcf3 d33d 51d5 0fbd 35e1 70bd 3269 313e
00000130: 4b4c 233d d0ab 4b3e de45 8c3d cb2e 063d
00000140: cbe8 6dbc b7f6 7a3d 52f0 d9bc 13ce b3bd
00000150: 26df 473c 8e07 98bd 0f44 65bc 4cf3 a4bc
00000160: b53f f43c bac9 06be ae10 48bb db43 d63d
00000170: e059 b03d 0da0 ac3d 9e04 80bd 0d58 e13d
00000180: d4ee 7fbc 290c 193d f131 76bc 8b77 8c3d
0.00403588 -0.0815279 -0.028067464 -0.040727332 0.04204367 -0.042640705 0.06291108 -0.029780518
-0.0602086 -0.11318114 0.03163638 -0.053374413 0.00018294938 -0.045845415 -0.024230441 0.0002620569
0.0765377 -0.09756368 -0.02198969 0.06579887 0.007961015 -0.07520938 0.086153954 0.0051149186
0.14476843 0.010068137 0.07787328 0.027173286 0.035063684 0.07412891 0.008695108 -0.06103332
0.07286118 -0.041150145 -0.023591202 0.09725874 0.21503781 0.037858237 0.08921689 0.11674084
0.11723577 0.062056262 0.0026830935 0.01551019 0.19124173 -0.040812887 0.098582506 -0.04908884
-0.054439887 0.035256933 0.06456942 -0.093661636 0.14780362 0.05281128 0.09778703 -0.10042309
0.029631227 0.11825879 0.019647352 0.17501664 0.014617964 -0.08634875 0.025658017 0.064419426
0.10267022 0.11008658 -0.05785573 0.14952338 -0.058273464 -0.056374684 0.062014725 0.13872333
0.10349247 -0.035115544 -0.058808524 0.17325285 0.03986768 0.1988976 0.068492636 0.03275947
-0.014520834 0.06127044 -0.026603851 -0.0877954 0.012199199 -0.07423316 -0.013993277 -0.020135544
0.029815534 -0.1316289 -0.003052752 0.10462161 0.08610892 0.08428965 -0.06250881 0.110031225
-0.015620906 0.037365112 -0.015026555 0.068587385

weight f4 [10, 100]
00000000: 5ab4 50bc 520b c63d b436 88be dfc8 10bd
00000010: 5e86 14bc 35ca 7ebe b0a9 a5bd adb7 07be
00000020: 11ec 253d c80e 863d 7562 72bd 2d30 393d
00000030: 736b 213e c031 163d 0b91 27be d0f4 923c
00000040: 5a98 9e3e d2c3 773e 5ccc d13d a891 fd3d
00000050: 2b10 2f3d aefa c53c 304c 10be e06e ef3d
00000060: 5ea5 af3c facb 163d 749f 013e 2064 31bd
00000070: 7797 abbd 0e2c 1d3e 7c61 df3c 6024 30be
00000080: 5e91 1a3e 438b 71bd 3e4b 5b3c 32a0 1e3e
00000090: bc49 47be ca87 edbc 9178 b03d ecf8 42be
000000a0: c6ec 85be 08e1 853e 6676 0c3d b134 1fbe
000000b0: 7060 7c3e d374 40bd 7d45 7c3e 96a1 0e3d
000000c0: aafc 69bd b804 b23d f5bc 6c3e 167f 36bb
000000d0: eb9a 02be 2d83 46be 4d79 0dbe 5fdf 3abd
000000e0: 7c75 d33b 1a32 acbe e728 923e 294c 81be
000000f0: c83a 203d ce46 563d da24 803e ba26 92bd
00000100: bc07 1d3d 9af0 4ebe 9f2f c63d 1afc 4fbe
00000110: 54ce 1abe d2a9 53be b296 aabd cffc 69be
00000120: 7d82 91bd a84b a63d af32 d3bd 13ba cd3d
00000130: f431 35be ea27 56bd bb09 7c3d 31d5 923e
00000140: b52a 8cbd 1ec6 8c3e 9a01 753d cd43 80bd
00000150: 8a43 76bd 2858 61bd f94d d8bc a98f d2bd
00000160: c051 99bd cdaf 7ebd 1bc7 af3d 6806 01be
00000170: c79a aebd 492f 883e f9a8 8f39 0efa 8b3a
00000180: d06c 17bc c40b 82bd c951 aebd bed5 0cbe
00000190: 60fa 64bc 3826 603d a00d 043b c927 843e
000001a0: 88a2 27be b9cb c1bd b541 9bbe d0f8 893e
000001b0: d5ca a4bd 1524 06bd 7970 aa3c a9ae 293d
000001c0: 012c 52be cbdb 8f3c fa18 c13d d5cd 1f3b
000001d0: 5045 e3bd f8b3 49be a5c2 77be 3bc9 5abc
000001e0: b800 023d 349f 33bd 45b8 2e3e 5d63 3abb
000001f0: 6d50 f7bd 793f 473c fae2 b9bd 13eb f6bc
00000200: 546f cdbd 888e 85be 7e30 e5bd 0b6d 5ebe
00000210: 391a 84bd da22 c83d 2ee3 cbbd caca e4bd
00000220: 984a 503e a225 80be 9f40 bfbd 127a 29be
00000230: 92ab 4d3e 6d63 31be def3 d53d ed0c 2fbe
00000240: 1835 743d 39d8 0ebe 175d 61be 6819 1abe
00000250: 68e6 043c f788 493b 71d7 2ebe a94c a9bc
00000260: e3bc e3bd ce5c 393e 04f2 4abe 911c 893c
00000270: 314d 593d b5d0 9c3e bf6f 26be 2cdf 093f
00000280: 8018 2cbe 8566 ed3a b077 8cbc 624c cd3e
00000290: 6d54 b2bd 80b3 c73d 1dae 60bc 40c8 793d
000002a0: aaba 9c3d beff 433a 3f93 f43c 567f 2c3e
000002b0: b7f5 6a3d f85a e9bc 55c6 9b3d 3e0c 283e
000002c0: 3df0 90bd abda 58be c780 dbbc f18e 7ebe
000002d0: b006 96bd f622 99be 8aee 5a3e 6483 0dbd
000002e0: 7883 8b3c 556b 3b3d aeeb b5bd f3c6 2ebd
000002f0: 95ae 723e 40f4 4c3d d9ec 97bd 0a00 013d
00000300: 08b3 c7bb 4272 7f3d 3b93 c9bd a5f8 94bd
00000310: 7b21 313e 0322 863e 9885 39bd 153e febb
00000320: e3a4 063a 53a6 39bd 0544 88be d21c eebd
00000330: 94de 15be 4d78 3a3c d914 a03d c3fc c63d
00000340: a0d5 7e3d c894 4f3d 20b2 bcbd 15a1 78bd
00000350: 20c8 f13d 4126 4fbd 73ee 56bd 2519 693e
00000360: 744c 743e 4325 85bd 6f06 b43d 59a6 eebc
00000370: 3067 093e 3826 e63c 38bc 3d3e 8c9b b63e
00000380: 3d8d 6abd 14d7 e03d 0047 7d3c 1b18 c33c
00000390: 9edf 9cbe c651 bcbd 9ce8 ef3d d921 1f3e
000003a0: 16e8 343e 3e27 ecbc bdb2 0a3d 70b8 fdbd
000003b0: 8119 43bd 0be9 3fbd c186 dcbc 19c7 25be
000003c0: 0f98 713e 3df1 20be fffe 2ebc 02fc bfbd
000003d0: 6294 203e 7f0b 843d 3278 cd3c 81c5 a63e
000003e0: 61d9 57bc 0b23 623e a5d0 97bd 072d 8f3d
000003f0: a19c ef3d 9c20 2ebe a574 a03d ea40 b33d
-0.012738312 0.09670128 -0.26604235 -0.035347816 -0.009065239 -0.24881823 -0.08089006 -0.1325366
0.040508334 0.06545788 -0.059175927 0.04521196 0.15763645 0.03666854 -0.16363923 0.017939001
0.3097561 0.24195793 0.102440566 0.12381297 0.04274003 0.024167385 -0.14091563 0.116910696
0.021441158 0.03681562 0.12658483 -0.043308377 -0.08378499 0.15348837 0.027268164 -0.17201376
0.15094516 -0.0589707 0.013384638 0.15490797 -0.19461721 -0.028995413 0.08616746 -0.19040269
-0.26157206 0.26148248 0.0342926 -0.15547444 0.24646163 -0.046986412 0.24635883 0.03482207
-0.057125725 0.08692306 0.23118956 -0.0027846745 -0.12754409 -0.19385977 -0.13815804 -0.04562318
0.006453214 -0.33631974 0.2854683 -0.25253418 0.03911856 0.05231362 0.25028116 -0.07136293
0.038337454 -0.2020897 0.09677052 -0.20311013 -0.1511777 -0.2067025 -0.08329524 -0.22850345
-0.07104967 0.08119899 -0.103124015 0.100452565 -0.17694837 -0.05228416 0.061532717 0.28678277
-0.06844083 0.274949 0.05981598 -0.06262932 -0.060123004 -0.055015713 -0.026404368 -0.10281307
-0.07486296 -0.062179375 0.08582898 -0.126001 -0.08525615 0.26598576 0.0002740098 0.001067938
-0.0092422515 -0.063499 -0.08511693 -0.13753411 -0.01397571 0.05472395 0.0020149723 0.25811604
-0.16370595 -0.09462685 -0.30323568 0.2694764 -0.080465 -0.032749254 0.020805584 0.041426335
-0.20524599 0.01756086 0.09428592 0.002438416 -0.11097205 -0.19697559 -0.24195345 -0.013353641
0.031738967 -0.043853 0.17062481 -0.0028440573 -0.12075887 0.012161129 -0.090764955 -0.030141389
-0.10031 -0.26085305 -0.1119089 -0.21721284 -0.06450314 0.097722724 -0.099554405 -0.111714914
0.20340955 -0.25028712 -0.09338497 -0.16550472 0.2008498 -0.17323084 0.104469046 -0.17094775
0.059620947 -0.1394967 -0.22008167 -0.15048754 0.008111574 0.0030751803 -0.17074372 -0.020666437
-0.11120012 0.18101808 -0.19818884 0.016737254 0.05305213 0.3062798 -0.16253565 0.5385616
-0.16806221 0.0018112218 -0.017146915 0.40097338 -0.08707509 0.09751034 -0.013713387 0.06098199
0.07652791 0.0007476768 0.029855369 0.1684545 0.05736324 -0.02848576 0.07606188 0.1641092
-0.07077072 -0.21177165 -0.026794804 -0.24859215 -0.07325494 -0.29909486 0.21380058 -0.034549132
0.017030463 0.045756657 -0.08882843 -0.0426702 0.2369941 0.050037622 -0.07418222 0.031494178
-0.0060943402 0.062364824 -0.09842535 -0.07273988 0.17297928 0.26197824 -0.04529342 -0.0077588656
0.00051362644 -0.045324635 -0.26614395 -0.11626591 -0.14635688 0.011381221 0.078164764 0.09716179
0.062215447 0.050679 -0.09213662 -0.060700495 0.11805749 -0.05057359 -0.052473497 0.22763498
0.2385729 -0.06501248 0.087902896 -0.029132055 0.13418269 0.028094396 0.18528831 0.35665548
-0.0572636 0.10978523 0.015458822 0.023815205 -0.30639356 -0.091952845 0.117142886 0.15540256
0.17666659 -0.028827306 0.033861864 -0.12388694 -0.047631744 -0.046853106 -0.026919724 -0.16189231
0.23593162 -0.15717025 -0.010680913 -0.093742386 0.15681604 0.06447505 0.025081728 0.3257256
-0.013174386 0.2208368 -0.07412843 0.0699101 0.116997965 -0.17004627 0.07834748 0.08752616

bias f4 [10]
00000000: 16aa 26be 2b78 5a3e 76e4 a6bb 416d c4bd
00000010: 0946 a03c dd1a 293e 82d3 e3bd ee38 e63d
00000020: 20fb 49be 9a39 08bd
-0.1627582 0.21334903 -0.0050931526 -0.09591151 0.019564645 0.16514154 -0.11124326 0.11241327
-0.19724703 -0.033258058
