artifacts/1/5f866c27fbde4514935af6254a67b02a/artifacts/model/data/model.pth (torch, 362823 bytes, 6 tensors)

weight f4 [100, 784]
0	0x3b97ef37	0.004636671
1	0x3d09a406	0.03360369
2	0xbcffaa6c	-0.031209193
3	0xbcd9310e	-0.026512649
4	0x3cfe7d08	0.031065479
5	0x3bc78ba5	0.006089645
6	0xbc993220	-0.01870066
7	0xbc7c6a93	-0.015406269
8	0x3d08c456	0.033390366
9	0x3d08d058	0.033401817
10	0xbc25e2d7	-0.010124884
11	0x3c4bdcfc	0.0124428235
12	0x3bbbe893	0.005734512
13	0x3c42857d	0.011872646
14	0x3c6b0472	0.014344322
15	0xbcd72697	-0.026263518
16	0xbc296653	-0.010339337
17	0x3ce50518	0.02795653
18	0x3ce4ce25	0.027930329
19	0xbcf12a55	-0.02943913
20	0x3c54f125	0.012996946
21	0x3ce3b8fa	0.027798165
22	0x3c9f2dba	0.019430984
23	0x3cb8250e	0.022478607
24	0xbcdc33e3	-0.02688021
25	0x3c24edee	0.0100664925
26	0xbd09a7f6	-0.033607446
27	0x3c07eb93	0.008295911
28	0xbbef680a	-0.0073061036
29	0xbcd55ec1	-0.026046159
30	0x3cb4543e	0.022012826
31	0x3cd2c60e	0.025729205
32	0xbc93f053	-0.018058931
33	0x3c948497	0.01812963
34	0xbcb38b21	-0.021916928
35	0x3d042b89	0.03226808
36	0x3cccea55	0.025014082
37	0x3c69c269	0.014267542
38	0xbd110d17	-0.035412874
39	0xbd101821	-0.03517926
40	0x3cbf0a92	0.02332047
41	0x3ca2ab03	0.019856935
42	0x3c5453ed	0.012959463
43	0x3d083f21	0.03326333
44	0xbacc1a46	-0.0015571795
45	0xbcdfc03d	-0.027313346
46	0xbcf6d0e5	-0.030128906
47	0x3cbab9f7	0.022793753
48	0x3ce55a1a	0.027997065
49	0x3ca89f57	0.020583792
50	0x3d07a9eb	0.03312103
51	0x3d0375ba	0.032094695
52	0xbace4e25	-0.0015739842
53	0xbcab1cbc	-0.020887725
54	0xba353925	-0.0006913117
55	0x3c2f3c2a	0.010695497
56	0x3ca6568a	0.020304937
57	0xbcd0251c	-0.02540832
58	0xbc177f22	-0.009246619
59	0x3be5ff0f	0.0070189307
60	0xbc7b86d8	-0.0153519735
61	0xbd11a007	-0.035553005
62	0xba44c334	-0.0007505894
63	0xbc7b4daa	-0.015338341
64	0x3c0080d7	0.007843218
65	0x3ba8e3b6	0.0051540984
66	0xba7753d7	-0.00094347954
67	0xbc75e397	-0.015007875
68	0x3cc712ca	0.024300952
69	0xbcdf31b8	-0.027245387
70	0xbc9cefa0	-0.01915723
71	0xbcfa731f	-0.030572472
72	0x3c5e240b	0.013558398
73	0x3d0da24f	0.034578618
74	0x3b3e7201	0.002905965
75	0x3c0e7efa	0.008697266
76	0x3cb794e1	0.022409858
77	0xba8d437c	-0.0010777558
78	0x3c0c2cf0	0.008555636
79	0x3cbd1b88	0.023084417
80	0xba5efb43	-0.0008506069
81	0x3c8f37bb	0.017482629
82	0x3c826f33	0.015922165
83	0xba6e5c4a	-0.00090927316
84	0xbc83239e	-0.016008195
85	0x3c895b7c	0.016767256
86	0x3cc6d1d3	0.024269974
87	0x3ccb329e	0.02480441
88	0xbd102824	-0.03519453
89	0xbb80db01	-0.0039323573
90	0x3a137500	0.00056250393
91	0xbca6ab2c	-0.020345293
92	0xbcdea65a	-0.027178932
93	0xbd03a77a	-0.03214214
94	0xbccf364d	-0.025294447
95	0xbc77bb3d	-0.015120325
96	0x3d17844b	0.0369914
97	0x3d6250f8	0.055253
98	0x3c3e9244	0.011631552
99	0x3d0c24e5	0.034214873
100	0x3cc4a05c	0.024002247
101	0x3b462ace	0.0030237916
102	0xbc9cb04f	-0.01912704
103	0xbc808353	-0.01568762
104	0xbce7ce31	-0.028296562
105	0xbc6fa4c2	-0.014626684
106	0x3cafb82e	0.021450128
107	0x3ca509d6	0.020146292
108	0xbca7ebc0	-0.020498157
109	0x3c040473	0.008057701
110	0x3b586b43	0.0033022917
111	0x3ba9369c	0.0051639806
112	0xbca8cdd7	-0.020605965
113	0x3cdcf74e	0.026973393
114	0xbb596ed5	-0.0033177633
115	0x3cccaa07	0.02498342
116	0xbc714952	-0.014726954
117	0x3a499f36	0.0007691266
118	0x3c55b440	0.013043463
119	0x3bffd755	0.007807652
120	0x3d1feba7	0.039043095
121	0x3d0041c8	0.031312734
122	0x3d18c3b7	0.037296023
123	0xbb02d38b	-0.0019962515
124	0x3d22ef57	0.039779034
125	0x3d843f2a	0.0645736
126	0x3d426e45	0.047468442
127	0x3c17f029	0.009273567
128	0x3d35f350	0.044421494
129	0x3d2c2729	0.042029534
130	0x3c3d7a33	0.011564779
131	0x3d01add6	0.031659923
132	0x3aba0be6	0.001419422
133	0xbd240bcc	-0.040050313
134	0x3c0e0926	0.008669173
135	0xbd37667e	-0.04477548
136	0x3cbfa7bb	0.02339541
137	0xbca41940	-0.020031571
138	0x3cb04b2d	0.021520222
139	0x3cdfb986	0.027310144
140	0xbcfa20c5	-0.030533204
141	0xbb64e5b8	-0.0034926962
142	0x3b4a323c	0.0030852696
143	0xbca0fb80	-0.019651175
144	0x3c6146dd	0.013749805
145	0x3d30b4a3	0.04314102
146	0x3ca0071a	0.019534636
147	0x3cec99e0	0.028881967
148	0xbbf0e30c	-0.007351285
149	0x3d6bd198	0.05757293
150	0x3d1563d2	0.03647215
151	0x3d4a9a4f	0.049463566
152	0x3d3bf561	0.04588831
153	0x3d545352	0.051837273
154	0x3cbad4c7	0.022806538
155	0x3d68229a	0.056673624
156	0x3dade3ba	0.08490701
157	0x3c914917	0.017735047
158	0x3cd9528c	0.02652862
159	0x3bb0ea50	0.005399026
160	0xbb3a5ec1	-0.0028437825
161	0xbd185e67	-0.037199404
162	0xbc980ae6	-0.018559884
163	0xbb8c4129	-0.0042802286
164	0x3b93e817	0.0045137512
165	0xbb6b0ed7	-0.0035867
166	0xbc351132	-0.011051463
167	0x3cd59559	0.026072191
168	0x3cfc9b1e	0.030835684
169	0xbc7ff15d	-0.01562151
170	0xbc82eb2f	-0.015981285
171	0xbcaff8b3	-0.021480894
172	0xbc19f55c	-0.009396877
173	0x3d3bfc0c	0.045894668
174	0x3d0a2e99	0.033735845
175	0x3bf80e90	0.0075700954
176	0x3cda4c07	0.02664758
177	0x3d24afb4	0.040206626
178	0x3d463bee	0.048396997
179	0xbbe07789	-0.006850187
180	0x3c84ff5b	0.016235044
181	0x3d5493ef	0.051898893
182	0x3cbcdfec	0.023055993
183	0x3c84cec4	0.016211875
184	0x3bcb52cf	0.00620494
185	0x3d23591e	0.03987991
186	0x3c03bb3a	0.008040244
187	0xbccd8d0f	-0.025091676
188	0x3c92c7ca	0.017917532
189	0xbd0cf283	-0.034410965
190	0xbcfdac5b	-0.030965975
191	0xbce4e01e	-0.027938899
192	0xbc2f1fdd	-0.010688749
193	0x3cb5d135	0.022194484
194	0x3c1da7be	0.009622512
195	0xbc5db160	-0.013531059
196	0xb8dd0633	-0.00010539256
197	0x3c9358e3	0.01798672
198	0xbb8ca947	-0.0042926404
199	0xbc87911b	-0.016548684
200	0x3d41f8f9	0.04735658
201	0x3d14d234	0.036333278
202	0x3c24d5aa	0.010060707
203	0xbcbc49e7	-0.022984458
204	0xbca53be9	-0.020170169
205	0xbc654c81	-0.013995291
206	0xbc77f40b	-0.015133868
207	0xbc39f6f1	-0.011350379
208	0x3c25ec49	0.010127136
209	0xbb773634	-0.0037721517
210	0xbcb8e938	-0.022572145
211	0x3b84fbd7	0.004058342
212	0xbc9ea5fc	-0.019366257
213	0x3d2bdabb	0.041956645
214	0x3c9fa47f	0.019487618
215	0x3c6bafd7	0.014385185
216	0x3c8fb531	0.017542453
217	0xbb57294f	-0.0032831018
218	0xbcec7cb8	-0.028868064
219	0xbbdd7a6d	-0.006758979
220	0x3c3b656b	0.011437754
221	0xbd28db32	-0.041224666
222	0xbd0a59fd	-0.033777226
223	0xbd089e1c	-0.03335391
224	0x3a4a0d4a	0.00077076687
225	0xbcf1dedf	-0.029525219
226	0x3c9319c6	0.017956626
227	0x3cfabb7d	0.03060698
228	0x3d0ed771	0.03487343
229	0xbc6811a2	-0.01416436
230	0x3d0bf77d	0.03417157
231	0xbce55d41	-0.027998568
232	0xbc322159	-0.0108722085
233	0x38e7101a	0.000110179375
234	0xbd457cce	-0.048214726
235	0xbd73cbef	-0.059520658
236	0xbcb9c779	-0.022678124
237	0xbce7517b	-0.028237095
238	0xbcd734c9	-0.026270287
239	0x3cdd188c	0.026989244
240	0xbb970656	-0.0046089096
241	0x3d2d5156	0.042313896
242	0x3caaa6c0	0.020831466
243	0xbbceba68	-0.0063088425
244	0xbb4014e1	-0.002930932
245	0x3c4bb6c4	0.012433711
246	0x3cac4815	0.021030465
247	0xbd665ad5	-0.056238968
248	0xbceb46d5	-0.028720299
249	0xb9cfaebf	-0.00039612313
250	0x3c7f496c	0.01558147
251	0xbba62a9b	-0.005070997
252	0xbcca16a3	-0.024668997
253	0x3c266f99	0.010158443
254	0x3c8062a4	0.015672036
255	0xbc03fda0	-0.008056074

bias f4 [100]
0	0xbd274232	-0.040834613
1	0x3d396f9c	0.045272455
2	0x3b5f2aef	0.003405269
3	0x3d22b072	0.039719053
4	0x3bea38a4	0.0071478654
5	0x3e02eda1	0.1278596
6	0x3ceb8a0e	0.028752353
7	0x3c14da0b	0.009085189
8	0xbbe19e85	-0.006885352
9	0xbc9f1364	-0.019418426
10	0x3d0afec0	0.033934355
11	0x3bef2839	0.007298496
12	0x3db832aa	0.089940384
13	0x3d6d7d3e	0.05798077
14	0x3d8be3f0	0.06830585
15	0x3cd72c8b	0.026266357
16	0x3d3e43ae	0.046451263
17	0x3d1521a4	0.036409035
18	0x3d2407c5	0.040046472
19	0x3d4b0e57	0.049574222
20	0x3b4fb097	0.003169095
21	0xbc20139d	-0.009770301
22	0xbb314b77	-0.0027053037
23	0xbd30c74c	-0.043158814
24	0x3d50f740	0.051017046
25	0x3dac0692	0.08399691
26	0x3d07de2b	0.03317086
27	0xbd17e363	-0.037082087
28	0x3c19ff4f	0.009399249
29	0x3dacad60	0.08431506
30	0x3c4a502a	0.012348214
31	0x3c8cc050	0.017181545
32	0xbd4b18b6	-0.049584113
33	0xbd229b5f	-0.039698955
34	0x3d23acc1	0.039959673
35	0xbd1d0bc9	-0.038341317
36	0xbd144c6a	-0.036205687
37	0x3c87074b	0.01648297
38	0x3c5d73dc	0.013516393
39	0x3dc68c0e	0.09694682
40	0x3d0530ea	0.03251735
41	0xbce269ab	-0.027638277
42	0x3d004515	0.03131588
43	0xbca65ef1	-0.020308943
44	0xbc603d89	-0.013686546
45	0xbc06f076	-0.008236041
46	0x3c93d7e3	0.018047279
47	0xbbcdb8a6	-0.0062781153
48	0xbcc18a98	-0.023625657
49	0x3d68674b	0.056739133
50	0x3c702550	0.0146573335
51	0xbcae5496	-0.021280568
52	0xbcb1e84f	-0.021717219
53	0x3d05d1cf	0.032670792
54	0x3d4b27c0	0.049598455
55	0xbc11a0df	-0.008888452
56	0xbdd1ae6e	-0.10238348
57	0x3d140fe8	0.036147982
58	0x3ce07de3	0.027403777
59	0x3dbeda33	0.09318962
60	0x3d99338f	0.07480537
61	0xbd296ecf	-0.04136544
62	0x3dd402f7	0.10352128
63	0x3c9ede8e	0.019393232
64	0x3d226b91	0.039653365
65	0x3d4d6101	0.05014134
66	0x3c156855	0.009119113
67	0x3d331deb	0.043729704
68	0xbd951e1d	-0.07281134
69	0x3c9a9b02	0.018872742
70	0x3cfb6445	0.03068746
71	0x3d6bf20f	0.057603892
72	0x3d27e694	0.04099138
73	0xbb2784ec	-0.0025561405
74	0x3d4de362	0.050265677
75	0x3d863054	0.065521866
76	0xbc6ab851	-0.014326171
77	0xbd330889	-0.04370931
78	0x3d5781e5	0.05261411
79	0x3aec32f8	0.0018020561
80	0xbb101178	-0.0021983068
81	0x3da1d25d	0.07901452
82	0xbcce32b1	-0.025170656
83	0xbdb9e7d7	-0.09077423
84	0x3d1067ca	0.03525523
85	0xbd0a472c	-0.03375928
86	0x3d76715e	0.06016671
87	0xbcb1597f	-0.02164912
88	0x3d39d1f2	0.045366235
89	0xbd9bbc30	-0.07604253
90	0xbd87adeb	-0.06624969
91	0x3d5115a4	0.05104603
92	0x3d96fa71	0.07371987
93	0x3ddbff51	0.10742057
94	0x3d694254	0.05694802
95	0x3cf7a88b	0.030231735
96	0xbd10d5c0	-0.035360098
97	0x3cf9616e	0.030441966
98	0x3dc2d1e8	0.09512693
99	0x3b52a49b	0.003214157

weight f4 [100, 100]
0	0xbbe4307d	-0.006963788
1	0x3d9bc541	0.076059826
2	0xbe118233	-0.14209823
3	0xbd71981f	-0.058982965
4	0xbd52fc61	-0.05151022
5	0xbd87b7a9	-0.06626827
6	0x3de82c3d	0.11336563
7	0x3c8cb915	0.017178098
8	0xbd824a38	-0.06361812
9	0xbd17f6b7	-0.03710052
10	0x3a7412d4	0.0009310667
11	0xb9e889de	-0.00044353207
12	0x3e3c9bea	0.18418851
13	0x3d20fbde	0.0393027
14	0xbdf13293	-0.117772244
15	0x3e0560b2	0.13025168
16	0x3dbe7a57	0.09300678
17	0x3dd880cc	0.10571441
18	0x3e299958	0.16562402
19	0xbcab7228	-0.020928457
20	0x3de3e405	0.11127476
21	0x3cfb965c	0.030711345
22	0x3d15176e	0.036399297
23	0x3caac4de	0.020845827
24	0x3d1d5395	0.03840979
25	0x3df1a736	0.11799471
26	0xbde9e144	-0.11419919
27	0x3e14c6ed	0.14529009
28	0x3e6341a0	0.22193003
29	0x3dad0bdd	0.08449528
30	0xbdc5503b	-0.09634443
31	0x3da7fa3b	0.082020245
32	0xbd8a6284	-0.067570716
33	0xbca8dbcf	-0.020612625
34	0xbc807e32	-0.015685175
35	0x3c0010dd	0.0078165205
36	0x3dfe0b7b	0.124045335
37	0x3de7589d	0.112961985
38	0x3d1a3f88	0.037658244
39	0x3bc62a6a	0.0060475366
40	0x3d287d15	0.041134913
41	0xbd97f63f	-0.074200146
42	0xbd339b5a	-0.043849327
43	0xbc4f7f46	-0.012664622
44	0x3df179c4	0.11790803
45	0x3d9b4e05	0.075832404
46	0xbd1f1937	-0.038842406
47	0x3cc015f5	0.02344797
48	0xbcee702d	-0.029106224
49	0xbd779730	-0.060446918
50	0x3e108931	0.14114834
51	0xbdb49590	-0.08817589
52	0x3e261701	0.16219713
53	0x3b9f54c2	0.004862399
54	0xbe06256e	-0.13100216
55	0xbdc23418	-0.09482592
56	0xbccafd84	-0.024779089
57	0x3e114ac0	0.14188671
58	0xbc145c63	-0.00905523
59	0x3de4ae33	0.11166038
60	0x3db9eb4a	0.09078081
61	0x3e51516a	0.20441213
62	0x3d7830a6	0.06059327
63	0x3ddd4e5a	0.1080596
64	0x3e0fcffd	0.14044185
65	0xbb9a45c1	-0.0047080223
66	0xbb4debd7	-0.003142109
67	0x3e1bb34f	0.1520512
68	0x3da47ff2	0.08032216
69	0x3d7dc476	0.061954938
70	0x3db55cc0	0.08855581
71	0x3cf0b82b	0.029384693
72	0x3cc12c73	0.023580765
73	0x3db88bad	0.09011016
74	0xbd1b9147	-0.037980344
75	0x3c962e13	0.018332517
76	0xbd88cbba	-0.06679483
77	0xbb2d96b4	-0.002648753
78	0xbdd81cdc	-0.105523795
79	0x3e03bdda	0.12865391
80	0xbdcba437	-0.09943431
81	0x3e3cb1a3	0.18427138
82	0x3d8f2bdf	0.069907896
83	0x3c8e3d63	0.017363256
84	0x3e21c8fa	0.15799323
85	0xbd557e43	-0.052122366
86	0xba408f96	-0.0007345615
87	0x3d9e0465	0.07715682
88	0x3d92392b	0.0713981
89	0xbcc49e1d	-0.024001176
90	0x3dcceaf9	0.10005755
91	0x3dbb960f	0.09159481
92	0xbdf3d005	-0.11904911
93	0x3d32a17b	0.04361103
94	0xbde68aef	-0.11256968
95	0x3e02bf77	0.1276835
96	0x3db418e4	0.0879381
97	0xbc4b751a	-0.012418056
98	0xbda83f56	-0.08215205
99	0xbdc6226c	-0.09674534
100	0x3dc7ea77	0.097615175
101	0xbd8976cb	-0.06712111
102	0x3d704bc0	0.05866599
103	0xbd662c33	-0.056194495
104	0x3c284b73	0.010271895
105	0x3c9f0867	0.019413186
106	0x3a576a67	0.00082174543
107	0xbdcc4193	-0.09973445
108	0x3d542d8a	0.051801242
109	0xbdcbc4ad	-0.09949622
110	0xbb0b41cd	-0.0021248937
111	0xbc91e600	-0.017809868
112	0xbd18f2e7	-0.037341025
113	0x3dc79013	0.09744277
114	0xbdabb99d	-0.08385012
115	0x3be5b500	0.0070101023
116	0xbda2a5d5	-0.07941786
117	0x3dc82f65	0.09774665
118	0xbdcc1b63	-0.09966161
119	0xbc199dda	-0.009376014
120	0x3cb8008d	0.0224612
121	0x3c5e1f67	0.013557292
122	0x3c2c6c33	0.010523844
123	0xbc8afea7	-0.01696713
124	0xbda373f8	-0.07981104
125	0xbc885f07	-0.016646875
126	0xbd5d4147	-0.05401733
127	0xbd5c0ada	-0.053721286
128	0x3dba38b7	0.09092849
129	0xbd2cf4a0	-0.04222548
130	0x3d58efba	0.052962996
131	0xbdc043a8	-0.093879044
132	0xbc244727	-0.01002673
133	0xbdabbaad	-0.08385215
134	0x3d38f48a	0.045155086
135	0xbc8c4eed	-0.017127478
136	0xbc6e0da7	-0.014529622
137	0xbdab315d	-0.08359025
138	0xbd2a7847	-0.04161861
139	0xbd3a6f03	-0.045516025
140	0xbdb3adeb	-0.087734066
141	0xbd37e44a	-0.044895448
142	0x3c6e8667	0.014558411
143	0x3dabbfdf	0.08386206
144	0xbd0213f7	-0.03175732
145	0xbdb54263	-0.08850553
146	0x3ce4ef80	0.027946234
147	0xbd6a2d6a	-0.057172216
148	0x3d3173e0	0.043323398
149	0xbd4fff70	-0.050780714
150	0xbd6cbbf7	-0.057796445
151	0x3ce6d447	0.028177394
152	0x3d48984d	0.04897337
153	0xbccd30a7	-0.025047613
154	0x3d5c579d	0.053794492
155	0xbdc327a7	-0.095290475
156	0xbd7a29c7	-0.061075
157	0xbd1e7e40	-0.03869462
158	0x3dbe4d75	0.092921175
159	0xbcd83f1a	-0.026397277
160	0xbd3cfb57	-0.046138134
161	0xbd6cd0cd	-0.057816315
162	0xbbd7089a	-0.0065623047
163	0xbda61f72	-0.081114665
164	0x3d46f1e7	0.04857054
165	0xbd9b2e45	-0.075771846
166	0x3d9dc46b	0.077034794
167	0xbc4bdc27	-0.012442625
168	0xbd75c1dd	-0.059999336
169	0x3d0434f3	0.03227706
170	0xba416667	-0.0007377625
171	0xbd4d5213	-0.0501271
172	0xba92ee00	-0.0011209846
173	0x3c942d67	0.018088056
174	0xbd93cb38	-0.07216495
175	0xbc404fda	-0.011737788
176	0x3d3f5f13	0.04672153
177	0xbd20f9c0	-0.03930068
178	0x3d72d46d	0.059284616
179	0x3bd5079a	0.0065011503
180	0xbdc87928	-0.09788734
181	0x3d261f10	0.040556967
182	0x3c8cc567	0.017183973
183	0xbdc9c230	-0.098514915
184	0xbb1b1dcd	-0.0023668886
185	0xbcd11b13	-0.025525605
186	0x3d457eea	0.048216738
187	0x3d9fa0fd	0.07794378
188	0xbda8b0ba	-0.08236833
189	0x3db29a9d	0.087208964
190	0xbda01ee0	-0.07818389
191	0x3d739ffa	0.059478737
192	0xbda9bf2d	-0.08288417
193	0xbdc618e5	-0.09672717
194	0x3c0c7433	0.008572626
195	0xbd653b87	-0.055964973
196	0xbdc67f75	-0.09692279
197	0xbc4d8d80	-0.012545943
198	0x3c61b8c0	0.013776958
199	0x3ca481fa	0.020081509
200	0x3d107a85	0.035273094
201	0x3ccc73c2	0.024957541
202	0xbd6de056	-0.05807527
203	0x3da9ad72	0.08285035
204	0x3db4c7a5	0.08827142
205	0x3aba382c	0.0014207414
206	0x3dd26370	0.102728724
207	0xbd906125	-0.07049779
208	0xbb7bfc11	-0.0038449804
209	0x3d458518	0.04822263
210	0xbd985957	-0.07438915
211	0x3c8b1fb9	0.0169829
212	0xbbbad8d9	-0.00570212
213	0xbd4cf39d	-0.050037015
214	0xbd409e99	-0.04702625
215	0x3e38023d	0.17969604
216	0xbc3f87e4	-0.011690114
217	0x3ddd5df8	0.10808939
218	0x3da5b669	0.080914326
219	0x3d493492	0.0491224
220	0xbdc6ebaf	-0.09712922
221	0x3d962dbb	0.07332941
222	0xbd391e7d	-0.04519509
223	0xbd4214ac	-0.047382995
224	0x3dccfa89	0.10008723
225	0xbcd94d3c	-0.026526086
226	0xbce16eaa	-0.027518589
227	0x3d9cd4b4	0.076577574
228	0xbd831991	-0.06401361
229	0x3dceca21	0.10097147
230	0x3ddb85b5	0.10718862
231	0x3dc25fcd	0.09490929
232	0xbd9d721c	-0.0768778
233	0x3e0c8a9b	0.13724749
234	0xbbd132ca	-0.0063842284
235	0x3d7cbf33	0.06170578
236	0xbdb791b6	-0.08963339
237	0x3db07324	0.08615711
238	0xbd93de3a	-0.07220121
239	0x3d383f23	0.044982087
240	0x3d4c021f	0.04980671
241	0x3e0dbf5a	0.13842526
242	0xbd803056	-0.06259219
243	0xbd875267	-0.06607514
244	0x3d42bf6f	0.047545847
245	0x3abc2241	0.001435347
246	0xbdacffd5	-0.084472336
247	0x3dac3475	0.08408443
248	0x3d9786ed	0.07398782
249	0xbd823545	-0.063578166
250	0x3d9357d1	0.07194484
251	0xbda2512e	-0.0792564
252	0xbbc83100	-0.006109357
253	0x3d85ff40	0.06542826
254	0x3d0802ce	0.0332058
255	0xbccf044e	-0.025270607

bias f4 [100]
0	0x3da14b46	0.078756854
1	0xbd917fad	-0.0710443
2	0x3dac8ce2	0.08425309
3	0xbd97255e	-0.07380174
4	0xbd2108b0	-0.039314926
5	0x3c7f400e	0.015579237
6	0xbda97f75	-0.082762636
7	0x3ccdf3f2	0.025140736
8	0xbc788307	-0.015167958
9	0x3e0d6408	0.1380769
10	0x3d9c9c06	0.076469466
11	0x3d66c108	0.056336433
12	0x3def1f8f	0.11675941
13	0xbcf996db	-0.030467441
14	0x3ca15999	0.019696044
15	0x3d66e59d	0.05637132
16	0xbd958e2c	-0.07302508
17	0xbd3bc014	-0.045837477
18	0x3c0718d1	0.008245663
19	0x3d6d1b07	0.057887103
20	0x3dbe7071	0.0929879
21	0x3daa76fe	0.08323477
22	0x3da0e0fb	0.078554116
23	0xbd8c272e	-0.068434104
24	0xbdb933c8	-0.090430796
25	0xbd8a1366	-0.06741981
26	0x3d3f6d58	0.046735138
27	0xbba12372	-0.0049175555
28	0xbda73aab	-0.08165487
29	0x3de63d9f	0.11242222
30	0x3d72440a	0.05914692
31	0xbdb7a1fa	-0.089664415
32	0x3dc0fa2e	0.09422718
33	0xbcd5186b	-0.02601262
34	0xbd0518cf	-0.032494362
35	0x3d2cb880	0.04216814
36	0xbcca4aad	-0.024693811
37	0x3d6a0db3	0.05714197
38	0xbcefa357	-0.029252691
39	0xbb528d45	-0.003212766
40	0xbd3b4397	-0.045718756
41	0x3b74b1c5	0.0037337404
42	0xbdc4e219	-0.09613437
43	0x3d8a9a22	0.0676768
44	0x3cb4c2f4	0.022065617
45	0x3e03d0c0	0.128726
46	0xbc7f02f4	-0.015564669
47	0x3ca47ff2	0.02008054
48	0x3e02232c	0.1270873
49	0xbdc3bd8f	-0.0955764
50	0x3cab1015	0.020881692
51	0xbd8e9eb5	-0.06963865
52	0xbced3d8a	-0.028960008
53	0x3c972831	0.018451782
54	0xbd0667d7	-0.032813873
55	0xbdd122d4	-0.10211721
56	0x3db4455c	0.08802292
57	0x3c220d4b	0.009890865
58	0x3dabd440	0.08390093
59	0x3e2028b3	0.15640526
60	0xbd244fb3	-0.04011507
61	0xbda1a045	-0.07891897
62	0x3d6d5a20	0.057947278
63	0x3b850151	0.004058995
64	0x3db9aa97	0.090657406
65	0x3cc9a695	0.024615565
66	0x3db53867	0.088486485
67	0xbdae4b0e	-0.08510409
68	0x3c8139d9	0.015774654
69	0x3d9aeee3	0.07565095
70	0xbd0d735b	-0.03453384
71	0x3d5be291	0.053682867
72	0x3e3c6aa7	0.1840006
73	0x3e2c4eba	0.16826907
74	0x3dc7c234	0.09753838
75	0x3c569c93	0.013098854
76	0xbd46d62d	-0.048544098
77	0xbc7074fa	-0.014676327
78	0x3c96c43d	0.01840412
79	0x3b09df5e	0.0021037678
80	0x3e5cee7b	0.21575348
81	0xbd9eaf32	-0.077482596
82	0x3cd90754	0.026492752
83	0x3ceaf4fd	0.028681273
84	0x3d817dff	0.0632286
85	0xbd9e7479	-0.07737059
86	0xbd82f715	-0.063947834
87	0x3cbc89a7	0.023014857
88	0xbd0721de	-0.032991283
89	0x3e68c04a	0.22729602
90	0xbdcf0d2d	-0.10109935
91	0xbd8d94f2	-0.06913175
92	0x3d5edfc2	0.05441261
93	0xbc665427	-0.014058149
94	0x3e050170	0.1298883
95	0x3d39d842	0.045372255
96	0x3d91d5e0	0.071208715
97	0xbd0da3d3	-0.034580063
98	0x3e010d42	0.12602714
99	0xbc971e6d	-0.018447125

weight f4 [10, 100]
0	0xbe7de3e6	-0.24793968
1	0x3dccb9a5	0.099963464
2	0xbc08b631	-0.008344219
3	0x3e0face1	0.14030792
4	0x3dc9a8fb	0.098466836
5	0xbdc3674b	-0.09541186
6	0x3d373e44	0.044737116
7	0x3dbb10ec	0.09134087
8	0xbcaa4da2	-0.020788971
9	0xbd95b190	-0.07309258
10	0x3d4907a5	0.049079556
11	0x3e56af41	0.20965292
12	0xbe93cf24	-0.28868973
13	0x3eacb8ec	0.33734834
14	0x3e86b99a	0.26313478
15	0xbe77322e	-0.24140236
16	0x3d36add4	0.04459937
17	0x3d5ab491	0.053394858
18	0xbdaab227	-0.08334761
19	0xbe89a42b	-0.26883063
20	0xbcb77852	-0.02239624
21	0xbe46a8df	-0.19400357
22	0xbe389ca3	-0.18028502
23	0x3db299a6	0.08720712
24	0x3c766240	0.015038073
25	0xbd9f36d9	-0.07774133
26	0xbdb0d4f1	-0.08634365
27	0x3db6af87	0.08920198
28	0xbd3f8aaf	-0.04676312
29	0xbe91816e	-0.2841906
30	0x3d961951	0.073290475
31	0xbdaca487	-0.084298186
32	0x3dfc1645	0.12308935
33	0x3d9d4ae0	0.07680297
34	0x3d56c220	0.052431226
35	0xbe5aff1f	-0.21386383
36	0x3d8b6b7e	0.06807612
37	0xbdb2a20d	-0.08722315
38	0x3ce9a370	0.028520316
39	0x3e66b69d	0.22530599
40	0x3bf205c8	0.007385943
41	0x3db3a97a	0.087725595
42	0x3eac70e3	0.33679876
43	0x3db6894d	0.08912907
44	0x3e4f8671	0.20266129
45	0x3d2704e0	0.040776134
46	0x3d4543b2	0.048160262
47	0xbe0b1339	-0.13581552
48	0x3e8122e4	0.25221932
49	0x3e6472f9	0.22309484
50	0x3e2920aa	0.16516367
51	0x3d1390a9	0.03602663
52	0x3dad46d7	0.08460777
53	0xbe73f9cb	-0.23825757
54	0x3cefcf24	0.029273577
55	0xbd64c9db	-0.055856567
56	0x3d85fc5b	0.065422736
57	0x3c6f3cab	0.014601867
58	0xbe4c29b3	-0.19937782
59	0x3eafa91d	0.3430871
60	0xbe5c5d05	-0.21519859
61	0xbe3d3ed9	-0.18481006
62	0xbeebf76a	-0.460872
63	0x3c8d201b	0.017227223
64	0xbd8c9ff2	-0.06866445
65	0x3c99c39f	0.018770037
66	0xbce37733	-0.0277668
67	0x3e6f4e76	0.23369774
68	0x3dd9f936	0.10643236
69	0xbe5c49e0	-0.21512556
70	0xbe7df424	-0.24800164
71	0x3e66e98b	0.22550027
72	0xbd1f4f7e	-0.03889417
73	0xbdef636d	-0.11688886
74	0xbeace352	-0.33767182
75	0xbe0a88ac	-0.13528699
76	0x3e2990e3	0.16559176
77	0xbcbf3b18	-0.023343608
78	0x3e30c29f	0.17261742
79	0xbe2e94e3	-0.17048983
80	0x3ed587f5	0.4170529
81	0x3d98094e	0.0742365
82	0xbded559a	-0.11588593
83	0xbd5efd04	-0.054440513
84	0xbacb580f	-0.0015513914
85	0xbe0f3c64	-0.13987881
86	0xbe272fab	-0.16326778
87	0x3db106b9	0.0864386
88	0x3d7e4097	0.062073316
89	0xbd915c9b	-0.07097741
90	0xbc79456e	-0.015214307
91	0x3e2345ca	0.15944591
92	0x3b88c0d2	0.0041733766
93	0xbe608ab6	-0.21927914
94	0xbe5453df	-0.2073512
95	0x3e554c29	0.20829834
96	0xbdad322a	-0.08456834
97	0xbe23115f	-0.15924595
98	0xbea1df43	-0.31615648
99	0x3c2e171d	0.010625628
100	0x3e80c251	0.25148252
101	0x3d0588f7	0.032601323
102	0x3e93e89f	0.28888413
103	0x3e42cabc	0.1902265
104	0x3d85b099	0.06527824
105	0xbd990dff	-0.07473373
106	0xbdb91c04	-0.09038547
107	0xbe2dc4cb	-0.16969602
108	0x3d0062a1	0.03134406
109	0x3e2466fc	0.1605491
110	0xbc78a22c	-0.015175384
111	0xbe5420bd	-0.20715614
112	0xbdd530ff	-0.10409736
113	0xbe420d2c	-0.18950337
114	0xbe3b3a9f	-0.18284081
115	0x3e739d79	0.2379054
116	0x3d4fda07	0.050745036
117	0x3c6cb086	0.014446383
118	0xbdfa1db6	-0.12212698
119	0x3e70535f	0.23469304
120	0xbe1b7383	-0.15180783
121	0xbc405a88	-0.011740334
122	0xbc9f2f06	-0.019431602
123	0x3d4c09b7	0.049813952
124	0x3dadf03c	0.08493087
125	0x3e01bcc1	0.1266966
126	0xbdf016e2	-0.117231146
127	0xbeff3b4e	-0.49849933
128	0x3b6279a5	0.003455737
129	0xbd51e58c	-0.051244304
130	0x3e503afc	0.20335001
131	0x3d896c87	0.06710153
132	0xbdef57e5	-0.116866864
133	0xbce73166	-0.028221797
134	0xba6ac6b9	-0.00089560036
135	0xbec55897	-0.3854415
136	0x3dbfc097	0.093629055
137	0xbded9d76	-0.11602299
138	0xbda50b4f	-0.080587976
139	0xbec835b4	-0.39103472
140	0xbc01f8ab	-0.007932822
141	0xbdcc15e6	-0.09965114
142	0xbe7eaa5c	-0.24869674
143	0xbd6f11dc	-0.05836664
144	0xbe804b9d	-0.25057688
145	0xbdce5b60	-0.10076022
146	0x3cdce5a7	0.026964976
147	0x3d0ba941	0.03409696
148	0xbdd2fde3	-0.10302331
149	0xbb6049f4	-0.0034223767
150	0x3d6ee0ef	0.058319982
151	0xbd693503	-0.05693532
152	0xbca45cff	-0.020063875
153	0xbe112f84	-0.14178282
154	0xbce9ac08	-0.028524414
155	0x3d35dab6	0.044398032
156	0xbd9b2bb3	-0.07576694
157	0xbe664c48	-0.22490036
158	0xbc231fb9	-0.009956294
159	0xbd0913ae	-0.033466034
160	0x3e167800	0.14694214
161	0x3e4e08bb	0.20120518
162	0x3e238811	0.15969874
163	0xbdd49f6c	-0.1038197
164	0x3d197952	0.037469216
165	0xbe73a105	-0.23791893
166	0x3e02914d	0.1275074
167	0xbe58209f	-0.21106194
168	0xbdaa32a1	-0.08310438
169	0x3e1ec6b5	0.15505488
170	0x3d0e6bc2	0.034770735
171	0x3d858881	0.06520177
172	0xbe88f915	-0.26752535
173	0x3d7b55e7	0.06136122
174	0x3ed6f7ad	0.41985837
175	0x3d1eb757	0.038749065
176	0xbdb10401	-0.08643342
177	0x3dc068a5	0.09394959
178	0xbe522712	-0.20522717
179	0x3c78c182	0.015182855
180	0xbcb9f102	-0.02269793
181	0x3dc9e4e0	0.098581076
182	0x3d9dff57	0.07714718
183	0xbcf876d5	-0.030330101
184	0xbe05a03f	-0.1304941
185	0x3d0fc893	0.03510339
186	0x3e1f74b6	0.15571865
187	0xbe94fda1	-0.29099753
188	0x3d8b1290	0.0679065
189	0x3ecb3ff2	0.39697224
190	0xbd0ee532	-0.034886546
191	0xbbb80a08	-0.00561643
192	0x3e9035e9	0.2816613
193	0x3ea8076a	0.32818156
194	0x3c95fb30	0.018308252
195	0xbd8baab1	-0.06819666
196	0xbd582d22	-0.052777417
197	0x3dd61494	0.10453144
198	0x3e66f58c	0.22554606
199	0x3e0d458b	0.1379606
200	0xbe84a8b7	-0.2590997
201	0x3c58fb9a	0.01324358
202	0x3c87ce31	0.016577812
203	0x3e54106c	0.2070939
204	0x3d57fcc0	0.052731276
205	0x3db19867	0.086716466
206	0x3dcd0330	0.100103736
207	0x3dd31880	0.103074074
208	0x3dcb2bd2	0.099204674
209	0x3d97992c	0.07402262
210	0x3e745240	0.23859501
211	0xbe8cb1f3	-0.27479514
212	0x3c5a2c83	0.0133162765
213	0x3e10b827	0.14132749
214	0xbe27f51a	-0.16402093
215	0xbdd0161b	-0.10160466
216	0xbd0f70e4	-0.03501977
217	0x3d321fa1	0.043487195
218	0xbd0f7e0a	-0.03503231
219	0xbe277dbb	-0.16356556
220	0xbe2806dd	-0.16408868
221	0x3e119b84	0.14219481
222	0xbe0b8e1a	-0.13628426
223	0xb9c0437a	-0.00036671368
224	0x3d0feda6	0.03513875
225	0x3cf96cc9	0.03044738
226	0xbdd20c50	-0.10256255
227	0x3e4b67f6	0.19863877
228	0xbc932b12	-0.017964873
229	0xbd88e8a3	-0.06684997
230	0x3e108bb4	0.14115793
231	0xbce9fa3d	-0.028561706
232	0xbd9481c4	-0.07251313
233	0xbdd414b9	-0.10355515
234	0xbcafc88a	-0.02145793
235	0x3ea1defa	0.3161543
236	0x3dbf01bc	0.09326503
237	0x3d26c21a	0.040712453
238	0x3d8e96d0	0.06962359
239	0x3eaecee9	0.34142235
240	0x3d378a5c	0.044809684
241	0x3bd61159	0.0065328297
242	0xbdd27d7b	-0.1027784
243	0x3eef3fe0	0.4672842
244	0xbd7303f9	-0.05932996
245	0x3e04e114	0.12976485
246	0x3d56d6e3	0.052451026
247	0x3e2788fa	0.16360846
248	0xb9392648	-0.00017657236
249	0xbd5f7d80	-0.054563046
250	0xbe046863	-0.12930445
251	0x3c5d8cd4	0.013522346
252	0xbd9ba37c	-0.075995415
253	0xbe7d86f6	-0.24758515
254	0x3d913906	0.070909545
255	0x3dba9e07	0.091121726

bias f4 [10]
0	0xbe442be5	-0.1915737
1	0x3e969da4	0.29417145
2	0x396879ac	0.0002217057
3	0xbc83c447	-0.016084803
4	0x3d40a58a	0.04703287
5	0x3e5bfd6b	0.2148339
6	0x3d9cfd0e	0.07665454
7	0x3dd4f6e3	0.103986524
8	0xbe9f1c70	-0.31076384
9	0xbd69c1c7	-0.057069566
