artifacts/1/f35718cb70f542aa8b59eca0cc7e1a70/artifacts/model/data/model.pth (torch, 362823 bytes, 6 tensors)

weight f4 [100, 784]
00000000: 386a e1bb eec6 e5bb fd44 03bd 059e fcbc
00000010: 2e20 b7bb 4a26 f239 6ae8 84bc 416c 5c3c
00000020: 6baa 03bd 6ef5 1dbb 82a5 003d d3ac 6ebc
00000030: 37df 043d 26cd 5a3c 71fd 03bd 871c b93c
00000040: 650b 87bb 1c9b 82bc aaf4 e93c f36c ecbc
00000050: a527 7b3b 6e05 f5bb d1ed d03c e556 233c
00000060: 0795 8c3c 01a6 4e3c 4ab6 0cbc 131e f6bb
00000070: 4a1a f1bc 3387 9e3c 9a4b e83c 452f c83c
00000080: fa5b cebc d533 d23a 7629 c8bc 9c7b 93bc
00000090: 5e7d 96bc c40c 5d3c 65c7 9ebc 1b1a 0f3b
000000a0: e9dd c93b 72c9 d43c a9c7 d6bc 5599 bdbc
000000b0: 69d6 a4bc 1ce5 d43c 3f39 35bc 1d21 053d
000000c0: cb36 703c 687d b93b 3a9c 083a 47b6 e0bb
000000d0: dcd4 923b 409d 05bc 2591 83b9 0052 953b
000000e0: d3d9 e4bc 8c58 99bc f241 ec3c eb4f edbc
000000f0: c14f 25bb 11f0 103d 8d74 703c 5900 b93b
00000100: e663 c4bc f8b1 d03c 6c28 67bc 20e2 b53b
00000110: cd63 d73b c78a 3c3c d82b a13c be74 513d
00000120: f84b d13c d094 553d 71cf 2b3d f790 bdbb
00000130: 9d6c d53c 5fd9 93bc 68e1 36bc 4901 443c
00000140: 1779 403c 0cf2 d93c e55d 3cbc b8cd 6f38
00000150: 679f 963c c678 0dbd b45c d33c 6768 f0bc
00000160: c51c e13a 6a0a 6cbb fb16 4fbc 529c 613c
00000170: 55da 293d d32d f53b 0a62 a53a 7629 573c
00000180: d764 cdbb 9d20 3a3d b983 213c c895 0b3c
00000190: c13c 2b3c 8ea3 573d 801f 803d a80c 8a3d
000001a0: c70d 2c3d 5f51 533c ca0f 7a3b e99f 933c
000001b0: bed8 033d b8d2 1d3c f956 88bc fe87 89bc
000001c0: 024f 0abd 69ee fc3b e2d8 a4bc 7774 02bd
000001d0: 181a 043d 032f a1bc 5ebd 0a3b 02b6 b33c
000001e0: e10e b83c d760 0c3c d47f 6d3c a031 813d
000001f0: 0c22 0d3d aecb 2e3d 88a7 1b3c 7d12 ef3c
00000200: 6f41 243d 81e6 313d 4e46 b43c 1d2a 5b3d
00000210: c147 173d cc44 c13c baae 043c 641c 0bbc
00000220: 4522 093d d5ca c1bc f34e 7d3c 6978 40bc
00000230: 0728 8dbc 6e3c d23b ddc5 97bc 4f06 063c
00000240: e8b8 f93b 06a9 f2bc dc04 d53b 35b1 ea3c
00000250: 1ded f33c bfd6 8b3c 1c84 f1bb 51bf 3abc
00000260: ca4f 3bb9 c423 39bd 0d2f 223c 44cc 8c3c
00000270: 6e1d bb3c e1d6 013d c9cb 6c3c 6a85 863c
00000280: c5cd dc3c a8a7 963c 202b 33bc 53e2 ac3c
00000290: 717a 293d f759 243d 05ee c33c 44fc b03b
000002a0: 90a2 883c 5e20 8ebc 47ac f3bc a0c0 0fbd
000002b0: a31d 163d c54e e43c 1d1a b2bc 8017 eb3c
000002c0: d5fa 523d 1f00 753d 9dab 0b3d c171 323c
000002d0: d35b 45bc 8f4c 0abd 6fad c03c e473 253d
000002e0: 8036 06bd 73e5 99ba ba15 f7bc cb77 02bc
000002f0: d7c8 57bd af64 d4bc 50af abbc 5e1f 3d3d
00000300: a458 f43c 0a79 0d3d 71d9 5c3c 1b48 873c
00000310: 5ce1 46bc 9297 923c dbb2 dfbc ea28 f839
00000320: 9c1c 81bc d3c9 8dbc da92 eebc 38e6 423d
00000330: bda4 6b3d 66cb 263d b8ee d53c e50e cebc
00000340: 14e9 d2bc 3555 b2bc 06cf e6bb faaa bf3c
00000350: 33f1 6cbd fe61 89bd 0646 bebd bb04 a4bd
00000360: ac84 fdbc 2d64 41bc 679b 7d3b 89b6 a33c
00000370: f099 7c3d 9004 a23c 570a cc3c 899b 053d
00000380: a3fb 423c 314d 0d3d f900 8b3c b275 8e3c
00000390: cc30 a5bb 2c8d e23c d4b2 0b3b 7a21 2139
000003a0: 21ad b3bc 2d7e afbc 69ae dfbc f8ea 043d
000003b0: 4f03 3a3d a04e e23c 73a1 c3bc 9c11 1bbc
000003c0: d619 f6bc fd78 33bd 73cc a1bd 6b5b 48bc
000003d0: 8c8b a4bc af32 7dbd 675c be3b 922c 4d3c
000003e0: d8ae 873c 974d 6c3d b8f1 14bc f909 99bb
000003f0: 37e9 f73c 8cdd 8ab9 88f7 ddbc cf04 99bc
-0.0068791173 -0.0070122397 -0.032048214 -0.030837068 -0.005588553 0.00046186364 -0.016224105 0.013453544
-0.032144945 -0.0024102586 0.03140784 -0.014567572 0.032439437 0.013354575 -0.032224122 0.02259661
-0.0041212314 -0.015943103 0.028559048 -0.028860545 0.003832319 -0.007477454 0.025504025 0.009969448
0.017160906 0.012612821 -0.008588383 -0.0075109093 -0.02943148 0.019351577 0.028356362 0.024436602
-0.025190342 0.0016037176 -0.024433833 -0.018003277 -0.018370327 0.013491813 -0.019382188 0.0021835628
0.006160487 0.025974963 -0.026218252 -0.023144403 -0.02012177 0.025988154 -0.011061012 0.032502282
0.014661501 0.0056607015 0.0005211268 -0.0068576667 0.004480941 -0.008155167 -0.00025094408 0.0045568943
-0.027935898 -0.01871898 0.028840039 -0.028968772 -0.002522454 0.035385195 0.014676225 0.0056457934
-0.023973417 0.025475487 -0.014108758 0.005550638 0.0065731765 0.0115076965 0.019674227 0.051136725
0.02554892 0.05214387 0.04194588 -0.0057851034 0.026052767 -0.018047987 -0.0111621395 0.011963197
0.01174762 0.026604675 -0.011496996 5.717363e-05 0.018386556 -0.034539007 0.02580104 -0.029346658
0.0017174712 -0.003601695 -0.012639756 0.01377018 0.041467983 0.0074822693 0.0012617719 0.013132444
-0.0062681246 0.04544126 0.009858065 0.008519597 0.010451497 0.052646212 0.06256008 0.06740695
0.042005327 0.012897818 0.0038156384 0.018020587 0.032189123 0.009632759 -0.016643034 -0.016788479
-0.033766754 0.0077188504 -0.020122949 -0.03184935 0.032251447 -0.019675737 0.002117 0.021937374
0.022468032 0.00856801 0.014495809 0.06308293 0.034456298 0.042674713 0.009500392 0.02918362
0.040101465 0.043432716 0.02200618 0.05350696 0.036933664 0.023592375 0.008098299 -0.008490656
0.033479948 -0.023656288 0.0154607175 -0.011747458 -0.017231 0.006415895 -0.018526966 0.008180215
0.0076209195 -0.029621612 0.0065008234 0.028648952 0.02977615 0.017070172 -0.007370485 -0.011398152
-0.00017863433 -0.045200124 0.009898913 0.017187245 0.022841182 0.031699065 0.014452883 0.016421039
0.026953587 0.018390492 -0.010935575 0.021104014 0.041376535 0.04012486 0.023917207 0.005401166
0.016679078 -0.017349418 -0.029745234 -0.03509581 0.036649358 0.027869591 -0.021740967 0.02869773
0.051508743 0.05981457 0.03409921 0.010891379 -0.012045818 -0.03376442 0.0235202 0.040393725
-0.03276682 -0.0011741355 -0.030161727 -0.007963131 -0.05268177 -0.025926916 -0.020957619 0.046172492
0.029827423 0.03453926 0.013479576 0.016513875 -0.012138691 0.01789454 -0.027306965 0.0004733273
-0.015760712 -0.017308151 -0.029122759 0.047582835 0.057530154 0.04072132 0.026114807 -0.025153587
-0.025745906 -0.021769146 -0.007043722 0.023396958 -0.057847213 -0.06708144 -0.092907 -0.08008715
-0.030947052 -0.011803669 0.0038697363 0.0199845 0.061670244 0.019777566 0.024907274 0.032619033
0.011900815 0.034497444 0.016968237 0.017390106 -0.0050412174 0.027655207 0.0021316307 0.00015366627
-0.02193314 -0.02142247 -0.027304845 0.032450646 0.04541331 0.027625382 -0.023880696 -0.009464648
-0.030041616 -0.043816555 -0.07900324 -0.012228827 -0.020086072 -0.061815914 0.005809355 0.012522833
0.016562864 0.057691183 -0.009090833 -0.0046703783 0.030262573 -0.00026486476 -0.027095571 -0.01867905

bias f4 [100]
00000000: 8f2c bb3d 45b6 73bb 0d41 5fbd 23ab 2b3e
00000010: d09d a4bc c38e a43c 6797 483d c409 81bc
00000020: 1bd0 833d 93bb f6bc 1ccb e33d a3a0 103d
00000030: 7d05 d23d f051 bd3d a75b e1bd da04 743d
00000040: ce47 c43d 4288 033c 640d a7bd e98c 5abd
00000050: f76f f53d c368 6abd fd93 edbb fbc5 6ebd
00000060: b538 153d 074b 293e 646d 203d 5d61 db3b
00000070: d4ef 3b3d c2be a1bc de21 7d3d 650c 31bc
00000080: d9a8 d13d 6537 603d c3f0 353d 9607 043e
00000090: 82c8 523b d3bd a2bd 8ed7 7fbd 9b34 d83c
000000a0: 8282 413a 327a 97bd d239 843d 586b dabb
000000b0: ada5 a43d db42 31bc 76e4 313d 3d0a 993b
000000c0: 2985 803d ea2f ca3c c323 b63d cb95 233d
000000d0: bb0c 483d 62ea e2ba e3e0 02bb b1a9 093d
000000e0: 4fe5 bdbd 8495 3b3d ea0f 98bd cd93 8e3d
000000f0: 457a 07bb 1da9 98bc 5467 9fbb 2c3c 883d
00000100: a5f6 06bc 2b85 23bd 419e afbc 2847 743c
00000110: c473 ac3d 8348 253c 35a9 203c 889d f13d
00000120: 0d46 b4bc 6cdd e03d ad85 513b 100b 193d
00000130: fff9 213d 7552 d5bd 1ca9 92bc d604 a13c
00000140: 954b 843c b9c7 f03c 0818 fbbc bdf6 44bc
00000150: db36 393b 6d74 babb 938b 433d 9b33 36bc
00000160: 1efd 643a 0f4b 08bd 5dd1 8c38 1625 1abd
00000170: 09ea 7f3d 6a40 af3d 7298 8fbc 9d51 b1bb
00000180: c188 433d 3557 893d 8281 e53d de0c 1abc
0.09139358 -0.0037187499 -0.054505397 0.16764502 -0.020094782 0.020087605 0.048972514 -0.015751727
0.06436177 -0.03011874 0.111227244 0.035309445 0.10254953 0.09244144 -0.110038094 0.05957494
0.09584008 0.008028092 -0.08156851 -0.05335704 0.11984246 -0.057228815 -0.0072503076 -0.058294278
0.036431033 0.16532527 0.039166823 0.006694956 0.045883015 -0.01974428 0.061799876 -0.010806178
0.10237283 0.05474033 0.04441906 0.12893519 0.003216297 -0.07946362 -0.06246143 0.026392272
0.0007381813 -0.07396354 0.06456341 -0.0066656284 0.08039413 -0.010819162 0.043430768 0.00467041
0.06275398 0.02468105 0.0889354 0.039937776 0.048840266 -0.0017312283 -0.0019970469 0.033609096
-0.09272253 0.045796886 -0.0742491 0.069617845 -0.0020672244 -0.018635327 -0.0048646126 0.06652102
-0.008237516 -0.03992192 -0.021437766 0.014909543 0.08420518 0.010088089 0.009805967 0.11797625
-0.022006059 0.10979733 0.0031970546 0.037364066 0.039545055 -0.10416118 -0.017902903 0.019655626
0.016149322 0.02939211 -0.030651107 -0.012021718 0.0028261456 -0.0056901486 0.04774053 -0.011120702
0.0008735227 -0.033274706 6.714717e-05 -0.037633024 0.062479053 0.08557208 -0.017528746 -0.0054113404
0.04773784 0.067060865 0.11206342 -0.009402482

weight f4 [100, 100]
00000000: 695e 22bd 303c 903a 6150 b7bd 96f6 8cbd
00000010: e45c 66bd ceb9 a23d bef3 6dbb 202c 093e
00000020: b51a 2dbe b4bc c23d 99d7 30bd df24 00bd
00000030: 89d5 47bc 35a5 c83d 006f fd3d d044 23be
00000040: ace4 093d 1475 583d e89e 88bd 6534 a1bd
00000050: ba1f 49bc 4c3a d2bd 5872 a73d 1602 93bd
00000060: 58e0 c2bd 543d 0a3d 8479 10bb cb7a cb3d
00000070: 2810 bf3d c455 91bd ee06 af3d c4ad cbbd
00000080: 9606 f13d 446c 5cbd c6cd 633d 13ca 0a3e
00000090: 4041 cf3d d0e6 1e3e 202d 5cbd 9a8c dabc
000000a0: a1c4 adbd eede c63d ce15 513e d5f0 783d
000000b0: 31d7 c9bd f88a a63d 0ad2 bf3d d3d3 bfbd
000000c0: c6b8 173a d26c 6bbd d709 32be a846 acbc
000000d0: d9d8 d1bd 2f8b 0a3e 309d 56bd 5d61 533d
000000e0: 2053 04be 09d4 e8bc c14b 3a3c 3526 993d
000000f0: 194d d63d 9c8a f13c 9e53 01be 8eee 50bc
00000100: 85d6 e93d dc28 f6bd 3df2 10bd 9e6d b03d
00000110: 02c6 683d d1d9 bb3d 847a 6bbd 2700 7b3d
00000120: 2f73 a7bb 989c e93d aaba 9a3d 295b 0bbe
00000130: 71ba 24bb ea9f e33d 5b20 b8bd d994 92bb
00000140: c593 75bd ea3f 05bd 80ac 22bb a46d 153e
00000150: 3262 66bd 55e2 a43d b47c 023c 84e4 593c
00000160: 2370 a4bd 4d87 0c3c 9477 b1bd c6d5 fb3c
00000170: 7624 95bc 1f4b 673c 51b4 dfbd 3f8b 8f3c
00000180: 1084 153e c608 e43d 3755 f8bd aa15 3abd
00000190: 4618 24bd 282d f23d 479c 12be a719 103e
000001a0: 3520 4abd 6cfc 82bc 6284 9c3e 8c22 d73c
000001b0: 3f03 1bbe ac6c cdbd 68f0 503c 0744 cabd
000001c0: 4b93 7a3d 08c3 1b3e f445 cabc 99de 7c3d
000001d0: 15ba ca3d fb36 363e ba6f c0bd ee8a b03d
000001e0: 7209 0d3e d34b 24be a024 de3d 4d64 7bbc
000001f0: 4447 e83d e4b3 223e f74a f9bd b4c0 a3bd
00000200: d9f6 d8bd bcef c03d 082c c5bd b388 533b
00000210: e4d7 333e a04d 2abd a8e5 323e 56ad 8ebd
00000220: 0115 3b3e 27ae a0bd e361 db3d 6274 babd
00000230: c665 9bbd 704a 0d3e ccbe 023e 0a86 cc3c
00000240: a633 fd3d 1834 5f3e 3606 2f3e 5a83 51bd
00000250: 6e64 6fbd 9400 4f3e 4278 a83d 4292 033d
00000260: c531 babc 2aaa 883d 1739 6b3d 0fb5 98bd
00000270: 7f47 6dbd 0d4d ac3d 3863 65bd c83b 453e
00000280: c12c f5bd 7746 cb3d 07f7 abbd fc3f 293d
00000290: 35e4 553e 02b2 44bd d00a 7fbc 6432 913d
000002a0: 81ed ba3d c60c a43d 4519 47bd fb15 25be
000002b0: 77ea a5bc dae9 83bc 7f99 05be 11ef 263d
000002c0: d7ba 0c3d 9ff7 123e 61eb cbbd dcaa d5bb
000002d0: 6c99 9f3d d73b 043e 6197 403d a8ef 9e3d
000002e0: fca5 86bd a2df d1bd c2f2 4dbe 0754 223d
000002f0: 964c 473d 0616 993c f68d 7a3d 58d8 aebd
00000300: 4d31 233c 3dd8 6d3d 1e98 4abd 12c9 e03c
00000310: 1d73 2a3d f682 0dbe ce9d 48be 69f5 cc3d
00000320: 9a0e 97bd 0430 4a3d 98f5 6f3c 851a 8cbd
00000330: 9123 febc a9e6 0c3d 362d 93bd 6482 8c3c
00000340: 51f2 a83d 2831 b8bd 429c 2dbd 9165 c2bd
00000350: c533 6a3d c9fa 003d 60fa 213d 1e8b f03c
00000360: a67a a0bc 4930 89bd 96fa ef3d ce36 953d
00000370: c626 fcbb 2f3e cebc 4ae4 d53d 1120 ec3c
00000380: 1255 993c 4d49 9fbd 1752 61ba 434d 963d
00000390: 23c5 37bc 3a78 b23d df64 9d3b 8ba1 41bd
000003a0: cdd3 bbbd ffdd fc3a f8a4 3c3d 4abf e33d
000003b0: 886b 54bd 415d b2ba 7766 b03b 9580 723c
000003c0: 0f75 b6bd bcc3 89bb e772 53bc f855 a73c
000003d0: 1481 4a3c db12 0abd bf93 03bd 906e 82bc
000003e0: b37b 72bd 876a 0f3c 8308 253d fc63 91bd
000003f0: 59c4 bbbd aa65 31bd 032c 463d 8389 b1bd
-0.039640818 0.0011004265 -0.08950878 -0.0688297 -0.05624093 0.07945596 -0.0036308612 0.13395739
-0.16904719 0.095086485 -0.04317436 -0.031285163 -0.012196907 0.09797136 0.12374687 -0.15944219
0.033665344 0.05284603 -0.06670934 -0.078713216 -0.012275631 -0.102650255 0.08176106 -0.07178132
-0.095154464 0.033749893 -0.0022045085 0.0993553 0.093292534 -0.070964366 0.085462436 -0.099452525
0.11768834 -0.053814188 0.055616163 0.13553648 0.10119867 0.15517735 -0.053753972 -0.026678372
-0.084847696 0.09710489 0.20418474 0.06077655 -0.09855498 0.08131975 0.09366234 -0.09366574
0.0005787726 -0.057476826 -0.17386566 -0.021029785 -0.102464385 0.13529657 -0.052396 0.051606525
-0.12922335 -0.028421419 0.0113706 0.074779905 0.10463924 0.02948504 -0.12629554 -0.012752188
0.114178695 -0.12019512 -0.035387266 0.08614658 0.05682946 0.091724046 -0.057489887 0.061279442
-0.0051101665 0.11406821 0.075551346 -0.13608994 -0.0025135542 0.111144856 -0.08990546 -0.0044733104
-0.059955377 -0.032531656 -0.0024822056 0.14592606 -0.05624599 0.08050982 0.007964302 0.013299111
-0.08029201 0.00857718 -0.08665386 0.030741584 -0.018205862 0.014117031 -0.109230645 0.017522452
0.14601159 0.11134486 -0.121256284 -0.045430817 -0.04006221 0.11825019 -0.14317428 0.14072286
-0.04934712 -0.015989505 0.3056975 0.02626159 -0.15137957 -0.10030493 0.01275263 -0.098762564
0.061175626 0.15211117 -0.02469156 0.061735723 0.098987736 0.17794411 -0.0939631 0.08620249
0.13773134 -0.1604455 0.108468294 -0.015343738 0.11341718 0.15888935 -0.121725015 -0.079957396
-0.105939575 0.09420726 -0.09627539 0.0032277524 0.17562824 -0.041577935 0.1747042 -0.06966655
0.18269731 -0.07845717 0.1071203 -0.091042295 -0.07587771 0.13797927 0.12768096 0.024966259
0.12363367 0.21797216 0.17092213 -0.051150657 -0.058445387 0.20215064 0.08226062 0.032121904
-0.02272881 0.06673081 0.057427492 -0.07456409 -0.057929512 0.08413134 -0.056002825 0.19261086
-0.11971427 0.099255495 -0.08396726 0.041320786 0.20887835 -0.048021324 -0.015566543 0.070896894
0.091273315 0.08010249 -0.048608083 -0.16121666 -0.020253403 -0.01610272 -0.13046835 0.040755335
0.03435787 0.14352272 -0.09957004 -0.006520612 0.07792935 0.12913452 0.047019366 0.077605546
-0.06574628 -0.10247733 -0.20112136 0.039630916 0.048657022 0.01868726 0.06117054 -0.08537358
0.009960485 0.05806755 -0.049461477 0.027439628 0.041613687 -0.13819489 -0.19591448 0.10007746
-0.07375832 0.049362198 0.014645956 -0.06840996 -0.031022819 0.034399662 -0.07186358 0.017152019
0.08249343 -0.08993751 -0.042385347 -0.094920285 0.057178278 0.031489167 0.039545417 0.029363211
-0.019589733 -0.06698663 0.11717717 0.07285844 -0.007695052 -0.025176136 0.10443933 0.028823884
0.018717322 -0.07777653 -0.0008595301 0.07338955 -0.011216435 0.08714338 0.0048032845 -0.0472732
-0.09171257 0.0019292234 0.046055764 0.1112047 -0.051860362 -0.0013608114 0.0053833085 0.014801164
-0.08909046 -0.0042042416 -0.012905813 0.020426735 0.012359876 -0.03370939 -0.032123324 -0.015921861
-0.0592 0.008753425 0.04029132 -0.07099149 -0.0916831 -0.043309845 0.048381817 -0.086688064

bias f4 [100]
00000000: c8aa 573d 5034 b83d 9e6c 8cbd 3c24 4fbd
00000010: 8d6b 353c c005 65bd e8a2 643d db6e 793c
00000020: 2a9e 9e3c bfb1 aebd 22fa 2ebd ae0f 133e
00000030: da4d 083e df7b 9b3d 2e2d 02bd 7ff9 383d
00000040: 183d 60bd df62 4a3d 7f1c 1dbd 6370 d53d
00000050: 7936 c03c e210 dc3d 78a8 90bd a9d5 413c
00000060: 7706 b8bd c8bf 54bd 3f5c b13b 4965 713c
00000070: 03c8 5b3d b398 293d 3456 923c 25a8 823c
00000080: b9e5 293d f265 943d 8e3a 0cbe 2a7e 353e
00000090: 3f16 ee3d 3704 573d 020b 4d3d cf58 823d
000000a0: 2bdd b63d 1803 d23c 1349 a6bd 6d32 273e
000000b0: 1f74 543d d030 0e3e d51c 893d 73aa 0a3d
000000c0: 8348 41bd 86fa 853d b2cc a43a 4237 a1bd
000000d0: 231f de3d 6be1 f83c 2d2e 673d 21a1 1d3c
000000e0: c294 a9bd 2972 0b3d dd42 f43d 0d4e 86bd
000000f0: 3e6f 99bd a27c f13d 2298 0c3d 04f8 b5bd
00000100: 0011 f13d 0d79 69bb c649 133e 7f54 963d
00000110: 4533 8fbd f9d7 aa3c b712 a33d c091 943d
00000120: 9b89 e43d 712b 0ebd cfad 8c3d bb64 c5bc
00000130: 4df4 c43d c6ec 34bd 5cbd 083e 1168 4cbd
00000140: 39a6 753d 27d5 a23d 9460 443d 1279 023d
00000150: 0a65 053e 65f6 ddbc e62a c33d c4ea 05bd
00000160: b27b 01be f422 e0bd a8ce 9fbd 8fd0 153c
00000170: 80d7 923d fd88 8c3d bee2 953d 2e57 fb3d
00000180: 76aa 04bd 0f09 433e e336 af3d 23eb 1b3e
0.052653104 0.08994353 -0.068566546 -0.050571665 0.011073005 -0.055913687 0.055819422 0.015224184
0.019362528 -0.08529996 -0.042719014 0.1436145 0.13310948 0.07591986 -0.031781368 0.045159813
-0.054745764 0.049410697 -0.038357254 0.10421827 0.023463475 0.10745408 -0.07063383 0.011830726
-0.08985608 -0.05194071 0.005412608 0.014733621 0.053657543 0.04140539 0.01786337 0.015949318
0.041478846 0.07246007 -0.13694212 0.17723909 0.11625337 0.052494254 0.050059326 0.06364595
0.08928903 0.02563624 -0.081194066 0.1632783 0.051868554 0.13885808 0.066949524 0.03385396
-0.047188293 0.06541924 0.0012573211 -0.07871868 0.108457826 0.030380925 0.05644052 0.009620936
-0.082803264 0.03404442 0.11926816 -0.06557856 -0.07491921 0.1179135 0.034324773 -0.08885196
0.117708206 -0.003562513 0.14383611 0.07340335 -0.06992201 0.020854937 0.07962554 0.07254362
0.11159059 -0.034709398 0.06869089 -0.024095884 0.09616909 -0.044171117 0.13353485 -0.049903933
0.059972975 0.07950812 0.047943667 0.031853743 0.13026825 -0.02709503 0.095296666 -0.032694593
-0.12644842 -0.10944167 -0.078030884 0.0091439625 0.071700096 0.06862066 0.07318638 0.122724876
-0.032389127 0.19046424 0.08555391 0.15226416

weight f4 [10, 100]
00000000: 9717 cbbd 7acf 943e 1925 d53d 6652 79be
00000010: a7e2 f6bc 3984 99bd ffb4 11be dc0d 93bd
00000020: 14ec 99bc 6b80 1fbd 9908 a5bb 69ca a6be
00000030: 3083 93be bdec e23e c392 553e ad91 763c
00000040: a49e 9a3d f6ee 83bd 1a25 4cbd fb7e 47be
00000050: dc1c 73bd 82af c73e 48cf a63b b40d 30be
00000060: 47e7 b7bd f16d 80bc 7f98 95be 9a23 a33e
00000070: f0ff c9bd 9184 e5bd f7dc e23d fef6 a53e
00000080: 1328 77bd 5a5b 93bd 43d3 a73e 7b36 c93c
00000090: 9ffd c3bd 0939 193c 0bbf 41be d442 b1bd
000000a0: 431e 963e 9622 35bd d3f1 bc3e 4ebc 1fbe
000000b0: f2e4 ab3d e1e0 67be f0f6 85bd 9ca0 0dbe
000000c0: 31cf 713e eb1b 82bd 083d 4ebe ffed 96bd
000000d0: e773 ac3e 4ffa 6c3e 0dc5 dfbe 1c8d 9ebd
000000e0: 00a5 523e 3cbb 58be 77bd 16be 4bc2 88bd
000000f0: 4226 713d 59a4 87be 9a16 893d 4f2e bcbd
00000100: 5b77 253e ee89 65bd 18c5 f93d fcdb 9ebe
00000110: 703a 3dbc ec29 2e3c bc57 2cbe 883a 51be
00000120: bbb5 c7be 3aaa 843d 1b13 23be 8d0b ebbc
00000130: 6d61 ea3e 4b88 843d 988e 11be 71f3 963d
00000140: 1b38 00bf e678 9c3d 91c9 f93b 9833 083f
00000150: 6f78 28be ccd7 953d be16 cc3d 2fab cebd
00000160: 2d37 da3d 762e c1bc 0273 fc3c 09e4 103e
00000170: b371 25bc 0b3b 1d3e db68 183d e46f 0f3d
00000180: ca34 6dbd 4f6b e1be f8f7 23bd 85a4 8dbc
00000190: aa1c 80be 7177 fabe 65bb db3d bb5a e53c
000001a0: a49d 843d 91ea b5bb 341b c5be f5c1 a33d
000001b0: 12e1 583d f579 41bd 580a 74bd ed02 193d
000001c0: d62b aa3d a7f1 22bd 999d 85be 87a7 443d
000001d0: 939c 8d3e ffa7 813e 533b 2dbd 5cf9 acbc
000001e0: 82de d83b c7c0 4dbe 1a4c 8fbe 8b43 f1bd
000001f0: 1ba1 3ebd 2539 a1bd a6c7 a43d 2d59 09bd
00000200: 1bb2 513e 151d 213e ab4b 09be 854a 87be
00000210: bd67 4d3e 6d3b d5bd 5aef 70be 8a77 253c
00000220: 7aef 853e 5dab c1bd 8ec6 8f3d a73b 923d
00000230: 3e1c 473e c814 e93c 3ab3 033e 94a9 333e
00000240: df9f c9bd 5bc8 cb3e b534 0e3d f62f b9bd
00000250: e22a 0dbf fb0e d4bd 0e6b e73e e41a 6e3c
00000260: 5e02 08be ab9e 7cbe d628 df3e a832 abbd
00000270: b277 bf3c f424 91bd 1854 0cbd dc74 96bd
00000280: 2803 0a3d 9864 ee3d 52c8 253c b57a efbc
00000290: a5de 9d3d bb95 983d 97ff c8bd 3686 f13e
000002a0: 7b32 a6bc eb29 833d a0f0 50be 456c ad3e
000002b0: 3ee5 cf3e 0ba4 95bd fcb6 10be 73a5 bb3d
000002c0: 1561 5bbe dbed f5bd 977e 613e 3ed9 013b
000002d0: 1fa9 aebd 4785 a83e 10a2 88bd e907 82be
000002e0: ed35 0b3e 23c0 483e 9c1c cbbe cde6 10bd
000002f0: 3739 9db9 1c12 6dbe 26cb 1d3d 2856 c6bc
00000300: 655e 85bc 3a58 023e a3e0 353e 3413 0abe
00000310: 3af1 7bbd 1901 a2be a987 97be bdd1 d6bd
00000320: bf2c 98bd ac5b 3abe b175 773d f9cd 8e3d
00000330: 1463 993e 1a35 343d 41a3 f7be fa4a 6b3e
00000340: 6784 13be b2ff b23d a197 9bbc 8110 4abe
00000350: 9233 8d3d e493 5cbe 6ffb 81bc f035 ee3e
00000360: 27c3 9f3e 7e9b 33bd 59e8 ccbc 5e9a 283e
00000370: 00ac 49bd f05c d6be d2f6 cd3e 759d 6c3e
00000380: 87cd 86bc 7e5e 8b3d 9604 35be 7b85 a5be
00000390: 4e65 543e af05 6f3e 1a8f d13e b0c5 133e
000003a0: 3b81 b1bd ee3d aebd a974 933e 321a 5cbc
000003b0: 17f2 a43d 2b81 d8be fb0c 493c f6ae 7a3e
000003c0: 1451 a63e 147b 523d f31a 4a3c 8d1f 9d3e
000003d0: 1745 2f3c 2e9e a43d 6d1d 66bd a387 7a3e
000003e0: 0fbf d43d c145 823e 2b8e bbbe 9868 b63d
000003f0: b492 c33d 4f8b 253e 0872 a73d e783 febe
-0.09916609 0.29064542 0.104074664 -0.24347839 -0.030137373 -0.074959226 -0.14229201 -0.07180378
-0.018789329 -0.03894083 -0.0050364253 -0.32576302 -0.28811026 0.44321242 0.20856766 0.01504938
0.075497895 -0.064420626 -0.04984007 -0.19482033 -0.059353694 0.3900109 0.005090628 -0.17192727
-0.089796595 -0.015677424 -0.29217908 0.318631 -0.09863269 -0.11206926 0.11077302 0.32415003
-0.060340952 -0.07195158 0.32778367 0.024562111 -0.09569859 0.009351977 -0.18920533 -0.086553246
0.29319963 -0.044222437 0.36903247 -0.15599176 0.08393277 -0.22644378 -0.0654124 -0.13830799
0.23614193 -0.06352981 -0.20140469 -0.07369613 0.33682176 0.2314236 -0.43705025 -0.07741758
0.20570755 -0.21165174 -0.14720713 -0.066776834 0.058874376 -0.26492575 0.06693764 -0.0918852
0.16158812 -0.056039743 0.12195796 -0.3102721 -0.011549577 0.010630112 -0.16830343 -0.20432484
-0.39005837 0.06477781 -0.15925257 -0.028692031 0.45777455 0.06471308 -0.14214551 0.073706515
-0.5008561 0.07640247 0.0076229055 0.53203726 -0.16452192 0.073165506 0.09965275 -0.100912444
0.10655055 -0.023581725 0.030816559 0.14149489 -0.010097909 0.15354554 0.037209373 0.035018817
-0.05791167 -0.44027182 -0.040031403 -0.017290363 -0.2502187 -0.48919252 0.10729102 0.027997365
0.0647538 -0.005551644 -0.38497317 0.07995979 0.05294902 -0.047235448 -0.059580177 0.037356306
0.08309142 -0.03978124 -0.260968 0.04801133 0.2765852 0.25323483 -0.042292904 -0.021114998
0.006618322 -0.2009307 -0.27987748 -0.11780461 -0.04654036 -0.078722276 0.080458924 -0.03353231
0.20478098 0.1573375 -0.13407771 -0.2642404 0.20059104 -0.10411725 -0.23528805 0.010099301
0.2615927 -0.09456513 0.07020293 0.07140284 0.19444367 0.028452292 0.12861338 0.17545158
-0.09844946 0.39801297 0.034718234 -0.09042351 -0.5514356 -0.1035442 0.45198864 0.014532778
-0.13282153 -0.24669902 0.43585843 -0.08359271 0.023372505 -0.070871264 -0.034259886 -0.07346508
0.033694416 0.116402805 0.010118561 -0.029233316 0.07708482 0.07450434 -0.09814375 0.47172707
-0.020287743 0.064044796 -0.20404291 0.33871666 0.40604585 -0.07306679 -0.14132303 0.09162416
-0.21423753 -0.12008258 0.22020946 0.0019813324 -0.08528351 0.32914183 -0.06671536 -0.2539666
0.1359479 0.19604544 -0.39670265 -0.03537636 -0.00029988002 -0.2315144 0.038523816 -0.024211004
-0.016280362 0.12728968 0.17761473 -0.13483888 -0.06150935 -0.31641462 -0.29595688 -0.10489223
-0.0743041 -0.18199033 0.060414974 0.0697288 0.29958403 0.043995954 -0.4836674 0.2297782
-0.14405976 0.08740176 -0.0189932 -0.19732858 0.06894602 -0.21540791 -0.015866963 0.46525526
0.31203577 -0.04384946 -0.025013136 0.16465136 -0.049236298 -0.4186778 0.4022737 0.2310694
-0.016455425 0.06805132 -0.1767753 -0.323284 0.2074177 0.23342012 0.4092949 0.1443088
-0.08667227 -0.08507906 0.28799942 -0.01343398 0.080539875 -0.42286047 0.012271161 0.24480805
0.32483733 0.051386908 0.012335527 0.30688134 0.010697625 0.08037983 -0.056180406 0.24465804
0.10388004 0.25443843 -0.36631903 0.089066684 0.09549466 0.16166423 0.081760466 -0.49710009

bias f4 [10]
00000000: 8c80 0abe 4017 c03d 53fe 84bd 1806 21be
00000010: 1440 7c3d f02f 603e fcda 02be b92f a43d
00000020: c1c2 9dbe 1b23 f8bc
-0.13525599 0.093794346 -0.06493821 -0.15724981 0.061584547 0.21893287 -0.12778848 0.08016915
-0.30812648 -0.030290177
