artifacts/1/1bf8822f7d0744528ea8ccfd86fca215/artifacts/model/data/model.pth (torch, 362823 bytes, 6 tensors)

weight f4 [100, 784]
00000000: ca58 babc 9398 83bb fcde e9bc 1ebb 0cbd
00000010: 4aba 0fb9 004e 023a 4a85 d1bb b8d2 f4bc
00000020: ec9c b33c 5cfa 80bc bc81 5abc fcad 723c
00000030: e10a 8e3b cc58 f13c d44c 0ebd bd54 e8bb
00000040: 93f9 92bb b57b 08bd 4e8c 36bc ce78 df3c
00000050: 6e9a f5bb aa6f 113c ae8e e0bb 0eb2 23bc
00000060: 8d46 033d 6591 07bd 1c83 893c bab9 bcbc
00000070: 2627 11bd 4299 0d3d 9360 033b 2a30 f8bc
00000080: 0214 b83c d65f 933c 5182 a23b 0335 fc3c
00000090: 7f33 2cbb c619 73bc 85e5 ff3c 0b89 8fbc
000000a0: 1151 763c e3f2 3a3c 6b3a a8bc b1a1 d5bc
000000b0: e46e 4eba 8547 a73c 11d8 12bc 26fa 8e3b
000000c0: be23 64ba dfce 9fbc 4c4d 2d3c a7e2 0b3d
000000d0: ac5e f23c 8323 80bc f380 7f3c 63e2 a73c
000000e0: 0760 c73c d87b ecbc e9d2 da3c e945 be3b
000000f0: 9fb2 a93c 82f2 283c dd30 fabc 0388 6c3c
00000100: 02f6 d23c ad7b 26bc 488b fdbb d29c a2bc
00000110: 8d96 26bd 0234 8a3b 6b01 e13b c8ef 52bd
00000120: 75cb 45bd af46 29bb a1ba e93b c339 e6bc
00000130: 4e96 9f3c 935b e2b9 eb08 1ebd f103 873c
00000140: ef8a 07bd 3ecb 4ebb 019e b5ba 253a 88bb
00000150: 1aaf b83c a397 8dbc 74af ee3c db3d e23c
00000160: 93dc 3e3b d39d 283a 1056 c2bc 4d2f 613b
00000170: d902 ebbc 0bde 3fbd 7ccd 793b 0f8d a13c
00000180: d0bc d2bc 5d77 e03b 6d10 b0bc 032c 373c
00000190: 8e77 44bc dda5 ecbc 784e 37bd 0c02 70bc
000001a0: 261f a4bb 7ea3 6bbc e70c 02bd 2cea 1abd
000001b0: 8a96 5d3c de18 103d 6170 07bd 65ad 0fbc
000001c0: 653d dd3c ee84 62bc 6c3c 49bc 9744 ea3c
000001d0: f1e6 143d cf1f 3c3c 176b e93b 1771 ee3b
000001e0: 383d 9ebc 1c73 cb3c 5e83 cbbc 05d6 49bc
000001f0: 89d9 13bc 05c0 f93c 6111 063c 36df b4bc
00000200: 138c 13bd 66b4 84bc 1426 603b 3935 33bc
00000210: 2c23 cebc 16b9 71bd 503e 26bd cb17 683b
00000220: c3df 00bd 4a78 3a3c 9a47 a73c 449f be3c
00000230: 7381 82bc 8e3c 2ebc 961b c73b 6c68 c03c
00000240: bcac 063d 648e b23c 3cdb b13b da89 26b9
00000250: 0d46 443d 72c4 29bc 6be7 5c3c ffe5 113d
00000260: a5bc f93c 9a84 e33c 58ef c2bc 8596 6d3d
00000270: c842 f9bb a68d 283c e415 b6bc 9d91 43bd
00000280: e654 88bd a7be fbbc bf6d 5abd 441b 81bd
00000290: ed77 733c 08ab a0bc 86ea e33b 61a4 903c
000002a0: 22d4 0c3d 29e7 e3bb 1e1a bf3c 411e 87bc
000002b0: ad25 0bbc 7f0a ab3b 04da 2a3d 7fbc 613d
000002c0: af3d 2d3d f4f0 0d3c bda9 613d 3b67 623d
000002d0: 576f 043d 40e0 b83c 9c6b 6539 5e77 5e3d
000002e0: 1016 873c a035 8e3d a88a 823d 45d8 3a3c
000002f0: f476 d03c e9cc de3c 0837 fabc 0d86 85bd
00000300: ad95 17bd 062b dfbc c05b 02bd 403f f83c
00000310: 8a69 92ba cadb 81bc e100 01bc f12c 4dbc
00000320: 25b6 26bb 9bb9 dcbb 0e44 4d3d edab 0ebc
00000330: 7801 823c 8b18 753d 2806 3b3c a28d 1b3c
00000340: cad6 5c3c cb46 8d3c f2cc a73c cd46 ce3c
00000350: 0110 a63c ad82 1d3d b134 683c 93ae 853d
00000360: 43bc 0a3c 5527 3bba 131c 6cbd 1b80 03bd
00000370: 2ffa 21bc d237 83bc 05d6 15bd 6f0f 803a
00000380: dbf5 633c cdd0 003d fd61 f9bc 2e54 72bc
00000390: 178a 103d cda6 4a3d bde1 3c3d 5ded 37bc
000003a0: 433d 92bb cdcf 923c e55b bcbb 34bd 7f3c
000003b0: 2a79 483d 874f c73c 4231 6e3d 5257 b93d
000003c0: c96f 2d3d f3b8 783d b533 b53d 6ae9 3f3d
000003d0: 1c6a 4e3d 36a3 cbbc ec50 75bc d7a9 86b9
000003e0: e194 7abd e6bc 16bd 0a6c 0dbc b0c4 fabc
000003f0: a141 063d 02e6 163d facf b6bc e8ce 2d3d
-0.022747416 -0.004015991 -0.02854871 -0.034358136 -0.00013706941 0.00049707294 -0.006394063 -0.029885635
0.021925412 -0.01574438 -0.013336595 0.014811989 0.004334793 0.029461287 -0.034741238 -0.0070901797
-0.004485318 -0.0333211 -0.01114185 0.027279284 -0.007495216 0.00887672 -0.0068529462 -0.009991182
0.032049704 -0.033097643 0.01678615 -0.02303778 -0.035437725 0.034569986 0.0020046576 -0.030296404
0.022470478 0.017990034 0.0049593826 0.030786997 -0.0026275811 -0.014837688 0.031237373 -0.017521402
0.015033976 0.011410448 -0.020535668 -0.026078077 -0.00078748004 0.020419845 -0.008962647 0.004363316
-0.0008702836 -0.019507824 0.010577511 0.0341517 0.029586159 -0.015641933 0.015594709 0.020493692
0.024337782 -0.028867647 0.026711898 0.005806674 0.020715056 0.010311725 -0.030540878 0.014436725
0.025752071 -0.010161323 -0.007737551 -0.019850168 -0.04067092 0.0042176256 0.006866624 -0.051498204
-0.048289735 -0.0025829484 0.0071328436 -0.028103715 0.01948085 -0.00043174307 -0.038582724 0.016481372
-0.03309148 -0.0031554247 -0.0013856293 -0.004157322 0.022544432 -0.01728422 0.029136397 0.027617386
0.0029123172 0.0006432209 -0.023722678 0.003436047 -0.028687881 -0.046842616 0.0038116863 0.019720582
-0.025724798 0.0068501667 -0.021492207 0.011179927 -0.011991395 -0.028887684 -0.044752568 -0.0146489255
-0.005008596 -0.014382241 -0.031750586 -0.03782098 0.013524661 0.035179965 -0.033066157 -0.008769368
0.027006814 -0.013825638 -0.012282472 0.02859716 0.036353055 0.011482193 0.007123362 0.007276665
-0.0193163 0.024835162 -0.024842914 -0.012319093 -0.009024032 0.03048707 0.008182854 -0.022079092
-0.036022257 -0.016199302 0.0034202384 -0.010937982 -0.025163256 -0.059014402 -0.04058677 0.0035414572
-0.031463396 0.011381218 0.020419884 0.023269303 -0.015930867 -0.010634555 0.0060762865 0.023487292
0.032879576 0.021796413 0.005427746 -0.00015882347 0.047918368 -0.010361778 0.013482909 0.035619732
0.03048546 0.02777319 -0.023795769 0.058004875 -0.007606838 0.010287678 -0.022227235 -0.04774629
-0.06656818 -0.030730559 -0.05332732 -0.06304029 0.0148601355 -0.019612804 0.0069554476 0.017656507
0.034381993 -0.0069550467 0.023327883 -0.016493918 -0.008492869 0.005219757 0.041711822 0.055111405
0.042295154 0.008663405 0.055093516 0.05527423 0.032332744 0.022567868 0.0002187923 0.054313056
0.016490012 0.06943822 0.06374103 0.011404102 0.025447346 0.027197318 -0.03054382 -0.06519709
-0.037007976 -0.027242195 -0.03182578 0.030303597 -0.0011170369 -0.015851874 -0.007873745 -0.012522922
-0.0025438156 -0.006735993 0.05011373 -0.0087079825 0.015869841 0.05983786 0.011415042 0.009494217
0.013478944 0.01724567 0.020483468 0.025180245 0.020271303 0.0384547 0.014172719 0.06527438
0.008467737 -0.0007139345 -0.05764396 -0.032104593 -0.009886309 -0.016017828 -0.036581058 0.0009770225
0.013913597 0.031449128 -0.030442232 -0.014790578 0.035287943 0.04947548 0.04611372 -0.011226025
-0.0044628694 0.017921353 -0.0057482594 0.015609074 0.048943676 0.024329914 0.058152445 0.09049858
0.042342935 0.060723256 0.08847753 0.04685346 0.050394163 -0.024858098 -0.014972907 -0.00025685012
-0.06117714 -0.03680124 -0.008631716 -0.030611366 0.032777432 0.036840446 -0.022315968 0.04243365

bias f4 [100]
00000000: 3003 82bc 1c2c 853d d0ed 173d 7ee4 ec3c
00000010: c12e d0bd 7938 bb3c 82e7 253d 2676 8d3d
00000020: 33bc fa3c c00e 96bd 4558 93bc da6c 793d
00000030: 363c eebc ec9f afbb a5aa 313d e23f 2a3d
00000040: 78b9 763d fefe a7bc 57a9 7a3a cb10 9a3c
00000050: da01 22bd 8e60 013d 0bdc bb3c a87c bbbd
00000060: 1092 0f3d 75e8 a13d cbde b3bd 34c6 a7bd
00000070: dd0d 703d 640c c53b a5fa 453d d6f1 8c3d
00000080: 29db 6fbc 326d bc3d 252c 803d eb75 39bd
00000090: 4366 a73d 030a 993c d726 513d e9a7 ea3d
000000a0: 3fdf e8bb 624e 2f3d 3eb8 9e3d 2071 d5ba
000000b0: f378 7f3c ab22 b8bb e954 3f3d 3c54 6a3d
000000c0: 782d 4fbd 93bd 72bd 8d43 26bb 635f aebd
000000d0: 6f13 2c3d 9839 833c 959d 2d3d 728f 253d
000000e0: 505b fc3d e667 5c3d b748 94bc ff37 b53c
000000f0: a71b 1d3d e5a3 023d b499 953d 365f bd3c
00000100: 2d5e 7b3d 5596 bd3c 371e 153b eccf 08bc
00000110: 9e72 f13d acb9 873d 4472 fdba e409 803d
00000120: e54a f8bc 6790 6b3d d27f 6a3d ab84 023d
00000130: 6249 7d3d ddf4 02bd 668f b3bc ec62 4c3d
00000140: 695f 013d c9a1 ff3d 2a7a 43bd 3b10 b43d
00000150: c308 ed3d f546 43be f06c 48bd cdaa ca3d
00000160: 487c 603d 8258 d73d 18da a7bc 13bd d33d
00000170: 3f43 c03b d40d 1e3d 7d16 ba3d c7e4 f53c
00000180: f9cf be3d 7757 0a3d d417 07bc 9aec 423c
-0.01587066 0.06502554 0.03709203 0.028917547 -0.101651676 0.022854077 0.040503986 0.06907301
0.030607319 -0.07327032 -0.017986426 0.060894825 -0.029081445 -0.0053596403 0.04337563 0.04156483
0.06023547 -0.020507332 0.0009561977 0.018806836 -0.039552547 0.031586222 0.022932073 -0.09154636
0.035051405 0.07905666 -0.08782729 -0.08192101 0.05860697 0.00601344 0.048334736 0.06882064
-0.014639654 0.09200515 0.0625842 -0.04527847 0.08173802 0.018681532 0.05106243 0.114578076
-0.007106691 0.04279936 0.07749985 -0.0016284324 0.015592801 -0.005619367 0.046711836 0.05720924
-0.05058047 -0.059262823 -0.0025369853 -0.08514287 0.04201072 0.016018674 0.04238661 0.040420003
0.12322104 0.053810023 -0.01810108 0.022121428 0.03835645 0.031894583 0.07304707 0.02311669
0.06136911 0.023142973 0.0022753605 -0.008350354 0.117894396 0.06627211 -0.0019336422 0.062518865
-0.03030915 0.05751076 0.057250805 0.031864803 0.06183756 -0.0319718 -0.021918964 0.049899027
0.03158513 0.1248203 -0.047723927 0.08792158 0.11573937 -0.19070037 -0.048932016 0.09895859
0.054806024 0.105149284 -0.020489737 0.103387974 0.0058673914 0.038587406 0.090863205 0.030016316
0.093170114 0.03377482 -0.008245427 0.0118972305

weight f4 [100, 100]
00000000: 27e7 74bd ce7a ecbd c186 143e 30ba 123e
00000010: cf95 b2bd 83c7 c43d 38ea 6b3d 17ab 22bd
00000020: 1aa2 a1bd 421e 52bb b185 aabc 830d 573c
00000030: 6c3e c9bd 4c61 0abe 4fd4 0d3e 62ea 27be
00000040: 13c5 5d3d aafd 86bb ec5d 223d 4602 c63c
00000050: 6723 93bd c48a 68bd 3ea6 e03d 9261 503d
00000060: faae 463c 6f78 a63d 34c8 68be 04e3 fb3d
00000070: 48bc bcbb 1f11 1c3d e96e f3bc 37c3 3bbe
00000080: 8a0e 053e ffd9 9dbd 3c18 273e 5d13 6e3c
00000090: f294 523e 2e6d d23d 6e61 73bd d76a 05be
000000a0: 6230 843c 5256 1cbe 6083 cdbc f19b 53be
000000b0: 24f5 133d e05b 053d a066 18be b6a0 793d
000000c0: 205f cc3b 68c3 133c 62b3 133e 5185 8ebc
000000d0: d8e2 0bbc 0a41 193e 2b6a 083e fe12 ab3c
000000e0: f35b 003d 51bc c03d 3627 1bbd 4383 f03d
000000f0: d07d abbd 2385 1abd 5495 00be 8784 f03d
00000100: b054 bcbd ab6a e8bd 79c2 853d 630a bf3d
00000110: b832 c33d 2c05 1f3d 8214 37bd 7cb3 083d
00000120: 3c3a 52bd c9b0 c3bd 8966 903d 2667 e53b
00000130: c97e 0abd 1060 833d 30b0 1f3d d256 e33d
00000140: cca9 1d3e 553b 64bd 05ec 8c3d 50b0 eb3d
00000150: 2afe 2d3e 42c2 c93d af12 273e 658b 133e
00000160: e911 a6bd c3b4 ef3d 8cb8 18bb e4bd 37bd
00000170: f6cb 013d ef2e a0bd beec da3d 4233 033e
00000180: 4ba3 46bd aa0d 013e b16b a13d fabe 5cbd
00000190: 0b44 163e 8f2c b5bd 0ebb 233e 4518 36bc
000001a0: 88ef 25be f3bb eabc 0496 84bd 0b77 233e
000001b0: 51db e3bd 21e0 83bd bdd7 043e d118 213d
000001c0: 1239 893c 0c5f 7cbd 6a25 2c3e 7e4c 5abd
000001d0: 86d4 db3c db7d 693d a2d7 44bd ed1e 0abe
000001e0: 4ca1 02be 9beb 153e 049b 203b 69f2 4fbd
000001f0: 41c8 35bd b3bf f7bc 4ea3 833d 6037 003e
00000200: 6962 4a3e ddf9 143d 5840 ac3d aaa6 b63a
00000210: 7298 37be eb93 39bd ed36 1b3e 9dea 8a3b
00000220: 7624 ed3d 2b73 3d3e fced 5a3b 7583 013d
00000230: 5f8d 03be 949c be3d 3539 cfbc cf88 05be
00000240: c10b 1fbd 0550 bcbd 7738 153d 415c 00be
00000250: f85e a43d 4772 143d 4d9e c7ba 590a a6bd
00000260: 64ce e5bd 99ce 0f3e 2022 20bd b97b cfbd
00000270: 2952 7cbe cb7e f43d a4dc 36bb 39ea 083e
00000280: 77a2 a43d 8794 b43b a061 dabd fe35 253d
00000290: 1ed1 e83d 9792 98bd df33 883d 2927 773d
000002a0: 4221 833d c184 0b3b 8228 833c 9077 47bc
000002b0: 781f 913d d412 c03d 2756 3d3d 24d0 72bd
000002c0: 9bb0 0f3d 306b d73d 4dbf 673d f55e ea3d
000002d0: 33ed acbd 8c21 df3d 5ea7 0e3d 810c 163e
000002e0: 579d ec3d 6831 173c 0d68 a63c fa78 08be
000002f0: dc1f d33d ba38 d33d 983e 01be 6d38 5f3b
00000300: e13a 26bd ce43 f63d 55f7 f93d 04f8 853c
00000310: ff0b bb3d 50a2 d1bd 0e09 e53d 61cf 4fbd
00000320: 6db8 2e3e 87c6 233d cbc2 223d 0e35 94bd
00000330: 5ce0 e9bd 3e04 bdbd 52c0 02be 44b5 683c
00000340: 2b33 2dbd 5cac bc3d 65d6 543e 5e3b c8bd
00000350: f361 6d3d 6fd7 e0bd 069d ec3d 1174 ad3d
00000360: ddf6 9e3d 5223 903d 0650 b63c d3d3 50be
00000370: e630 c2bd ff1f 253e 99dc 093e 155c 82bd
00000380: d8a1 193d d0b0 233e f1cf 3bbc 8642 c43d
00000390: 2801 363e fdf2 d9bd 99b0 933d 0475 ea3d
000003a0: e1a1 f5bd 0f42 25be 690f 1d3e ef7a adbd
000003b0: 7470 fe3d 7191 f33d dd99 1c3e 21f5 323e
000003c0: afff 0ebe 13c5 443e 2c1a de3d f6e0 64b9
000003d0: 3cb1 4abd db34 95bd 17cb 763e 1451 5ebd
000003e0: 9d99 383e 6c49 efbd a913 19bc 8b94 313d
000003f0: db11 a2bd 1ffc 31bd 2190 03bd 5ba8 b33b
-0.059790757 -0.11546861 0.1450453 0.14328837 -0.0871998 0.09608366 0.057596415 -0.039713945
-0.078922465 -0.0032061492 -0.020815702 0.01312578 -0.09826359 -0.13513678 0.1385052 -0.16398004
0.054143023 -0.0041195946 0.039640352 0.024171006 -0.07184487 -0.056772962 0.10969208 0.0508743
0.012126679 0.0812844 -0.22732621 0.12299159 -0.0057597496 0.038102265 -0.029715972 -0.18336187
0.12993827 -0.07707595 0.16317838 0.014530984 0.2056463 0.102747306 -0.059419088 -0.13029037
0.016136352 -0.15267304 -0.025087059 -0.20664956 0.036122456 0.032558322 -0.14882898 0.06094428
0.0062369257 0.009018756 0.14423898 -0.017397555 -0.0085379705 0.14966217 0.1332175 0.02088308
0.03133769 0.094109185 -0.03787919 0.11743786 -0.08373606 -0.037724625 -0.12556964 0.117440276
-0.0919584 -0.1134847 0.06531233 0.09328153 0.09531158 0.03882329 -0.044697292 0.033374295
-0.051325068 -0.095552035 0.07050807 0.0070008216 -0.033812318 0.06414807 0.038986385 0.11100544
0.15396804 -0.055720646 0.06880955 0.11508238 0.16991487 0.09851505 0.16315721 0.14408644
-0.08108885 0.117043994 -0.0023303358 -0.04485883 0.031688653 -0.07821452 0.10689686 0.12812522
-0.048495572 0.12602869 0.07881869 -0.053893067 0.14674394 -0.088463895 0.15989324 -0.011114185
-0.16204655 -0.028654074 -0.06473926 0.1596338 -0.11125816 -0.064392336 0.12972923 0.039330307
0.016750846 -0.06161408 0.16811147 -0.053295605 0.026834738 0.05700479 -0.048057206 -0.1348836
-0.12756842 0.14640658 0.002450646 -0.05076829 -0.04438043 -0.030242776 0.06427632 0.12521124
0.19764103 0.0363711 0.0841071 0.0013935168 -0.17929247 -0.04530708 0.15157671 0.004239394
0.1157922 0.18500964 0.003340601 0.031619508 -0.12846898 0.09307209 -0.025295833 -0.1304047
-0.03882957 -0.0919495 0.036430802 -0.12535192 0.08025926 0.036241796 -0.0015229672 -0.081074424
-0.112210065 0.14043655 -0.039095044 -0.1013102 -0.24640717 0.11938246 -0.0027902508 0.13370599
0.080388 0.00551087 -0.10663152 0.040334694 0.11368011 -0.07449835 0.066505186 0.06034008
0.06402828 0.0021288844 0.016010527 -0.012174502 0.0708608 0.09378591 0.04622474 -0.05928053
0.035080533 0.10518491 0.056578923 0.11443893 -0.0844368 0.108950704 0.034827583 0.14653207
0.11553448 0.009228088 0.020313287 -0.13327399 0.10308811 0.10313554 -0.12621534 0.0034060732
-0.040583495 0.120246515 0.12205378 0.016353615 0.091331474 -0.10236037 0.11183368 -0.05073488
0.1706254 0.039984252 0.03973655 -0.07236682 -0.11419746 -0.09229325 -0.12768677 0.014203373
-0.042285126 0.092125624 0.2078491 -0.097769484 0.05795474 -0.10978591 0.11553387 0.084694035
0.07761929 0.07037987 0.022254955 -0.20393305 -0.09481983 0.16125487 0.13463058 -0.063652195
0.03750786 0.15985417 -0.011463151 0.09583001 0.17773879 -0.106420495 0.07211418 0.114481
-0.119937666 -0.1613848 0.1533791 -0.08470713 0.124237925 0.11892975 0.15293069 0.17476322
-0.13964723 0.19215803 0.10844836 -0.00021827579 -0.04948543 -0.07285472 0.2410091 -0.05427654
0.18027349 -0.11683926 -0.009343066 0.043354552 -0.07913562 -0.043453332 -0.032119874 0.005482716

bias f4 [100]
00000000: ed7d a53c e4b3 813d b49f 123c 24bd 4a3b
00000010: 6997 343c 50f8 0b3e 552b 0c3d 5d55 803d
00000020: 57bd 183c 4f3d 9c3d e010 f03d 39f7 0cbd
00000030: 4497 f43d e765 3c3d 9a40 d5bc 11c0 af3d
00000040: f2c6 70bd 13b8 a7bd e034 acbd 8b50 b6bd
00000050: 5020 9cbd 49d6 6bbd 5447 be3d cc09 1e3c
00000060: cdfc bbba 0c15 88ba a4cd f23d cd14 a83d
00000070: d1d0 143d 845a 183d aa8f c13c c38e 76bd
00000080: d4ad a5bc cb6c 47bd 9d8c 6f3d 48e7 bb3d
00000090: d5a4 9c3d b620 ebbd ed97 51bd dcbc 26bd
000000a0: 66e2 c13d c36a 1e3d f2c0 bd3d d8b3 43bd
000000b0: 4e0d 52bd 9f32 c93d 931d 8abd 4cee 99bd
000000c0: 3012 b33d 3fa4 42bc b2ff ea3d 054f 003c
000000d0: 64f7 afbd be7d c93d 37c9 e9bc d903 af3d
000000e0: 6fea bbbd 44c3 b8bc a91e ef3d ea27 453e
000000f0: e3e7 c73d 604a 823d 9dec 173d d772 2c3e
00000100: 4c25 b5bc 98b2 c7bc bb85 66bc c48c abbd
00000110: 1fc2 4f3e b1ac ab3d 31cb edbc 0577 82bd
00000120: 071e 89bd 7fcf 923d c209 f1bc ac06 233e
00000130: bb1a 6e3d 195d c83d c756 1ebd 9cf1 503d
00000140: 3b39 a33c 6ba5 153c 2528 a73a f9f8 353d
00000150: 087b b53d 810b d7bc f777 09bb 116d 383e
00000160: 15f7 11be 5a23 19bd 7ae6 433e ad4a 363e
00000170: 982f b53c 25b8 a2bd 038b 8e3d 3cd8 ee3c
00000180: 0dc5 943c 5a66 61bd 5d8f 263e 6f90 073e
0.020201648 0.063331395 0.008949209 0.003093549 0.011022427 0.13668942 0.034221012 0.06266282
0.009322486 0.07628881 0.11721969 -0.034415457 0.11942914 0.04599562 -0.026031781 0.08581556
-0.05878348 -0.08189406 -0.084085226 -0.08902081 -0.076233506 -0.057577405 0.092909485 0.00964589
-0.0014342308 -0.0010382249 0.11855629 0.082070924 0.036331955 0.037195697 0.023628075 -0.060194742
-0.02022449 -0.048687737 0.05848371 0.09174973 0.07648627 -0.114808485 -0.05117028 -0.040707454
0.0946701 0.038676035 0.09265317 -0.047778934 -0.05128222 0.09824108 -0.06743922 -0.07516155
0.08743703 -0.01187998 0.11474551 0.00783134 -0.08592108 0.098384365 -0.02853833 0.08545656
-0.09175574 -0.022554047 0.1167577 0.19253507 0.09761026 0.06361842 0.037090886 0.16840683
-0.022112511 -0.024377152 -0.01406997 -0.08376458 0.20288895 0.08382548 -0.029027553 -0.063703574
-0.066951804 0.07168483 -0.029423598 0.15920514 0.05813096 0.09783382 -0.038656976 0.051011667
0.01992475 0.009133677 0.0012753053 0.044426892 0.08861357 -0.026250603 -0.0020976046 0.18010356
-0.1425441 -0.03738723 0.19130889 0.17801924 0.022117421 -0.07945279 0.06960108 0.029155843
0.018160367 -0.05502925 0.16265626 0.13238691

weight f4 [10, 100]
00000000: 657f 323d c598 3a3c 3aab 61bd 948b 393a
00000010: 893b 793e ea3f dabe b417 1ebc 38dd 0b3e
00000020: 0f1f 973d 9393 7a3e 8a85 76be c658 b6bd
00000030: 4cd6 51be 3b33 85be b782 b13e 4490 83be
00000040: 6a41 21bd baa6 c0bd ae3d dbbd 7ef1 fc3c
00000050: 39f1 e9bb 5e0a adbd 7320 fd3d abd2 9a3d
00000060: a0b9 543d 479d a0be 3de6 71b9 6d53 ddbc
00000070: 267a 1abe e988 e53d fe63 c5bd 09fe d63e
00000080: 3720 e53e ffd7 6fbd 76bb cbbd 69a5 3c3c
00000090: 2eff 3dbe 5897 49bd 72c4 79bc 172e 493c
000000a0: 2587 6f3e da6d 413e 5a4f 31bd 9bfa 97bd
000000b0: 0b80 723d c9ec 9cbe c96e 273e f774 9a3d
000000c0: 32ee 933d 43cf b53c 923c 41be c434 ba3e
000000d0: d69b 9d3d a674 91be 4b17 983d 3c7f 423e
000000e0: fbc0 cb3c 5582 dcbc ccb4 7dbe 1299 9fbe
000000f0: 780b 41be d8bb f73e 2738 993e 1e21 273e
00000100: 0061 e63d dfa2 093b c2f6 883d b7ff 5cbd
00000110: 0abc eabe 961d 24be 0041 3fbd 4216 1a3e
00000120: b73b d5bc 2c75 2bbe df28 47be a9d8 d3bd
00000130: 154a 68bd c9fb 823d 725c 37bd 1615 253e
00000140: 046a bcbd 0c8b 83bd f124 d33e cbc1 b43d
00000150: d5f8 1f3e 7bee 67bd 7e7e b7bd 54c8 53be
00000160: 6607 bf3e 98f6 9cbd 6ca3 44be 0b18 7fbe
00000170: d4f8 913d 927e 33bc 992f 2b3d 5e35 9abc
00000180: c8b4 82be 3950 243e 3de7 debd bb2f 98be
00000190: 5bba fb3e 15d1 7bbd 1d85 5abe 4185 d3bc
000001a0: b0cf 7ebe 28f9 9f3e a178 c4bd f4b3 5e3c
000001b0: 23e8 623e 25b9 d3bd 2047 8e3e d417 013e
000001c0: 8202 293d 9d85 983e e056 4dbe 4fe3 473e
000001d0: 61da 203e b106 af3d c0a9 813e 965a 19be
000001e0: 4e6b 7fbe 2c13 f3bd c35d 0bbe 8f4f d9bd
000001f0: bd2d a43d bfdd 733e c2d5 623d f8d1 69be
00000200: fe1d f2be 780b 92be 5b00 003e 4ff2 4cbe
00000210: 2240 14be 14c9 f23d 0cd6 bd3d bdb5 acbe
00000220: 5c50 0f3e 222e 6cbe cd97 953c 115a 24be
00000230: bffc 01be 35a9 3a3d 6092 5abe 9a00 013b
00000240: 88ed b9bd e0a3 0cbe 5cf8 5abe 54bd adbd
00000250: 43d1 4bbe 2c67 ce3c 2f19 40be 1dde 95be
00000260: 7659 6bbd bb93 c43e 3f34 7fbe 6e69 903d
00000270: db1e c53d 00cf 8f3e fa10 0e3e 5a95 c73d
00000280: 1da6 0dbe 585a 4abe dc5b 8d3e 3409 153e
00000290: 1274 ce3d 17ca bdbd e653 deba f54a cbbd
000002a0: 5d8c 023f 0288 2a3e 58c2 3d3e f204 4d3d
000002b0: 0197 1dbe c8a2 da3d 5fbe cdbd b772 163e
000002c0: 1f3d 6ebe 9407 a93c 8232 8a3d 6d28 8dbe
000002d0: 4d61 bebe dbfd b4bc 77d5 e33d ff48 b53d
000002e0: d803 3b3e 4b80 a7bd 0d4a f83d 1413 ad3e
000002f0: e663 d8bd d2b0 db3d e55e 5f3d 7730 b03e
00000300: 635a e03d 6c2f 34bd cb21 b9bd d960 72be
00000310: d616 5cbe 3c0f 8b3d 4a8a 3dbd 5681 88be
00000320: 1689 523d b1bb 613e 567d bfbd 7be8 08bd
00000330: 421b f93d 0680 533e b71e 96bd 0d45 613e
00000340: 4ec5 18be fd81 933e dd36 1d3f bfc8 443e
00000350: 89ad 3ebe 48c3 383d c340 803e 2a75 9cbe
00000360: bb8e 12be 3812 5d3d f95a a6be 9040 77bd
00000370: acf9 043d a469 9e3e 3560 02bf 85d3 313e
00000380: 4509 8bbd 4fbe c63e 4d5d 28be 8361 27bd
00000390: ca28 afbe 659a 9d3c acb9 bebe 026b b13e
000003a0: 904d 01bd 649f b9bd 209f f7bd a924 5a3d
000003b0: 4a55 8cbd f4e8 e83d 6336 b23d b673 d73d
000003c0: e8d1 b7be 33a6 ecbd 973f 493e 9b80 81bc
000003d0: 6cdd 5c3e c287 7e3e 7e63 673e a683 c93d
000003e0: 1b28 323d 9c7a 403e e620 a8bb d231 153d
000003f0: 64df 0f3e cc4b 0e3e 005f bbbd 3be5 dd3d
0.043578524 0.011388962 -0.055094935 0.00070779887 0.24339117 -0.42626888 -0.009649206 0.13658607
0.07378971 0.24470358 -0.24074379 -0.08903651 -0.20491904 -0.26015648 0.3467004 -0.25696003
-0.039369024 -0.094068006 -0.10705124 0.030876871 -0.0071393517 -0.08449243 0.12359705 0.07559713
0.05193484 -0.31369993 -0.00023069321 -0.02701732 -0.15085658 0.11207754 -0.096382126 0.41990688
0.4475114 -0.0585556 -0.09947865 0.011514046 -0.18554375 -0.0492166 -0.01524459 0.012279055
0.23391397 0.18889561 -0.043288566 -0.07420846 0.059204143 -0.30649403 0.16350855 0.075418405
0.072231665 0.022193557 -0.18870762 0.36368382 0.07695739 -0.28409308 0.07426318 0.18993849
0.024872294 -0.026917616 -0.24776 -0.3117147 -0.18852031 0.483855 0.29925653 0.16321227
0.1124897 0.002100162 0.0668769 -0.053954806 -0.45846587 -0.16026911 -0.04669285 0.15047553
-0.02602945 -0.16743916 -0.19449185 -0.10344059 -0.056711275 0.063956805 -0.044765897 0.16121325
-0.091999084 -0.064230055 0.41239122 0.088260256 0.15622266 -0.056623917 -0.08959673 -0.20681888
0.37310332 -0.076642215 -0.19202965 -0.24911515 0.07127538 -0.01095547 0.04179344 -0.018824276
-0.2552855 0.16046228 -0.10883949 -0.29723915 0.49165615 -0.061478693 -0.21339841 -0.025820376
-0.24883914 0.3124478 -0.09593321 0.013592709 0.22158866 -0.10338048 0.2778864 0.12606746
0.041262157 0.2978944 -0.20052671 0.19520305 0.15708305 0.08546198 0.2532482 -0.14975962
-0.24943277 -0.11868891 -0.13609986 -0.10610878 0.080165364 0.23815058 0.055379637 -0.22834003
-0.47288507 -0.28524375 0.12500136 -0.20014308 -0.1447759 0.11854759 0.09269342 -0.33732405
0.13995498 -0.23064473 0.01826086 -0.16049983 -0.12694071 0.045571525 -0.213449 0.0019684196
-0.090785086 -0.13734388 -0.21383804 -0.08483377 -0.19904046 0.02519568 -0.18759607 -0.2927102
-0.057458363 0.3839396 -0.24922274 0.07051359 0.09625026 0.28087616 0.13873664 0.097452834
-0.13832898 -0.19761026 0.27609146 0.14554292 0.100807324 -0.09267061 -0.001696226 -0.09926406
0.5099543 0.16653445 0.18531168 0.050053544 -0.15389635 0.10675579 -0.10046076 0.14692198
-0.23265503 0.020633496 0.06747915 -0.27569905 -0.3718361 -0.022093704 0.111246996 0.088518135
0.18263185 -0.08178767 0.12123499 0.33803618 -0.10565929 0.10727085 0.054533858 0.34411976
0.1095474 -0.043990538 -0.090396486 -0.23669757 -0.21493086 0.06790015 -0.04627446 -0.26661175
0.051400267 0.22044255 -0.09350078 -0.033424836 0.12163402 0.20654306 -0.07330077 0.21998997
-0.14919016 0.2881011 0.6141184 0.19217204 -0.18620886 0.04510811 0.2504941 -0.3055814
-0.1431226 0.053972453 -0.32491282 -0.060364306 0.03246467 0.30939972 -0.5092805 0.17365845
-0.067888774 0.3881707 -0.16441841 -0.04086448 -0.34210807 0.01923866 -0.3725103 0.34651953
-0.03156811 -0.090636045 -0.120908976 0.053257618 -0.06852205 0.11372557 0.0870178 0.10520117
-0.35902333 -0.115551375 0.19653164 -0.015808394 0.2156884 0.24856475 0.22596547 0.09839563
0.04349528 0.18796772 -0.005130875 0.036424465 0.1405006 0.13896102 -0.09148979 0.10834738

bias f4 [10]
00000000: 8b7c aabd a7cb 133e 9b5c 9abc 6061 f8bc
00000010: 634f aeba 1fb2 a73e 3b93 923c d344 3e3d
00000020: 02e7 46be 73ac df3c
-0.08324536 0.14433156 -0.018842986 -0.03031987 -0.0013298806 0.32753083 0.01789247 0.046452355
-0.1942406 0.02730391
