artifacts/1/f5d58f355f3a4fb1a449d73f54b27a11/artifacts/model/data/model.pth (torch, 362823 bytes, 6 tensors)

weight f4 [100, 784]
000000 e3 54 08 bd 48 f9 01 3d a5 75 de 3c 92 ec 11 bd
       -0.03328408 0.031731874 0.027155707 -0.035626
000010 77 0b db 3b 77 25 c5 bb 65 95 c0 bb 35 ed 85 bc
       0.0066847163 -0.006016429 -0.005877184 -0.01634846
000020 33 05 61 3c 85 4a ad bc 21 82 56 3c ac f4 93 3c
       0.01373415 -0.021153698 0.013092549 0.018061005
000030 ed 2f d1 3c b9 a5 59 3c 45 ca 10 bd 6a ca bd bc
       0.025535548 0.01328414 -0.03534915 -0.023167808
000040 d7 15 92 3c 41 f1 f4 3b f5 3a e4 bc e5 77 a8 bc
       0.01783268 0.007475049 -0.027860144 -0.020564983
000050 42 9e 09 3d ce 23 c5 3c 13 23 7f bc 85 45 13 bc
       0.033598192 0.024064925 -0.015572327 -0.008988743
000060 fc 59 0b bd 6e 47 28 ba d3 52 dc bc 4c ad e1 bc
       -0.034021363 -0.0006419335 -0.026894962 -0.027548455
000070 ee f6 00 bb 6e b6 af 3b 3c a2 6f bc f7 9a ad 3c
       -0.0019678432 0.0053623235 -0.014626082 0.021192057
000080 09 0b b2 bc 0a ba 04 3d cf 5d c7 3c f4 53 f9 bc
       -0.021733778 0.032403983 0.024336724 -0.03043554
000090 51 fc 17 bc d1 aa a8 3a 63 96 9a 3b 57 5e fb 3b
       -0.0092764655 0.001286829 0.0047176345 0.0076711583
0000a0 5e f8 53 3c 75 b8 cb 3a d8 51 90 bc 89 ed 87 3c
       0.012937633 0.0015542643 -0.017617151 0.016592758
0000b0 fe 6d 0d bd e7 5e af bc fe 6e 15 bc d4 b1 8f bc
       -0.034528725 -0.021407558 -0.009120701 -0.01754085
0000c0 4a 14 4f bc ba da f0 bc 06 e6 fb bb d2 42 f9 3b
       -0.012639115 -0.029401172 -0.007687333 0.0076068426
0000d0 ac 99 be bc b8 3b f0 ba 01 70 d1 3c 81 9c 70 bb
       -0.023266636 -0.0018328344 0.025566103 -0.0036714377
0000e0 6e 19 82 3a 25 eb 49 bb 06 d4 ec 3b 43 ff b9 3c
       0.0009925792 -0.0030810323 0.0072274236 0.022704726
0000f0 40 80 0a 3d d8 ae b9 3c 1b d7 09 3d ee c9 5f bb
       0.033813715 0.02266638 0.033652406 -0.003414746
000100 61 98 08 bd 31 8c 99 bc 7c 40 af 3c b6 dd 63 bb
       -0.033348445 -0.018743606 0.021393053 -0.0034769601
000110 9f c0 ae bc f1 ae f8 bc d4 9c 13 bd 02 6c 05 bd
       -0.021332083 -0.030356856 -0.036038235 -0.032573707
000120 e9 58 1b bc a5 98 8e 3c 4f 2c 8c 3c df f3 13 bd
       -0.009481647 0.017406771 0.017110972 -0.036121245
000130 e4 8b ae 3c 61 a4 ea bc dc dd 02 bc 30 18 70 bc
       0.02130694 -0.028642835 -0.007987466 -0.014654204
000140 c8 0f e3 bb 83 1f e6 bb fd 44 03 bd 05 9e fc bc
       -0.0069293715 -0.0070227995 -0.032048214 -0.030837068
000150 2e 20 b7 bb 4a 26 f2 39 57 ea 84 bc 00 20 5c 3c
       -0.005588553 0.00046186364 -0.016225023 0.013435364
000160 61 ea 03 bd aa 0a 10 bb 4e 7c fe 3c 71 f5 80 bc
       -0.032205943 -0.0021979013 0.031065132 -0.015742036
000170 57 22 f4 3c 2d f2 1a 3c 3d a7 15 bd a2 ef 9a 3c
       0.02980153 0.009457153 -0.036536444 0.018913094
000180 a1 ad cb bb 0a 1a 93 bc de 6f df 3c 7b 51 f6 bc
       -0.0062157665 -0.017956752 0.027275022 -0.03006815
000190 10 d5 17 3b ec 4f 29 bc a6 62 af 3c b7 30 c4 3b
       0.0023167767 -0.010333996 0.021409344 0.0059872526
0001a0 70 92 68 3c 24 e7 21 3c 3a f4 2a bc 66 b6 09 bc
       0.01419507 0.009881768 -0.010434205 -0.008405304
0001b0 99 01 f5 bc b2 23 9e 3c ab e5 e7 3c 45 2f c8 3c
       -0.029907988 0.01930413 0.028307756 0.024436602
0001c0 a1 5f ce bc 1a e1 d0 3a f5 2a ce bc 16 74 a0 bc
       -0.025192084 0.0015936226 -0.025166968 -0.019586604
0001d0 dc 08 a7 bc 1f aa 5b 3c 45 f5 a1 bc 2c 1e 48 3a
       -0.020389967 0.013407259 -0.019770274 0.00076338905
0001e0 06 22 63 3b 58 27 ca 3c b7 df d1 bc 25 2b b5 bc
       0.003465773 0.024676964 -0.02561937 -0.0221153
0001f0 36 65 8c bc 74 be f1 3c ac b7 38 bc 62 c3 e2 3c
       -0.017138105 0.02950976 -0.01127426 0.027681056
000200 78 f3 fc 3b cd 9f 47 bb e0 2c eb bb df 08 5a bc
       0.0077194534 -0.003046024 -0.0071769804 -0.013307779
000210 a4 45 22 ba 1b 10 64 bc f1 6c a3 bb b4 01 80 3a
       -0.0006190187 -0.0139198555 -0.004987352 0.0009766133
000220 ea ce ef bc cd 56 9b bc 11 f2 eb 3c d3 ae ed bc
       -0.029273469 -0.018962288 0.02880195 -0.029014027
000230 4a 11 28 bb 25 b6 10 3d 2d f9 53 3c 4f 4c c2 3a
       -0.002564507 0.035329957 0.012937826 0.0014823767
000240 eb 91 ee bc bc 9e b6 3c 35 26 a4 bc 56 88 c0 bb
       -0.029122313 0.022292487 -0.02003775 -0.0058756275
000250 32 02 16 bc 5f c5 8b bb 74 d7 2c b9 44 90 01 3d
       -0.009155797 -0.004265472 -0.00016483461 0.031631723
000260 4f ff 05 3c da 31 18 3d 3b 34 c8 3c 5e c8 b4 bc
       0.008178546 0.037156917 0.024438968 -0.022068199
000270 9c b3 33 3c a4 42 15 bd a2 2a db bc 41 4c e1 ba
       0.010968115 -0.036440507 -0.026753727 -0.0017188863
000280 47 b7 eb ba 2c 13 5a 3c ed e7 c1 bc 8a da 15 bc
       -0.0017983698 0.013310235 -0.023670161 -0.009146342
000290 7f 9d 6b 3c c4 0e 12 bd 88 8c d0 3c ab 44 f2 bc
       0.014380812 -0.035658613 0.025457636 -0.029573759
0002a0 25 09 01 3a 33 f5 c6 bb 74 6f 99 bc 49 a9 ca 3b
       0.0004922322 -0.0060717105 -0.018729903 0.006184731
0002b0 c8 40 07 3d eb 40 93 bb 2e f3 66 bc 44 31 12 bc
       0.033020765 -0.004493823 -0.0140960645 -0.008922879
0002c0 af ee 03 bd ce f9 a0 3c 06 9d 37 bc 86 ed 8c bc
       -0.03221005 0.019650366 -0.011206871 -0.017203104
0002d0 21 a7 46 bc ab e6 03 3d 4e 0d 02 3d 04 12 2d 3d
       -0.012124808 0.032202404 0.03175097 0.04225351
0002e0 e1 37 e2 3c 74 bc 96 bb 39 1c 0c bc 6d f2 80 3b
       0.027614536 -0.004600102 -0.008551651 0.0039351494
0002f0 ae b4 a5 3c ff 0a 0a bb 68 64 0b bd 35 f1 09 bd
       0.020227756 -0.0021063683 -0.0340313 -0.0336773
000300 8a 53 36 bd 3a 1b 5a 3b ee a1 ad bc 6e f9 02 bd
       -0.044513263 0.0033280388 -0.021195378 -0.031976156
000310 a9 46 00 3d bb b8 bd bc 5a 7b 71 bb d8 cb 52 3c
       0.031317387 -0.023159375 -0.0036847205 0.012865983
000320 6b 0a e9 3b b5 1e 7c bc ff b2 a2 bc 1f f3 0a 3d
       0.0071118376 -0.0153881805 -0.019860743 0.033923265
000330 0e bb 23 3c be 79 1a 3d c5 31 14 bb 01 6d 95 3c
       0.009993328 0.03771376 -0.0022612673 0.018240454
000340 5e d2 75 3b c7 41 5e 3c db 06 90 bb 59 c6 11 3d
       0.0037509422 0.013565487 -0.0043953485 0.03558955
000350 37 c7 0d 3d 2c 6e 98 3c 69 38 92 3b 38 72 7e bc
       0.034613814 0.018607222 0.004462291 -0.015530162
000360 50 74 d5 3c f7 c6 10 bd d5 1c 69 bb 9a b9 12 bd
       0.026056439 -0.035345998 -0.0035570164 -0.035821535
000370 47 2e 19 bd 43 12 66 bb 8e 45 a8 bc 53 27 04 3c
       -0.03739765 -0.00351061 -0.020540979 0.008066016
000380 51 26 e4 3b bf 1b d8 bc bc 2e dd 3b 8b 79 9b 3c
       0.0069625755 -0.026380418 0.006749956 0.018978855
000390 e5 ce be 3c ec 64 d4 3b f4 15 99 bc 78 6e a5 3a
       0.023292014 0.0064817574 -0.018687226 0.0012621423
0003a0 00 3e 92 3c 06 d2 01 bc f3 0e 8d 3c 1a c2 ca 3c
       0.01785183 -0.007923609 0.017219042 0.024750758
0003b0 26 1e 74 bc 7d a9 14 3c 95 e2 01 3d e7 4f cc 3c
       -0.014899766 0.009073612 0.031710226 0.024940444
0003c0 b6 2b b8 3c e6 fd bc 3c 31 a6 1f bc fe 5a 53 3c
       0.02248178 0.023070287 -0.009744213 0.012900112
0003d0 45 07 dd 3c 4e d1 c5 3c f7 74 f2 3a b4 2a d8 bc
       0.026981005 0.024147656 0.0018497993 -0.02638755
0003e0 4c c2 3b bc cb 71 00 bd e0 ae 04 bd 96 4a fd bc
       -0.011459898 -0.03135852 -0.032393336 -0.030919354
0003f0 b6 03 12 3d 6d 1e bc 3c 51 79 c1 bc 8e 09 9a 3c
       0.03564807 0.022963727 -0.023617418 0.018803384

bias f4 [100]
000000 e1 b2 65 3c 50 15 1b bb a8 e6 48 bc c9 78 a5 3c
       0.014019699 -0.0023663826 -0.012262024 0.020199196
000010 1e 8d 10 3d a7 71 d0 3c 13 b7 0b bd 7e 37 01 3d
       0.03529083 0.025444819 -0.03411014 0.031547062
000020 47 19 83 3b 2f ad 60 3d 5b 4a b3 3c b6 30 e6 bc
       0.004000816 0.05485266 0.021886041 -0.028099399
000030 d6 a7 c9 3a c0 1b 3d 3d 03 a9 26 bd b1 01 fb 3d
       0.0015385102 0.046169043 -0.040688526 0.12256182
000040 c3 b2 a7 3c e9 aa aa 3b 35 6f 95 bc 74 dd 12 3d
       0.020470982 0.0052083624 -0.018241504 0.035855725
000050 bf b8 c7 bc af db 9c 3c 25 ab 74 bd 46 45 58 3d
       -0.024380086 0.019147722 -0.05973353 0.05280044
000060 45 0b 81 bb b6 b9 2d 3d 9d 2a 9d bd 77 4c 21 3d
       -0.003938111 0.042413436 -0.076741435 0.039379563
000070 8c 36 a8 3b 08 2a 9f bc ca af 32 3d d5 63 67 bd
       0.0051334556 -0.019429222 0.043624677 -0.05649169
000080 b0 c0 ad 3c b3 e2 b1 3c ed d7 ea 3d 14 c5 8d 3d
       0.021210045 0.021714544 0.11466966 0.06922355
000090 ce 3b 42 3a 0d d9 7a 3d f1 74 58 3d 21 67 84 3d
       0.0007409424 0.061242152 0.0528459 0.06464983
0000a0 79 c4 12 bb 52 2f 95 3d 1e fd de 3b a4 7e 09 bb
       -0.002239494 0.07284416 0.0068050763 -0.0020980025
0000b0 6e 80 a5 3d 5e f7 12 3e 3e 4b 2b 3c fd 9d 81 3c
       0.08081137 0.14352176 0.010454951 0.015822405
0000c0 cf 0a 79 3d 6b 90 97 ba 31 a6 fa 3d 3d 72 5a 3d
       0.060801324 -0.0011563426 0.1223873 0.053331602
0000d0 46 c2 c1 3c 27 56 58 3b ca ef 10 3d 45 e2 02 bc
       0.023652207 0.0033010335 0.03538493 -0.007988517
0000e0 4e 6c e8 3c 67 1b 1e 3c 87 e4 ce bc 84 9a 00 bc
       0.028371956 0.009650088 -0.025255455 -0.007849339
0000f0 f9 38 de bc 26 af 1a bc 68 47 25 3d df 5e 23 bd
       -0.027126776 -0.009441173 0.0403513 -0.039885398
000100 08 78 66 3c cd 1e 86 bd 79 eb 79 bd 32 6a 4b bc
       0.014066704 -0.065488435 -0.06101558 -0.012415456
000110 c4 84 de bc 1a b5 38 3c 36 5d 28 bd 6c 14 2a 3c
       -0.027162917 0.011273647 -0.041104518 0.0103808455
000120 7e 81 f4 bb dc 9c fd 3b 91 06 64 3c 83 2e 34 3c
       -0.0074617257 0.0077396464 0.013917581 0.010997417
000130 39 27 24 3d 9b d2 0c bb df 4f 11 3d e2 29 8b bb
       0.04007647 -0.0021487835 0.03547656 -0.004246936
000140 55 58 13 bb 71 44 fc ba 9a 90 3d 3d 08 39 a6 3d
       -0.002248307 -0.0019246471 0.04628048 0.081163466
000150 5a 87 82 3d 26 50 6b bc 77 0f ff 3c dd 8c 83 bc
       0.063734725 -0.014362371 0.031135304 -0.01605838
000160 96 6a 70 3c fe f8 95 ba fd 5c 2e 3d 8c a4 87 3c
       0.01467385 -0.0011442003 0.04256915 0.016557954
000170 41 86 6d 3d 25 5e 7f 3d 1f 2e 46 3d f3 0b 2a 3d
       0.057989363 0.062345643 0.04838383 0.041515302
000180 f3 d7 7e bb 1d 1c a2 bc f1 51 cd bc d2 8e 07 bd
       -0.003888604 -0.019788796 -0.025063487 -0.03309519

weight f4 [100, 100]
000000 ea a7 58 bc 37 c2 a6 bd 7c 1c b6 bd 44 b3 90 bd
       -0.013223628 -0.08142512 -0.08892152 -0.07065442
000010 3b a7 ae bd 10 20 b8 3c cd b1 92 bc 58 a5 0e 3d
       -0.085279904 0.022476226 -0.017907048 0.034825653
000020 62 a0 17 3d 2a 6a ef 3a e2 9f 3a bd 6b 70 58 bd
       0.037018187 0.0018265892 -0.045562632 -0.052841585
000030 74 9e b3 3d 11 8f c7 bd 3c 0d 2e bd c0 e9 a9 3d
       0.08770457 -0.097440846 -0.04249309 0.082965374
000040 97 50 9b 3c 74 99 af 3d 55 a2 ba bd 9f 68 3e bd
       0.018959327 0.08574191 -0.09112994 -0.046486493
000050 d3 88 e9 3c 7f 15 c8 bd 31 33 cc 3d 4a 44 28 3c
       0.028507626 -0.09769725 0.099707015 0.010270188
000060 ca d7 02 3b 3b 52 e5 bc a6 ed 68 3d 4a 47 f7 3b
       0.0019965046 -0.027993312 0.056867264 0.00754634
000070 e0 0b 9c bd a7 aa 40 3d 87 9d bc 3d 21 30 b3 3d
       -0.076194525 0.047037747 0.092097335 0.08749414
000080 57 b9 32 3d 1f 76 b6 bd b7 df 4a 3d a7 1a f4 3c
       0.043633785 -0.089092486 0.049529757 0.029797865
000090 d8 d1 c5 bd bd 13 12 bd 18 b5 c0 bd c2 ed 39 bd
       -0.09659165 -0.035663355 -0.09409541 -0.04539276
0000a0 62 e1 0a bd 2d ca 86 bd e8 15 14 3d 6e 63 0b bd
       -0.033906348 -0.06581531 0.036153704 -0.03403037
0000b0 ae cd a8 bd 93 3d a6 bd e3 77 14 bd 10 02 04 3d
       -0.08242355 -0.08117213 -0.036247145 0.03222853
0000c0 eb 69 8f bc d0 d0 cc 3b 7a de 4a 3d 15 fe b1 3d
       -0.01750656 0.0062504783 0.049528576 0.086910404
0000d0 28 33 67 bd 81 36 cb 3d 4d 60 bb 3d 64 7c 8b 3d
       -0.05644527 0.09922505 0.09149227 0.06810835
0000e0 12 4c 83 3d 11 35 44 3d 07 9f ba bd 41 f1 84 3d
       0.06410994 0.04790217 -0.09112363 0.06491328
0000f0 b4 e0 23 3a a3 cf c5 3c d8 b2 58 bd f5 d9 a4 bd
       0.000625144 0.02414686 -0.052904934 -0.080493845
000100 8a ec 99 bd a3 f6 c7 bc 75 d8 a8 3d 9d 5c 58 bd
       -0.07515819 -0.024409598 0.08244411 -0.052822698
000110 33 7c 8a bc 03 af fe 3b a0 a2 88 bd 77 7c 81 bd
       -0.016904926 0.007772328 -0.06671643 -0.06322568
000120 25 38 dd 3c 43 84 9b 3d b6 2b c5 bd 83 9f c5 bc
       0.02700431 0.07593586 -0.09627478 -0.024123913
000130 9e 70 cc bc 2a 4b 81 bc 94 25 b1 3d cb 40 38 3c
       -0.024956044 -0.015782911 0.086497456 0.011245917
000140 b3 7a 1d bd ca 78 19 bc a5 32 30 bc ba 7d c4 bd
       -0.038447093 -0.009367177 -0.010754262 -0.09594293
000150 10 49 2e bc b7 b8 a5 3c 41 ca 25 3c 79 08 88 3c
       -0.010637537 0.02022968 0.010119022 0.016605603
000160 a4 c3 9c bd 01 e4 9c bc c7 58 6f 3b e4 0a 47 bd
       -0.07654503 -0.01915169 0.0036521421 -0.04859437
000170 82 89 21 bd 26 62 3d 3d 57 08 89 3d a2 44 88 bd
       -0.03943778 0.04623618 0.06691044 -0.06653716
000180 cf 39 26 bc 9e 21 45 bd 8d c5 cb bd 0b df 94 bd
       -0.010145619 -0.048127763 -0.09949789 -0.072691046
000190 14 79 4e 3d a4 28 54 bd 33 b2 68 3d 2c a9 28 bd
       0.050408438 -0.05179657 0.05681057 -0.04117696
0001a0 12 fe 53 bd 92 ba 75 3a ae 5d 72 3d 99 de 9e 3d
       -0.051755972 0.00093738094 0.05917137 0.07757301
0001b0 f2 0e c2 3d 51 dd bc bc ad 73 6a 3d 53 78 b2 bd
       0.09475507 -0.02305475 0.057239223 -0.08714356
0001c0 a3 54 20 bb 8b c0 2a 3c 82 ef 22 3c 3f 7b 1d 3d
       -0.002446451 0.010421882 0.009944798 0.038447615
0001d0 c7 07 63 3d 97 aa 8d 3d 93 f9 14 bb 73 2e 5f bd
       0.05542734 0.06917303 -0.0022731766 -0.054487657
0001e0 f1 ba 5f bd 8e f0 4f bc eb 60 80 3d eb d8 28 3d
       -0.05462164 -0.01269163 0.06268486 0.041222494
0001f0 40 ba 9a bd 9a da 6e 3d de 8d 5c 3d 71 aa a7 bd
       -0.075550556 0.058313943 0.053846233 -0.08186806
000200 02 ff 4a 3c ac a3 80 bd c7 ab a8 bd 49 73 92 3c
       0.0123899 -0.06281218 -0.08235889 0.017877238
000210 54 c4 fe bc d8 aa c3 3d 96 65 3a bd 51 7a fa 3c
       -0.031099476 0.0955407 -0.045507036 0.030575903
000220 ab c0 b6 bc 41 d6 70 bd 83 35 a4 bc 9b 1d 19 3d
       -0.022308668 -0.05879808 -0.020045048 0.03738175
000230 1b 46 07 3d ba 8c 19 bc 40 3d bf bd 10 ca 88 bc
       0.033025842 -0.009371931 -0.093378544 -0.016697913
000240 92 86 3c 3d 55 4b 36 bd 3a 66 2d 3d f6 7c bc 3d
       0.046026774 -0.044505436 0.04233382 0.09203522
000250 a3 b6 93 bd 8e 86 a7 3d 24 83 84 bd 76 cc e3 3c
       -0.072125696 0.08179961 -0.064703256 0.027807456
000260 97 d9 85 bb 5e 15 a6 3d 53 62 c6 3c f1 02 a8 bc
       -0.0040847766 0.08109544 0.024216807 -0.020509215
000270 19 a7 90 bb 73 79 9f 3c 6d ed 13 bd f4 3d 7c 3c
       -0.004414451 0.019467091 -0.0361151 0.01539563
000280 20 b9 6b bd c1 2c 80 bc dc 99 be 3a ed cd 10 3d
       -0.057549596 -0.01564634 0.0014541703 0.035352636
000290 87 c4 74 bd 84 c9 aa 3d bc 63 0a 3d 1a 9f fd bc
       -0.059757736 0.08339217 0.03378652 -0.030959655
0002a0 f2 e6 72 bd ce 20 e5 bc 7f 36 f9 bc b3 81 2b 3d
       -0.059302278 -0.027969744 -0.030421494 0.041871738
0002b0 08 9e 45 3b f8 25 a3 3c 6f f8 8f bd c8 e6 91 3c
       0.0030154008 0.019915566 -0.07029807 0.01781024
0002c0 20 87 9a 3d 7b 0d ba 3d 54 0d 5d bd 1c e1 8f 3c
       0.07545304 0.090846024 -0.05396779 0.017563395
0002d0 6c bf b2 3c 79 6d a4 3d a3 33 af bc 84 47 c8 3d
       0.021819793 0.08028693 -0.021386927 0.097792655
0002e0 5c b1 16 bc b9 30 bd bd b6 e1 c2 3d 99 84 0b bc
       -0.009197559 -0.09237809 0.09515707 -0.0085155
0002f0 68 8d 3a bd 39 e7 8e bd 1a b4 c3 3d f0 39 02 bd
       -0.04554501 -0.06977696 0.09555836 -0.031793535
000300 16 71 5c bd 92 c3 c5 3d d2 8b f5 bb 05 f3 18 3d
       -0.053818785 0.09656443 -0.0074934745 0.037341136
000310 24 ef 8b 3b 3c 36 8b 3d 77 6e 88 bd 16 23 72 3d
       0.004270451 0.06797454 -0.066616945 0.05911549
000320 09 2c ff 3d d7 1f 6b bd 1a 92 15 3e 8a e1 84 bb
       0.12459571 -0.05740341 0.14606515 -0.0040552067
000330 6f 97 bf 3d 52 29 2f 3e d2 d0 a1 bd 6f 5d f1 bd
       0.093550555 0.17105606 -0.079011574 -0.11785399
000340 fb 69 eb bd 46 12 35 3e 73 63 bc bd 39 dd dc bc
       -0.114948235 0.17682752 -0.09198656 -0.026960956
000350 01 ce d6 3d 88 3a af bc b3 e4 21 3e e6 8e 99 bd
       0.10488511 -0.021390215 0.15809898 -0.07497959
000360 20 60 c8 3d e7 28 5f bd cd 10 94 3d 68 85 92 bd
       0.097839594 -0.054482367 0.07229767 -0.071543515
000370 ff ca 0f be 4d 73 cd bc b6 d9 a5 3b 87 3d 94 3d
       -0.1404228 -0.025079394 0.0050613536 0.07238298
000380 6b b0 9a 3d c3 40 5b 3d 1f b9 fc 3d 10 02 0d be
       0.0755318 0.05352856 0.123399965 -0.13770318
000390 69 be 9f bc d2 00 02 3e cb c5 5b 3d c2 6e e2 bc
       -0.019499974 0.12695625 0.053655427 -0.027640704
0003a0 27 a2 52 3d e2 33 ef bc bd 5f 08 3d 24 41 4f bd
       0.05142417 -0.029199544 0.03329443 -0.050599232
0003b0 39 3f f9 bc 52 f1 4f 3e 3a 54 39 bc 3a a3 e8 3d
       -0.030425655 0.203069 -0.011311585 0.11359258
0003c0 e8 7b 5b 3c 61 0d 11 3e cf fb 21 3c 95 c5 f2 bc
       0.013396241 0.1416526 0.009886696 -0.02963523
0003d0 a9 1d 17 3e 8b 9d ce 3d 79 cd 9b bd 45 8b 9f 3d
       0.14757408 0.10088643 -0.0760755 0.077902354
0003e0 52 26 bd 3d ae 55 27 3e ab ed 22 bc a0 f1 86 bd
       0.09235825 0.16341278 -0.00994436 -0.06589055
0003f0 fd 4c d7 bc 9a 2d 9d bd 8b 1c c2 bd 3d f6 c2 3d
       -0.026281828 -0.076747134 -0.094781004 0.095196225

bias f4 [100]
000000 6a 3f 84 3b 49 02 a7 bd 18 e3 e5 bc d1 e5 26 bd
       0.00403588 -0.08154733 -0.028062388 -0.040746514
000010 be 1e 2c 3d 53 a7 2e bd d8 df 80 3d 39 d3 f3 bc
       0.042021506 -0.04264004 0.06292695 -0.029763805
000020 ba a0 76 bd a8 ca e7 bd 61 9a 01 3d b3 8a 5a bd
       -0.060211875 -0.113179505 0.031641368 -0.05335493
000030 af 4f 51 39 67 c8 3b bd 05 79 c6 bc 66 bd 8e 39
       0.00019961478 -0.045845415 -0.024227628 0.00027225463
000040 38 b8 9c 3d e6 ce c7 bd 4f 13 b4 bc d8 97 86 3d
       0.076523244 -0.097562596 -0.021981863 0.06571931
000050 88 8b 02 3c 60 07 9a bd af 6c b0 3d 95 86 a7 3b
       0.007967837 -0.07520938 0.0861448 0.005112479
000060 3c 38 14 3e 2b 27 24 3c 01 7f 9f 3d ea c3 de 3c
       0.14474577 0.010019104 0.07787896 0.027193028
000070 e1 91 0f 3d b4 cc 97 3d f1 ad 0e 3c b7 f5 79 bd
       0.03505123 0.07412091 0.008708463 -0.061025348
000080 2e 3a 95 3d 2d 96 28 bd ea 49 c1 bc 0d 27 c7 3d
       0.072864875 -0.041158844 -0.023594815 0.09724245
000090 be 33 5c 3e 46 22 1b 3d 64 b8 b6 3d cd 1a ef 3d
       0.21504113 0.037874483 0.089218885 0.11675034
0000a0 08 16 f0 3d 83 36 7e 3d 0e da 30 3b ee e7 7d 3c
       0.11722952 0.062063705 0.002698544 0.015497191
0000b0 e4 d2 43 3e 36 23 27 bd 17 da c9 3d 11 f8 48 bd
       0.19123417 -0.040805064 0.098560505 -0.0490647
0000c0 66 e8 5e bd 9d 4e 10 3d d7 3f 84 3d ac d1 bf bd
       -0.05442085 0.03523122 0.06457489 -0.093661636
0000d0 46 5a 17 3e e9 53 58 3d 34 46 c8 3d f0 a7 cd bd
       0.1478053 0.052814398 0.09779015 -0.10041797
0000e0 a0 c6 f2 3c 31 32 f2 3d fc f2 a0 3c a1 3c 33 3e
       0.029635727 0.118259795 0.019647114 0.17503597
0000f0 4a 9d 6f 3c 9e d7 b0 bd 9f 38 d2 3c 8e ee 83 3d
       0.014624903 -0.08634876 0.025661765 0.06441985
000100 08 41 d2 3d ab 7f e1 3d e1 f3 6c bd a5 17 19 3e
       0.1026631 0.11010679 -0.05784977 0.14950426
000110 e6 ac 6e bd 1f dd 66 bd 26 03 7e 3d 9f 11 0e 3e
       -0.058270358 -0.05636322 0.06201472 0.1387391
000120 4e f4 d3 3d 90 ca 0f bd e6 ec 70 bd 3e 63 31 3e
       0.10349332 -0.035105288 -0.058819674 0.17323014
000130 73 13 23 3d 11 af 4b 3e a0 41 8c 3d e0 32 06 3d
       0.03981347 0.19891001 0.068484545 0.032763362
000140 33 e7 6d bc 4a fb 7a 3d cb 04 da bc 13 ce b3 bd
       -0.014520454 0.061274804 -0.026613614 -0.0877954
000150 6b 72 47 3c a2 0c 98 bd ba 42 65 bc 3c f9 a4 bc
       0.012173275 -0.074242845 -0.01399296 -0.020138375
000160 ee 1a f4 3c c6 cd 06 be 69 0b 48 bb e7 45 d6 3d
       0.029797997 -0.13164434 -0.003052438 0.104625516
000170 26 64 b0 3d 34 9f ac 3d e2 05 80 bd 33 59 e1 3d
       0.08612852 0.08428803 -0.06251122 0.110033415
000180 4e 67 7f bc 0e 40 19 3d 35 58 76 bc f0 7c 8c 3d
       -0.015588595 0.037414603 -0.015035679 0.068597674

weight f4 [10, 100]
000000 5d b4 50 bc fa 0e c6 3d 11 35 88 be ba 7c 10 bd
       -0.012738314 0.09670825 -0.26602986 -0.0352752
000010 04 2a 14 bc b3 ca 7e be 1c a7 a5 bd 6c b7 07 be
       -0.00904322 -0.24882011 -0.08088514 -0.13253564
000020 40 dd 25 3d c1 0e 86 3d be 6b 72 bd 42 30 39 3d
       0.040494204 0.06545783 -0.059184782 0.045212038
000030 ff 65 21 3e c1 31 16 3d 66 99 27 be 1c 12 93 3c
       0.15761565 0.036668543 -0.1636711 0.017952971
000040 44 95 9e 3e 6d c0 77 3e 67 c7 d1 3d 1d 8e fd 3d
       0.30973256 0.24194498 0.10243111 0.123806216
000050 fe 4a 2f 3d c1 fa c5 3c b5 52 10 be 2c 6f ef 3d
       0.042796127 0.02416742 -0.1409405 0.11691126
000060 74 bd af 3c 72 a2 16 3d 6c 9d 01 3e a9 3c 31 bd
       0.021452643 0.036776014 0.12657708 -0.04327074
000070 87 94 ab bd 1d 29 1d 3e 7d 4d df 3c 70 23 30 be
       -0.08377939 0.15347715 0.027258629 -0.17201018
000080 ac 8d 1a 3e ea 6f 71 bd e7 4b 5b 3c 1e 9f 1e 3e
       0.15093106 -0.05894462 0.013384796 0.15490386
000090 2a 4c 47 be 84 95 ed bc 8b 78 b0 3d 8d f8 42 be
       -0.19462648 -0.029001959 0.08616742 -0.19040127
0000a0 09 ef 85 be ef df 85 3e f1 75 0c 3d 0f 39 1f be
       -0.26158932 0.2614741 0.034292165 -0.1554911
0000b0 f5 5c 7c 3e 12 82 40 bd fc 49 7c 3e 8c ac 0e 3d
       0.24644835 -0.046999045 0.24637598 0.034832522
0000c0 c5 fb 69 bd ce 06 b2 3d b7 c3 6c 3e 17 7f 36 bb
       -0.05712487 0.08692704 0.23121534 -0.0027846748
0000d0 db 9c 02 be e6 81 46 be c7 7f 0d be 5f df 3a bd
       -0.12755148 -0.1938549 -0.13818274 -0.04562318
0000e0 62 08 d3 3b 1e 35 ac be 00 26 92 3e c1 4b 81 be
       0.0064402083 -0.33634275 0.28544617 -0.25253108
0000f0 e0 33 20 3d cd 46 56 3d bf 22 80 3e a9 29 92 bd
       0.03911197 0.052313615 0.2502651 -0.07136852
000100 2b 14 1d 3d c7 ec 4e be df 2f c6 3d 15 01 50 be
       0.03834931 -0.20207511 0.096770994 -0.20312913
000110 7b d4 1a be ef a7 53 be ac 96 aa bd 06 f9 69 be
       -0.15120117 -0.2066953 -0.0832952 -0.22848901
000120 8d 7d 91 bd f8 54 a6 3d 2c 39 d3 bd ee b9 cd 3d
       -0.07104025 0.08121675 -0.10313639 0.10045229
000130 e3 37 35 be f3 27 56 bd 24 18 7c 3d 0b d2 92 3e
       -0.176971 -0.052284192 0.06154646 0.28675875
000140 70 28 8c bd 76 c5 8c 3e db ec 74 3d cd 43 80 bd
       -0.0684365 0.274944 0.059796195 -0.06262932
000150 6b 57 76 bd 8c 59 61 bd 2a 4e d8 bc 4c 89 d2 bd
       -0.060141962 -0.05501704 -0.026404459 -0.102800936
000160 4e 5d 99 bd e2 b5 7e bd f1 cc af 3d b2 0a 01 be
       -0.074884996 -0.062185176 0.08584011 -0.12601736
000170 ca 9d ae bd 23 2e 88 3e 64 eb 8b 39 7b ce 8b 3a
       -0.085261896 0.265977 0.00026687526 0.0010666394
000180 6a 8d 17 bc 9e 53 82 bd 67 51 ae bd 52 d1 0c be
       -0.009250024 -0.06363605 -0.0851162 -0.13751724
000190 61 fa 64 bc 8a 26 60 3d 09 cb 04 3b 9f 25 84 3e
       -0.013975711 0.054724254 0.002026262 0.25809953
0001a0 c3 a2 27 be cf ce c1 bd 14 41 9b be 5d f8 89 3e
       -0.16370682 -0.09463274 -0.30323088 0.269473
0001b0 21 cb a4 bd 3b 21 06 bd 42 6c aa 3c be ae 29 3d
       -0.08046556 -0.032746535 0.020803574 0.041426413
0001c0 84 29 52 be cc db 8f 3c 3b 15 c1 3d b2 34 20 3b
       -0.2052365 0.017560862 0.094278775 0.0024445471
0001d0 a0 49 e3 bd 50 b1 49 be c1 c0 77 be 8f 2d 5a bc
       -0.11098027 -0.19696546 -0.24194624 -0.013316526
0001e0 7e 29 02 3d 34 9f 33 bd 4a b7 2e 3e 9b 9a 39 bb
       0.03177785 -0.043853 0.17062107 -0.0028320912
0001f0 f2 4c f7 bd 04 1b 47 3c 66 ea b9 bd 9f 03 f7 bc
       -0.12075223 0.012152437 -0.09077911 -0.030153094
000200 3d 6e cd bd 4a 8f 85 be 62 2c e5 bd 3d 69 5e be
       -0.10030792 -0.26085883 -0.11190106 -0.21719833
000210 3f 0c 84 bd ce 22 c8 3d 36 e8 cb bd 12 cb e4 bd
       -0.06447648 0.097722635 -0.099564 -0.11171545
000220 45 4d 50 3e c7 21 80 be a6 40 bf bd be 79 29 be
       0.20341976 -0.2502577 -0.093385026 -0.16550347
000230 ce aa 4d 3e 67 5c 31 be 30 fa d5 3d 21 09 2f be
       0.20084688 -0.17320405 0.1044811 -0.17093326
000240 4e 4c 74 3d 81 d8 0e be 1c 69 61 be b4 1c 1a be
       0.059643082 -0.13949777 -0.22012752 -0.15050012
000250 a6 e7 04 3c 61 4d 48 3b 1c d8 2e be ab 4c a9 bc
       0.00811187 0.00305637 -0.17074627 -0.020666441
000260 5f c3 e3 bd d3 5c 39 3e 67 f3 4a be a5 1e 89 3c
       -0.111212485 0.18101816 -0.19819413 0.016738245
000270 6b 4a 59 3d 6a d1 9c 3e c2 6e 26 be 22 e0 09 3f
       0.053049486 0.3062852 -0.16253188 0.53857625
000280 29 14 2c be 77 66 ed 3a e9 75 8c bc 74 4d cd 3e
       -0.16804565 0.0018112202 -0.017146068 0.40098155
000290 7e 4e b2 bd 80 ba c7 3d fb 67 60 bc 3e dd 79 3d
       -0.087063774 0.09752369 -0.013696666 0.06100201
0002a0 7f c1 9c 3d 6f 86 42 3a 3f 93 f4 3c 13 84 2c 3e
       0.07654094 0.0007420545 0.029855369 0.16847257
0002b0 e3 00 6b 3d fb 52 e9 bc a4 c3 9b 3d c6 11 28 3e
       0.057373893 -0.028481951 0.07605675 0.1641303
0002c0 fd f4 90 bd d5 d6 58 be 2b 8b db bc 64 8b 7e be
       -0.07077978 -0.21175702 -0.026799759 -0.24857861
0002d0 01 0c 96 bd 25 23 99 be bc ef 5a 3e 63 83 0d bd
       -0.07326508 -0.29909626 0.21380514 -0.03454913
0002e0 2e 89 8b 3c e1 6e 3b 3d ad eb b5 bd 45 c6 2e bd
       0.017033186 0.04576004 -0.08882842 -0.042669553
0002f0 46 b1 72 3e d5 fd 4c 3d 69 ec 97 bd 55 08 01 3d
       0.23700437 0.05004676 -0.074181385 0.031502087
000300 b5 03 c8 bb 0d 6a 7f 3d d1 93 c9 bd 6f f6 94 bd
       -0.0061039575 0.062356997 -0.09842647 -0.07273566
000310 8f 1f 31 3e 08 29 86 3e ef 88 39 bd 70 b6 fd bb
       0.17297195 0.2620318 -0.045296606 -0.0077426955
000320 17 a5 06 3a 66 af 39 bd 17 46 88 be 2c 22 ee bd
       0.00051362946 -0.04533329 -0.26615974 -0.116276115
000330 2e e3 15 be ca c5 3a 3c 18 26 a0 3d 3f 0e c7 3d
       -0.14637443 0.011399696 0.07819766 0.09719514
000340 d6 dc 7e 3d 67 95 4f 3d f5 b5 bc bd f8 9b 78 bd
       0.062222324 0.05067959 -0.09214393 -0.06069562
000350 8f c6 f1 3d 41 26 4f bd 11 fc 56 bd 9d 17 69 3e
       0.1180545 -0.05057359 -0.052486483 0.22762914
000360 4b 52 74 3e 91 2b 85 bd ab 21 b4 3d a5 a6 ee bc
       0.23859517 -0.0650245 0.08795484 -0.029132197
000370 e1 40 09 3e 21 26 e6 3c 76 be 3d 3e 23 97 b6 3e
       0.13403656 0.028094353 0.18529686 0.35662183
000380 62 98 6a bd f4 08 e1 3d a5 6c 7d 3c e8 6a c3 3c
       -0.05727423 0.10988036 0.015467797 0.023854688
000390 14 e4 9c be 76 3f bc bd 6e f7 ef 3d 61 21 1f 3e
       -0.3064276 -0.09191792 0.11717115 0.15540077
0003a0 e5 e4 34 3e 70 2c ec bc f9 bf 0a 3d 4e d5 fd bd
       0.17665441 -0.028829783 0.033874486 -0.123942
0003b0 f6 4b 43 bd 36 53 40 bd 7d 86 dc bc 3e be 25 be
       -0.047679864 -0.046954356 -0.026919598 -0.16185853
0003c0 60 9f 71 3e ef ee 20 be cb 43 2f bc d2 10 c0 bd
       0.23595953 -0.15716146 -0.010697315 -0.09378208
0003d0 be 81 20 3e 38 18 84 3d 5b 8c cd 3c 70 c6 a6 3e
       0.15674493 0.06449932 0.02509134 0.3257327
0003e0 0c d7 57 bc c7 23 62 3e 4b c6 97 bd 07 2d 8f 3d
       -0.01317383 0.2208396 -0.07410868 0.0699101
0003f0 80 94 ef 3d 82 19 2e be b8 79 a0 3d 37 40 b3 3d
       0.11698246 -0.17001918 0.07835716 0.087524824

bias f4 [10]
000000 dc aa 26 be 78 79 5a 3e a7 c5 a6 bb 3a 6e c4 bd
       -0.16276115 0.21335399 -0.00508948 -0.095913365
000010 44 5a a0 3c 6e 18 29 3e ea d2 e3 bd 5c 3a e6 3d
       0.019574292 0.16513225 -0.11124213 0.112416
000020 b7 fb 49 be 1c 3f 08 bd
       -0.19724928 -0.03326331
