artifacts/1/c0fcfaa02e944fef9b9dd7457352f027/artifacts/model/data/model.pth (torch, 362887 bytes, 6 tensors)

weight f4 [100, 784]
000000 56 1b db 3c 7c df 6a bc 16 2f f2 3c 8f 6e 04 bd
       0.026746433 -0.014335509 0.029563468 -0.032332
000010 0e f1 a2 3c 3e 5d a3 bc e0 eb 70 3c 0e a2 86 3c
       0.019890334 -0.019941922 0.0147046745 0.016434696
000020 9a 40 88 bc 81 21 fe bc 30 21 ae 3b 13 1f c7 bc
       -0.016632367 -0.031021835 0.005314015 -0.02430681
000030 78 f2 08 bc 38 9f 56 3c b6 95 f7 3c 00 c2 84 bb
       -0.00835859 0.013099484 0.030222755 -0.004051447
000040 50 7d 8f 3c 08 e2 c8 bb 55 5d 9d bc f6 82 fb 3c
       0.017515808 -0.0061304606 -0.019209543 0.030702095
000050 5c 50 98 3c 83 b4 a9 bc b9 6b 0a 3d d4 4c 51 3c
       0.018593006 -0.020715958 0.03379414 0.012774665
000060 e0 52 a9 ba 1e 81 f0 3c 6a 69 20 bc 1e 37 05 bd
       -0.0012918375 0.029358443 -0.009790758 -0.032523267
000070 98 ec b4 3b 40 fd 1d bc 55 68 8b bc 10 dd 98 3c
       0.0055213682 -0.009642899 -0.017017523 0.018660098
000080 c0 a3 65 3c a2 bd e6 3c 90 9d 67 3b f0 dd ad 3b
       0.014016092 0.028166596 0.0035341717 0.005305998
000090 72 cc b7 3c 12 89 5d bc be 2e ee 3c 25 fd 82 bc
       0.022436354 -0.01352145 0.029075023 -0.01598985
0000a0 d6 28 f3 3c c0 38 ca 3c 1c e4 e9 bc 5c 9f 9c 3c
       0.029682558 0.024685264 -0.028551154 0.019118957
0000b0 38 bc b4 3b f0 27 10 3c 88 92 80 bb 12 73 1e bc
       0.0055156015 0.008798584 -0.003923718 -0.00967099
0000c0 00 55 0e 3b c0 a9 99 3c f8 27 ae bc c8 f5 39 3c
       0.0021718144 0.0187577 -0.021259293 0.011350103
0000d0 59 2d 02 3d 1e 86 bb bc 3a ba ef bc b0 09 c0 bc
       0.03178153 -0.0228911 -0.029263604 -0.02344212
0000e0 73 eb e2 bc 4a d8 eb 3c 6a a9 b0 3c 14 c1 f5 bb
       -0.027700162 0.028789658 0.021565158 -0.0074998233
0000f0 54 1a 81 3c 38 6f 0f bc 39 42 05 3d 20 47 3b 3c
       0.015759625 -0.008754544 0.032533858 0.011430532
000100 74 89 7f 3c 0e 0e 16 bc 9c f0 b7 bb e8 22 7b 3c
       0.015596736 -0.009158624 -0.0056133997 0.0153281465
000110 de ba af 3c ea f0 5d 3c 9e 2a 35 3c b2 1e 54 bc
       0.02145141 0.013546208 0.011057524 -0.012946771
000120 8d c6 7f bc 1f ee 3b 3c ae 9f bf bc 77 44 a0 bc
       -0.015611303 0.011470347 -0.02339157 -0.019563897
000130 11 b2 fb bc 20 e4 79 3b ce f8 03 bd 5a a0 af 3c
       -0.030724557 0.0038130358 -0.0322197 0.021438766
000140 81 9e e6 bc 80 7c 66 ba 88 98 a8 bb 92 17 87 3c
       -0.028151752 -0.00087923557 -0.0051451363 0.016490731
000150 ea b0 25 bc 11 33 f2 bc 48 79 c8 3b 8f 22 0b 3d
       -0.01011298 -0.029565366 0.0061179735 0.033968505
000160 3e ea ac 3c 75 5d 84 bc 7c 41 0e bd 87 e7 44 3c
       0.02110779 -0.016157845 -0.03473042 0.012018091
000170 97 a9 0b bd 51 c3 f7 3c b5 4f a6 bc b9 c4 4b 3c
       -0.03409728 0.030244501 -0.02030168 0.012437039
000180 7e ab 0f bd 56 65 91 bc da d8 a7 bc 4a 95 f4 3c
       -0.035075657 -0.017748516 -0.020489145 0.029856343
000190 40 94 48 ba cf 45 cf bc 85 3f 92 bc e7 4f 9a bc
       -0.00076514855 -0.025301842 -0.017852554 -0.018836929
0001a0 45 d2 bd bc b5 b0 ed bc b0 1b 0a bd 48 ee d4 bc
       -0.023171553 -0.029014925 -0.03371781 -0.025992528
0001b0 3c b5 7a 3c 30 e3 b9 bb e0 bf d0 3a 75 11 e5 bc
       0.015301999 -0.005672835 0.0015926324 -0.027962426
0001c0 b2 02 c2 3c 72 86 d6 3c b0 5c 52 3b 00 0e 8d b8
       0.023682926 0.026187155 0.0032098703 -6.7260116e-05
0001d0 7c 6d cd 3c 36 75 e4 3c a7 df 7f bc 0e 79 63 3b
       0.02507662 0.027887922 -0.015617288 0.0034709605
0001e0 77 9b fd bc 1d 13 52 bc 55 76 c7 bc 3f d7 a8 bc
       -0.03095792 -0.01282194 -0.024348417 -0.02061045
0001f0 39 ae 7f bc c2 d4 fd bc 9c ef db 3c 07 df a1 3b
       -0.015605503 -0.03098524 0.026847653 0.004939917
000200 22 da 8f 3c 5f 70 ca bc 98 49 53 bc e6 54 42 bb
       0.017560069 -0.024711786 -0.012895964 -0.0029652654
000210 63 f9 41 3c 87 a2 f1 3c 97 e1 bf bc 2e a1 39 bc
       0.011839244 0.029496444 -0.023423 -0.011329932
000220 7e 3f 09 bd 44 fb 05 bc 9c 31 cc bc 68 f1 b0 3b
       -0.033507816 -0.008177582 -0.024926 0.0053998716
000230 bf 6c 04 bd 0e 61 fc bc 00 16 b8 3b 10 83 ae bc
       -0.03233027 -0.030807998 0.005617857 -0.02130273
000240 47 4b 67 bc f1 1b d6 bc b0 3d d3 bc e5 9a 08 bd
       -0.014117069 -0.02613637 -0.02578625 -0.033350844
000250 55 9d 03 3d 49 42 0e bd 6b 26 c5 bc b4 5a a5 bb
       0.032132465 -0.034731183 -0.02406617 -0.005046213
000260 52 f3 c1 3c 63 66 10 bd 63 6b a4 bc 18 a5 92 bb
       0.023675594 -0.035253894 -0.020070737 -0.004475247
000270 f0 28 2d bc 56 e7 e6 3c 4a 19 8c bc d6 65 f2 bc
       -0.010568842 0.028186481 -0.017101903 -0.029589575
000280 25 c9 f1 3b 7d a6 3a 3a 85 98 e2 bc df 72 ee 3c
       0.0073787146 0.00071201456 -0.027660618 0.02910751
000290 23 12 d8 3b 48 ac a9 bc 46 69 ca 3c cc 95 d9 3c
       0.006593959 -0.020712033 0.024708401 0.026560687
0002a0 58 68 47 bc a0 b2 c3 bc 53 5b 97 3b da 48 64 bc
       -0.012170874 -0.023888886 0.004619041 -0.013933385
0002b0 9f 68 28 3c c7 ae b3 bb 56 8c f9 3c ac 28 c9 3c
       0.01027885 -0.0054834816 0.030462425 0.024555527
0002c0 fb 10 33 3c 10 ec 86 ba 52 16 e5 bc 7d 94 0b bd
       0.010929341 -0.0010293741 -0.027964745 -0.034077156
0002d0 ac 9f db bc 3f 2a ea 3c f7 c5 8f 3c c2 84 b0 38
       -0.026809536 0.028584598 0.017550452 8.417062e-05
0002e0 37 11 0e 3d c8 d9 2c 3c 53 b7 c0 3c 3a 02 5e bc
       0.034684386 0.01054997 0.023524916 -0.013550336
0002f0 df 60 d2 bb 16 20 0e 3d 5b 76 b3 3c e7 48 e2 bc
       -0.0064202393 0.03469857 0.021907022 -0.027622653
000300 29 5b 9d 3b 17 f4 88 bc f5 a3 41 3c 3e 86 ad bc
       0.004802127 -0.016717954 0.011818876 -0.021182176
000310 73 98 c2 bc 09 f1 32 3c 34 23 8a bc 85 4d bc ba
       -0.023754334 0.010921725 -0.01686249 -0.0014366364
000320 f7 39 a2 bc 08 f7 b3 3c 6e 24 c0 3c da fd d7 bc
       -0.01980303 0.02196838 0.023454871 -0.026366163
000330 64 a4 0d 3d 4e 08 0d 3d 65 b6 28 bb ca 37 7f 3c
       0.034580603 0.034431748 -0.0025743481 0.015577266
000340 79 fd c4 bc 72 1e 28 bb 1e a3 33 bc 02 dc 9e 3c
       -0.024046646 -0.0025652912 -0.010964183 0.019392017
000350 84 b3 95 bb 84 3e 65 3c 3b dc 4c bb e4 06 1a bc
       -0.004568519 0.013991956 -0.0031259197 -0.009401057
000360 6b 84 31 3a f7 09 c9 bc b7 94 48 3b db ee c1 bc
       0.0006771746 -0.024540884 0.003060622 -0.023673465
000370 f6 e7 8e 3c 00 92 23 bc 55 1b cf bb b5 76 06 3d
       0.017444592 -0.00998354 -0.006320397 0.03282805
000380 c4 cb 1d 3c 99 7e e7 bc f0 5c ec ba ad 8a 60 bc
       0.009631101 -0.028258609 -0.0018033069 -0.013704938
000390 27 d9 93 3b 78 f3 81 bc bf 7a 5f 3c 9d b5 b7 3c
       0.0045119706 -0.015863165 0.013640105 0.022425467
0003a0 70 bb 15 3b ee 0c 33 3c 41 26 d7 bb 46 66 b7 bc
       0.0022847317 0.010928376 -0.0065658395 -0.022387635
0003b0 8d d3 ec 3c 2e cf 9b bc 09 4f 62 3c d5 cf ed bc
       0.028909469 -0.01901969 0.013812789 -0.029029766
0003c0 31 b7 a4 bc d7 1a 83 bc e3 a8 a6 ba c9 f4 c3 3b
       -0.020106884 -0.01600401 -0.0012715127 0.0059801084
0003d0 aa 95 15 3b 13 ef 81 bc cc 38 a4 3c 67 59 c6 3c
       0.0022824802 -0.01586107 0.020046614 0.024212552
0003e0 23 ee 0d 3d c5 94 f7 3c 10 7e 1e bc c0 06 c5 bb
       0.034650933 0.030222306 -0.00967361 -0.0060127676
0003f0 3e e7 cf bc 5e 56 b4 bc a3 80 d2 bc ed cc 9e 3c
       -0.02537882 -0.02201384 -0.025696104 0.019384826

bias f4 [100]
000000 9f c3 94 3b f9 e2 fe 3c 07 0e 01 3d bf ea ad 3d
       0.0045399214 0.031114088 0.03150752 0.0849204
000010 f5 d7 37 3c 90 d8 a6 3d 6b a2 f5 3c eb 50 32 bd
       0.011220922 0.08146775 0.029984673 -0.0435342
000020 97 84 20 3b 82 0b 41 3d 70 a6 6e 3c 83 4d 55 3d
       0.0024493092 0.047130115 0.014566049 0.052075874
000030 5d 34 0f bd 30 67 bb 3c ff 22 a2 3d 0a 99 93 3c
       -0.034962047 0.022876352 0.07916831 0.01801731
000040 31 51 32 3d 92 8c 67 3d 42 d8 19 bc 30 ab 5c bd
       0.04353446 0.056530543 -0.009389939 -0.053874195
000050 c9 7c 0f 3c eb df 00 bd 53 c6 d9 3c a4 f5 ad 3d
       0.008757778 -0.031463545 0.026583826 0.08494118
000060 64 e8 50 3b a7 cc d2 3c 11 18 39 bc a5 47 d6 3a
       0.0031876797 0.025732351 -0.011297242 0.0016348256
000070 e8 ca ff bc e4 84 e9 b8 c6 62 d8 3c 90 3d 3b bb
       -0.031224683 -0.000111350586 0.026414286 -0.002857063
000080 72 df 0e 3d 60 f5 b2 3c be 70 80 bc 9b 0f af ba
       0.034881063 0.02184552 -0.01567876 -0.0013356091
000090 3f ae 88 bb ec 58 a4 bb 3b 26 b9 bc 19 d9 70 3d
       -0.0041711624 -0.005015483 -0.022601238 0.05880079
0000a0 0f 08 f7 3c 1b 42 3d bd ac af 9f 3d 0d dc 08 bc
       0.03015521 -0.04620562 0.077971786 -0.008353245
0000b0 59 9a e4 3c 3c 82 4b bc 7d 9d 1f 3c 81 b9 bf 3d
       0.02790563 -0.012421187 0.009742138 0.09361554
0000c0 97 90 a5 bc 3e 27 90 3d 8e 56 af bc 60 3e 0b 3c
       -0.020210547 0.07038735 -0.021403577 0.008498758
0000d0 ed aa a0 3c 90 06 ea 3d 45 f7 fb bc 5d 84 d9 3c
       0.019612754 0.11427033 -0.030757556 0.026552374
0000e0 af 81 13 bc bd 35 90 3c 04 51 b5 3a 6f 98 b7 3c
       -0.009003087 0.01760375 0.0013833349 0.022411553
0000f0 07 6a e7 3d 80 04 17 3c 0e 90 8f ba 23 13 a2 3c
       0.1129952 0.0092173815 -0.0010952966 0.019784516
000100 8b e3 1e bb 33 73 da 3c 13 53 04 bb 44 1f 08 bc
       -0.0024244513 0.02666626 -0.0020191118 -0.008308236
000110 2e 1a ca bc f3 38 c8 3d c0 ad 5d 3d 4d 6b b5 bd
       -0.024670687 0.09776487 0.05412078 -0.088583566
000120 24 a0 02 3b f8 24 af 3d b3 cd 00 39 fa 92 a9 3d
       0.0019931877 0.08551973 0.0001228366 0.08279987
000130 db f9 25 3d e3 31 9e 3d ca 27 09 3d 7d 5a 06 bd
       0.040521484 0.07724359 0.03348521 -0.03280114
000140 44 7c f7 3d b9 db c7 3c 27 39 20 3d ea bc d3 3d
       0.12084249 0.024396764 0.039117005 0.10338767
000150 3c 19 b2 3d 4f 5d 05 3e 41 2e a0 3d 93 0a 62 3d
       0.08696219 0.13023876 0.07821322 0.055185866
000160 9c b3 0b bd 03 ab b1 bd 3b 1f f5 3c 17 70 8a 3d
       -0.034106836 -0.08675196 0.029922118 0.06759661
000170 23 00 81 3d 8a cf 59 3d e4 88 b1 3d ae 83 99 3d
       0.06298854 0.05317644 0.08668688 0.07495819
000180 f0 0b 85 3c 61 23 2c 3c fa 91 c1 3c a7 ce a9 bc
       0.016241044 0.010506482 0.023629177 -0.020728422

weight f4 [100, 100]
000000 6d cc b4 bd 6d 17 d3 3d 00 12 91 bd 54 b9 08 3e
       -0.088280536 0.103072025 -0.07083511 0.13351947
000010 ab 89 4c bd 83 3e 21 bc d7 02 9d 3b 3d 60 03 3d
       -0.049935978 -0.009841564 0.0047915983 0.0320742
000020 8c 2d 5a 3d 66 7b 06 bd f3 86 86 3d 30 20 08 bd
       0.053266093 -0.032832526 0.06568708 -0.03323382
000030 f2 cd 87 3d 06 69 ef 3d 3a 98 59 3c 75 38 a8 3d
       0.06631078 0.116899535 0.013280923 0.08213893
000040 8a 67 a2 3d df cb ad 3c ae c9 f2 bc 13 59 65 bd
       0.07929905 0.021215377 -0.029637184 -0.05599315
000050 eb 21 c7 ba 14 ae 82 3c 76 f7 3b 3d 0e 6c 1e 3e
       -0.0015192603 0.015952148 0.045890294 0.15470907
000060 7f 80 00 3e da 3c 72 bd a1 cb d8 3d e1 4a 07 3c
       0.12549017 -0.059140064 0.10585714 0.008257599
000070 75 61 47 3c 41 ab a3 bd a9 bd 1e 3d dd 65 7e bc
       0.012169232 -0.079916485 0.038755093 -0.015527216
000080 1e ab 3d 3d 69 c5 86 3d 49 39 91 3d b8 5d c5 3d
       0.04630577 0.06580622 0.070910044 0.09637016
000090 f5 78 1b be b4 47 0a 3e 8c f8 50 bd 76 17 0c bc
       -0.1518286 0.13503915 -0.051018283 -0.008550515
0000a0 67 01 02 be fe ab bc 3d ca c6 f8 bd a7 5c 70 bd
       -0.12695847 0.092124924 -0.12147291 -0.05868211
0000b0 84 b9 53 3d ea d2 80 bc e7 bd 1c bd d0 c5 9f bc
       0.051690593 -0.015725572 -0.038267042 -0.019503504
0000c0 84 2a 10 3e f2 f2 78 3c 42 08 bb 3d 9d 52 77 bd
       0.14078718 0.015194641 0.091324344 -0.06038152
0000d0 e6 54 26 bd 7a 26 fb 3c b9 02 5e bb 9b 40 e2 3d
       -0.04060831 0.030657995 -0.0033876135 0.11047479
0000e0 c2 9f bf 3d 6f 8f 60 bc c0 65 ac bd 65 62 a8 bd
       0.09356643 -0.013706072 -0.08417845 -0.08221892
0000f0 5b 62 91 39 b0 c5 b0 bc 01 33 b6 3c 9a 85 b8 bb
       0.00027729836 -0.02157864 0.022241117 -0.005631161
000100 d9 83 8a bd f8 66 42 bd fc b3 e9 3d bc a8 cc 3d
       -0.06763429 -0.04746148 0.114112824 0.09993121
000110 0b 5f ce bd 07 d7 8d bc 7b 4a f5 3b cb 25 6d bd
       -0.10076722 -0.017314447 0.0074856854 -0.05789737
000120 ef 4a a0 bc 0b e6 7d 3d 77 41 dd bc 1c 2c 9d bd
       -0.019566981 0.061986964 -0.027008755 -0.07674429
000130 cc 3c b2 3d cc 35 39 3c db ad c0 3c fc 27 bd 3c
       0.08703002 0.01130433 0.0235204 0.023090355
000140 bf 5b 90 3d 70 7d 7b 3c 49 2f 65 bd 38 d2 1b 3d
       0.07048749 0.015349731 -0.055953298 0.038042277
000150 03 20 19 3e b9 1f 24 3e c5 09 05 bd 80 e8 8c bd
       0.14953618 0.16027726 -0.03248002 -0.06880283
000160 68 74 94 3d f3 55 c5 bc fe 21 42 3d c8 ba d9 bc
       0.07248765 -0.024088835 0.0473957 -0.026578322
000170 e5 a7 73 bd 88 26 03 be ff 82 39 bc 85 da eb 3d
       -0.05948629 -0.12807667 -0.011322736 0.11516289
000180 07 74 de 3d 5a 43 18 3d 11 f2 5b 3d 7a 3f 86 bd
       0.10861974 0.037173606 0.05369765 -0.06555076
000190 dc 19 ab bd 8d d4 ff bd 58 20 73 3d ee ce 1f bd
       -0.08354542 -0.12491713 0.059357017 -0.039015703
0001a0 1a e1 2f 3c cf 02 06 3d 5e 7c f0 bd ca 06 ea 3d
       0.010734821 0.032717522 -0.11742471 0.11427076
0001b0 d4 6e 54 3d de 3d c5 bd 28 27 1e 3e f2 c1 34 3e
       0.051863506 -0.09630941 0.15444624 0.1765211
0001c0 cd 75 83 3a dc 37 76 3d 85 eb a6 3d 74 e7 b5 bd
       0.0010029614 0.060111865 0.081503905 -0.08882037
0001d0 e9 9a b9 bc 42 ea 00 3d 58 67 15 bc d5 3c b8 bd
       -0.022656875 0.031473406 -0.009118877 -0.08995978
0001e0 c2 d0 38 bc ec 23 40 39 40 74 87 3d 6c 22 b1 bc
       -0.0112802405 0.00018323929 0.0661397 -0.021622859
0001f0 bf 0a c5 3b a5 23 71 3c e1 5a 61 bd 92 b6 13 be
       0.006013244 0.014717971 -0.05501831 -0.14425114
000200 26 ff 1d bd 6f 8e dd 3d 42 04 6a 3d 98 ac 04 3e
       -0.038573407 0.10818183 0.057132967 0.12956464
000210 3d 6d 97 bd 22 8e 31 3d f8 42 86 3d 73 79 dc 3c
       -0.073938824 0.04334844 0.06555742 0.02691338
000220 b9 95 62 bc 8d 68 af bd bc 92 8d bc 3d 9a 1b 3d
       -0.013829642 -0.08564863 -0.017281882 0.03798889
000230 1b 0a 61 3d f3 b4 ea bd 9f f9 81 bd dc 4b 30 3d
       0.054941278 -0.114602946 -0.063464396 0.043041095
000240 7f 87 84 3d e2 e6 ab bb e6 bd 85 bd 7b 5b b6 bc
       0.06471156 -0.0052460292 -0.06530361 -0.022260418
000250 3a 05 40 bd 60 94 90 bd af 4c ae bb 0e 98 35 3d
       -0.046879984 -0.0705955 -0.0053192 0.044334464
000260 03 96 ec 3c cc 95 8c 3b 44 fa d4 bd 7e 55 6d bc
       0.028880125 0.004290318 -0.10399297 -0.014485715
000270 f9 67 c5 bd 13 d5 9b bd 87 37 01 b9 e5 bc 9c bd
       -0.09638972 -0.07609 -0.00012323084 -0.07653216
000280 da 8a 67 bd 28 bb 36 bd 47 c0 d0 3d 8d db a5 bd
       -0.056528904 -0.04461208 0.10192924 -0.080985166
000290 36 e1 fe bc 0c ce 81 bd 76 76 dc bc 02 2f 8c 3d
       -0.031113248 -0.063381284 -0.026911955 0.068449035
0002a0 c0 b7 00 bd 44 0d 2b bd f6 c2 1b 3d c4 bf 01 3d
       -0.031425238 -0.041760698 0.038027726 0.031677023
0002b0 eb 7b c9 3d 7c c6 a0 bd 89 4d ca 3d 97 e4 c8 bd
       0.098380886 -0.07850358 0.0987807 -0.09809225
0002c0 14 65 1f 3d 3b 04 7a 3d 47 d1 18 3e 72 26 d1 bc
       0.038914755 0.06103919 0.14923583 -0.025531027
0002d0 84 ee be 3d 41 0b 93 3d 21 49 30 bd 8b d8 11 3c
       0.09322837 0.07179881 -0.04303849 0.0089017255
0002e0 48 a8 c0 bd a3 6a ad bd a2 8c 92 bd 06 6d 7d bd
       -0.09407097 -0.08467605 -0.0715573 -0.06187155
0002f0 d4 cc 19 3d 34 2a 70 3d 1f 12 b7 bd 60 78 39 3d
       0.037548855 0.058633998 -0.08939003 0.045280814
000300 66 8d 2f 3d 0a 06 82 3d 01 22 ba 3d b7 62 2c bc
       0.042859457 0.06348808 0.09088517 -0.010521582
000310 ee cb 4b 3d 3a 5c fd bd b6 eb b0 bd 38 d3 31 bd
       0.04975503 -0.123711064 -0.08638708 -0.043414325
000320 50 49 ab bd 2d cc 8b bd 08 65 b8 3d 61 7a 8c bd
       -0.083635926 -0.06826053 0.09003645 -0.068592794
000330 de 42 cf 3c 57 c7 4d 3c 6b 61 e7 bd 02 a9 74 bd
       0.02530044 0.012559733 -0.11297878 -0.05973149
000340 67 89 44 bd c5 1e ce bd 7d 41 29 3e 88 5b 30 3d
       -0.0479826 -0.100644626 0.16528888 0.04305604
000350 5c 0c d2 3c 8a 32 2c bc 95 d7 e3 bb 6e b5 aa bd
       0.025640659 -0.010510096 -0.0069531896 -0.08335386
000360 01 64 a0 3d e5 e1 86 bd 26 c7 8a bc e9 e6 fd bc
       0.07831574 -0.06586055 -0.016940664 -0.030993896
000370 10 d8 08 be 12 e9 bf bb a1 ae 44 bd 46 fd d6 3c
       -0.13363671 -0.0058566416 -0.0480181 0.026243817
000380 85 d2 09 3e e6 2a c3 bc d5 ad e3 bd 3d 9c 11 bd
       0.13459213 -0.023824167 -0.1111714 -0.03554939
000390 48 74 7d 3d 57 f8 47 3d d6 56 67 3c 8c d8 7c bd
       0.061878473 0.04882082 0.014119824 -0.061729953
0003a0 9c d3 54 3d 7b 90 95 3d e0 78 da 3d 84 9b c1 bd
       0.05195962 0.07302948 0.10667586 -0.094534904
0003b0 19 a5 41 3e 6c a4 96 3c 02 4e a4 3b 6b 35 ee 3c
       0.18910636 0.01838895 0.005014182 0.029078206
0003c0 1f dd 0d 3e c8 11 b6 bd 8e 04 de 3d 19 67 c0 bd
       0.13853882 -0.0889011 0.108407125 -0.09394664
0003d0 5b 09 94 3d 74 d9 e5 3d 49 c8 fd bd 91 9e 28 3e
       0.07228347 0.112231165 -0.12391717 0.16466738
0003e0 47 94 16 be 6d 73 74 3d 88 cb ab 3c c7 ed c1 bd
       -0.14705001 0.05968039 0.020971075 -0.094691806
0003f0 df 5c b4 3d 9a de 1b b9 80 ad e0 3d 7b 9e 87 bb
       0.08806776 -0.00014864877 0.109705925 -0.0041387654

bias f4 [100]
000000 7a 5b 90 3d c5 43 3e bd d6 90 4f bd 1a 3d a9 3d
       0.07048698 -0.04645135 -0.050675236 0.08263607
000010 5f bd bb bd 4b f9 17 3c 10 98 da 3d bd e4 b1 3d
       -0.09166979 0.009275745 0.10673535 0.086862065
000020 8a 5c 1f 3c 67 6a 15 3d 89 33 23 3c 3c e5 f5 3d
       0.009726653 0.036478426 0.009961017 0.120066136
000030 7f 5e b8 bd 54 a5 26 bd dd 00 ff 3d 52 9d 08 3e
       -0.09002399 -0.040685013 0.124513365 0.13341263
000040 3a 44 98 bd c0 b3 dd bd 67 2c fe 3c 6f c5 05 3e
       -0.07434888 -0.108253 0.031027032 0.13063596
000050 31 cb 07 bd 6e f5 8f 3d 1f 0b 85 3d 55 89 59 3c
       -0.033152763 0.07029234 0.06496262 0.013277371
000060 af 6f 4d bd 5d 98 bd bd b4 78 3d 3d c4 98 c4 bd
       -0.050155338 -0.092575766 0.04625769 -0.0959945
000070 38 26 07 bd 30 ce bf bd 32 27 ad bd c5 c0 06 3e
       -0.032995433 -0.09365499 -0.084547415 0.13159473
000080 f4 be d1 bb 7d 68 94 3c df cf 15 3d 3d be be bd
       -0.006400937 0.01811623 0.036575194 -0.09313629
000090 4b 04 a4 bd 30 54 8d 3d c8 d9 0e 3e 54 fa 18 3d
       -0.08008631 0.06900823 0.13950264 0.037348107
0000a0 15 d3 9b bc 63 61 ba bb a4 2e 80 ba 3d 0b 96 b9
       -0.01902155 -0.005687879 -0.0009779525 -0.00028618603
0000b0 06 11 0e 3e 89 2c 43 bd a6 7c ac bd d0 c1 0f 3d
       0.13873681 -0.047649894 -0.08422212 0.035096943
0000c0 f4 1e 6f bd 52 d7 34 3c ed 9d a7 3d 31 61 9e 3d
       -0.05837913 0.0110376645 0.08184419 0.077333815
0000d0 dc 22 36 3b 93 4d 8c bd 57 bd 00 3c 9b e5 c2 3d
       0.0027791774 -0.068507336 0.007857642 0.0951645
0000e0 3e b9 0f 3e 0d eb 90 bd 85 4e c6 bb ce 97 fd 3c
       0.14035508 -0.070760824 -0.0060518407 0.030956175
0000f0 51 88 b6 bc 8b cf 83 3c b9 0e 84 bc c9 fb 19 bd
       -0.022281798 0.016090175 -0.016120302 -0.037593637
000100 54 20 17 3e 73 f9 98 bd 0d 07 9d bc 2c aa 4d bb
       0.14758426 -0.07469454 -0.019168401 -0.0031381948
000110 90 18 b4 3d 1e f1 c4 3d 94 ee 9c 3d c9 9f e9 3c
       0.087937474 0.09616302 0.07662693 0.028518574
000120 ca aa 9e 3a 5f 89 80 bd 2e c0 ab bc 78 ef e2 3d
       0.0012105342 -0.062762015 -0.020965662 0.11080831
000130 40 ee c5 3d f5 18 21 3e cb f9 94 bd 6f e8 4a 3d
       0.09664583 0.15732177 -0.07274207 0.049538072
000140 94 c7 0f 3c 78 65 c3 bd fa 0e 20 bd b8 7e f7 bc
       0.0087756105 -0.09540838 -0.039076783 -0.030211791
000150 d8 77 a1 3d 31 30 f3 3d 2e 9e 47 bd 39 14 a1 3d
       0.078841865 0.11874426 -0.048734836 0.07865185
000160 66 cd 5e 3d b0 05 3b 3d 9d 22 be 3d 8b b7 81 bb
       0.054395102 0.04565972 0.09283946 -0.0039586476
000170 5f f7 0c bd cc 5e bd bd 79 7e 71 bc 03 f5 0e 3d
       -0.0344156 -0.09246597 -0.014739626 0.03490163
000180 3c 05 0b be ad 2d a9 bc 9e a0 a4 bc e0 1c 24 3e
       -0.13576216 -0.020651663 -0.02009612 0.1602664

weight f4 [10, 100]
000000 67 3f 1c be ce b4 3d 3e ff 0c e3 3d 1d 05 e2 be
       -0.15258561 0.18526003 0.11086463 -0.44144526
000010 1e 24 16 be f7 6c bc 3e 96 59 e3 3d e3 b6 aa bd
       -0.14662215 0.36801884 0.111010715 -0.08335664
000020 92 7b 5a 3d 3c 19 16 be dc 15 40 be a8 90 b8 bd
       0.053340502 -0.14658064 -0.18758339 -0.09011966
000030 a3 84 a9 3d 7c 55 42 bc 69 b9 c9 be a6 be c6 bc
       0.082772516 -0.011861201 -0.3939927 -0.02426083
000040 d0 57 83 3e 09 27 12 3e 3a 51 57 bc ad 4c 40 bd
       0.25652933 0.14272703 -0.0131419245 -0.046948124
000050 1d 53 40 bd e2 a3 c2 3d 94 7b a4 be a1 a0 53 3e
       -0.046954263 0.095039144 -0.32125533 0.20666744
000060 35 f9 9b be 0f 1e ce bd f7 41 bd bd f0 44 02 3c
       -0.30463567 -0.10064327 -0.092410974 0.007951006
000070 1c eb bc ba 6a 96 84 3d d6 ac b5 3c 43 52 5e 3e
       -0.001441333 0.06474002 0.022177141 0.21711068
000080 66 01 ce 3d 93 e7 9f 3d 80 c7 0e bd 23 e1 18 be
       0.100588605 0.07807841 -0.034858227 -0.14929633
000090 fd f7 3a 3e 0c a3 d3 3d 6d d3 58 3e 8e 8e 9f 3e
       0.18258663 0.10333833 0.21174403 0.31163448
0000a0 b5 08 ab bc 32 17 84 be 46 cd 40 3c 2e c9 53 3c
       -0.020878175 -0.25798947 0.011767691 0.012926383
0000b0 3d 22 4c 3e 27 88 3f 3c 1b 23 04 3e 93 cc 4b 3e
       0.19934936 0.011690176 0.12904017 0.19902258
0000c0 da 52 ac bd c0 35 ea bd ce a0 84 3c 5a e6 37 3e
       -0.0841424 -0.11436033 0.016189959 0.17958966
0000d0 1b 04 31 be 64 37 35 3d c9 a9 b6 bd 72 d4 18 3e
       -0.17286722 0.044242278 -0.08919103 0.14924791
0000e0 b2 d2 a1 bd 8b bf 98 bd ed 13 47 3e 90 d0 30 be
       -0.07901515 -0.07458409 0.19441195 -0.1726706
0000f0 63 01 02 be 8d 2b 80 3e 27 0b 90 bc 9f b7 36 bd
       -0.12695841 0.25033227 -0.017583443 -0.04460871
000100 ab 10 64 be b0 9d 1f bc 63 3a 15 be 01 2a 84 3d
       -0.22271983 -0.0097421855 -0.14573054 0.06453324
000110 cf aa 64 3e 81 3a a9 bd 6a 4c 78 be 0d cc 20 3e
       0.22330783 -0.08263112 -0.242479 0.15702839
000120 0d f5 38 bc f1 fd c3 3d 56 f5 18 bd b7 ce d1 3d
       -0.011288893 0.0956992 -0.037343346 0.10244506
000130 9c c2 26 3d 7e da 2a bd 79 62 fe 3c 31 d8 03 3d
       0.040712938 -0.041712277 0.031052815 0.032188598
000140 32 9a 12 3e 6c 7f 1b 3e 2d fe 02 be f2 e5 9f 3d
       0.14316633 0.15185326 -0.12792273 0.078075305
000150 54 2d b2 be e7 70 df bd 76 38 ac bd b1 f7 63 3e
       -0.34800208 -0.10910206 -0.084092066 0.22262456
000160 76 00 26 3d eb 50 84 bd ad 82 bf bd a5 9c b1 3e
       0.040527783 -0.064607464 -0.09351096 0.34689823
000170 63 17 3d be bb f0 b5 bc e6 11 00 bd 8b 9f 9a bc
       -0.18465953 -0.022209516 -0.03126707 -0.018874904
000180 92 66 81 3e 67 ec 4c 3e 5a c0 b8 bd 6e 7e 14 bd
       0.25273567 0.20012055 -0.09021063 -0.036253385
000190 de c1 8f 3e d4 e2 ba bd e9 a6 13 be 09 59 a7 3e
       0.28077596 -0.09125295 -0.1441914 0.32685116
0001a0 6c 7e f6 3d 34 88 55 bd a9 1d 49 3e 58 07 8d 3b
       0.12035832 -0.052131847 0.1964022 0.004303854
0001b0 65 1c bb 3c d8 08 a6 bd 53 52 43 3e 95 b2 ce 3d
       0.022840688 -0.081071556 0.19074373 0.100926556
0001c0 71 34 88 3d 67 83 1a 3d 1b f6 30 3e 97 50 a4 be
       0.066506274 0.03772297 0.17281382 -0.32092735
0001d0 58 76 80 3d 17 e8 07 be e5 76 86 3e c1 b4 de 3e
       0.06272572 -0.13272129 0.26262584 0.4349728
0001e0 82 cc 8c 3e 01 b3 88 bc 8e b7 dd bd 50 2d eb 3c
       0.27499777 -0.016686918 -0.10826026 0.02870813
0001f0 d9 54 f9 3c b2 cf 98 bd c5 03 ca bd d1 9d 57 bd
       0.030435966 -0.0746149 -0.09864 -0.05264074
000200 67 d8 70 3e 77 4f 8d 3d 2e 39 b7 bc 87 e4 76 be
       0.23520051 0.06899922 -0.022366133 -0.24110614
000210 6b 1e 0b be 34 34 28 bd 7a c9 65 bd 54 c3 63 be
       -0.13585822 -0.04106541 -0.056100346 -0.2224248
000220 ed 31 54 be 83 33 14 be e9 db 88 3d 22 46 a9 bd
       -0.2072217 -0.14472775 0.066825695 -0.0826533
000230 b7 1d d0 bd ae d1 0d 3c ec d0 6f bd 2a f6 fa bd
       -0.10161918 0.008655949 -0.058548853 -0.12253983
000240 ac 29 82 be 6f 2f aa bd 62 c9 6b 3d c7 84 25 be
       -0.25422418 -0.083098285 0.0575651 -0.16163932
000250 54 17 14 3e bc a2 55 3e 63 c1 8d bd 82 7b 1b 3d
       0.14462024 0.2086286 -0.06921651 0.037959583
000260 8c 9b 82 3d f1 21 a9 3c e9 7c 87 3e 1d 85 ad 3c
       0.063773245 0.020646067 0.26462486 0.021181637
000270 82 81 c3 3d 28 9a ae 3d ec 72 3d be 8e f1 41 be
       0.09546186 0.08525497 -0.1850087 -0.18939802
000280 c7 e8 41 3e 81 a1 30 bd 41 00 e7 bd e4 80 1e bd
       0.18936454 -0.043122772 -0.11279345 -0.03869714
000290 fe c9 99 3e 22 ac 7b 3b 69 bd 0b be ca fc 17 3d
       0.3003692 0.003840216 -0.13646473 0.037106313
0002a0 f2 ad 1f be 7f 71 d7 bb 40 36 1b 3e d3 91 a0 bd
       -0.15593699 -0.006574809 0.15157413 -0.07840314
0002b0 8a d7 aa bb 8e e7 06 3d a9 de cf bd ae 1b 8d be
       -0.0052136825 0.03293567 -0.10149891 -0.2756018
0002c0 c7 b1 67 3e 10 c2 de 3d 97 5c 99 bd 11 94 92 be
       0.2262641 0.10876858 -0.07488363 -0.2862859
0002d0 84 af 74 be 5b 0a 4b 3b 7f de 2b be 56 15 85 be
       -0.23895079 0.0030981514 -0.16784094 -0.2599284
0002e0 0e 7e a2 bd 58 47 17 bd 1c 6d f8 bd 98 bc c4 3b
       -0.07934199 -0.036933273 -0.12130186 0.0060039274
0002f0 dc a1 b6 bd a2 b3 00 3b d4 c8 c0 bd 52 27 47 be
       -0.08917591 0.001963832 -0.09413305 -0.19448593
000300 39 56 d0 3d d1 63 6f bd cf 01 87 3e b8 16 73 be
       0.10172696 -0.0584448 0.26368567 -0.23739135
000310 ee 4f 8a bd 00 a5 8b be 59 45 83 3d 10 e4 86 3e
       -0.06753527 -0.27274323 0.064097114 0.26345873
000320 10 1c 84 3e ba ff 0c bd 8c 90 b3 be a3 f6 77 3d
       0.2580266 -0.034423567 -0.35071218 0.060537945
000330 74 14 b3 bc 7b 48 dc bd dd 0a 57 3d 4a b8 43 3d
       -0.021860339 -0.10756012 0.052500594 0.047783174
000340 ee 0f 9f bc 56 32 32 be ea 62 59 3e 57 b1 0c be
       -0.019416776 -0.17402014 0.21229139 -0.13739525
000350 2d 86 a5 3d 7d f3 9a 3d 6e f9 83 be 8a 9e 53 bd
       0.080822326 0.07565973 -0.25776237 -0.051664867
000360 83 11 4c 3c f0 f3 62 3e 9c 93 9c 3e 99 f7 b5 3b
       0.012455347 0.22163367 0.30581367 0.0055531976
000370 70 e4 9b 3d b9 98 02 3e 07 1b 72 be ed 7c cc bc
       0.0761193 0.12753572 -0.23643123 -0.024961913
000380 f8 d6 4d 3c 2e 59 81 3d 04 1f af ba 73 59 e9 3d
       0.01256346 0.06315838 -0.0013360684 0.11394014
000390 6d ea 3b bd 12 90 c6 3d 4d 2a 31 bd 4f ff 8e bd
       -0.045877863 0.09695448 -0.04325323 -0.0698229
0003a0 1f a9 2b 3e 81 21 f6 3a 79 bd 3c be 54 f7 cc 3d
       0.16763733 0.0018778295 -0.18431653 0.100081116
0003b0 99 72 26 be 33 59 95 3e 6f bb 1e 3e e3 5a 09 bc
       -0.16254653 0.29169616 0.15501188 -0.0083834855
0003c0 6f 02 60 3e 92 41 ae bc 1d d7 41 3e 9a 00 fe 3d
       0.21875928 -0.0212715 0.18929715 0.124024585
0003d0 68 11 54 bd 9f b2 32 bb d7 fd 19 bd e1 61 57 3e
       -0.051774412 -0.002726711 -0.037595596 0.21033432
0003e0 a5 b4 2c bd 01 f5 91 be 71 9e e1 bd a2 91 86 bd
       -0.042164464 -0.28507236 -0.110165484 -0.06570746
0003f0 46 e2 17 be 0e d1 d6 bc 35 4b ef bd 7d ac 66 be
       -0.1483241 -0.026222732 -0.116842665 -0.22526737

bias f4 [10]
000000 23 c8 57 be 0c 2d 24 3e ed a2 50 3c 39 2a 57 bd
       -0.2107244 0.16032809 0.012734157 -0.0525305
000010 48 0f 44 bd 6b 60 48 3e ed d5 52 3d 51 96 01 3e
       -0.047866136 0.1956803 0.051473547 0.12654997
000020 19 10 88 be d7 46 37 bd
       -0.26574782 -0.044745293
